RTS_fut_lihovidov_model/best_model_second.pth (torch, 25202 bytes, 6 tensors)

embedding.weight f4 [19, 8]
-0.8769553 0.88012654 -0.90550745 -2.2560863 1.1269474 1.7222972 1.5878847 -1.801172
0.26214206 0.2766691 0.0035310467 1.406468 -0.07486619 -0.78231937 -1.499263 0.40540257
0.83606696 0.039825622 0.9214432 -0.061513975 -0.041973956 0.31333992 0.90814465 -0.6777051
0.22643308 1.3578116 -0.658155 -0.32099232 -1.2628543 -2.8135211 -1.4186527 -0.49191248
0.74314594 -2.0055785 1.4701105 -0.30806062 -0.10540279 1.0378053 0.47886232 0.033968184
-0.27049252 -1.104738 -0.43299082 -0.107505664 0.81817013 0.079307534 -0.23165394 -0.4250938
1.1584291 -1.536427 -1.160108 0.54802 0.4736895 -0.765048 1.0637976 -1.4275384
1.3251851 1.1492897 1.0479741 -0.14829773 1.7965344 0.49353158 -1.1839045 -2.3562765
0.118493155 2.4643066 1.6483631 0.1910058 0.15200396 -0.40870523 -1.8178529 1.49651
-1.2608683 1.1008459 -0.8094429 1.2183589 0.23537719 2.5484114 0.035942063 -0.5687656
-0.28857476 -0.79699105 1.4441597 0.22340454 1.2918283 0.4982364 -0.31445298 0.37983504
1.0392407 1.3613468 -1.0554515 -1.1151433 -0.66729844 -0.2382462 0.22389607 1.6820948
-0.6605059 1.5375051 -1.4281917 -1.9504106 -1.2962567 -1.6623123 0.2585223 -0.8064289
-2.50905 1.613391 0.9952194 1.2378315 -0.4881095 0.6612063 -0.4968182 1.5010967
-0.23021694 -1.4729328 1.0590472 0.15756357 0.011945044 -3.2832534 1.0407174 0.5962487
-2.8512676 0.1693663 -0.7880695 -1.4003569 0.61090255 -0.019454662 -1.1529385 1.0220723
-0.4806155 -1.9479916 -3.1257281 0.04643172 0.9254303 1.101106 0.5541771 0.071053505
1.0558993 0.5489738 -1.4063717 0.5943304 3.1391916 0.27487817 0.12847024 1.4449738
0.80268943 0.4298114 -0.6704699 1.2513844 -0.3481705 -0.41710776 -0.8126338 -0.8800648
00000000: 2480 60bf f94f 613f 56cf 67bf b863 10c0
00000010: d03f 903f 3c74 dc3f ce3f cb3f ce8c e6bf
00000020: 7c37 863e 93a7 8d3e 2269 673b 2507 b43f
00000030: 7253 99bd 1546 48bf dae7 bfbf ed90 cf3e
00000040: 7c08 563f 3120 233d b4e3 6b3f 14f6 7bbd
00000050: e2ec 2bbd 176e a03e 2b7c 683f 157e 2dbf
00000060: 13de 673e c5cc ad3f d97c 28bf 1b59 a4be
00000070: 36a5 a1bf bb10 34c0 6996 b5bf f4db fbbe
00000080: d03e 3e3f 665b 00c0 952c bc3f 1fba 9dbe
00000090: 6bdd d7bd ced6 843f 712d f53e 3922 0b3d
000000a0: ff7d 8abe 0e68 8dbf f9b0 ddbe ee2b dcbd
000000b0: 9973 513f fd6b a23d b136 6dbe e5a5 d9be
000000c0: 6847 943f a4a9 c4bf 6b7e 94bf 0a4b 0c3f
000000d0: 6e87 f23e 30da 43bf 852a 883f 94b9 b6bf
000000e0: aa9f a93f ed1b 933f 0424 863f 5cdb 17be
000000f0: d7f4 e53f 2cb0 fc3e 2f8a 97bf 3ccd 16c0
00000100: 8aac f23d 33b7 1d40 90fd d23f 0697 433e
00000110: eda6 1b3e d041 d1be 67af e8bf a48d bf3f
00000120: 2264 a1bf 85e8 8c3f a637 4fbf 2ff3 9b3f
00000130: b806 713e 2c19 2340 fc37 133d 9f9a 11bf
00000140: 12c0 93be 9b07 4cbf 3ada b83f 29c4 643e
00000150: a15a a53f d718 ff3e fbff a0be bd79 c23e
00000160: d705 853f 9d40 ae3f 0919 87bf 04bd 8ebf
00000170: 12d4 2abf d0f6 73be 0345 653e e24e d73f
00000180: ea16 29bf f8cc c43f fcce b6bf 0ea7 f9bf
00000190: bdeb a5bf a6c6 d4bf 095d 843e 2072 4ebf
000001a0: 4694 20c0 9983 ce3f b3c6 7e3f 4371 9e3f
000001b0: 7de9 f9be d144 293f f55e febe f023 c03f
000001c0: fdbd 6bbe 1089 bcbf dc8e 873f 5858 213e
000001d0: 25b5 433c d320 52c0 3a36 853f c1a3 183f
000001e0: 2b7b 36c0 5c6e 2d3e ecbe 49bf e53e b3bf
000001f0: 1c64 1c3f 625f 9fbc 7d93 93bf 44d3 823f
00000200: 3c13 f6be ca57 f9bf ee0b 48c0 302f 3e3d
00000210: 00e9 6c3f 0bf1 8c3f 8dde 0d3f 8084 913d
00000220: b527 873f 8c89 0c3f fd03 b4bf 0926 183f
00000230: 84e8 4840 d5bc 8c3e b48d 033e e7f4 b83f
00000240: 0e7d 4d3f 3d10 dc3e eaa3 2bbf 5d2d a03f
00000250: 6743 b2be 268f d5be c508 50bf ed4b 61bf

lstm.weight_ih_l0 f4 [128, 8]
0.19909991 0.1355129 -0.10517967 -0.22826676 -0.03483275 -0.0020165625 0.06273789 -0.041323874
-0.13177985 0.005317686 -0.10840569 -0.075412765 0.09715245 -0.12079301 -0.076835915 -0.23628008
-0.09353203 0.1358304 -0.0058336374 -0.019511344 0.11003563 -0.1607352 -0.031804767 -0.15619673
0.2318463 -0.20523435 0.040467385 -0.39767408 -0.08501314 -0.18901747 0.17895795 0.048539862
0.26534593 -0.40865925 0.26934618 0.48232248 0.039926767 0.07248199 -0.054668173 -0.01793172
0.15853898 -0.05281498 -0.26349556 0.033347744 0.08370047 -0.16878828 0.31082356 0.08607129
0.14009662 -0.12391105 0.05750684 0.38795972 0.30915016 -0.05307232 -0.09255664 0.28320333
-0.08233707 0.09084983 0.10788575 0.20600924 -0.13903658 0.18260923 0.0051425355 0.17127545
0.13911363 -0.21796441 0.29653493 -0.018813267 -0.10043301 -0.066365086 0.028144846 0.0051216525
-0.009591115 0.29508558 0.057552878 0.120233744 0.10599135 0.08929247 -0.020465016 0.20268814
0.26285166 0.09702411 -0.017045194 -0.3008522 0.022384278 0.10325554 0.20845059 -0.22737825
0.23072664 -0.03621061 -0.015936958 0.2413921 0.21659517 0.24042432 0.19961628 -0.070470005
0.010520478 -0.041335244 -0.12953705 0.20893729 0.30882874 0.08945072 0.21503265 -0.086514674
0.15496546 -0.06455407 0.0729476 -0.05725965 0.13753502 -0.16415627 -0.106206566 -0.0846443
0.04493284 0.19199535 -0.2686415 0.19625363 0.24446045 0.041874565 0.03425459 0.06865653
0.022066621 -0.06731466 -0.1569755 -0.23004028 0.102966 0.06006196 0.062147275 0.07001969
-0.008694576 -0.14002107 0.14793335 -0.09297656 0.017388515 -0.4114431 -0.05808656 -0.05190823
0.05891221 -0.0151707 -0.033317152 -0.13939139 0.2397024 0.095703065 -0.33171803 0.07929462
-0.019916145 0.12596744 0.013267486 0.07803906 0.26938975 0.46468586 0.007241333 0.26110613
0.20380607 0.29406294 -0.019334892 -0.29816884 -0.040180247 -0.28729606 -0.008608633 -0.38924873
0.1036124 0.07426332 -0.03992148 -0.26930353 0.062579274 0.30418715 -0.14201833 -0.07652876
-0.0067362846 0.14540514 0.021654198 -0.106913544 -0.12417083 -0.29006517 -0.22356717 0.16586882
0.1216029 0.14243461 -0.117891125 -0.08986985 0.098010756 -0.11544848 -0.10642178 0.15929754
0.3045355 -0.08137099 -0.45580524 -0.263947 0.11565844 0.16104358 0.5885334 -0.111425795
-0.076364115 -0.032964163 -0.011970341 -0.09827222 -0.0873913 0.0714307 0.08863396 -0.15321502
0.005725475 -0.31173456 -0.19321729 -0.18421616 0.24112517 0.08863046 0.082032025 -0.06725455
0.23121631 -0.30420277 -0.08015057 -0.3166039 0.1636697 -0.03715145 0.38436306 -0.07900552
-0.25672734 0.0784363 -0.036099643 0.049324162 0.051366374 -0.055411667 -0.2213587 -0.14987122
0.06727028 0.14513895 0.13567176 0.13568711 0.20506532 0.044908572 -0.13787141 0.1276108
0.032565687 0.21416208 -0.120558634 -0.32326385 0.3320114 -0.14986147 -0.06827633 0.12227585
-0.025902221 0.011904551 -0.023632266 0.07234961 0.040822696 0.23289256 0.057210334 -0.022342367
0.08747283 -0.0732923 -0.34014565 -0.4007002 0.3175405 0.12468653 0.21715638 -0.04576338
00000000: d9e0 4b3e e5c3 0a3e 7068 d7bd c3be 69be
00000010: c9ac 0ebd 4e28 04bb b97c 803d 3943 29bd
00000020: 4cf1 06be fc3f ae3b cd03 debd 0272 9abd
00000030: ddf7 c63d 5362 f7bd 265c 9dbd 68f3 71be
00000040: b98d bfbd 2017 0b3e 1928 bfbb 41d6 9fbc
00000050: 5c5a e13d c597 24be b745 02bd 09f2 1fbe
00000060: 1e69 6d3e f428 52be 21c1 253d f09b cbbe
00000070: 5f1b aebd cc8d 41be c140 373e bcd1 463d
00000080: 6cdb 873e c93b d1be bee7 893e f9f2 f63e
00000090: 408a 233d 7071 943d bceb 5fbd 8be5 92bc
000000a0: 0b58 223e 8554 58bd e4e8 86be a597 083d
000000b0: 276b ab3d d6d6 2cbe 4424 9f3e 2546 b03d
000000c0: 7d75 0f3e 14c5 fdbd 4b8c 6b3d a8a2 c63e
000000d0: ee48 9e3e 5c62 59bd 568e bdbd 0700 913e
000000e0: 56a0 a8bd 7a0f ba3d 34f3 dc3d 16f4 523e
000000f0: 9b5f 0ebe eafd 3a3e b782 a83b d562 2f3e
00000100: ce73 0e3e 1032 5fbe 6dd3 973e 481e 9abc
00000110: d2af cdbd 6bea 87bd 0590 e63c 89d3 a73b
00000120: 0d24 1dbc 7515 973e 91bc 6b3d 1c3d f63d
00000130: fe11 d93d f8de b63d 40a6 a7bc 7b8d 4f3e
00000140: 7e94 863e 94b4 c63d 5da2 8bbc 4d09 9abe
00000150: 3c5f b73c a477 d33d 1274 553e d8d5 68be
00000160: 9b43 6c3e 9451 14bd 398e 82bc 7e2f 773e
00000170: 20cb 5d3e cb31 763e 3668 4c3e 9452 90bd
00000180: 155e 2c3c 254f 29bd 5ca5 04be a8f3 553e
00000190: cd1e 9e3e f031 b73d 8531 5c3e 9b2e b1bd
000001a0: 44af 1e3e ed34 84bd 8d65 953d 1889 6abd
000001b0: fbd5 0c3e 9518 28be d482 d9bd fe59 adbd
000001c0: 7f0b 383d 6e9a 443e 618b 89be b6f6 483e
000001d0: d753 7a3e aa84 2b3d 8a4e 0c3d cb9b 8c3d
000001e0: 0fc5 b43c 45dc 89bd 2fbe 20be ae8f 6bbe
000001f0: d7df d23d 8803 763d 248e 7e3d 7c66 8f3d
00000200: b273 0ebc af61 0fbe d77b 173e 7f6a bebd
00000210: 5c72 8e3c aca8 d2be 2cec 6dbd b99d 54bd
00000220: ee4d 713d 878e 78bc 9177 08bd 9ebc 0ebe
00000230: 8c74 753e f8ff c33d f2d6 a9be 3865 a23d
00000240: 2f27 a3bc 9cfd 003e df5f 593c f1d2 9f3d
00000250: 74ed 893e 4eeb ed3e b448 ed3b b4af 853e
00000260: 8ab2 503e 6b8f 963e 3564 9ebc 96a9 98be
00000270: 0b94 24bd 7818 93be 390b 0dbc 9c4b c7be
00000280: bd32 d43d 5e17 983d b584 23bd 27e2 89be
00000290: 9029 803d 6bbe 9b3e 416d 11be 1cbb 9cbd
000002a0: 0dbc dcbb 16e5 143e 2564 b13c 7df5 dabd
000002b0: 474d febd 6c83 94be cbee 64be 84d9 293e
000002c0: f10a f93d 61da 113e e770 f1bd af0d b8bd
000002d0: ddb9 c83d 4170 ecbd aaf3 d9bd e51e 233e
000002e0: 14ec 9b3e d5a5 a6bd 4e5f e9be 1024 87be
000002f0: 55de ec3d 9ce8 243e 20aa 163f 3533 e4bd
00000300: ca64 9cbd 6e05 07bd 401f 44bc f242 c9bd
00000310: 36fa b2bd 424a 923d b985 b53d 66e4 1cbe
00000320: c49c bb3b ac9b 9fbe c1da 45be 29a3 3cbe
00000330: 84e9 763e e383 b53d 6800 a83d c1bc 89bd
00000340: f8c3 6c3e 77c0 9bbe fb25 a4bd e819 a2be
00000350: 0899 273e 1e2c 18bd 3ccb c43e a5cd a1bd
00000360: c471 83be 36a3 a03d 38dd 13bd 2208 4a3d
00000370: 8c65 523d 58f7 62bd dbab 62be d777 19be
00000380: 00c5 893d 4e9f 143e 8aed 0a3e 90f1 0a3e
00000390: a5fc 513e 0df2 373d 2a2e 0dbe 68ac 023e
000003a0: 9963 053d 4e4d 5b3e 72e7 f6bd d782 a5be
000003b0: 66fd a93e 4975 19be 76d4 8bbd c36b fa3d
000003c0: e530 d4bc 4e0b 433c 7498 c1bc 082c 943d
000003d0: b335 273d 637b 6e3e 6255 6a3d 5707 b7bc
000003e0: f524 b33d 461a 96bd 9227 aebe 9428 cdbe
000003f0: ab94 a23e a75b ff3d 3e5e 5e3e 6272 3bbd

lstm.weight_hh_l0 f4 [128, 32]
-0.16566293 -0.048477087 0.29784992 -0.20824116 0.035516463 0.009175283 -0.22278567 -0.23372969
-0.22821198 0.090501964 -0.13008055 0.051529203 0.057329774 0.1383188 -0.1338286 -0.08676223
0.23041116 0.018464219 -0.25525257 0.28327075 0.02850578 -0.07415728 0.28684214 -0.13826007
0.23340976 -0.09082858 0.26923513 0.30120817 -0.18564457 -0.29517007 -0.17529161 -0.31508538
0.01664658 0.18661684 -0.10506807 -0.062030572 0.19081345 0.22592372 -0.09455727 0.017056184
-0.32674223 -0.30764967 0.11117384 0.23366758 -0.12725493 0.14761229 -0.18395849 -0.060163952
-0.0849983 0.36937955 -0.023038257 -0.03344613 -0.0437619 0.30185533 0.10861047 0.2278555
-0.16679826 0.13274057 0.14329548 -0.25358778 -0.008716703 -0.19158427 -0.1831047 -0.030831546
-0.13291511 0.26321024 0.0016228083 0.11705307 0.3157896 0.24740756 -0.2699178 0.07614499
-0.41343665 -0.2307448 0.23201989 -0.13293149 -0.003475614 0.10799703 -0.20830075 -0.0676563
-0.20942537 0.084348805 -0.094946444 0.1386593 0.03886499 0.073001355 0.07128634 -0.33543578
0.29754928 0.22845887 0.21012503 -0.37206373 0.036087874 0.04822057 -0.11879339 -0.28019318
-0.08506039 -0.15633479 -0.09398059 0.059994385 0.041779783 0.092037894 0.015265078 -0.013937351
0.14867692 0.03183208 0.40321714 -0.006385638 0.26557577 -0.19544356 0.15136068 0.43850073
0.46804765 -0.31783217 -0.08602895 0.27821958 0.2606519 -0.46855074 -0.091740035 -0.03628204
0.20294261 0.03076844 0.13323246 0.17292474 0.119138084 -0.08412387 -0.0939216 0.25229412
-0.32934254 -0.0068648774 -0.23615605 -0.08775881 0.2545022 0.1188059 -0.011557946 0.052627057
-0.5113167 0.04057566 0.11682521 -0.04143041 -0.094409235 0.22469226 -0.394454 -0.07214679
-0.12080282 0.12814508 -0.17295381 0.20881064 0.0036504904 -0.18523546 -0.031488225 -0.12833238
0.1623684 0.11017626 0.008625871 0.0815701 -0.13468084 -0.19168028 -0.026671365 -0.09664458
-0.011429815 0.2514493 0.015412362 -0.35068122 0.014606572 0.09706889 0.24719909 0.123293996
-0.07070969 -0.20650846 0.3392264 0.026445411 -0.089479275 0.23428673 -0.12839302 -0.49614608
-0.44309983 -0.32304263 -0.32919115 0.05568575 0.32023007 -0.02372231 -0.08222896 -0.14503369
0.36176988 0.30126652 -0.034822304 -0.11567593 0.1640955 0.27013385 -0.04954067 0.076501355
-0.14601478 0.1582267 -0.038902868 -0.12922104 0.12796447 0.1596473 -0.22169635 -0.06824626
-0.27149767 -0.13648245 0.50913095 -0.13122422 0.39001915 0.19574791 0.18433896 -0.03215667
-0.16824149 -0.36573645 0.20849864 0.57206637 0.19686922 -0.07046537 0.01642918 -0.04066492
0.39834955 0.24992521 -0.051218487 -0.42916456 0.27265465 -0.07282879 -0.05434574 0.13150232
0.121640466 -0.05571776 -0.22074255 -0.120795436 0.23300084 0.013403701 -0.3157335 0.11968966
0.00110417 0.28176147 0.09451037 -0.27492285 0.47667807 -0.012393912 0.3436313 0.60348475
0.5710987 -0.31549984 0.04523964 0.31809995 0.11645261 -0.5676431 -0.080809474 -0.039455384
-0.03779946 0.25209108 0.22906852 -0.15550967 0.37081444 -0.3139286 -0.22848998 -0.15664877
00000000: 8ba3 29be e98f 46bd c97f 983e 2c3d 55be
00000010: b679 113d ed53 163c ed21 64be d656 6fbe
00000020: 67b0 69be 1859 b93d d633 05be 4910 533d
00000030: a0d2 6a3d 72a3 0d3e 5d0a 09be 65b0 b1bd
00000040: e7f0 6b3e 4642 973c 77b0 82be dd08 913e
00000050: f484 e93c c6df 97bd f9dc 923e 0c94 0dbe
00000060: f802 6f3e 5604 babd 30d9 893e f537 9a3e
00000070: 9c19 3ebe 8820 97be a57f 33be df52 a1be
00000080: 695e 883c 7c18 3f3e ee2d d7bd c513 7ebd
00000090: 9a64 433e 8c58 673e 3ea7 c1bd 69b9 8b3c
000000a0: c24a a7be 4284 9dbe 1caf e33d 8e46 6f3e
000000b0: 1e4f 02be ad27 173e 9d5f 3cbe 7a6e 76bd
000000c0: 9713 aebd 511f bd3e baba bcbc cffe 08bd
000000d0: ae3f 33bd c88c 9a3e 2b6f de3d f452 693e
000000e0: 2acd 2abe 25ed 073e 0dbc 123e 42d6 81be
000000f0: 81d0 0ebc ab2e 44be cc7f 3bbe 7092 fcbc
00000100: e61a 08be 7ec3 863e 69b4 d43a 85b9 ef3d
00000110: 2daf a13e 6858 7d3e aa32 8abe e8f1 9b3d
00000120: f8ad d3be 5d48 6cbe 9f96 6d3e 311f 08be
00000130: 20c7 63bb 8c2d dd3d cb4c 55be 638f 8abd
00000140: 9b73 56be 11bf ac3d 4873 c2bd b4fc 0d3e
00000150: e530 1f3d bc81 953d 93fe 913d 3dbe abbe
00000160: 6158 983e 1ff1 693e 042b 573e 237f bebe
00000170: e1d0 133d ef82 453d f349 f3bd 7b75 8fbe
00000180: 2434 aebd 3a16 20be e578 c0bd acbc 753d
00000190: 4721 2b3d 5d7e bc3d 611a 7a3c 7d59 64bc
000001a0: c33e 183e 5b62 023d 7a72 ce3e 9d3e d1bb
000001b0: 8cf9 873e 5b22 48be 4bfe 1a3e 2b83 e03e
000001c0: f1a3 ef3e e6ba a2be f22f b0bd cc72 8e3e
000001d0: 2a74 853e e2e5 efbe 33e2 bbbd 7a9c 14bd
000001e0: 30d0 4f3e 180e fc3c 176e 083e 2f13 313e
000001f0: abfe f33d 2349 acbd f859 c0bd b22c 813e
00000200: 969f a8be c4f2 e0bb e4d2 71be e4ba b3bd
00000210: 1d4e 823e 8250 f33d 8a5d 3dbc 788f 573d
00000220: a7e5 02bf aa32 263d 0e42 ef3d efb2 29bd
00000230: a159 c1bd ba15 663e e0f5 c9be b2c1 93bd
00000240: 7867 f7bd 7738 033e ce1a 31be 75d2 553e
00000250: 113d 6f3b 5dae 3dbe ccf9 00bd 9069 03be
00000260: e743 263e 17a4 e13d 8653 0d3c 390e a73d
00000270: c6e9 09be d647 44be e87d dabc 98ed c5bd
00000280: 1e44 3bbc f6bd 803e 2284 7c3c 7d8c b3be
00000290: 6750 6f3c 0ecc c63d c221 7d3e 9081 fc3d
000002a0: 3ed0 90bd f476 53be 15af ad3e 0ca4 d83c
000002b0: e940 b7bd dce8 6f3e 7679 03be dc06 febe
000002c0: fbdd e2be d865 a5be be8b a8be be16 643d
000002d0: 32f5 a33e 4a55 c2bc a867 a8bd b683 14be
000002e0: e739 b93e 9b3f 9a3e d5a1 0ebd 81e7 ecbd
000002f0: a708 283e fc4e 8a3e 28eb 4abd beac 9c3d
00000300: e684 15be 2e06 223e 9d58 1fbd 8552 04be
00000310: 1e09 033e 957a 233e 5e04 63be b2c4 8bbd
00000320: be01 8bbe 0ec2 0bbe 6856 023f a45f 06be
00000330: 97b0 c73e 2472 483e 5ac3 3c3e b6b6 03bd
00000340: 7f47 2cbe cf41 bbbe ab80 553e f172 123f
00000350: 1698 493e 2650 90bd 7d96 863c 4290 26bd
00000360: 79f4 cb3e 65ec 7f3e 7aca 51bd 75bb dbbe
00000370: 6499 8b3e 4327 95bd a399 5ebd 8ba8 063e
00000380: a31e f93d 4e38 64bd 560a 62be 9963 f7bd
00000390: c697 6e3e 329b 5b3c d2a7 a1be da1f f53d
000003a0: ccb9 903a 0a43 903e a78e c13d b0c2 8cbe
000003b0: 260f f43e d60f 4bbc 71f0 af3e fa7d 1a3f
000003c0: 8633 123f 3289 a1be 334d 393d ffdd a23e
000003d0: b57e ee3d 0f51 11bf 707f a5bd f89b 21bd
000003e0: 9bd3 1abd 1512 813e f090 6a3e ed3d 1fbe
000003f0: 64db bd3e 40bb a0be 47f9 69be 8968 20be

lstm.bias_ih_l0 f4 [128]
0.047208253 0.15491682 0.29606315 0.19148736 0.048543133 0.09060226 0.33393738 0.18030235
0.13131604 0.37458533 0.111736126 0.11788269 0.21947604 0.15377933 0.42366374 0.23958871
0.22262506 0.3748725 0.2330321 0.12394849 0.15971485 0.14267898 0.0481489 0.10111416
0.015518289 0.19225124 0.29463682 0.115918495 0.39876077 0.33533293 0.17642623 0.4157429
0.20665689 -0.06872749 -0.12661044 0.10547418 -0.04047926 0.103487924 0.058937777 0.027527465
0.31851262 0.2242542 0.11618456 0.1197537 -0.15474595 0.0658616 -0.01539823 0.21341188
0.10928237 0.14015032 0.058868553 -0.03538081 0.05319897 0.15413286 0.043978643 0.2653432
-0.048488937 0.04033133 0.21638095 0.25275043 0.13726436 0.05992717 0.27795443 0.0431728
-0.14449248 0.17076969 -0.12851836 -0.17308612 -0.040127743 0.12678199 -0.115332 0.11929105
0.01523279 0.013182871 0.18014266 0.020825135 -0.17810619 0.14382821 -0.021330427 0.026603276
0.12829404 -0.09355222 -0.15150972 0.06764999 0.11770977 -0.04011119 -0.1038807 -0.12377856
0.1614615 0.11337138 0.08506925 -0.1298947 0.08894662 0.01245303 -0.24866347 -0.037846282
0.17926958 0.026219668 0.13619538 0.04291249 0.15888657 0.05534647 0.37058818 0.27656502
0.044881243 0.045943625 0.31290558 0.19730964 0.10066508 0.12595129 0.21112682 0.43404427
0.056478973 0.23237939 0.18934378 0.29291922 0.13942072 0.084223144 0.30964088 0.21773157
0.12675287 0.2363345 0.22162938 0.14766084 0.31451714 0.44496647 0.20297347 0.22566622
00000000: 715d 413d 84a2 1e3e 9795 973e 4315 443e
00000010: 2ad5 463d ad8d b93d d7f9 aa3e 2ea1 383e
00000020: b677 063e a6c9 bf3e e9d5 e43d 7b6c f13d
00000030: 54be 603e 5478 1d3e 74ea d83e be56 753e
00000040: d3f7 633e 4aef bf3e f89f 6e3e b5d8 fd3d
00000050: 4a8c 233e 701a 123e c837 453d f114 cf3d
00000060: 6c40 7e3c 82dd 443e a3da 963e ad66 ed3d
00000070: 5f2a cc3e c2b0 ab3e 14a9 343e 41dc d43e
00000080: dd9d 533e 00c1 8cbd 2ba6 01be d902 d83d
00000090: 95cd 25bd 7af1 d33d bd68 713d 4781 e13c
000000a0: 1614 a33e e5a2 653e 2cf2 ed3d 6e41 f53d
000000b0: b975 1ebe 72e2 863d dc48 7cbc a588 5a3e
000000c0: 6fcf df3d 9183 0f3e 2720 713d 78eb 10bd
000000d0: 2ae7 593d 01d5 1d3e f322 343d 10db 873e
000000e0: 569c 46bd 7732 253d f892 5d3e 8168 813e
000000f0: 078f 0c3e 3176 753d 0b50 8e3e f6d5 303d
00000100: d6f5 13be 40de 2e3e 519a 03be 7d3d 31be
00000110: fd5c 24bd 23d3 013e 2f33 ecbd de4e f43d
00000120: f492 793c f8fc 573c 5177 383e 7999 aa3c
00000130: 7861 36be b447 133e 26bd aebc 1def d93c
00000140: 835f 033e 4e98 bfbd 5d25 1bbe 148c 8a3d
00000150: d211 f13d a24b 24bd 68bf d4bd 9d7f fdbd
00000160: 2a56 253e 412f e83d c938 ae3d 1e03 05be
00000170: a529 b63d cb07 4c3c a3a1 7ebe b404 1bbd
00000180: 7292 373e a1ca d63c cd76 0b3e 02c5 2f3d
00000190: 29b3 223e fbb2 623d bcbd bd3e ee99 8d3e
000001a0: 65d5 373d 622f 3c3d 2935 a03e 8a0b 4a3e
000001b0: 7e29 ce3d 60f9 003e a131 583e 0d3b de3e
000001c0: 7f56 673d ddf4 6d3e 56e3 413e 82f9 953e
000001d0: 4ec4 0e3e 2f7d ac3d 4089 9e3e 06f5 5e3e
000001e0: 81cb 013e ac01 723e d0f2 623e 6734 173e
000001f0: 6408 a13e a5d2 e33e 47d8 4f3e 0c15 673e

lstm.bias_hh_l0 f4 [128]
0.15339494 0.034229856 0.25367314 0.11363705 0.2154833 0.09448266 0.2940811 0.028556256
0.1784971 0.42827293 0.27875257 0.41724712 0.017447792 0.34533605 0.17897771 0.4269278
0.051813763 0.17790899 0.2801632 0.37732327 0.22827634 0.13227506 0.32770583 0.10521802
-0.020115197 0.062023472 0.24246655 0.26413462 0.13239652 0.43783346 0.31324592 0.23335804
0.060897797 0.022404797 0.21900782 0.16193287 0.22722898 0.13517852 0.03272285 0.054518685
0.26989698 0.21828575 0.15092514 0.20208283 0.05269677 -0.06887047 -0.017036045 -0.046293303
-0.08505929 -0.061445683 0.1272061 0.22107702 0.09301743 0.05656063 -0.038990613 0.113173954
0.058420535 -0.17349659 0.25423557 0.2313886 0.1256445 0.12117469 0.15255564 0.08970723
0.13740388 0.16712683 -0.010736568 0.17273806 -0.0077417605 0.19944799 -0.17233722 0.23854238
-0.13710344 0.14256859 0.020088596 0.11727627 -0.010187134 -0.026027692 -0.032740794 0.13404979
-0.17827557 0.06974575 0.08049086 0.10572776 -0.059216537 -0.14692578 -0.16835077 -0.15849191
0.09133261 -0.019280152 0.110703446 -0.0411354 -0.06264426 -0.22420368 -0.23558538 0.027444752
-0.035870086 -0.00420277 0.041129194 0.06946007 0.29580826 0.29856497 0.39227802 0.067193046
0.026037958 0.07296239 0.23914832 0.24392018 0.27292946 0.3320015 0.1097458 0.36488926
0.021324325 0.10783504 0.23753208 0.27050596 0.40250534 0.20265003 0.13333727 0.058549624
0.0765789 0.08137796 -0.020321699 0.2379141 0.26329166 0.2797633 0.036968917 0.24900201
00000000: 9013 1d3e 9b34 0c3d 72e1 813e 8bba e83d
00000010: a7a7 5c3e 2080 c13d cc91 963e cfee e93c
00000020: f2c7 363e 9746 db3e a8b8 8e3e 6aa1 d53e
00000030: acee 8e3c e3cf b03e ef45 373e 4896 da3e
00000040: ab3a 543d c62d 363e 8d71 8f3e 8430 c13e
00000050: 46c1 693e 1d73 073e 0fc9 a73e 8c7c d73d
00000060: a0c8 a4bc 530c 7e3d 2749 783e a73c 873e
00000070: f492 073e b52b e03e c561 a03e 69f5 6e3e
00000080: f86f 793d 448a b73c 9643 603e bbd1 253e
00000090: b7ae 683e 3d6c 0a3e 6508 063d fc4e 5f3d
000000a0: f02f 8a3e 4d86 5f3e 1f8c 1a3e cdee 4e3e
000000b0: 91d8 573d f60b 8dbd 2d8f 8bbc 0c9e 3dbd
000000c0: 9133 aebd 78ae 7bbd 5142 023e 0462 623e
000000d0: ec7f be3d 1fac 673d 9fb4 1fbd bfc7 e73d
000000e0: 5f4a 6f3d 17a9 31be 2a2b 823e 22f1 6c3e
000000f0: f4a8 003e 702a f83d 8c37 1c3e 6db8 b73d
00000100: 9ab3 0c3e 4c23 2b3e 6ee8 2fbc 3fe2 303e
00000110: 98ae fdbb 183c 4c3e 2b79 30be 7444 743e
00000120: d864 0cbe 80fd 113e d790 a43c 8b2e f03d
00000130: f0e7 26bc 0738 d5bc 361b 06bd 5944 093e
00000140: df8d 36be dcd6 8e3d 64d8 a43d cc87 d83d
00000150: 0a8d 72bd b673 16be 2564 2cbe b44b 22be
00000160: 970c bb3d 69f1 9dbc 7db8 e23d 987d 28bd
00000170: a24b 80bd a695 65be 4b3d 71be d1d3 e03c
00000180: 83ec 12bd 64b7 89bb 1677 283d 1541 8e3d
00000190: 2e74 973e 82dd 983e aad8 c83e 829c 893d
000001a0: 8e4d d53c 4e6d 953d 4ce3 743e 36c6 793e
000001b0: 69bd 8b3e 1afc a93e 68c2 e03d c4d2 ba3e
000001c0: 5ab0 ae3c 9ed8 dc3d 9c3b 733e c27f 8a3e
000001d0: 2e15 ce3e 7d83 4f3e 9189 083e bbd1 6f3d
000001e0: 66d5 9c3d 7da9 a63d b179 a6bc c19f 733e
000001f0: 2ace 863e 233d 8f3e b86c 173d 62fa 7e3e

fc.weight f4 [1, 32]
-0.071770094 0.2718603 -0.27166116 0.014475247 0.15751849 -0.35883355 0.3274133 -0.3886924
-0.1001085 0.4207972 0.14861041 -0.096214466 0.24037084 0.30552372 0.23163083 -0.32309029
-0.19663358 -0.38721186 0.27405146 -0.41884637 0.30253652 0.11152449 -0.23438917 -0.30803177
0.29360756 0.26890662 0.27420563 -0.13808396 0.16688977 0.43666238 -0.059254188 -0.44812447
00000000: 33fc 92bd 4631 8b3e 2c17 8bbe 9629 6d3c
00000010: 874c 213e 08b9 b7be b7a2 a73e b102 c7be
00000020: af05 cdbd bb72 d73e 542d 183e 170c c5bd
00000030: c623 763e 9b6d 9c3e a230 6d3e 176c a5be
00000040: 505a 49be a240 c6be 7950 8c3e 0873 d6be
00000050: 11e6 9a3e f466 e43d b703 70be 57b6 9dbe
00000060: bb53 963e 21ae 893e ae64 8c3e e265 0dbe
00000070: 27e5 2a3e 3692 df3e 85b4 72bd 9270 e5be
