RTS_fut_lihovidov_model/best_model_first.pth (torch, 25191 bytes, 6 tensors)

embedding.weight f4 [19, 8]
0	0x400997a6	2.149881
1	0xbfe012dc	-1.7505755
2	0x3f9579f3	1.1677841
3	0x4005daa9	2.091471
4	0xbda45492	-0.08023943
5	0x3f8f6d8d	1.1205307
6	0xbda8d150	-0.08243048
7	0xbef8b442	-0.48575026
8	0xbe667bb3	-0.22508125
9	0x3f369851	0.71326166
10	0x3fb6b934	1.427527
11	0xbeba5701	-0.36394504
12	0xbfc8e202	-1.5693972
13	0x3f3c8c79	0.73651844
14	0xbf0f8f19	-0.56077725
15	0x3ee02b78	0.43783164
16	0x3f290641	0.6602517
17	0xbf894353	-1.0723671
18	0x3ecf99fc	0.40547168
19	0xbe0b0765	-0.1357704
20	0x3f9e11ad	1.2349144
21	0xbfee3ffe	-1.8613279
22	0xbfa824f0	-1.3136272
23	0x3fba6eb2	1.4565032
24	0x3fba018d	1.4531723
25	0x3f605acb	0.8763854
26	0xbf8a2b07	-1.0794381
27	0xbfc44130	-1.5332394
28	0x3f862399	1.0479614
29	0x3ddb3599	0.10703582
30	0xbe0b597f	-0.13608359
31	0xbf5f8eb8	-0.87327147
32	0xbf12fefd	-0.5742033
33	0x3fbd4004	1.4785161
34	0x40071463	2.1106193
35	0x3ed21e4f	0.4103875
36	0xbcceec13	-0.025259053
37	0xbeb3d166	-0.35120696
38	0x3ea5d4b0	0.3238883
39	0x40246ebe	2.5692592
40	0x3fc8cecb	1.5688108
41	0xbfaaaaa2	-1.3333323
42	0x3f2feda6	0.68722
43	0x3fd6ef92	1.6791861
44	0x3f412ea7	0.7546181
45	0x3e1e1cea	0.15440717
46	0x3d4f2be5	0.05057897
47	0xbf7cb52d	-0.9871395
48	0xbfa778e1	-1.3083764
49	0x401a56ad	2.4115403
50	0xbf131db3	-0.5746719
51	0x3f558732	0.83409417
52	0xbfebdc3d	-1.8426586
53	0x3f31b23d	0.69412595
54	0xbfc27a28	-1.5193529
55	0xbf85e112	-1.0459311
56	0xbf810a66	-1.0081298
57	0x3e954c12	0.291596
58	0xbf8252fb	-1.0181574
59	0x3fb54a39	1.4163276
60	0x4006a917	2.1040704
61	0x3e33dc50	0.17564511
62	0x3f552767	0.8326325
63	0xbb06848c	-0.0020525781
64	0x401a93d4	2.4152727
65	0xbf9addef	-1.2098979
66	0x3dea3042	0.11434986
67	0xbe8c105c	-0.2735623
68	0x3fa0c0ec	1.2558875
69	0x3fdfc672	1.7482436
70	0x3f972d5a	1.1810715
71	0xbee86c47	-0.4539511
72	0xc003b525	-2.0579312
73	0x3f6b0d57	0.9181723
74	0x3df304d6	0.11866157
75	0x3fc566cd	1.5421997
76	0x3ef39b42	0.4757939
77	0xbea8aa1a	-0.32942277
78	0xbf24b3fb	-0.6433713
79	0x3f91ec6d	1.1400276
80	0xc001357e	-2.01889
81	0x3fad892b	1.3557485
82	0xbeded6e1	-0.43523315
83	0x3fc8eabd	1.5696636
84	0xbea9f0ee	-0.33191627
85	0x3ed4c1c8	0.41554093
86	0x40061234	2.094861
87	0x3db61922	0.088915125
88	0xbfc8c8ae	-1.5686243
89	0x3f8dc617	1.1076077
90	0xbe5fefc3	-0.21868806
91	0x3ffb8cb6	1.9652317
92	0x3f894f69	1.0727359
93	0xbf31106b	-0.69165677
94	0xbf92b7aa	-1.14623
95	0x3f90e687	1.1320351
96	0xbf92fbc1	-1.1483079
97	0x3f0ea4ab	0.55720013
98	0x3e090a9b	0.13382952
99	0x3f2c71e1	0.67361265
100	0xc018b0ce	-2.3857913
101	0x3f76fbc5	0.9647792
102	0xbfbb7da1	-1.4647714
103	0xbf8d9458	-1.1060896
104	0xbfe3093a	-1.7737191
105	0xbf441f82	-0.7661058
106	0xbf936d7f	-1.151779
107	0xbf1aa6d6	-0.6041082
108	0xbfca2fd4	-1.5795846
109	0x3e823495	0.25430742
110	0xbf8dafaf	-1.1069239
111	0x3e6bbb2e	0.23020622
112	0x3f85dc09	1.0457774
113	0x3f8c8d0f	1.0980548
114	0x400dd1fb	2.2159412
115	0x400df195	2.21787
116	0xbf071f68	-0.527823
117	0xbfc1fd56	-1.5155437
118	0x3e420d63	0.18950419
119	0x3f34cc39	0.7062412
120	0xbf4021a7	-0.7505135
121	0x3e61f2fe	0.2206535
122	0xbf823739	-1.0173103
123	0xbec1257c	-0.3772391
124	0x3fd417ad	1.6569725
125	0xbf9a7722	-1.2067606
126	0xbedb6310	-0.42849016
127	0x3ef1de49	0.47239903
128	0x3f49856e	0.7871922
129	0xbfbdae9f	-1.4818915
130	0x40152414	2.330327
131	0x3d04c5b9	0.032415126
132	0x3e60a909	0.21939482
133	0xbf934978	-1.1506796
134	0x3f035253	0.5129749
135	0x3f5fc1ce	0.874051
136	0xbea7812f	-0.32715747
137	0x3fc3dec9	1.5302364
138	0x403ad15b	2.919028
139	0xbea6c9e9	-0.3257592
140	0x3f8a9513	1.0826744
141	0x3fd22e8b	1.6420454
142	0xbf913de9	-1.1347018
143	0x3f1a5c2f	0.6029691
144	0x3f4ba3e6	0.79546964
145	0x3e819c22	0.25314432
146	0x3ee3beea	0.44481593
147	0x3f649106	0.8928379
148	0x3f448b80	0.7677536
149	0x3eac567c	0.33659732
150	0x3ea5f6c0	0.32414818
151	0xbf3816f3	-0.7191002

lstm.weight_ih_l0 f4 [128, 8]
0	0x3dade7f9	0.08491511
1	0xbeaa9532	-0.33316952
2	0x3dc12a40	0.09431887
3	0xbe2ebcb4	-0.17064172
4	0x3d1c87ac	0.038215324
5	0x3d1f1f2e	0.038848095
6	0xbd0d1423	-0.034443032
7	0xbda4f445	-0.08054403
8	0x3d99f3af	0.07517182
9	0x3e176e3a	0.14788142
10	0x3ed75435	0.42056432
11	0x3d862380	0.0654974
12	0x3bcd94d2	0.0062738443
13	0x3e6ce4bf	0.23134135
14	0xbd5520ac	-0.05203311
15	0x3ebb4d58	0.36582446
16	0xbe0563ab	-0.13026302
17	0x3e6f7229	0.23383392
18	0x3e474916	0.19461474
19	0xbd6b0b89	-0.057384048
20	0xbdd4c3c8	-0.10388905
21	0x3bc68ba4	0.006059127
22	0x3deeedf2	0.11666478
23	0xbe982889	-0.29718426
24	0xbea57bb6	-0.32320946
25	0x3e5cc809	0.21560682
26	0x3deaf3c3	0.11472275
27	0x3d049142	0.03236509
28	0x3deef63b	0.116680585
29	0xbe2dc06f	-0.16967939
30	0xbed00691	-0.4063001
31	0x3c3f6262	0.011681171
32	0x3ebdf354	0.37099707
33	0x3f180e3f	0.5939674
34	0x3f3f5b4b	0.74748677
35	0x3de12b52	0.10994591
36	0x3d952713	0.072828434
37	0x3dc8ca0d	0.09804163
38	0xbced9168	-0.029
39	0x3d41f289	0.04735044
40	0x3dcee178	0.101015985
41	0x3e5638d5	0.20920117
42	0xbda43fd3	-0.08019986
43	0x3e7295bd	0.23689933
44	0x3e5d1b0c	0.21592349
45	0x3da3ea2d	0.0800365
46	0xbe5d6c6e	-0.21623394
47	0x3ce6b89f	0.028164206
48	0x3dfac741	0.12245036
49	0xbec0294a	-0.375315
50	0x3d1fcceb	0.039013784
51	0xbe12ea83	-0.14347272
52	0x3f3d7572	0.7400733
53	0x3d1f2fed	0.038864065
54	0x3da5f301	0.0810299
55	0x3de836c6	0.11338572
56	0x3e8cec48	0.27524018
57	0x3e0a68ef	0.13516591
58	0x3e6c91e7	0.23102532
59	0xbdd6b21f	-0.10483193
60	0xbeae58a0	-0.3405199
61	0xbe26ca9d	-0.16288228
62	0xbe15c79f	-0.1462693
63	0xbcd26593	-0.0256832
64	0xbe5da930	-0.21646571
65	0xbd099181	-0.03358603
66	0xbd8b1ccb	-0.06792601
67	0x3d1e06f5	0.038580853
68	0x3a9bae8d	0.0011877582
69	0xbe9cd65e	-0.306323
70	0xbe47da2d	-0.19516821
71	0x3e3eac0a	0.18620315
72	0xbd65fead	-0.05615108
73	0x3d2ac402	0.041690834
74	0x3d45bc71	0.048275415
75	0x3f0c474a	0.5479628
76	0xbd5c8c81	-0.053844932
77	0x3e15f43a	0.14643946
78	0x3e717610	0.23580194
79	0xbdc0277a	-0.093825296
80	0xbe86ad05	-0.26303878
81	0x3e68e3b0	0.22743106
82	0x3f01ca88	0.50699663
83	0x3ee52bbe	0.44759935
84	0xbe3e1222	-0.18561605
85	0x3d93e042	0.07220508
86	0xbede414b	-0.4340919
87	0x3e92b22d	0.28651562
88	0xbe90ba02	-0.28266913
89	0x3ed50bc0	0.41610527
90	0x3edfa36d	0.4367937
91	0x3d8d88c5	0.06910852
92	0xbd569b9f	-0.052394506
93	0x3da5983d	0.08085678
94	0xbdbec060	-0.09314036
95	0x3e9a5f0b	0.30150637
96	0x3f159526	0.5843071
97	0x3d8e7524	0.069559366
98	0x3e152021	0.14563037
99	0xbdff1710	-0.12455571
100	0x3ee2e03d	0.44311705
101	0x3ec13e4c	0.3774284
102	0x3b83f71a	0.0040272595
103	0xbe878353	-0.2646738
104	0xbdb08955	-0.08619944
105	0xbd881e90	-0.06646454
106	0x3d55abdc	0.05216585
107	0xbdf1a0a8	-0.11798221
108	0xbe4870dd	-0.19574304
109	0x3df51f4c	0.1196886
110	0xbdf3b2b2	-0.11899318
111	0x3cf56699	0.029956149
112	0x3c5bc578	0.013413779
113	0x3ed3b242	0.41346937
114	0x3de8d76a	0.11369212
115	0x3f07e634	0.5308564
116	0x3db5adf9	0.08871073
117	0x3ccfbf50	0.02535978
118	0x3db7693f	0.08955621
119	0x3e34752b	0.17622821
120	0xbe41b97a	-0.1891841
121	0xbd2139d9	-0.03936181
122	0x3e033de1	0.12816574
123	0xbe15ef52	-0.14642075
124	0xbdcbe9d2	-0.09956707
125	0x3f4a3494	0.7898648
126	0x3d8d0213	0.06885161
127	0xbe502032	-0.20324782
128	0x3e10f789	0.14156927
129	0x3e2d906c	0.16949624
130	0x3efc8567	0.49320528
131	0xbe7161e0	-0.23572493
132	0x3daa1c88	0.08306223
133	0x3d892852	0.066971436
134	0x3daa79f1	0.0832404
135	0x3f09ce74	0.5383065
136	0xbe9d09e2	-0.30671602
137	0x3e9f282d	0.3108534
138	0x3ed75b06	0.42061633
139	0x3e419f9c	0.18908542
140	0xbf129500	-0.57258606
141	0xbdd9edd0	-0.10641062
142	0xbce15dfc	-0.027510636
143	0x3e2cf85f	0.16891621
144	0x3e4c07b2	0.1992481
145	0xbe934e00	-0.28770447
146	0x3ed44ba9	0.41463974
147	0xbcc4a321	-0.024003567
148	0x3e07a56d	0.13246699
149	0x3eb209a9	0.34772995
150	0xbe5f9285	-0.21833237
151	0x3c658b2f	0.014010235
152	0xbe8cc21a	-0.27491838
153	0xbc53f64e	-0.012937142
154	0xbe3fdef6	-0.18737397
155	0xbc6c903d	-0.014438686
156	0x3e6b5ed5	0.22985394
157	0x3e9ecac0	0.3101406
158	0xbbf253b7	-0.0073952335
159	0xbe15c78c	-0.14626902
160	0xbe1c2ddf	-0.15251873
161	0x3d3a0d51	0.045422856
162	0x3f013823	0.5047628
163	0x3dd5e1f6	0.10443489
164	0xbe8ab13c	-0.27088344
165	0xbec32523	-0.3811427
166	0xbc110bd0	-0.008852914
167	0x3e92b376	0.28652543
168	0xbe18aa10	-0.14908624
169	0x3e64b21d	0.2233357
170	0x3e92cbc2	0.2867108
171	0x3da2b798	0.07945174
172	0xbf228226	-0.6347984
173	0xbe8e74db	-0.2782353
174	0xbe931cc7	-0.28732893
175	0x3de37e34	0.11108056
176	0x3c7ee020	0.015556365
177	0x3e69a89c	0.22818226
178	0xbe0fdf92	-0.14050129
179	0x3e8f5a98	0.27998805
180	0x3e815264	0.25258172
181	0x3ec0989b	0.3761643
182	0x3e87f36c	0.26552904
183	0xbdcbb2f2	-0.099462405
184	0x3d6765f5	0.05649372
185	0xbeb9e77d	-0.36309424
186	0x3e8cd89a	0.27509004
187	0x3ee6baab	0.4506429
188	0xbdb60d51	-0.08889259
189	0x3dddf07f	0.108368866
190	0xbd826f6b	-0.063689075
191	0x3d98a7f0	0.074539065
192	0xbe3b996f	-0.18320249
193	0xbca29ee2	-0.019851152
194	0x382799c2	3.99591e-05
195	0x3ef72aa6	0.48274726
196	0xbe0b3805	-0.13595589
197	0x3e019fc6	0.12658605
198	0xbe990709	-0.2988818
199	0xbe81ce2f	-0.25352618
200	0xbd94e722	-0.072706476
201	0x3e2297a1	0.15878154
202	0x3e2243ed	0.15846224
203	0x3e927324	0.2860347
204	0xbe491a57	-0.19638954
205	0x3e8ce17d	0.27515784
206	0x3d11c3b2	0.03558702
207	0x3d695b3c	0.056971774
208	0x3c8232fd	0.015893454
209	0xbe3fa297	-0.18714367
210	0xbe1db236	-0.15400013
211	0x3ddc4c10	0.10756695
212	0xbd9b250f	-0.07575428
213	0x3df9132c	0.1216186
214	0xbe9702dc	-0.2949437
215	0xbe1112df	-0.14167355
216	0x3ee69049	0.45031956
217	0xbec2544e	-0.37954944
218	0x3edc8f3f	0.43078038
219	0x3e7ca6ea	0.24673048
220	0x3e77eb34	0.24210817
221	0x3e180564	0.14845806
222	0xbe95ce5e	-0.29259008
223	0xbe98b0f6	-0.2982251
224	0xbd9636d5	-0.07334677
225	0x3d352828	0.04422775
226	0x3e8cabb3	0.27474746
227	0x3f0ec4f5	0.5576928
228	0x3e503664	0.20333248
229	0x3e76463a	0.24050227
230	0xbdc8c4db	-0.09803172
231	0x3e3b5cde	0.18297145
232	0xbe4b09d4	-0.19827968
233	0x3e037475	0.12837394
234	0x3d20a63d	0.039221037
235	0x3f01cb57	0.50700897
236	0xbe842e2e	-0.25816482
237	0xbc5f7cbe	-0.013640581
238	0x3de88d93	0.11355128
239	0x3eed7966	0.46381682
240	0xbe5d8f69	-0.21636738
241	0xbebb4684	-0.36577237
242	0xbea27584	-0.31730282
243	0x3ddc9f10	0.10772526
244	0x3e411c3f	0.18858431
245	0xbd5b7e6c	-0.053587362
246	0xbd165ef3	-0.036711644
247	0x3e792b19	0.24332847
248	0xbdc53352	-0.09628929
249	0xbdc5b71c	-0.09654066
250	0x3df2b68a	0.11851223
251	0x3deffb9c	0.117179126
252	0xbf340a67	-0.7032837
253	0x3dfcd048	0.12344414
254	0x3e993be4	0.29928505
255	0xbd9949d3	-0.07484784

lstm.weight_hh_l0 f4 [128, 32]
0	0xba9aa4ee	-0.001179842
1	0xbe8643e6	-0.26223677
2	0x3eba7a34	0.3642136
3	0x3ebf90bc	0.3741511
4	0xbf487a16	-0.7831129
5	0x3efa2c20	0.4886179
6	0x3ca627e5	0.020282695
7	0xbdf87234	-0.121311575
8	0x3ebcc0ca	0.36865836
9	0xbee110b7	-0.43958065
10	0x3ea722cf	0.32643744
11	0xbe6f81d0	-0.23389363
12	0xbeb69b17	-0.356652
13	0x3f07bc2c	0.530215
14	0xbd4f199b	-0.05056153
15	0x3f90b19e	1.1304204
16	0x3e3aebb2	0.18253973
17	0x3e5163b4	0.2044819
18	0xbdaac46f	-0.08338248
19	0x3e60085b	0.21878187
20	0xbf04da20	-0.5189533
21	0x3d41a597	0.04727706
22	0xbed7bb1b	-0.42134938
23	0x3eb5eee6	0.35533828
24	0x3f26d857	0.6517386
25	0xbf45acdf	-0.77216905
26	0xbf3533cb	-0.70782155
27	0xbe8470ec	-0.25867403
28	0x3e623ca7	0.2209345
29	0xbdaaa37a	-0.08331962
30	0x3f2cca3f	0.67496103
31	0x3d9f7f91	0.07788003
32	0xbe1b8155	-0.15186055
33	0x3e9dc29c	0.30812538
34	0x3edb03db	0.4277638
35	0xbea8567f	-0.3287849
36	0xbf146884	-0.5797198
37	0x3a0d9c1d	0.0005401986
38	0x3dbb959c	0.09159395
39	0x3e44a65b	0.19204085
40	0x3ed1b380	0.4095726
41	0xbd4b30fa	-0.049607255
42	0x3eac133b	0.33608422
43	0x3e093ce7	0.13402139
44	0x3c8c74e5	0.017145583
45	0x3eb422ac	0.35182703
46	0xbea7835a	-0.327174
47	0x3ef21a1e	0.4728555
48	0x3f05c315	0.52250797
49	0x3ed06a8d	0.40706292
50	0x3e8ed81b	0.2789925
51	0x3eec6042	0.4616719
52	0xbf5c9e29	-0.86178833
53	0xbe42965b	-0.19002669
54	0xbf046c70	-0.5172796
55	0x3db7e4df	0.089792006
56	0x3e840dc7	0.2579176
57	0xbe942688	-0.28935647
58	0xbf116d53	-0.5680744
59	0x3f46bd8b	0.7763297
60	0xbed81abc	-0.42207897
61	0x3d80a99e	0.06282352
62	0x3f5bff5a	0.8593651
63	0xbe806fdb	-0.2508534
64	0xbe02b9f1	-0.12766244
65	0x3ee2b261	0.44276717
66	0xbef7b56d	-0.48380604
67	0xbe67e7c5	-0.22647007
68	0x3ef5648d	0.47928277
69	0xbdfc0c25	-0.12307004
70	0xbde26e0a	-0.110561445
71	0xbeb2445f	-0.34817788
72	0x3ecef1ba	0.40418798
73	0x3e58e6d9	0.21181811
74	0xbf22e0be	-0.6362418
75	0xbee297a8	-0.4425633
76	0x3e575ebc	0.21032232
77	0xbd097c43	-0.03356577
78	0x3e8e4337	0.27785656
79	0xbdd1ebb1	-0.10250033
80	0x3e6d7adf	0.23191403
81	0x3ca86ce7	0.020559741
82	0xbeab8419	-0.3349922
83	0xbe938acd	-0.28816834
84	0x3e88e039	0.26733568
85	0xbe820177	-0.25391743
86	0x3edbc956	0.42927045
87	0xbf057e51	-0.5214587
88	0xbea1abb6	-0.31576318
89	0xbf36e396	-0.7144102
90	0xbe7d18bd	-0.24716468
91	0xbf4ce149	-0.8003126
92	0xbe886bc2	-0.26644713
93	0x3f01f671	0.50766665
94	0xbeb70c14	-0.35751402
95	0xbf338a6f	-0.7013311
96	0xbed3a1ec	-0.41334474
97	0xbec67742	-0.38762861
98	0xbe0cdbd8	-0.13755739
99	0xbe9b55cb	-0.30338892
100	0xbf1ef293	-0.6208889
101	0x3d7ac209	0.061220203
102	0xbf437ec9	-0.76365334
103	0xbe1a83e5	-0.15089376
104	0x3ea696ec	0.3253702
105	0xbdf308bf	-0.118669026
106	0x3f602baa	0.87566626
107	0xbf2566c5	-0.6460994
108	0x3dca837b	0.09888359
109	0xbf718f43	-0.94359225
110	0xbde043db	-0.109504424
111	0xbf01bd8a	-0.5067984
112	0xbf29cad9	-0.66325146
113	0xbf1af0b0	-0.6052351
114	0x3e85648f	0.26053283
115	0xbe4ddacf	-0.20103
116	0xbd82944f	-0.06375944
117	0xbec51a81	-0.38496783
118	0x3de01aa3	0.109425806
119	0x3d3a6f77	0.045516457
120	0x3e1e0bed	0.15434237
121	0x3e6c8f49	0.23101534
122	0x3e112a35	0.14176257
123	0x3f30cbd3	0.6906101
124	0xbed300cb	-0.41211542
125	0xbe653d44	-0.22386652
126	0x3e1b1c0c	0.15147418
127	0xbcd456cc	-0.025920294
128	0x3ee25a64	0.44209588
129	0x3f28f8f1	0.66004854
130	0x3e62bccd	0.22142334
131	0xbf3b443d	-0.73151
132	0x3ee0959c	0.43864143
133	0xbed49245	-0.41517845
134	0xbeefeb79	-0.4685934
135	0xbedebbf9	-0.43502787
136	0x3fb98b5b	1.4495653
137	0xbdbc6d95	-0.092005886
138	0x3ece80dc	0.40332687
139	0xbf9079d0	-1.1287174
140	0x3f6ccde3	0.9250166
141	0xbea7ca8a	-0.32771713
142	0x3f570b82	0.84001935
143	0x3e227667	0.1586548
144	0xbe473d43	-0.19456963
145	0xbf1c1611	-0.6097117
146	0xbe8751b5	-0.26429525
147	0x3fa3eda0	1.2806892
148	0xbecb9c58	-0.39767718
149	0x3d997068	0.07492143
150	0xbd9e1288	-0.07718378
151	0x3e8b4e46	0.27208155
152	0x3e3c079e	0.1836228
153	0x3efb6c02	0.4910584
154	0xbf949495	-1.1607844
155	0x3f76243c	0.9614904
156	0x3e6e170a	0.23250976
157	0xbe3e4202	-0.18579867
158	0x3f22ad52	0.63545716
159	0xbf3ce5a5	-0.7378791
160	0x3ea0ddb4	0.31419146
161	0xbdd2a7f8	-0.10285944
162	0xbea5a2a2	-0.3235064
163	0xbe5db7e2	-0.21652177
164	0xbef12194	-0.4709593
165	0x3e3d441b	0.18483011
166	0xbe8752e1	-0.2643042
167	0xbe0b8fcf	-0.13629077
168	0xbf38b5f5	-0.72152644
169	0x3d8b1174	0.06790438
170	0x3d8b6ac6	0.06807475
171	0x3dcab648	0.09898049
172	0x3d54fa74	0.051996663
173	0x3d6941ba	0.056947447
174	0x3ea4f9a9	0.32221726
175	0x3d99eda6	0.07516031
176	0x3e5e89fc	0.21732324
177	0xbd58ddfb	-0.052946072
178	0x3f075f41	0.5287972
179	0x3edac013	0.42724666
180	0x3eafd138	0.3433931
181	0x3f2adc22	0.66742146
182	0xbef0db4d	-0.47042313
183	0xbe74cabc	-0.23905462
184	0xbeb51ee7	-0.3537514
185	0x3ebbdda8	0.36692548
186	0x3c635884	0.013876084
187	0x3e39cbe5	0.18144186
188	0x3d974a64	0.07387236
189	0x3f0d2192	0.5512935
190	0xbf0cd1e8	-0.5500779
191	0x3e004b65	0.1252876
192	0xbe87bd52	-0.26511627
193	0x3f13ef1e	0.5778674
194	0xbdb3d9fb	-0.08781811
195	0x3e661206	0.22467813
196	0x3f21d9b3	0.6322281
197	0xbea37c9d	-0.3193101
198	0xbd2e1926	-0.042504452
199	0xbf130c73	-0.5744087
200	0xbe388792	-0.18020466
201	0xbf0d7b2c	-0.5526607
202	0x3d1f5558	0.03889975
203	0xbf08868f	-0.5333032
204	0x3eb1d6d0	0.347342
205	0xbf609d3c	-0.8773992
206	0x3eec6f8e	0.4617886
207	0xbf178497	-0.5918669
208	0xbf599bc7	-0.8500332
209	0xbf7377da	-0.95104754
210	0xbe08953d	-0.1333818
211	0xbc91ea3b	-0.017811885
212	0x3e88a246	0.26686305
213	0xbe6d2e26	-0.23162135
214	0x3dd8c694	0.10584751
215	0xbed5f479	-0.4178808
216	0xbe823ec8	-0.25438523
217	0xb95b8c72	-0.00020937787
218	0xbea30a01	-0.3184357
219	0xbeec6a8c	-0.4617504
220	0x3e388e06	0.18022928
221	0x3e81881a	0.2529915
222	0x3dd32078	0.10308927
223	0xbe3c43f6	-0.183853
224	0x3e8e7037	0.27819988
225	0xbe2674e8	-0.16255534
226	0xbd06fd61	-0.032956485
227	0xbf002984	-0.5006335
228	0xbf06b25b	-0.526159
229	0xbe45f146	-0.1933032
230	0xbe988da3	-0.2979556
231	0x3d1e74ed	0.038685728
232	0xbd077b2b	-0.033076447
233	0xbe5523f5	-0.20814498
234	0x3e43e987	0.19132052
235	0xbe76607f	-0.24060248
236	0x3ec09b30	0.376184
237	0xbe3f62db	-0.18690054
238	0x3f2aa86c	0.6666324
239	0xbf0dbe21	-0.5536824
240	0xbee5114f	-0.44739768
241	0x3ed8af96	0.4232146
242	0xbe031164	-0.12799603
243	0x3e9b6ce7	0.30356523
244	0x3ee10a92	0.43953377
245	0x3dd506be	0.104016766
246	0xbe0351d7	-0.12824188
247	0xbeff4de4	-0.49864113
248	0xbf12e6fe	-0.57383716
249	0x3d1d49f1	0.038400594
250	0xbcab4f46	-0.020911824
251	0x3eddd8b4	0.43329394
252	0x3e861ef2	0.26195484
253	0x3e3f678e	0.18691847
254	0xbddff79a	-0.10935898
255	0x3b849333	0.004045868

lstm.bias_ih_l0 f4 [128]
0	0x3ece47ac	0.40289056
1	0x3e669661	0.22518303
2	0x3d38694d	0.045022298
3	0x3ed6fb21	0.4198847
4	0x3ee12a45	0.43977562
5	0x3eb8a8a6	0.3606617
6	0x3eca7dee	0.39549202
7	0x3e2788fa	0.16360846
8	0x3e969668	0.29411626
9	0x3e99763a	0.29973012
10	0x3eacb8d7	0.33734772
11	0x3e986cee	0.29770607
12	0x3e4835e7	0.19551812
13	0x3f0831a2	0.53200734
14	0x3eaffcf6	0.3437268
15	0x3f2308a7	0.6368508
16	0x3e7bc452	0.24586609
17	0x3e9c4a5b	0.3052548
18	0x3f39528f	0.723916
19	0x3e8562cc	0.2605194
20	0x3d0775e3	0.03307141
21	0x3e64d435	0.22346576
22	0x3dce89a7	0.10084849
23	0x3e784348	0.24244416
24	0x3e603861	0.21896507
25	0x3e9ba2a7	0.3039753
26	0x3e08ce80	0.13360023
27	0x3e9d19be	0.30683702
28	0x3e25fc3e	0.16209504
29	0x3efa723f	0.48915288
30	0x3ce5fd00	0.028074741
31	0x3e6a08db	0.2285494
32	0x3efa4159	0.4887798
33	0x3d9de593	0.077098034
34	0x3e49654e	0.19667551
35	0x3dccb44b	0.09995326
36	0x3cee9061	0.02912158
37	0xbd55643d	-0.052097548
38	0x3e9a5f37	0.30150768
39	0x39bb7c03	0.00035759815
40	0x3dc27db5	0.09496633
41	0x3d9af201	0.0756569
42	0x3e16315a	0.14667264
43	0x3e4b9acd	0.1988327
44	0x3bc75035	0.0060825595
45	0x3eb81f60	0.35961437
46	0x3dfed15c	0.12442276
47	0x3f11bcdd	0.5692881
48	0x3ddef87b	0.10887238
49	0x3dbd2b07	0.092367224
50	0x3dd6c44b	0.10486659
51	0x3e607728	0.21920455
52	0x3e6f00f2	0.23340204
53	0xbd88f636	-0.06687586
54	0x3e69b37d	0.22822376
55	0x3ead975d	0.33904544
56	0x3e2489ed	0.1606824
57	0x3d9bca16	0.07606904
58	0x3d74b6bd	0.059744585
59	0x3e955b35	0.29171148
60	0x3e7c1215	0.24616273
61	0x3e6ac163	0.22925334
62	0x3f0991db	0.5373818
63	0x3ec6b045	0.38806358
64	0xbdb6fff0	-0.08935535
65	0xbcf225a7	-0.02955897
66	0xbd9d6a85	-0.076863326
67	0x3c10baab	0.008833568
68	0xbe19c3a3	-0.15016036
69	0xbdc8b45a	-0.09800024
70	0x3e723162	0.2365165
71	0xbe069fb6	-0.13146862
72	0xbe513894	-0.20431739
73	0xbddca4db	-0.10773631
74	0xbe3ecfcd	-0.18633957
75	0xbdc34a45	-0.0953565
76	0x3ddec616	0.10877626
77	0xbe1f6c10	-0.15568566
78	0x3e285112	0.16437176
79	0xbdebe048	-0.11517388
80	0x3d09c30c	0.033633277
81	0xbe503543	-0.20332818
82	0xbccd55d8	-0.025065348
83	0xbddb1212	-0.10696806
84	0x3d39cc89	0.045361076
85	0xbdbe97ec	-0.093063205
86	0x3e0839e7	0.13303338
87	0xbe10bcad	-0.14134474
88	0xbe0c2d5c	-0.13689178
89	0x3e2cb689	0.16866507
90	0x3d427afe	0.047480576
91	0xbd174e78	-0.036940068
92	0x3da1a3e8	0.07892591
93	0x3e0481e4	0.12940174
94	0x3e0a9780	0.13534355
95	0xbb30b5f1	-0.0026963914
96	0x3e875ce5	0.2643806
97	0x3db17a26	0.08665876
98	0x3ecdf6f4	0.40227473
99	0x3f042a68	0.51627207
100	0x3f60b09e	0.87769496
101	0x3edc6838	0.43048263
102	0x3d605e1c	0.05477725
103	0x3ea64e6d	0.3248171
104	0x3f105a57	0.5638785
105	0x3ed429da	0.4143818
106	0x3ee5e392	0.44900185
107	0x3ea4b7d2	0.32171494
108	0x3e99fb5e	0.3007459
109	0x3f0c6e1f	0.5485553
110	0x3ed0a301	0.40749362
111	0x3ef5084d	0.47857895
112	0x3ed74122	0.4204188
113	0x3e8745f8	0.2642057
114	0x3ecdaafd	0.40169516
115	0x3e9af33c	0.30263698
116	0x3ee3fac6	0.44527262
117	0x3e5da4e2	0.21644929
118	0x3e8fe7b2	0.28106457
119	0x3ec34794	0.38140547
120	0x3dbbec2d	0.09175906
121	0x3e6de528	0.23231947
122	0x3e9f43d3	0.31106433
123	0x3e0a3592	0.13496998
124	0x3eaaee63	0.33385
125	0x3ebad38b	0.3648952
126	0x3e73d38a	0.23811164
127	0x3e9b4126	0.30323142

lstm.bias_hh_l0 f4 [128]
0	0x3e4990b0	0.196841
1	0xbd0c8576	-0.034306966
2	0x3e67a97b	0.22623245
3	0x3ecfd65f	0.4059324
4	0x3f174aa5	0.59098274
5	0x3f16bbb7	0.5888018
6	0x3edb0c5e	0.42782873
7	0x3e7197ac	0.23593014
8	0x3ea250b2	0.3170219
9	0x3e95f994	0.29291975
10	0x3ec22373	0.3791767
11	0x3e90e871	0.2830234
12	0x3e90fb37	0.28316662
13	0x3f01c946	0.50697744
14	0x3e5357a2	0.20638898
15	0x3f3faa9d	0.7486971
16	0x3e13ff4d	0.14452858
17	0x3ea1a133	0.31568298
18	0x3f374bd6	0.7160009
19	0x3e4771be	0.19476983
20	0xbd56ebe3	-0.052471053
21	0x3e2ec241	0.1706629
22	0x3e41e20c	0.18933886
23	0x3dfa3199	0.12216491
24	0x3e06c6e1	0.13161804
25	0x3ef79189	0.48353222
26	0x3d1c64ee	0.03818219
27	0x3e27e134	0.16394502
28	0x3e382dc6	0.17986211
29	0x3effd03b	0.49963555
30	0x3e80df2e	0.25170273
31	0xbb7684c9	-0.0037615767
32	0x3ed2fc47	0.41208097
33	0x3caafd0c	0.020872615
34	0x3eb829a8	0.3596928
35	0x3e53c865	0.20681913
36	0x3d4405e7	0.04785719
37	0xbde5be40	-0.11217928
38	0x3deb3f92	0.114867344
39	0xbbb5195f	-0.005526706
40	0x3e8c1a55	0.2736384
41	0x3d910335	0.0708069
42	0x3ae1c5bc	0.0017225067
43	0x3e9e79ef	0.30952403
44	0x3d6a4d23	0.05720247
45	0x3e9fd506	0.3121721
46	0x3e9eb99e	0.3100099
47	0x3f1cb4c5	0.6121333
48	0x3ea90a61	0.3301573
49	0x3d8814d3	0.06644597
50	0x3d8d9bb7	0.06914466
51	0x3e3701f8	0.17871845
52	0x3b003453	0.0019562438
53	0x3d5b4573	0.05353303
54	0xbcde11f8	-0.027108178
55	0x3e26c174	0.16284734
56	0x3cc2691e	0.023731764
57	0x3dbdf9ed	0.09276185
58	0x3e68beec	0.22729081
59	0x3ef5f383	0.48037347
60	0xbc805f57	-0.015670462
61	0x3eb610e9	0.35559776
62	0x3f13f6e5	0.57798606
63	0x3eadac97	0.33920738
64	0xbdcf6534	-0.10126725
65	0x3dbc04bc	0.091805905
66	0xbd5e7930	-0.054314792
67	0xbd231baf	-0.039821323
68	0xbdf7e009	-0.12103278
69	0xbd9bdab2	-0.07610072
70	0xbd209cb9	-0.039211962
71	0xbdfd861d	-0.12379096
72	0x3e09dbb0	0.1346271
73	0xbcfa3e36	-0.030547243
74	0x3cb58516	0.022158187
75	0xbd79945a	-0.060932495
76	0x3e37b531	0.17940213
77	0x3e187048	0.14886582
78	0x3e2f1bdc	0.17100471
79	0x3d810f4b	0.06301745
80	0xbd176579	-0.036962006
81	0x3c0cace0	0.0085861385
82	0x3e214e1a	0.1575245
83	0x3e0252e5	0.12726934
84	0x3ca9c17d	0.020722145
85	0x3d84ed35	0.06490556
86	0xbd93bc33	-0.072136305
87	0xbd94b5d9	-0.07261247
88	0xbd9bf7ae	-0.076156005
89	0xbbbbbbc7	-0.005729172
90	0xbdc6741e	-0.09690116
91	0x3daa9569	0.08329279
92	0x3c8a2ec6	0.016868006
93	0x3c867933	0.016415214
94	0xbe28a5f0	-0.1646955
95	0xbe10dacc	-0.14145964
96	0x3ecc866b	0.39946303
97	0x3e4dc5ef	0.20095037
98	0x3ef8b330	0.4857421
99	0x3f021e9a	0.50827944
100	0x3f31dd6a	0.69478476
101	0x3e254777	0.16140543
102	0x3e33ef4c	0.17571753
103	0x3ef05f21	0.46947578
104	0x3ea41346	0.32045954
105	0x3f0c515e	0.54811656
106	0x3f174dc5	0.5910304
107	0x3ea88e69	0.3292115
108	0x3e595717	0.21224628
109	0x3e926c40	0.28598213
110	0x3f0032d3	0.5007755
111	0x3ec67447	0.38760588
112	0x3ea4ccca	0.32187492
113	0x3e19ad3c	0.1500749
114	0x3e83a3b9	0.25710848
115	0x3e60748c	0.21919459
116	0x3ead7efa	0.33885938
117	0x3ebd2397	0.36941215
118	0x3e15a376	0.14613137
119	0x3ec4bfe6	0.38427657
120	0x3e90200b	0.28149447
121	0x3f0b20d7	0.54346985
122	0x3e505ae8	0.20347178
123	0x3e2129d4	0.15738612
124	0x3f012336	0.5044435
125	0x3ec4334f	0.38320395
126	0x3d8d4b5d	0.0689914
127	0x3e5b78de	0.21432826

fc.weight f4 [1, 32]
0	0x3fbfabe9	1.4974338
1	0x3fa5bfdc	1.2949176
2	0xbf9d370b	-1.2282423
3	0x3fe172f5	1.7613207
4	0x3fe0a495	1.7550226
5	0xbf22cbf1	-0.6359244
6	0x3f87acae	1.0599573
7	0xbdf08e08	-0.1174584
8	0x3fead7f0	1.8347149
9	0x3ca7c628	0.02048023
10	0xc016b04b	-2.35451
11	0xbfb4de4d	-1.4130341
12	0x3f1b1059	0.6057182
13	0xbeb57d5f	-0.35447213
14	0xbf637efe	-0.8886565
15	0xbf6f9834	-0.9359162
16	0x3f2b3392	0.66875565
17	0x3f917ee9	1.1366855
18	0xbfb3e7e5	-1.4055144
19	0xbf4fd09d	-0.81177694
20	0xbf38cc2c	-0.7218654
21	0xbf759444	-0.9592936
22	0x400edfa7	2.2324007
23	0xbfa29d86	-1.2704322
24	0x3e89119c	0.26771247
25	0xbfa77e24	-1.308537
26	0xbf90d0fa	-1.1313775
27	0xbf8839ba	-1.0642617
28	0xbea63867	-0.32464907
29	0x40042159	2.0645354
30	0xbf90165c	-1.1256824
31	0xbee31fe3	-0.44360265
