RTS_fut_lihovidov_model/best_model_first.pth (torch, 25191 bytes, 6 tensors)

embedding.weight f4 [19, 8]
0.3155603 -1.9002187 -0.0070695127 1.358308 0.496717 -1.7397256 -1.3560079 0.24669737
0.05233309 -0.57856923 -0.25736073 0.67555314 1.1310204 -2.6095903 0.38895005 0.3810209
2.540497 -1.9560239 0.8461168 -0.87712806 0.1571246 -0.42539826 -0.89104694 1.9528364
0.64012915 3.2924051 -0.60700136 -1.6109273 -0.3804647 -0.36898968 0.17432514 -0.4341514
-1.3266999 0.4782025 -1.3408425 0.8960702 0.4731833 -0.18650235 -2.9341366 -1.6223942
-1.2450372 1.1052092 0.18085589 0.4646656 0.955804 1.9760494 0.70146614 2.392817
1.6383162 -2.4961295 1.3384274 0.84571475 -0.3535776 -0.057949558 0.9975193 2.37462
-0.26186803 -0.915029 0.7103541 -0.29427117 -2.121617 -0.8528847 0.22863522 0.87855494
-0.23013479 -0.8433287 -1.3221954 2.6448119 -0.50861883 0.05130447 1.244375 0.44266316
1.4631091 -0.9748407 1.8818245 -0.056564674 0.5880338 1.0820546 -0.8288725 0.3893638
-1.336786 2.6854424 -0.18014912 0.8657894 -0.18824852 1.55077 2.558668 1.632845
0.13499837 -0.123451866 -0.9852919 1.7444068 1.5295268 -0.6017611 -0.2130498 -1.3360885
-0.3407734 -0.19852735 -1.2206231 -1.3005583 0.6085361 0.17354706 -0.8166981 0.9639441
-0.32771546 -1.0222225 1.3662415 -0.5031355 0.10705086 -0.77348876 -0.23972163 -1.5460835
0.37742803 -1.0047749 1.3012669 -1.2885538 -0.24724565 0.06683609 -0.22058906 -0.099007614
-2.6968102 0.4353152 -2.375731 -2.5277977 -0.49676284 -1.3007592 0.44551298 -0.13154276
-0.9221307 -0.0111407135 0.48248786 -1.1692463 1.0583225 -0.51566726 0.14508267 -0.31407234
-0.4655136 -0.38496208 -1.0927976 0.559874 2.4405599 2.860263 0.16817619 -0.8436768
0.2741001 -0.8651208 1.1632745 0.15465292 0.99424595 0.36255705 -0.6275659 1.6581169
00000000: 1f91 a13e 5e3a f3bf 5fa7 e7bb 09dd ad3f
00000010: b151 fe3e 54af debf ab91 adbf 3c9e 7c3e
00000020: 395b 563d 1d1d 14bf c9c4 83be 0df1 2c3f
00000030: 47c5 903f 8703 27c0 7624 c73e 2c15 c33e
00000040: 8197 2240 fe5e fabf 1c9b 583f 778b 60bf
00000050: 45e5 203e cdcd d9be a71b 64bf 8bf6 f93f
00000060: 81df 233f c4b6 5240 7164 1bbf de32 cebf
00000070: 45cc c2be 37ec bcbe 4a82 323e 1849 debe
00000080: 4dd1 a9bf f5d6 f43e baa0 abbf db64 653f
00000090: 1545 f23e 79fa 3ebe e5c8 3bc0 9daa cfbf
000000a0: 615d 9fbf 7f77 8d3f 4932 393e a6e8 ed3e
000000b0: 92af 743f 30ef fc3f 4993 333f ea23 1940
000000c0: 58b4 d13f 96c0 1fc0 9751 ab3f c380 583f
000000d0: 2008 b5be 845c 6dbd 6d5d 7f3f c6f9 1740
000000e0: 9113 86be 573f 6abf c4d9 353f b6aa 96be
000000f0: 93c8 07c0 a756 5abf 5a1f 6a3e fae8 603f
00000100: 74a8 6bbe 64e4 57bf b33d a9bf 9944 2940
00000110: d834 02bf a324 523d ae47 9f3f bfa4 e23e
00000120: 2947 bb3f 298f 79bf a0df f03f 5cb0 67bd
00000130: 6289 163f c480 8a3f fd30 54bf b15a c73e
00000140: ce1b abbf 4ade 2b40 0379 38be 60a4 5d3f
00000150: 38c4 40be a27f c63f 37c1 2340 1101 d13f
00000160: 033d 0a3e 55d4 fcbd 173c 7cbf b948 df3f
00000170: 89c7 c33f 040d 1abf ba29 5abe f304 abbf
00000180: da79 aebe c14a 4bbe 613d 9cbf b278 a6bf
00000190: 06c9 1b3f 52b6 313e 2013 51bf 0ac5 763f
000001a0: 52ca a7be 30d8 82bf 00e1 ae3f 7dcd 00bf
000001b0: 7b3d db3d 5c03 46bf 9679 75be 10e6 c5bf
000001c0: 3f3e c13e 779c 80bf ea8f a63f 55ef a4bf
000001d0: f72d 7dbe 5ce1 883d 19e2 61be 81c4 cabd
000001e0: 8a98 2cc0 a2e1 de3e fa0b 18c0 70c7 21c0
000001f0: b357 febe 477f a6bf 471a e43e 25b3 06be
00000200: c210 6cbf 8a87 36bc a608 f73e dda9 95bf
00000210: 1d77 873f c502 04bf 8d90 143e 17ce a0be
00000220: cc57 eebe c019 c5be cbe0 8bbf e753 0f3f
00000230: 2232 1c40 8d0e 3740 6136 2c3e 34fb 57bf
00000240: d956 8c3e 8f78 5dbf 2ee6 943f 565d 1e3e
00000250: e786 7e3f 14a1 b93e 29a8 20bf 2d3d d43f

lstm.weight_ih_l0 f4 [128, 8]
-0.38162705 0.1162868 0.42421615 -0.064938284 -0.2055385 -0.056551766 0.19578837 0.17926298
0.052938472 0.5011679 -0.27715257 0.06770925 0.2812257 1.1738411 0.06596075 0.21190687
-0.065392114 -0.39872327 -0.0118803065 0.17293458 -0.37106314 -0.5862778 0.16400705 0.1763461
0.35778666 -0.30381683 -0.17549351 0.3783512 0.3638811 0.2718341 0.019926282 -0.29939
-0.03169135 0.023074687 0.07382205 -0.1282005 -0.052191973 -0.27405673 -0.23464122 -0.07235546
-0.082726285 -0.05137235 -0.24981073 0.19958682 -0.102706954 0.12566791 0.089167036 0.114056036
0.024488611 0.21982785 -0.15972286 0.38314262 -0.078916416 0.35745436 0.49659106 -0.0418381
-0.23500285 0.22566487 0.21032168 -0.065031834 0.046832338 0.02595752 0.04013411 0.08347115
0.26916718 -0.21490584 0.3627333 0.072685726 0.26789883 0.28749654 -0.12614098 0.24576148
0.03793914 -0.03402851 0.035008457 -0.025745528 -0.09430419 -0.07495177 -0.05499594 -0.06697412
-0.098054975 -0.20808044 -0.11145701 -0.10242587 0.3391651 -0.055131156 -0.04051797 -0.23613474
-0.5203335 0.22760963 -0.60477793 0.37364632 0.9486318 0.41316277 0.22316049 -0.09198205
-0.2294596 -0.2535378 -0.28501266 0.5640438 0.29206657 0.22805822 -0.0853181 0.45288968
-0.13094512 -0.047561023 -0.46326113 0.14678442 0.1897678 -0.34839538 -0.14135318 -0.26581377
-0.20254491 0.3097648 -0.25828597 0.28527066 0.21789402 -0.009107418 0.27107495 0.19410233
-0.1791474 0.098443046 -0.1099067 -0.10282542 -0.05050961 -0.039219998 -0.0642773 -0.05261715
-0.6249724 -0.19789457 -0.033925645 0.11086261 0.3098335 -0.12331981 0.13792643 -0.71026003
-0.47327277 0.53262097 -0.39807656 -0.08262628 -0.10080971 0.26941445 -0.03881836 -0.24990883
0.02760834 0.0070729717 -0.058276672 -0.15479572 -0.13069488 0.20536776 0.22602293 0.5422003
0.28993538 -0.18984199 0.18023238 -0.4698674 -0.11725822 -0.33273837 -0.4311591 -0.044323336
-0.49120927 -0.16869946 0.19003603 -0.18618499 -0.044578288 0.2246873 -0.092524834 0.11563864
-0.40959886 0.5600561 -0.19142388 -0.026912605 0.027630724 0.47768793 0.17979397 0.14678445
-0.07043436 0.10606359 -0.16256738 0.14881675 -0.103886284 0.41922173 -0.10200017 -0.0170672
-0.046103742 -0.119691245 -0.24734738 0.17165336 0.32752773 0.23743148 0.015654616 0.02748711
0.1278792 0.04924429 0.2985599 0.06067015 0.091933 -0.30681092 -0.41195974 -0.18502073
-0.15385213 0.18217108 0.08415162 -0.45922488 0.094661064 0.013086451 -0.01076657 -0.019119624
0.35231385 0.24376522 0.14410771 0.26272678 -0.09710003 -0.08436776 0.09720419 -0.057212785
-0.36215293 0.25078496 -0.21148823 -0.0855736 0.50667423 0.085273035 0.15749459 -0.35007304
0.07670557 0.12731975 0.14844733 -0.03277681 0.21504661 0.28497452 -0.08272995 0.025796112
0.28530267 -0.014417135 0.060703643 0.0023964124 0.09431906 0.22157046 -0.060746547 -0.29325056
-0.03859516 0.12278705 -0.20723931 -0.30878878 0.10820606 0.104328774 -0.16802216 -0.06751144
-0.029715037 0.037067518 -0.15476954 -0.065604225 0.15165223 0.012957997 -0.21593285 -0.20738284
00000000: 9f64 c3be c627 ee3d dc32 d93e 5dfe 84bd
00000010: af78 52be d3a2 67bd bf7c 483e b790 373e
00000020: 03d6 583d 8a4c 003f f1e6 8dbe 26ab 8a3d
00000030: d1fc 8f3e 6d40 963f 6e16 873d 1dfe 583e
00000040: 4dec 85bd 7525 ccbe 9ea5 42bc c315 313e
00000050: fdfb bdbe 4d16 16bf 77f1 273e 1294 343e
00000060: d02f b73e e18d 9bbe 92b4 33be 40b7 c13e
00000070: a04e ba3e d72d 8b3e 713c a33c a549 99be
00000080: cace 01bd 2007 bd3c 0430 973d fe46 03be
00000090: 40c7 55bd 2a51 8cbe ca45 70be 192f 94bd
000000a0: 666c a9bd d06b 52bd 62ce 7fbe 7d60 4c3e
000000b0: 0658 d2bd 17af 003e 359d b63d 3696 e93d
000000c0: 579c c83c 8d1a 613e 648e 23be 452b c43e
000000d0: ee9e a1bd 4204 b73e 2f41 fe3e 6d5e 2bbd
000000e0: 96a4 70be b114 673e 915e 573e 692f 85bd
000000f0: 44d3 3f3d dda4 d43c aa63 243d ecf2 aa3d
00000100: 48d0 893e 4710 5cbe 2eb8 b93e 41dc 943d
00000110: 092a 893e bf32 933e 1a2b 01be e6a8 7b3e
00000120: 1266 1b3d 7b61 0bbd 0765 0f3d 49e8 d2bc
00000130: 8e22 c1bd 5080 99bd 6c43 61bd ba29 89bd
00000140: 0cd1 c8bd 0a13 55be 9343 e4bd a8c4 d1bd
00000150: 0ca7 ad3e 35d1 61bd 2cf6 25bd 4ecd 71be
00000160: 9434 05bf 8012 693e bad2 1abf 924e bf3e
00000170: 89d9 723f 128a d33e 2f84 643e 1661 bcbd
00000180: 75f7 6abe b5cf 81be 2eed 91be 2d65 103f
00000190: c089 953e 1888 693e 42bb aebd 28e1 e73e
000001a0: 7a16 06be 59cf 42bd 9030 edbe a84e 163e
000001b0: 7d52 423e e160 b2be e3be 10be be18 88be
000001c0: ef67 4fbe 7e99 9e3e 0f3e 84be ff0e 923e
000001d0: 9c1f 5f3e 4837 15bc 56ca 8a3e c3c2 463e
000001e0: 6b72 37be 829c c93d c416 e1bd 2296 d2bd
000001f0: 2ae3 4ebd 26a5 20bd d1a3 83bd 1585 57bd
00000200: 31fe 1fbf e0a4 4abe 9ef5 0abd f00b e33d
00000210: 7fa2 9e3e 198f fcbd 963c 0d3e 9ad3 35bf
00000220: cf50 f2be d959 083f b1d0 cbbe f837 a9bd
00000230: 5275 cebd b1f0 893e 0000 1fbd 1ae8 7fbe
00000240: e32a e23c 63c4 e73b 85b3 6ebd c582 1ebe
00000250: e1d4 05be ed4b 523e 8e72 673e a4cd 0a3f
00000260: 6972 943e f065 42be d68e 383e 7692 f0be
00000270: 1425 f0bd af5c aabe e3c0 dcbe 638c 35bd
00000280: c87f fbbe 8dbf 2cbe ce98 423e 47a7 3ebe
00000290: b997 36bd 6d14 663e a97d bdbd f4d3 ec3d
000002a0: f1b6 d1be d65f 0f3f 9f04 44be d377 dcbc
000002b0: d459 e23c 8393 f43e e91b 383e aa4e 163e
000002c0: e43f 90bd de37 d93d 1078 26be 6b63 183e
000002d0: 55c2 d4bd 3ba4 d63e 77e5 d0bd 83d0 8bbc
000002e0: 47d7 3cbd af20 f5bd a248 7dbe e6c5 2f3e
000002f0: b7b1 a73e 3d21 733e 1c3e 803c a62c e13c
00000300: c4f2 023e 61b4 493d d8dc 983e 4381 783d
00000310: 5e47 bc3d 5216 9dbe 63ec d2be 1376 3dbe
00000320: 6a8b 1dbe 0e8b 3a3e af57 ac3d 861f ebbe
00000330: a9dd c13d 8e68 563c 4566 30bc c2a0 9cbc
00000340: 7b62 b43e 979d 793e f990 133e 2084 863e
00000350: 61dc c6bd 01c9 acbd fe12 c73d f457 6abd
00000360: 1c6c b9be e366 803e 5f90 58be 3641 afbd
00000370: 67b5 013f a1a3 ae3d 4346 213e c63c b3be
00000380: cf17 9d3d 1c60 023e 9402 183e fa40 06bd
00000390: 2e35 5c3e 2ee8 913e 526e a9bd 5e52 d33c
000003a0: 3113 923e d935 6cbc 62a4 783d 210d 1d3b
000003b0: 5a2a c13d 5ee3 623e 5fd1 78bd f024 96be
000003c0: f515 1ebd c777 fb3d 8b36 54be 9019 9ebe
000003d0: 249b dd3d 53aa d53d 000e 2cbe 7043 8abd
000003e0: f36c f3bc 1cd4 173d e87b 1ebe 825b 86bd
000003f0: b94a 1b3e c74d 543c 801d 5dbe 2b5c 54be

lstm.weight_hh_l0 f4 [128, 32]
0.22196794 -0.2604946 -0.13142136 0.62516785 0.21638764 0.17089258 -0.05325431 0.023230623
0.49841207 0.36286113 0.31229612 -0.051545694 0.021223845 -0.1126418 0.29494265 -0.07558253
0.24303305 0.6345696 0.17463301 0.25326827 0.29860345 -0.01977783 -0.6771214 0.109787375
0.3004861 0.40860838 0.17888115 -0.27679795 0.1432821 -0.15209647 -0.26579964 0.3471883
0.627113 0.3542754 -0.43819493 -0.25397292 -0.044021435 -0.14953542 -0.17099819 -0.1466285
-0.41096783 0.04428569 0.045942917 0.28860176 -0.53511935 0.17472926 0.19739899 0.21319422
0.06557635 0.6467599 -0.20858854 0.38653532 -0.12903874 -0.1979051 -0.57218826 -0.61837894
0.43897697 0.18204932 0.39090574 -0.3538197 -0.06709632 0.14031358 0.56010973 -0.3672536
-0.2562525 0.26891476 -0.58550256 0.1368522 0.33158028 -0.08797904 0.21998939 -0.2248372
0.13652334 0.42985877 -0.021124357 -0.22255392 -0.020192064 0.12336521 -0.33141413 0.74396443
0.51697993 0.3063445 0.31624767 0.50507617 0.3907575 -0.24776144 0.27414632 -0.13156618
0.79217917 -0.44296086 0.4099597 0.110880725 -0.03115332 0.33817258 -0.72449297 0.07314003
0.1820308 0.20804845 -0.6988718 -0.07140029 0.050845087 0.82659984 -0.31253254 0.11257289
-0.33697867 0.13894579 -0.7517002 -0.56394815 -0.29148605 0.17907181 -0.40485686 0.11688336
-0.080101706 0.10030621 -0.7170607 0.4760407 0.46388623 -0.58267057 0.031678382 0.26488894
0.12781051 -0.76619697 0.5220626 -0.14882877 -0.36726397 -0.05556384 -0.3069936 -0.3755676
0.39984158 0.38824362 -0.26606643 -0.101038404 0.027157389 -0.17554353 -0.6968761 0.9469707
-0.24694902 0.21823795 -0.3729007 -0.28173482 -0.14265199 0.50526637 -0.24731408 0.06820859
-0.06165162 -0.15810214 -0.47702727 0.5135393 0.40534472 -0.5086241 -0.70759636 -0.07632082
-0.17302853 0.369784 0.39030573 0.03237501 0.22067405 0.10979444 0.16799927 -0.4678639
0.41355664 -0.085449815 0.17973477 0.49572918 0.61060196 0.21928233 -0.13740674 0.4074842
0.22575815 0.21714999 0.15611972 0.8556786 0.24174422 -0.31398544 -0.35016873 -0.27182814
0.025310842 0.6670988 -0.31562972 -0.053362854 0.26583394 -0.7119151 -0.35434496 0.07817295
-0.6167213 1.1756928 0.6810515 0.3638934 -0.32573265 0.08786177 0.5496166 0.10792501
-0.53226095 0.56162655 -0.24508154 0.19748008 -0.33644515 -0.52371866 -0.7306494 -0.5840904
-0.20729125 0.33710063 0.070692115 0.36396316 -0.06727537 0.43651646 -0.059776876 0.3975641
-0.15123707 -0.51395667 -0.40682015 -0.007887519 -0.032598253 0.25548667 -0.631979 0.047150273
0.3585062 0.13141906 -0.3386351 0.26536304 0.17714712 -0.07805073 -0.06253839 -0.36543992
-0.109536976 0.296999 -0.29133013 0.07023647 0.86329657 -0.03517116 -1.1637113 -0.35357916
0.46111232 0.38880602 -0.11991158 0.2512052 -0.52607995 0.11987996 -0.21598001 0.13645265
0.07983866 -0.3090091 -0.24440399 0.95051867 0.24991636 0.20155933 -1.1343228 -0.79858494
-0.047550227 0.4718904 -0.037441097 -0.49881244 0.58785665 0.10604992 0.2427119 0.552563
00000000: 904b 633e 8c5f 85be 5293 06be 000b 203f
00000010: b994 5d3e 77fe 2e3e 3121 5abd 264e be3c
00000020: de2f ff3e efc8 b93e 47e5 9f3e 9421 53bd
00000030: a1dd ad3c beb0 e6bd b902 973e 03cb 9abd
00000040: a8dd 783e 2773 223f ffd2 323e 61ac 813e
00000050: 8de2 983e 1e05 a2bc d457 2dbf 34d8 e03d
00000060: 50d9 993e 1e35 d13e 9f2c 373e 76b8 8dbe
00000070: 8bb8 123e 2dbf 1bbe e416 88be aac2 b13e
00000080: 7a8a 203f 9663 b53e 165b e0be bd08 82be
00000090: d24f 34bd d01f 19be 261a 2fbe c825 16be
000000a0: 606a d2be e964 353d a42e 3c3d 9cc3 933e
000000b0: 95fd 08bf 3aec 323e f622 4a3e 964f 5a3e
000000c0: e54c 863d 0f92 253f 3c98 55be f5e7 c53e
000000d0: bb22 04be a2a7 4abe ee7a 12bf 154e 1ebf
000000e0: 97c1 e03e 236b 3a3e cc24 c83e db27 b5be
000000f0: cc69 89bd 5dae 0f3e 5a63 0f3f aa08 bcbe
00000100: 8733 83be 32af 893e 7fe3 15bf fc22 0c3e
00000110: e4c4 a93e 5b2e b4bd e644 613e b93b 66be
00000120: c6cc 0b3e 7316 dc3e fd0c adbc 2de5 63be
00000130: d469 a5bc e6a6 fc3d 1daf a9be 7474 3e3f
00000140: cc58 043f 30d9 9c3e 37eb a13e ac4c 013f
00000150: 5e11 c83e 2db5 7dbe e85c 8c3e 49b9 06be
00000160: 41cc 4a3f c4cb e2be 3de6 d13e 6f15 e33d
00000170: 3f35 ffbc f524 ad3e 5f78 39bf 71ca 953d
00000180: 4866 3a3e a70a 553e 43e9 32bf 513a 92bd
00000190: f042 503d 0c9c 533f 4404 a0be 9e8c e63d
000001a0: 7888 acbe ce47 0e3e 6d6f 40bf e85e 10bf
000001b0: a93d 95be 9a5e 373e 6649 cfbe 8b60 ef3d
000001c0: 5d0c a4bd 586d cd3d 4a91 37bf 9bbb f33e
000001d0: 7f82 ed3e e629 15bf 31c1 013d 869f 873e
000001e0: c2e0 023e 7c25 44bf e5a5 053f 9266 18be
000001f0: 060a bcbe e996 63bd 442e 9dbe 654a c0be
00000200: 09b8 cc3e dec7 c63e dc39 88be 39ed cebd
00000210: 2c79 de3c afc1 33be 7966 32bf ac6c 723f
00000220: 34e0 7cbe c579 5f3e d7ec bebe 8c3f 90be
00000230: 5d13 12be 2359 013f e73f 7dbe f2b0 8b3d
00000240: 6986 7cbd 87e5 21be eb3c f4be 5077 033f
00000250: 5889 cf3e 3035 02bf 0925 35bf 174e 9cbd
00000260: 642e 31be 5454 bd3e 27d6 c73e a99b 043d
00000270: 61f8 613e e8db e03d 0008 2c3e db8b efbe
00000280: b2bd d33e 5000 afbd 640c 383e 37d0 fd3e
00000290: 6950 1c3f 8c8b 603e 5ab4 0cbe c5a1 d03e
000002a0: 252d 673e 915c 5e3e d9dd 1f3e c10d 5b3f
000002b0: cc8b 773e b3c2 a0be 5149 b3be 0f2d 8bbe
000002c0: af58 cf3c fdc6 2a3f 389a a1be 0293 5abd
000002d0: 631b 883e 1140 36bf b46c b5be 2419 a03d
000002e0: 72e1 1dbf 1a7d 963f 6459 2e3f 3c50 ba3e
000002f0: 6ec6 a6be dff0 b33d acb3 0c3f ca07 dd3d
00000300: 4142 08bf c2c6 0f3f a8f6 7abe 3838 4a3e
00000310: 8a42 acbe 6d12 06bf d70b 3bbf f386 15bf
00000320: 2844 54be 7498 ac3e 07c7 903d 6159 ba3e
00000330: abc7 89bd 167f df3e 99d8 74bd 868d cb3e
00000340: e4dd 1abe aa92 03bf bb4a d0be a73a 01bc
00000350: bf85 05bd 26cf 823e 60c9 21bf a520 413d
00000360: 208e b73e b892 063e 9461 adbe aadd 873e
00000370: 0e66 353e 10d9 9fbd 2114 80bd f11a bbbe
00000380: ec54 e0bd 4110 983e 3929 95be 23d8 8f3d
00000390: 0101 5d3f a20f 10bd 7ef4 94bf 5408 b5be
000003a0: ea16 ec3e 9511 c73e 3494 f5bd f89d 803e
000003b0: 2dad 06bf a083 f53d dd29 5dbe 3eba 0b3e
000003c0: 7482 a33d 7136 9ebe 0a45 7abe 3155 733f
000003d0: 13ea 7f3e 9265 4e3e 7d31 91bf 1070 4cbf
000003e0: 07c4 42bd 9e9b f13e d65b 19bd 5864 ffbe
000003f0: c67d 163f b330 d93d 7889 783e c574 0d3f

lstm.bias_ih_l0 f4 [128]
0.12877172 0.15603565 0.22388694 0.36490893 0.11761196 0.226813 0.12664054 0.61010164
0.48129794 0.2810993 0.42919838 0.36159933 0.12044174 0.45232153 0.25397518 0.8113799
0.1898419 0.42598054 0.270735 0.20434538 0.43831426 0.32175514 -0.056370262 0.31043935
0.73715603 0.007259406 0.3066071 0.587216 0.16215461 0.27031708 0.12664092 0.1697316
0.2752228 0.22916938 0.43245637 -0.032456055 0.37696204 -0.057365734 0.14759119 0.08925153
0.17573388 0.3211025 0.30768743 0.05245082 0.3821076 -0.019319698 0.22885452 0.12924317
0.083098605 0.23715691 0.104029275 0.08051224 0.019050743 0.29829508 0.09543241 0.22753108
0.25847533 0.13491942 0.28074512 0.1364702 -0.030606743 0.29292396 0.22785762 0.17015444
0.11920983 0.120153 0.038899418 0.112684034 -0.14211169 0.036601838 -0.19593559 0.03232168
-0.02668902 0.10000465 -0.21550901 0.14766164 0.04851894 -0.16792433 -0.05602735 -0.0784545
-0.01000602 -0.027248178 -0.028438404 0.08235204 0.17004783 -0.027755398 0.008445544 0.008195562
0.14305091 -0.10329909 -0.072401755 -0.19438794 0.04607824 0.014627247 -0.16562933 0.14113729
0.44211593 0.5807969 0.38277635 0.6408106 0.01601759 0.30370563 0.50317144 0.29587385
0.5226318 0.3565954 0.56156194 0.14267464 0.32669774 0.22945869 0.22922096 0.36889008
0.033593465 0.43436417 0.2805971 0.20935701 0.40697604 0.51663554 0.117946334 0.18667115
0.6911956 0.23807019 0.508252 0.5600766 0.14084598 0.2063122 0.27526668 0.12790254
00000000: bcdc 033e cfc7 1f3e 9e42 653e 58d5 ba3e
00000010: 8ade f03d ab41 683e 0fae 013e 9f2f 1c3f
00000020: af6c f63e 3fec 8f3e e4bf db3e 8c23 b93e
00000030: 29aa f63d b096 e73e 0909 823e 98b6 4f3f
00000040: ea65 423e 1f1a da3e c79d 8a3e ea3f 513e
00000050: ba6a e03e 17bd a43e 81e4 66bd e8f1 9e3e
00000060: 42b6 3c3f 50e0 ed3b 9bfb 9c3e ca53 163f
00000070: dc0b 263e 0067 8a3e 28ae 013e 1fce 2d3e
00000080: 01ea 8c3e 61ab 6a3e ec6a dd3e a4f0 04bd
00000090: 2b01 c13e 55f8 6abd 2522 173e 82c9 b63d
000000a0: 95f3 333e 8c67 a43e 3589 9d3e acd6 563d
000000b0: 9ba3 c33e 5844 9ebc d758 6a3e 5258 043e
000000c0: 9a2f aa3d 43d9 723e 4d0d d53d 9ae3 a43d
000000d0: 4e10 9c3c 22ba 983e 1172 c33d e8fd 683e
000000e0: e156 843e 5128 0a3e d3bd 8f3e d8be 0b3e
000000f0: feba fabc 21fa 953e 8253 693e f73c 2e3e
00000100: 4924 f43d c712 f63d ff54 1f3d e3c6 e63d
00000110: ba85 11be cfeb 153d 57a3 48be bd63 043d
00000120: efa2 dabc 3dcf cc3d 65ae 5cbe 9d34 173e
00000130: ccbb 463d 5bf4 2bbe ef7c 65bd c1ac a0bd
00000140: 4af0 23bc 9237 dfbc a8f7 e8bc 30a8 a83d
00000150: 0521 2e3e 4a5f e3bc 2e5f 0a3c ae46 063c
00000160: f07b 123e 798e d3bd 5f47 94bd a20d 47be
00000170: 89bc 3c3d 1fa7 6f3c bc9a 29be 4b86 103e
00000180: 055d e23e 1baf 143f 43fb c33e 2a0c 243f
00000190: 5237 833c 4e7f 9b3e d8cf 003f c77c 973e
000001a0: 33cb 053f ac93 b63e 86c2 0f3f 4d19 123e
000001b0: ed44 a73e 38f7 6a3e e6b8 6a3e 29df bc3e
000001c0: 4d99 093d fb64 de3e 6caa 8f3e af61 563e
000001d0: 2a5f d03e 3a42 043f d98d f13d b926 3f3e
000001e0: 32f2 303f acc8 733e ce1c 023f 2e61 0f3f
000001f0: ee39 103e 8143 533e c1ef 8c3e e2f8 023e

lstm.bias_hh_l0 f4 [128]
0.1664102 0.26077673 0.05717342 0.30830908 0.05618369 0.3712085 0.21256061 0.62473124
0.5476363 0.4480603 0.58099353 0.5304977 0.414488 0.15337108 0.33877924 0.75854814
0.49603504 0.20589699 0.20344312 0.09241899 0.12928997 0.30222377 0.15803805 0.3947717
0.70205176 0.27990916 0.3171535 0.6890658 0.1137252 0.013427547 0.105390206 0.4558946
0.09731927 0.23627223 0.17137846 0.2582804 0.11503989 0.11792631 0.3970348 0.08073418
0.19837739 0.28588814 0.26686028 0.032029357 0.18722616 0.020143285 0.13838147 -0.06906572
0.2028918 0.32509613 0.14037059 -0.1480759 0.18873774 0.14801371 0.15397501 0.11652085
0.16168338 0.074016355 0.030984282 0.12892325 -0.1838929 0.3229883 0.054469362 0.114360556
0.20507048 0.15603824 -0.026366314 -0.04019616 0.050646782 -0.10219074 -0.19419082 0.14040294
-0.07023142 -0.15950748 -0.08648137 0.04481983 -0.09619409 -0.08179161 -0.14669913 -0.13403851
0.13390306 -0.12938096 0.0076536457 0.07842338 0.019165093 -0.16541256 -0.06514399 0.031433042
-0.03927907 -0.080113 -0.023006406 -0.054016832 -0.081095606 0.022243768 -0.07996626 -0.07824689
0.30128485 0.5346424 0.23128264 0.44548765 0.24533945 0.2695379 0.36622244 0.4524113
0.3837168 0.38390797 0.62972784 0.48068136 0.3996776 0.3622632 0.23821875 0.5707305
0.21780053 0.49451104 0.30133522 0.38096812 0.16033846 0.41950732 0.18044779 0.39034453
0.50010556 0.42169097 0.5626267 0.5536866 0.42427865 0.3362094 0.105579086 0.33039027
00000000: 6f67 2a3e 8784 853e ad2e 6a3d b0da 9d3e
00000010: de20 663d 0a0f be3e 7da9 593e 63ee 1f3f
00000020: e431 0c3f 2968 e53e febb 143f b3ce 073f
00000030: c537 d43e 4f0d 1d3e 7974 ad3e 3630 423f
00000040: 4ef8 fd3e a9d6 523e 6553 503e 2b46 bd3d
00000050: 9764 043e 13bd 9a3e bad4 213e 841f ca3e
00000060: aab9 333f 4150 8f3e f261 a23e 9e66 303f
00000070: c2e8 e83d 37ff 5b3c d2d6 d73d 046b e93e
00000080: 534f c73d 59f1 713e d67d 2f3e 543d 843e
00000090: 099a eb3d 5983 f13d 2548 cb3e f657 a53d
000000a0: 7123 4b3e ee5f 923e e9a1 883e 3731 033d
000000b0: 37b8 3f3e 8803 a53c dfb3 0d3e 5472 8dbd
000000c0: dec2 4f3e 0073 a63e 4fbd 0f3e 35a1 17be
000000d0: 7744 413e e890 173e a0ab 1d3e 7ca2 ee3d
000000e0: 5490 253e e395 973d c0d2 fd3c 7504 043e
000000f0: 6c4e 3cbe b95e a53e 441b 5f3d de35 ea3d
00000100: fffd 513e 7dc8 1f3e 2bfe d7bc bba4 24bd
00000110: 0073 4f3d 6149 d1bd f5d9 46be cac5 0f3e
00000120: 7ed5 8fbd ee55 23be 251d b1bd 0095 373d
00000130: 6801 c5bd 5c82 a7bd 4c38 16be 6441 09be
00000140: e21d 093e 717c 04be 6fcb fa3b 709c a03d
00000150: 1d00 9d3c e961 29be 366a 85bd efbf 003d
00000160: 17e3 20bd 4912 a4bd ee77 bcbc c140 5dbd
00000170: 7415 a6bd 9038 b63c 5ac5 a3bd e83f a0bd
00000180: 0242 9a3e 53de 083f 5bd5 6c3e f516 e43e
00000190: 443a 7b3e df00 8a3e 8281 bb3e 74a2 e73e
000001a0: 8776 c43e 968f c43e d835 213f de1b f63e
000001b0: 8ba2 cc3e 907a b93e 9eef 733e 651b 123f
000001c0: 1a07 5f3e 8d30 fd3e 9c48 9a3e 410e c33e
000001d0: c42f 243e aac9 d63e 4ec7 383e 3ddb c73e
000001e0: eb06 003f e1e7 d73e 4e08 103f 68be 0d3f
000001f0: 0d3b d93e a323 ac3e d939 d83d ea28 a93e

fc.weight f4 [1, 32]
-0.66944575 -1.5900642 -1.243 -1.7704813 0.4019718 1.310095 0.5924057 -1.3291247
-1.2868713 0.7013301 -0.99361587 1.7485782 -0.8247126 -1.6426286 -0.013461929 1.1265342
-1.735916 -0.9594993 0.40028632 0.002437791 -1.0100389 0.7907332 -0.66236985 -1.4776708
-1.372242 0.795465 0.21380068 -1.7087921 0.21609212 0.042878862 0.90723133 -0.36574772
00000000: cc60 2bbf 3987 cbbf a01a 9fbf 229f e2bf
00000010: 3fcf cd3e 31b1 a73f e6a7 173f c220 aabf
00000020: 33b8 a4bf 5f8a 333f 9c5d 7ebf 69d1 df3f
00000030: 5d20 53bf a741 d2bf 6c8f 5cbc 4632 903f
00000040: 7f32 debf bfa1 75bf 54f2 cc3e 59c3 1f3b
00000050: f448 81bf 7e6d 4a3f 1291 29bf 5124 bdbf
00000060: a0a5 afbf 98a3 4b3f 91ee 5a3e b3b9 dabf
00000070: 4147 5d3e bfa1 2f3d 5040 683f 4943 bbbe
