best_model_graph.pth (torch, 25191 bytes, 6 tensors)

embedding.weight f4 [19, 8]
-2.2268388 -0.9794599 -0.36578128 -1.9787194 -0.020355126 -0.9951092 -0.9727311 -1.712226
-0.8956003 0.1742561 -0.7025772 0.015763838 -0.30100396 1.8433186 0.0016941307 0.52875775
-0.8030605 -1.3957614 0.84447193 0.13971955 1.1110094 0.27193725 -0.9152896 0.7926459
1.5620291 0.21646608 -2.6694155 -1.9187075 0.1258079 -0.27160957 -0.30151403 0.00792176
2.011009 0.100998044 0.5114244 -0.6937887 0.6224722 -0.08108841 -0.11187472 -0.7108452
-0.28785264 0.3218184 -0.31530097 0.098392524 3.128054 -1.4228876 1.9812399 -0.70720696
-0.62870806 0.92912716 -0.22285624 -0.57213885 0.9274744 0.2675949 1.0895249 2.8740067
-0.014393467 1.0223769 -0.2940705 -0.7986521 1.8028574 -0.5865575 -3.8560371 -1.001166
-0.1159999 -1.323997 -0.6736375 -1.365581 -0.3381798 0.2626612 1.9444637 -0.13296968
-0.55621123 0.08496841 -1.6821597 -1.0181211 -0.47447053 -0.828771 0.10712119 -0.6005779
-0.92055637 0.18628429 -0.397705 0.66966105 -1.2699531 -0.24774769 0.28239664 -0.4918197
0.22598462 -0.3413572 -1.031727 0.95179456 -1.451427 -0.7084573 0.57066 2.7778373
0.5323828 1.0163549 0.9485268 -0.84174305 1.0461245 -1.1987073 -0.8068738 1.598108
1.5467023 0.74242526 -0.0656073 -0.062986754 -2.5864935 -0.7308407 -1.2154047 -1.2137341
0.856356 -0.39792928 1.621292 0.85932624 0.26827708 0.41466993 1.0421094 -0.18067943
2.7382936 -0.29410028 -0.38733223 1.779808 -2.057127 2.1828392 -0.18979226 0.453007
0.6791505 -2.180714 0.5158764 1.4358646 -0.39360017 -2.1148932 0.8882677 -0.6254432
0.91017866 -0.52631015 -0.16960937 0.37535882 0.09501825 -0.6989375 -1.2838697 -0.6241076
0.8095368 -0.9562281 -0.6203473 -0.8889394 1.0886592 -0.75174344 2.6895273 0.9854517
00000000: 8784 0ec0 e2bd 7abf af47 bbbe ad46 fdbf
00000010: cbbf a6bc 7abf 7ebf e804 79bf 392a dbbf
00000020: 1046 65bf 3170 323e 19dc 33bf 2a23 813c
00000030: 311d 9abe ddf1 eb3f 980d de3a ab5c 073f
00000040: 5f95 4dbf 4fa8 b2bf 502f 583f a412 0f3e
00000050: 8e35 8e3f 5c3b 8b3e 6b50 6abf d7ea 4a3f
00000060: 92f0 c73f 49a9 5d3e b4d7 2ac0 3598 f5bf
00000070: c9d3 003e 6910 8bbe 0c60 9abe 45ca 013c
00000080: 5fb4 0040 10d8 ce3d b6ec 023f 239c 31bf
00000090: 575a 1f3f ae11 a6bd 931e e5bd f3f9 35bf
000000a0: 6c61 93be 62c5 a43e 216f a1be 0582 c93d
000000b0: 0932 4840 2e21 b6bf 4599 fd3f 840b 35bf
000000c0: 03f3 20bf 47db 6d3f 6d34 64be b177 12bf
000000d0: f66e 6d3f 3302 893e 8d75 8b3f baef 3740
000000e0: 94d2 6bbc 3fdd 823f 6990 96be 7774 4cbf
000000f0: 08c4 e63f a228 16bf 50c9 76c0 3526 80bf
00000100: 5b91 edbd bc78 a9bf 8273 2cbf 5ccb aebf
00000110: e725 adbe 877b 863e 30e4 f83f 3429 08be
00000120: dc63 0ebf eb03 ae3d 0251 d7bf cb51 82bf
00000130: cded f2be 562a 54bf 5b62 db3d 79bf 19bf
00000140: 95a9 6bbf 4fc1 3e3e fd9f cbbe e86e 2b3f
00000150: d38d a2bf 92b1 7dbe 4b96 903e cbcf fbbe
00000160: 8368 673e 5fc6 aebe a10f 84bf cfa8 733f
00000170: 5cc8 b9bf 755d 35bf c616 123f 16c8 3140
00000180: 3d4a 083f eb17 823f a7d2 723f 797c 57bf
00000190: 68e7 853f 3e6f 99bf 488f 4ebf ce8e cc3f
000001a0: 57fa c53f 950f 3e3f 1f5d 86bd 33ff 80bd
000001b0: 1c89 25c0 6018 3bbf 6292 9bbf a45b 9bbf
000001c0: 263a 5b3f 63bd cbbe 7f86 cf3f cefc 5b3f
000001d0: 9d5b 893e 9e4f d43e d763 853f 0704 39be
000001e0: 3440 2f40 5094 96be 6950 c6be c0d0 e33f
000001f0: f8a7 03c0 a3b3 0b40 e758 42be 89f0 e73e
00000200: cfdc 2d3f d190 0bc0 7a10 043f 69ca b73f
00000210: f685 c9be 695a 07c0 8365 633f 0c1d 20bf
00000220: 7801 693f 43bc 06bf 14ae 2dbe 082f c03e
00000230: ee98 c23d 91ed 32bf d855 a4bf 84c5 1fbf
00000240: ce3d 4f3f 5dcb 74bf 15cf 1ebf 8891 63bf
00000250: 2f59 8b3f 4272 40bf 3721 2c40 9046 7c3f

lstm.weight_ih_l0 f4 [128, 8]
-0.05561751 -0.33393878 -0.31420514 -0.21012676 0.1275415 -0.0142232105 0.5431858 0.21868473
0.41918504 -0.45164207 0.13315845 0.15878963 0.2296636 -0.032999042 0.35624555 0.21017814
0.23530254 0.2400382 -0.15749863 -0.09377918 0.023361417 -0.53455245 -0.26097018 -0.2020381
-0.31130624 0.05428321 0.45076305 -0.29330724 0.23508734 0.27997223 0.16361128 -0.036854777
-0.012110617 -0.43968636 0.25451908 -0.41777202 0.47132793 -0.8770554 0.24419104 -0.45644462
-0.13510574 -0.068953246 -0.22090983 0.05411614 -0.12879045 -0.12120203 0.44288036 0.6348686
0.22617498 -0.24699807 -0.19931631 0.18607755 -0.079970166 0.1996175 -0.31686375 -0.06631575
0.8231252 -0.4515513 -0.15698463 0.071278945 0.009225417 -0.121354595 0.10821905 -0.47105223
0.49601007 -0.2222485 -0.11336248 -0.27732572 -0.29849923 -0.2331205 0.2940399 -0.23544087
-0.3183202 -0.42758396 -0.14782839 -0.43633497 0.15087342 -0.509023 -0.17838447 -0.6091721
0.29316285 0.21142553 -0.18384774 -0.6469955 0.0034981426 -0.10400554 0.011231151 -0.32587206
0.53364736 0.0580277 -0.108607784 0.16984393 0.0072894925 0.14702418 -0.15844892 0.306567
0.13267119 0.27252787 -0.48460236 -0.8518524 0.359661 -0.48515657 -0.16064829 -0.102391064
0.053794775 -0.03472502 -0.14492102 -0.18963425 -0.034401987 -0.15908502 -0.34212857 -0.22868271
0.33632317 0.0104990695 0.44732568 0.33632728 0.08314133 0.021192228 -0.3069567 -0.04994412
-0.04112335 -0.11516657 0.0669671 -0.34695026 0.16095373 0.16562366 0.14032747 0.08920836
0.2745916 -0.29166904 -0.21306542 -0.44373736 -0.030218573 -0.7116849 0.1278003 -0.5935615
0.12295555 -0.22781517 -0.032583963 0.03177842 0.16518895 -0.08918316 0.2848484 0.106237754
0.37632877 0.08479073 -0.054670066 -0.2008707 -0.13834618 0.09555156 -0.119247936 0.064138025
0.09337395 -0.3378624 -0.06047777 -0.69106805 0.29181606 -0.2604374 0.15569857 -0.8430981
-0.16121699 -0.25692582 0.2679807 0.20493166 0.27599978 -0.4781193 -0.00784235 -0.14133553
-0.18417522 -0.2829587 0.26927012 0.31909 -0.2719024 -0.09519848 -0.13316539 0.39514652
-0.08786867 -0.5634236 0.07456836 -0.14580874 -0.42113462 -0.12664314 0.22546285 -0.43397078
0.10752751 0.03207738 0.30723336 -0.025854994 0.49929935 -0.28005666 -0.032530025 -0.143965
0.32071885 -0.18342848 0.28095254 -0.36595565 0.21778168 -0.1932967 -0.3557359 -0.5458088
0.64531535 -0.256904 -0.33215392 -0.06263242 -0.08709465 -0.3549054 -0.24712837 -0.26776972
-0.0026214083 0.38129905 0.074419975 -0.24973677 0.101201065 -0.79945976 0.028275017 -0.29066536
0.22475873 0.19441459 -0.21368292 -0.0846767 -0.069824405 -0.27437833 -0.3531875 0.4038487
0.05143055 -0.4728483 0.09902428 0.12645254 0.309534 0.23179042 0.31528232 0.3080102
-0.43191817 -0.06257206 -0.12040419 -0.1929323 -0.09439665 -0.097456336 0.12790056 -0.18025865
0.27508506 -0.26930642 0.04871795 0.11704309 0.291122 -0.43490347 0.046862163 0.05447898
-0.06868812 -0.17857124 -0.38020188 -0.28326967 0.021855924 -0.2618799 0.2755445 -0.04980389
00000000: 30cf 63bd 06fa aabe 7fdf a0be 782b 57be
00000010: 3d9a 023e 7808 69bc 390e 0b3f e4ee 5f3e
00000020: 6c9f d63e a13d e7be b05a 083e c099 223e
00000030: ef2c 6b3e 012a 07bd d165 b63e f038 573e
00000040: 26f3 703e 93cc 753e 5247 21be 4c0f c0bd
00000050: 7160 bf3c 6ed8 08bf e29d 85be 13e3 4ebe
00000060: 8863 9fbe 1258 5e3d 6aca e63e 5e2c 96be
00000070: bcba 703e 8558 8f3e b789 273e 09f5 16bd
00000080: 9c6b 46bc 921e e1be 5350 823e 37e6 d5be
00000090: e551 f13e b486 60bf 370d 7a3e 1cb3 e9be
000000a0: 2959 0abe 5c37 8dbd 3036 62be e3a8 5d3d
000000b0: a5e1 03be c538 f8bd 37c1 e23e c086 223f
000000c0: 6a9a 673e 10ed 7cbe 9319 4cbe 1d8b 3e3e
000000d0: 66c7 a3bd 8868 4c3e f73b a2be 8dd0 87bd
000000e0: 55b8 523f bb31 e7be 94c0 20be b2fa 913d
000000f0: 3426 173c c288 f8bd f3a1 dd3d c22d f1be
00000100: 08f5 fd3e 1c95 63be 972a e8bd a3fd 8dbe
00000110: e4d4 98be 24b7 6ebe 668c 963e 6917 71be
00000120: defa a2be 49ec dabe 5360 17be 4c67 dfbe
00000130: 907e 1a3e 554f 02bf 6baa 36be b4f2 1bbf
00000140: 7119 963e ef7f 583e 9542 3cbe 7fa1 25bf
00000150: 1841 653b db00 d5bd dd02 383c b4d8 a6be
00000160: 1d9d 083f 74ae 6d3d c26d debd 91eb 2d3e
00000170: b2dc ee3b 828d 163e 6f40 22be 5af6 9c3e
00000180: f5da 073e c688 8b3e cd1d f8be 0013 5abf
00000190: 7d25 b83e 7166 f8be fc80 24be 68b2 d1bd
000001a0: e957 5c3d d33b 0ebd 2d66 14be 7b2f 42be
000001b0: 19e9 0cbd 2fe7 22be 7a2b afbe cd2b 6abe
000001c0: 8d32 ac3e 4a04 2c3c df07 e53e 1733 ac3e
000001d0: 0046 aa3d 539b ad3c 6e29 9dbe 3592 4cbd
000001e0: f570 28bd 73dc ebbd 0c26 893d 77a3 b1be
000001f0: 0ed1 243e 4099 293e 01b2 0f3e dfb2 b63d
00000200: 4597 8c3e a555 95be d22d 5abe 8b31 e3be
00000210: f18c f7bc fb30 36bf 15de 023e a5f3 17bf
00000220: 1fd0 fb3d 6148 69be c376 05bd 172a 023d
00000230: 4b27 293e a9a5 b6bd a6d7 913e 2e93 d93d
00000240: 2aae c03e c3a6 ad3d b8ed 5fbd 0cb1 4dbe
00000250: 9faa 0dbe 89b0 c33d 4338 f4bd cc5a 833d
00000260: d73a bf3d 4dfc acbe 8ab7 77bd d6e9 30bf
00000270: ea68 953e 0d58 85be 726f 1f3e 47d5 57bf
00000280: 1116 25be c88b 83be c434 893e 9bd9 513e
00000290: d84f 8d3e 0ecc f4be 337d 00bc 43ba 10be
000002a0: 6e98 3cbe f6df 90be c6dd 893e c45f a33e
000002b0: cb36 8bbe 6cf7 c2bd 825c 08be a550 ca3e
000002c0: 7df4 b3bd 873c 10bf 4cb7 983d e34e 15be
000002d0: f59e d7be bdae 01be bcdf 663e 6b31 debe
000002e0: 6237 dc3d 9263 033d b14d 9d3e dacd d3bc
000002f0: 2aa4 ff3e 9663 8fbe 343e 05bd 906b 13be
00000300: 4335 a43e add4 3bbe 03d9 8f3e 8a5e bbbe
00000310: 2902 5f3e 92ef 45be 0423 b6be 20ba 0bbf
00000320: 6333 253f ec88 83be 1410 aabe 6d45 80bd
00000330: ae5e b2bd 29b6 b5be 380f 7dbe 1d19 89be
00000340: efcb 2bbb a139 c33e 8069 983d ffba 7fbe
00000350: 8142 cf3d 65a9 4cbf 02a1 e73c 17d2 94be
00000360: 2727 663e 9e14 473e b2cf 5abe fa6a adbd
00000370: 1900 8fbd 517b 8cbe fed4 b4be 42c5 ce3e
00000380: d7a8 523d 2c19 f2be 3ecd ca3d c67c 013e
00000390: 3e7b 9e3e 785a 6d3e af6c a13e 83b3 9d3e
000003a0: 6124 ddbe c825 80bd 7996 f6bd 0b90 45be
000003b0: 0853 c1bd 3097 c7bd 5df8 023e b995 38be
000003c0: f3d7 8c3e 88e2 89be 798c 473d 4ab4 ef3d
000003d0: f10d 953e abab debe 8af2 3f3d 5a25 5f3d
000003e0: 5bac 8cbd 61db 36be d2a9 c2be b908 91be
000003f0: 320b b33c 1f15 86be 2b14 8d3e 2aff 4bbd

lstm.weight_hh_l0 f4 [128, 32]
0.18813068 -0.6279796 -0.17103413 0.2593943 -0.037499793 -0.12906456 -0.14061613 -0.37137914
-0.035105865 0.24657868 0.21453929 -0.31941375 -0.13891417 -0.24477215 0.17296742 0.6435652
-0.22201163 0.19969492 0.24802521 -0.18118872 0.14603038 0.65152043 0.61077696 0.013789573
0.7017616 -0.091258496 0.19259325 0.11248014 0.12510203 0.28002006 0.1457905 -0.10002455
0.05850611 -0.5843924 -0.18610619 -0.17704885 0.3455204 0.24615994 0.6025228 -0.08022781
-0.3286281 0.29339543 0.5521232 -0.16097245 -0.1485899 -0.3319865 0.079759225 -0.16160843
-0.17513873 0.009176693 0.038890157 -0.28258714 0.29659852 -0.025837764 0.3969563 -0.40481308
0.04539115 0.17516394 0.069608994 0.39679965 0.6189576 -0.25284997 0.344526 -0.12620275
-0.16868787 -0.4323984 0.11100871 -0.2968158 -0.045924377 0.27927145 0.095845066 -0.07977721
0.081660755 -0.28464475 0.12467178 0.598315 -0.5178132 -0.08168211 -0.2699921 0.21079567
0.073058516 0.19444922 0.13398926 -0.15276399 -0.2530831 -0.22336574 0.13433343 -0.73406327
-0.3543406 0.24680619 0.11534028 0.057830617 0.5274613 0.18407936 0.5241136 0.13450992
-0.066356584 0.15788643 0.061353277 0.02898852 -0.0054552294 -0.23077706 -0.51339656 -0.45003143
-0.39383072 0.28396648 0.05968782 -0.33802256 -0.2856876 0.068762355 -0.0074373535 0.19747053
-0.2895529 0.6202186 -0.37898654 0.54648423 0.49431428 0.74672955 0.05979753 0.23609304
0.44367036 -0.042640757 0.19415006 0.10752155 0.20372805 0.1610217 -0.58695656 -0.067098424
-0.059148125 -0.7309072 -0.5941213 -0.29635736 -0.74752814 0.7676679 -0.20640524 -0.5738382
-0.33881405 -0.17477407 0.49460435 -0.07313849 -0.813394 -0.7457091 -0.108483076 0.2983143
-0.7857917 0.4467586 -0.08088136 1.0522522 0.85891545 0.6428173 0.48222813 -0.9384701
-0.37647617 1.0648354 0.003022373 0.5601843 0.109503314 0.00197568 0.8615493 -0.114535466
-0.015166253 -0.018800005 0.12526207 0.27245557 -0.30297333 0.29229802 -0.17589954 0.09802185
-0.01825126 0.4344599 -0.18339607 -0.11632491 0.20101717 -0.18014576 0.2369897 0.5310601
-0.25971988 0.6159421 -0.25542104 0.3227388 -0.40039524 0.016637335 0.21160388 0.08440079
0.33620262 -0.3009907 0.030832661 -0.10198676 0.4627268 0.29728043 -0.2659975 0.9018014
-0.06141359 -0.2926773 0.12497563 0.37324533 0.062454894 -0.37943316 0.4659277 -0.17038922
-0.3215011 0.1865552 -0.5742175 0.28587946 -0.52900124 -0.8436594 -0.36198422 -0.013616151
-0.28171402 -0.4241475 0.5438705 0.012006365 -0.18915015 -0.2592371 0.49853024 -0.79867744
-0.012568507 0.47759193 0.10599348 0.33051664 0.004545784 -0.6228071 -0.044601526 -0.61100805
0.071703926 -0.27204585 -0.19505848 -0.794066 -0.011958176 0.34116903 -0.46491635 -0.5897886
-0.55963504 -0.14312513 0.46129924 0.51528513 -0.05149796 -0.22750586 -0.06968761 0.21981429
-0.34030864 0.35684925 0.38908958 -0.40221864 1.0536462 0.39726526 0.2393971 -0.44528103
0.7091683 -0.26392537 0.09881353 0.2742804 0.121959716 -0.19807005 -0.2038179 0.3812492
00000000: 54a5 403e 45c3 20bf 9223 2fbe 54cf 843e
00000010: 6299 19bd 8029 04be adfd 0fbe 6825 bebe
00000020: 2bcb 0fbd 1f7f 7c3e 30b0 5b3e 338a a3be
00000030: 843f 0ebe 8da5 7abe 5f1e 313e b0c0 243f
00000040: 0457 63be d37c 4c3e 52fa 7d3e 8989 39be
00000050: fd88 153e 0bca 263f e15b 1c3f a9ed 613c
00000060: a6a6 333f bce5 babd 2a37 453e fd5b e63d
00000070: bf1a 003e ca5e 8f3e 1b4a 153e acd9 ccbd
00000080: 1aa4 6f3d be9a 15bf 9f92 3ebe 4b4c 35be
00000090: 0de8 b03e 5a11 7c3e ef3e 1a3f 7a4e a4bd
000000a0: f141 a8be ed37 963e f257 0d3f f6d5 24be
000000b0: f327 18be 22fa a9be ce58 a33d ae7c 25be
000000c0: 9157 33be d759 163c 494b 1f3d 43af 90be
000000d0: c3db 973e b8a9 d3bc db3d cb3e a943 cfbe
000000e0: 12ec 393d 2d5e 333e 298f 8e3d 5329 cb3e
000000f0: 0174 1e3f 8d75 81be b665 b03e 4b3b 01be
00000100: 83bc 2cbe 5363 ddbe 8958 e33d 3ef8 97be
00000110: 331b 3cbd abfc 8e3e 6b4a c43d 3c62 a3bd
00000120: c13d a73d f5bc 91be eb53 ff3d 2c2b 193f
00000130: 688f 04bf f348 a7bd 683c 8abe d2da 573e
00000140: b49f 953d b21d 473e 7b34 093e 2a6e 1cbe
00000150: 1c94 81be fdb9 64be b48e 093e 92eb 3bbf
00000160: 226c b5be c3ba 7c3e 8637 ec3d ccdf 6c3d
00000170: b407 073f 4d7f 3c3e 4f2c 063f f8bc 093e
00000180: f6e5 87bd fbac 213e 934d 7b3d 5579 ed3c
00000190: c8c1 b2bb d250 6cbe f56d 03bf 856a e6be
000001a0: 2ea4 c9be 0e64 913e 377b 743d 4b11 adbe
000001b0: a545 92be 47d3 8c3d 0bb5 f3bb b735 4a3e
000001c0: 4740 94be a5c6 1e3f 860a c2be 64e6 0b3f
000001d0: c316 fd3e ab29 3f3f 41ee 743d 60c2 713e
000001e0: c328 e33e 13a8 2ebd 46cf 463e 4234 dc3d
000001f0: 169e 503e dfe2 243e c942 16bf e66a 89bd
00000200: 4e45 72bd bc1c 3bbf 5518 18bf 27bc 97be
00000210: 015e 3fbf e285 443f e55b 53be 0fe7 12bf
00000220: 0979 adbe f9f7 32be c83c fd3e a2c9 95bd
00000230: 973a 50bf cbe6 3ebf 602c debd a7bc 983e
00000240: a529 49bf 8bbd e43e 20a5 a5bd 33b0 863f
00000250: e2e1 5b3f ad8f 243f 9be6 f63e 943f 70bf
00000260: 7cc1 c0be 874c 883f 0113 463b 3d68 0f3f
00000270: 4643 e03d 697a 013b 7f8e 5c3f 9291 eabd
00000280: e07b 78bc 7802 9abc b344 003e 4c7f 8b3e
00000290: 521f 9bbe 16a8 953e 021f 34be aebf c83d
000002a0: ab83 95bc 8771 de3e 2ecc 3bbe c13b eebd
000002b0: 72d7 4d3e 2178 38be 6ead 723e 8ef3 073f
000002c0: 01fa 84be 62ae 1d3f 8cc6 82be 053e a53e
000002d0: 9b00 cdbe 054b 883c b0ae 583e 52da ac3d
000002e0: c022 ac3e 741b 9abe c794 fc3c 6fde d0bd
000002f0: 87ea ec3e 2435 983e d330 88be 75dc 663f
00000300: d18c 7bbd cdd9 95be 39f3 ff3d 031a bf3e
00000310: b4d0 7f3d 1045 c2be 138e ee3e 837a 2ebe
00000320: cb9b a4be 5408 3f3e ebff 12bf cb5e 923e
00000330: a06c 07bf 10fa 57bf ff55 b9be 4716 5fbc
00000340: d23c 90be dc29 d9be 193b 0b3f 58b6 443c
00000350: 94b0 41be baba 84be 5b3f ff3e 2076 4cbf
00000360: 24ec 4dbc ee86 f43e 1c13 d93d 7a39 a93e
00000370: cdf4 943b 4970 1fbf 17b0 36bd 066b 1cbf
00000380: 82d9 923d 9849 8bbe 69bd 47be e947 4bbf
00000390: 3aec 43bc b5ad ae3e 8409 eebe 63fc 16bf
000003a0: 3e44 0fbf 658f 12be 6a2f ec3e bae9 033f
000003b0: 86ef 52bd 4cf7 68be 61b8 8ebd ff16 613e
000003c0: ef3c aebe f2b4 b63e c036 c73e 9aef cdbe
000003d0: e1dd 863f 5a66 cb3e 8324 753e e0fb e3be
000003e0: 0e8c 353f 3a21 87be bf5e ca3d 7b6e 8c3e
000003f0: 04c6 f93d e0d2 4abe a4b5 50be 1833 c33e

lstm.bias_ih_l0 f4 [128]
0.13892858 0.56162876 0.28725624 0.13718697 0.5430089 0.057072934 0.16757263 0.43021643
0.28518045 0.60792494 0.38376248 0.1154681 0.25834838 0.29417238 0.37416923 0.66602707
0.51612186 0.19723739 0.49361712 0.4085979 0.22443967 0.30044088 0.32799813 0.1893325
0.1666478 0.6497797 0.120327964 0.16548657 0.30918068 0.43358392 0.38586068 0.33523944
0.32705712 0.2840023 0.07416842 0.17689055 -0.16034509 0.18782331 0.2725928 0.12145061
0.011376222 0.06280521 0.13289659 0.05895584 0.1361807 0.2987786 -0.0076311696 0.2922041
0.38805965 0.05629282 -0.12971398 0.053009134 0.09386505 0.0424739 0.25251004 0.11519009
0.22336176 0.21191831 0.30497622 0.19746453 0.111624666 -0.06212225 0.115312085 0.12772307
-0.21676522 -0.04909595 -0.027981961 0.015183883 -0.042439755 0.057929303 -0.1095928 -0.0998667
-0.10901966 0.1769936 0.17749418 -0.18367411 -0.110363685 -0.047747504 -0.08727794 0.0943156
0.027248038 -0.018891433 -0.022203816 -0.17117064 -0.055134412 0.15482439 0.20082445 -0.19815148
0.08756603 0.26041707 -0.0048326314 -0.05189314 0.15104476 0.029945564 -0.010380663 0.17661119
0.33887213 0.17175268 0.33548015 0.4024916 0.4037081 0.2725699 0.19426218 0.4552742
0.52494335 0.34076965 0.41068953 0.3718687 0.54430425 0.41158387 0.52990216 0.72236514
0.4472581 0.37996447 0.19500214 0.50382745 0.35486713 0.61272496 0.463849 0.29488805
0.14757763 0.5429074 0.3234777 0.31673622 0.49017444 0.31086096 0.43804106 0.43949318
00000000: 4b43 0e3e e7c6 0f3f 4013 933e be7a 0c3e
00000010: a202 0b3f 4fc5 693d 2998 2b3e 5445 dc3e
00000020: 2c03 923e f8a0 1b3f 847c c43e 8a7a ec3d
00000030: 3d46 843e c39d 963e 1c93 bf3e c080 2a3f
00000040: 9020 043f 99f8 493e 62bb fc3e be33 d13e
00000050: 83d3 653e 63d3 993e 5fef a73e 61e0 413e
00000060: b9a5 2a3e f657 263f 826e f63d 5075 293e
00000070: ee4c 9e3e b6fe dd3e 888f c53e 81a4 ab3e
00000080: 0874 a73e c068 913e 9de5 973d cc22 353e
00000090: 8131 24be c154 403e 4991 8b3e 19bb f83d
000000a0: 5563 3a3c 05a0 803d 0b16 083e ae7b 713d
000000b0: f472 0b3e 82f9 983e e40e fabb c79b 953e
000000c0: c1af c63e 4d93 663d bed3 04be 1b20 593d
000000d0: 523c c03d 1df9 2d3d ff48 813e c8e8 eb3d
000000e0: f2b8 643e 1d01 593e d825 9c3e 2434 4a3e
000000f0: 799b e43d e773 7ebd be28 ec3d d6c9 023e
00000100: b4f7 5dbe d618 49bd 6d3a e5bc d2c5 783c
00000110: 4fd5 2dbd 4747 6d3d 3172 e0bd ea86 ccbd
00000120: b345 dfbd cf3d 353e 09c1 353e 1115 3cbe
00000130: 5b06 e2bd e392 43bd c7be b2bd 8a28 c13d
00000140: 4737 df3c 35c2 9abc c7e4 b5bc 5b47 2fbe
00000150: 9fd4 61bd 498a 1e3e eda4 4d3e 39e8 4abe
00000160: d255 b33d 6355 853e 0d5b 9ebb e78d 54bd
00000170: 7aab 1a3e 6650 f53c a813 2abc 90d9 343e
00000180: a680 ad3e efdf 2f3e 0ec4 ab3e 6113 ce3e
00000190: d4b2 ce3e 488e 8b3e aaec 463e b319 e93e
000001a0: b062 063f 5c79 ae3e e645 d23e 9365 be3e
000001b0: 8657 0b3f 1fbb d23e aba7 073f ecec 383f
000001c0: 04ff e43e b48a c23e a4ae 473e d6fa 003f
000001d0: 25b1 b53e 8bdb 1c3f 9e7d ed3e 91fb 963e
000001e0: 971e 173e fbfb 0a3f de9e a53e 402b a23e
000001f0: 25f8 fa3e 2b29 9f3e eb46 e03e 4005 e13e

lstm.bias_hh_l0 f4 [128]
0.294312 0.28961015 0.067757696 0.25213286 0.4205445 0.121850684 0.12057436 0.43167618
0.3443197 0.52661145 0.49052846 0.18760893 0.23459303 0.38039693 0.36009002 0.53247726
0.4777115 0.3755855 0.39379063 0.45861953 0.28511953 0.40359375 0.36931416 0.14751746
0.082589276 0.5595606 0.19179197 0.31897965 0.033333477 0.3639304 0.57329464 0.17958325
0.042512212 0.3020783 0.06699851 0.3591436 0.054553565 0.17400695 0.11083137 0.050169747
0.30047533 -0.19812194 0.08298364 -0.06907521 0.36815554 0.25685146 0.28899786 0.1232984
0.46910694 -0.030054716 0.13446805 -0.02988864 0.23607726 0.19843538 0.041767657 0.32795146
-0.01617617 0.13674663 0.115901515 0.18692821 0.26487717 0.13097148 0.2512281 0.18332125
-0.08466608 -0.14578447 -0.07597612 -0.044989683 0.069382004 0.008035795 0.042141456 -0.07114813
-0.15620178 0.07823631 0.16807146 0.06573571 0.1856632 -0.21313559 0.060095813 0.17475656
-7.2326744e-05 0.06259007 0.1139615 0.003821995 -0.20762917 0.07667632 0.22199027 -0.10183803
0.10555303 0.24155788 -0.14730132 -0.19925354 0.068795905 0.019980166 -0.061489277 -0.15172675
0.15481582 0.3316302 0.17253974 0.10305246 0.2443383 0.3472619 0.09605197 0.4478831
0.5697752 0.6112861 0.10449922 0.1750127 0.3532157 0.61171293 0.46923843 0.7462846
0.344823 0.30924684 0.42937475 0.48001108 0.45298687 0.6276768 0.44283754 0.13429444
0.10949721 0.61117274 0.09470329 0.3365664 0.39241555 0.29530764 0.47514376 0.19692136
00000000: 10b0 963e c847 943e 8cc4 8a3d 8f17 813e
00000010: 9c51 d73e da8c f93d b1ef f63d a904 dd3e
00000020: ac4a b03e 02d0 063f 8c26 fb3e 8e1c 403e
00000030: 2839 703e 63c3 c23e b85d b83e 6e50 083f
00000040: 9a96 f43e be4c c03e ed9e c93e 2ed0 ea3e
00000050: 30fb 913e d7a3 ce3e bf16 bd3e d10e 173e
00000060: 9124 a93d 5d3f 0f3f 1d65 443e 4d51 a33e
00000070: af88 083d 1655 ba3e 70c3 123f ace4 373e
00000080: 4921 2e3d 02aa 9a3e 8436 893d ace1 b73e
00000090: 8f73 5f3d e12e 323e 8ffb e23d cb7e 4d3d
000000a0: e7d7 993e 7ae0 4abe 54f3 a93d 4e77 8dbd
000000b0: e27e bc3e 0982 833e 87f7 933e df83 fc3d
000000c0: c92e f03e 4f35 f6bc feb1 093e 05d9 f4bc
000000d0: 3dbe 713e a532 4b3e 9014 2b3d 41e9 a73e
000000e0: e383 84bc 4f07 0c3e c65d ed3d 1c6a 3f3e
000000f0: fb9d 873e 631d 063e f8a0 803e 91b8 3b3e
00000100: 6965 adbd 8648 15be 5e99 9bbd 1a47 38bd
00000110: 2718 8e3d 91a8 033c 859c 2c3d 1cb6 91bd
00000120: 5cf3 1fbe 5c3a a03d ed1a 2c3e 72a0 863d
00000130: 7e1e 3e3e 3740 5abe 0727 763d 62f3 323e
00000140: 20ae 97b8 392f 803d a664 e93d 707a 7a3b
00000150: be9c 54be 7908 9d3d 6b51 633e 7590 d0bd
00000160: 302c d83d f35a 773e 28d6 16be 1f09 4cbe
00000170: dee4 8c3d 72ad a33c 2edc 7bbd 425e 1bbe
00000180: 0a88 1e3e 6fcb a93e 42ae 303e 2b0d d33d
00000190: d233 7a3e 50cc b13e e5b6 c43d ef50 e53e
000001a0: cadc 113f 3f7d 1c3f b003 d63d 8736 333e
000001b0: b0d8 b43e 3899 1c3f 0540 f03e 820c 3f3f
000001c0: a48c b03e 9a55 9e3e 02d7 db3e 03c4 f53e
000001d0: e5ed e73e 6daf 203f 9abb e23e 7b84 093e
000001e0: 1340 e03d d175 1c3f ccf3 c13d 6e52 ac3e
000001f0: b1ea c83e 9032 973e 0b46 f33e c1a5 493e

fc.weight f4 [1, 32]
-0.5822373 -0.40414655 -0.048809532 0.2539102 -2.7069058 0.37342408 -0.53627986 -1.5413985
0.56686556 -1.6438607 -1.2450604 0.2656682 -1.7425197 1.3853785 -1.2091055 -1.4019928
1.2741919 1.1962973 1.6460193 1.9788944 1.0214458 1.2898246 0.80544055 -0.9024631
-0.40824422 -0.8367159 0.74305236 1.2369668 0.06386797 -1.0903684 0.53478473 0.24253733
00000000: 810d 15bf 4cec cebe 81ec 47bd 8500 823e
00000010: f23d 2dc0 7131 bf3e a349 09bf 8c4c c5bf
00000020: 1a1e 113f 076a d2bf 245e 9fbf aa05 883e
00000030: e30a dfbf 1554 b13f f8c3 9abf 8074 b3bf
00000040: b818 a33f 4520 993f c3b0 d23f 694c fd3f
00000050: bcbe 823f f918 a53f 5a31 4e3f d207 67bf
00000060: 6305 d1be 0333 56bf ae38 3e3f ee54 9e3f
00000070: 36cd 823d 3191 8bbf a7e7 083f b55b 783e
