MIX_fut_lihovidov_model/best_model_first_MIX_01.pth (torch, 25332 bytes, 6 tensors)

embedding.weight f4 [19, 8]
000000 b1 c8 66 3f 73 61 bf 3e f9 3b 0a bf 9f 7e 73 3f
       0.9014998 0.37379035 -0.5399776 0.95115083
000010 9e cb 2b bf 85 f2 74 3e 68 6c 53 be 7c d7 80 bf
       -0.6710757 0.23920639 -0.20646822 -1.0065761
000020 4b 7a aa be 60 1e e2 be 77 9b f8 3f b2 98 95 be
       -0.33296427 -0.441638 1.9422444 -0.2921806
000030 f3 21 16 be 10 51 07 bf d7 ec 98 be f0 67 c4 be
       -0.14661388 -0.52858067 -0.29868194 -0.38360548
000040 e7 f0 b1 3f e3 43 0f bf a0 50 74 3e 6b b2 d2 3e
       1.3901643 -0.5596296 0.23858881 0.41151747
000050 16 40 2a bf 95 a9 bd 3f 0c f9 dd 3e 47 bb d0 3f
       -0.6650404 1.4817377 0.4335407 1.6307153
000060 06 10 83 3f 8e e9 e2 bf 7f 58 34 bf da 91 92 bf
       1.0239265 -1.7727525 -0.70447534 -1.145076
000070 6a 11 ef bd ab c4 ee be 24 db 1c bf f2 f6 10 40
       -0.11673243 -0.4663442 -0.6127188 2.2650723
000080 50 06 85 3f ca c3 83 3e 10 ba 1b bf d4 03 38 3d
       1.0392551 0.25735313 -0.60830784 0.044925526
000090 31 47 a4 bf 04 ed 0e be 9f f7 dc 3d 26 3c eb 3e
       -1.2834226 -0.13957602 0.107894175 0.45944327
0000a0 e6 c5 24 bf 2c 7a 79 bf ae 0d 49 be 2e 68 84 bf
       -0.6436447 -0.97452044 -0.19634125 -1.0344293
0000b0 de 9e 97 3e 98 d9 f9 be 5a 74 b9 3e 2a f3 97 3c
       0.29613394 -0.48798823 0.36221582 0.018548567
0000c0 3b db be bf ad 02 a9 be 86 bb 53 3f 11 ce bc be
       -1.4910654 -0.33009854 0.82708013 -0.36875966
0000d0 8d a9 c1 3d aa b9 86 3f 70 b3 91 bf de c3 f6 3e
       0.09456167 1.052541 -1.1382885 0.4819631
0000e0 fb 9e 1d 3f 3e 0a a7 3f 2d 11 01 be c5 eb e9 bd
       0.6157071 1.3050001 -0.12604208 -0.114219226
0000f0 42 3d 44 bf 1e 37 bc bd 0b 06 a6 3f a7 e3 34 3f
       -0.7665597 -0.091902 1.2970594 0.7065987
000100 f8 5d f9 be c2 8f 01 c0 c0 4a 6b 3f e8 ab 7f 3f
       -0.48704505 -2.0243993 0.91910934 0.99871683
000110 fd f5 c7 be cf f7 3c be 45 f3 b8 bd 66 e1 86 bf
       -0.39054862 -0.18453906 -0.09030775 -1.0537536
000120 cd 5e 9d bf f4 17 18 3c 09 80 85 3f cf f7 40 be
       -1.2294556 0.009283055 1.0429698 -0.18844531
000130 a2 3a 8c 3e 3f 1c 7e bf d6 00 97 3d 90 7a 13 40
       0.27388483 -0.9926185 0.07373206 2.3043556
000140 bb 63 a6 3f 63 ea 09 bf 26 67 42 bf b2 ad a4 bf
       1.2999185 -0.5387327 -0.7593864 -1.2865508
000150 f6 a9 1b bf 3b a4 9e bf 2e 8c 8f bf 3f b5 fb bc
       -0.60806215 -1.2393869 -1.1214654 -0.030726073
000160 d3 b3 06 40 87 e6 ab 3e 77 e9 dd 3d 38 25 a6 bd
       2.1047256 0.33574316 0.108355455 -0.08112568
000170 76 b1 8d 3f 4e 2a e1 3f d6 d2 f4 bd 8e 3a 8c bf
       1.1069782 1.7591035 -0.11954276 -1.095537
000180 16 ee e3 3e 5e d5 c1 3f 65 89 59 3e 05 9f 16 bf
       0.44517583 1.514324 0.21243818 -0.58836395
000190 7e 6e 09 bf 36 4d 41 3e 21 ee 07 3f e5 85 c5 be
       -0.5368422 0.1887711 0.5309773 -0.38578716
0001a0 fc ce d7 3e 23 0c 8e bf 74 e1 4a 3f c4 53 f7 bd
       0.42150104 -1.1097454 0.79250264 -0.12076524
0001b0 3b cc 1d 40 cd 56 10 c0 88 67 80 3f ce 83 f7 bc
       2.4655902 -2.255298 1.0031595 -0.030214217
0001c0 cb 96 24 bc c4 59 db 3e 4e 76 63 bf ae 79 ab bc
       -0.0100457175 0.42841923 -0.88852394 -0.020932045
0001d0 a1 bc 6e 3f ad d4 79 3f 15 ad a7 3f 66 85 c3 bf
       0.93256575 0.9759014 1.3099695 -1.5275085
0001e0 4b a1 4e bf 00 1c ab bd 42 a6 b3 3f d9 92 b9 3f
       -0.80714864 -0.0835495 1.4035113 1.4497939
0001f0 94 61 1c 3f 0b 09 00 c0 0f f2 97 3e 70 30 06 40
       0.6108639 -2.000552 0.29676864 2.0967064
000200 4a 44 b6 3f 80 f8 0d bf 88 8e 8d bf e5 f8 28 40
       1.423959 -0.55457306 -1.1059122 2.6401913
000210 b1 68 ef 3c da de f4 bf a2 ba e6 be ef 11 99 bf
       0.029224725 -1.9130509 -0.45064265 -1.1958598
000220 34 40 80 bf d4 d1 47 3f ac 39 43 3d 1f b7 42 3f
       -1.0019593 0.7805455 0.047662422 0.7606067
000230 a6 c3 03 3f 7b 59 71 be 21 5a 30 be 89 09 68 3f
       0.5147041 -0.2356929 -0.17221881 0.9063955
000240 38 3c 16 3f fa 03 11 bf 22 1e 58 3f 72 3e 72 bf
       0.58685637 -0.5664669 0.8442098 -0.94626534
000250 91 35 b9 bf 11 bb 57 be 84 d8 f2 bc 8f f0 f1 bd
       -1.4469472 -0.21067454 -0.029644258 -0.11813461

lstm.weight_ih_l0 f4 [128, 8]
000000 c1 47 ad bc 44 f4 07 3e 37 00 79 3c 13 57 86 bd
       -0.021152379 0.13276774 0.015197805 -0.06559577
000010 9a 88 b5 bd 27 5a a1 3e 45 47 cc bd c6 95 9f be
       -0.08863945 0.31514093 -0.09974531 -0.31168956
000020 b1 af e3 bb 0e c2 39 be c4 50 89 3e 25 eb fb 3d
       -0.0069484343 -0.18140432 0.26819432 0.1230071
000030 fa 21 77 3e 50 b2 a4 3e ab ef 02 be 4d c8 43 3e
       0.24134055 0.32167292 -0.12786739 0.19119377
000040 1e 31 f5 3d ed 33 51 3e b7 c0 01 be e1 9c 77 bd
       0.11972259 0.20429964 -0.12671171 -0.060452346
000050 5e bb 95 3e 64 8b 26 3e 01 7d ca bd 64 b1 90 3e
       0.29244512 0.16264111 -0.09887124 0.28260338
000060 e8 b7 35 3f 37 de c0 3c b2 bc 93 bd bf 32 86 be
       0.70983744 0.02354346 -0.07213725 -0.2621059
000070 97 d7 a2 3e 5f dc 09 3e 7f dc b4 3d 86 98 fc be
       0.31805107 0.13462971 0.08831119 -0.49335116
000080 12 97 87 3e 85 44 12 3e e4 32 71 3d 25 dc 3e 3e
       0.26482445 0.1428395 0.058886424 0.18638666
000090 9d 1b 2d be dd 63 68 3e 61 f9 0f be d4 3b 8a bd
       -0.16905065 0.22694345 -0.14059974 -0.067496926
0000a0 5c 91 3a bd 5c 63 d2 3e f9 62 90 3e 63 1e 9f be
       -0.04554878 0.4109143 0.2820051 -0.3107787
0000b0 75 1e 8b 3b ba 72 9e 3d 82 ad e4 3d 45 71 03 3f
       0.004245574 0.07736726 0.111659065 0.5134471
0000c0 38 46 4e bd eb b5 75 bd 30 ac 0c 3e 6c 88 7d 3e
       -0.050359935 -0.059987944 0.1373756 0.24759072
0000d0 f1 45 34 be 39 2d a2 3d f2 06 b0 3d d4 e2 54 3d
       -0.17604806 0.07918782 0.08595075 0.051974133
0000e0 00 2e cc 3e 51 19 2d 3e 59 83 85 be 0b 37 c0 3b
       0.39878845 0.16904189 -0.26076773 0.0058659366
0000f0 ed 78 50 bd 1a 17 66 3d b2 e0 d8 bc 62 a8 0a 3d
       -0.050896574 0.056174375 -0.02647433 0.03385199
000100 31 31 71 3e 97 a3 36 3d 52 1e 11 3d f7 25 d6 bd
       0.23553921 0.044589605 0.035429306 -0.1045646
000110 c6 99 4e bd 6b 41 dd 3e f0 28 c0 3e bf 19 30 be
       -0.05043962 0.43213972 0.37531233 -0.17197321
000120 57 20 e5 bd 99 31 6a 3e a8 d8 5b be 91 ac 07 bc
       -0.11187809 0.22870483 -0.21469367 -0.008280889
000130 de 71 22 bd 25 53 56 3e 08 e5 df 3e 93 a0 e7 3d
       -0.039659373 0.20930155 0.43729424 0.11309924
000140 7c c9 b0 3e b3 5e 26 be 9b 5a a6 bd 27 c1 af 3e
       0.3452872 -0.16247062 -0.0812275 0.3432705
000150 a7 85 4c 3e ff a2 de be 5d 22 85 be 97 2c 4e be
       0.1997286 -0.4348373 -0.2600278 -0.20134197
000160 68 82 2b 3d f8 c1 c1 bb 16 70 f0 3e 04 79 a3 3d
       0.041872412 -0.0059130155 0.46960515 0.07982066
000170 c0 8d 67 3d c9 f7 4a 3e 1b 48 24 3e be 50 1e be
       0.056531668 0.19821085 0.16043131 -0.15460488
000180 ca 59 4f be 71 97 1d 3e ef f1 93 3d 00 9c 0e 3f
       -0.20249096 0.15389802 0.072238795 0.5570679
000190 98 0f 73 be 8c 94 fe bd 2f f4 a3 3d 74 39 37 3e
       -0.23736417 -0.12430677 0.08005559 0.1789301
0001a0 4e 89 c9 3e c9 aa 3f be 50 30 53 be d0 d1 e8 3e
       0.39362568 -0.18717493 -0.20623899 0.45472574
0001b0 03 18 1a be e8 e6 04 bf ab 62 7f 3e 30 ed 70 3e
       -0.15048222 -0.51914835 0.24939983 0.2352798
0001c0 45 2b bc 3e 54 b5 5a 3e 2d f2 5a 3e 8c cc 5b 3e
       0.36751762 0.21358234 0.21381445 0.21464747
0001d0 53 43 b7 3e bb 65 7a 3e 61 29 b6 3e ca 57 d1 3d
       0.35793552 0.2445287 0.35578445 0.102218226
0001e0 17 d9 e8 bd 32 17 35 be ce c1 5a 3e c9 62 f2 3e
       -0.113695316 -0.1768463 0.21362993 0.47340992
0001f0 bf e9 8e 3e 2d 3c 36 3d 83 6d f0 3e ae e3 e0 bc
       0.2791271 0.04449098 0.4695855 -0.027452316
000200 5b 96 4b bd 6b f9 bf 3e 7c 88 91 3b c8 89 02 3f
       -0.049703937 0.37494978 0.004441319 0.5099149
000210 b7 f3 97 be 34 ff e8 3a 8a d0 8e 3c 0e f9 6c 3e
       -0.29678127 0.0017776252 0.017433424 0.23141882
000220 ac cc c9 3c c4 5d 5d be 20 82 a6 3e 8a 66 20 be
       0.024633728 -0.216178 0.32521152 -0.15664116
000230 82 68 2b 3d 2c ae cd 3e 6a db d8 bd ba 9b 07 be
       0.041847713 0.40171945 -0.10588725 -0.13242999
000240 6f 74 22 be db bf 6e 3e cb 53 07 3f 88 3f cd 3e
       -0.15864728 0.23315375 0.5286223 0.40087533
000250 56 9e 12 3f 91 52 23 3e 5c ff 67 3e 04 a1 d7 3d
       0.5727285 0.15949465 0.22656006 0.10528758
000260 ce eb a0 3e 3d 43 b2 be fc 67 bb 3d 96 5b 56 3e
       0.31429905 -0.34816924 0.09150693 0.20933375
000270 d1 b4 fb bd 9d b7 be 3c 30 d7 81 bd 5f a1 75 3e
       -0.12290347 0.023280913 -0.06339872 0.2398734
000280 0e 30 28 bd 2d 56 82 3c 89 8a ed be e3 e8 3e bd
       -0.041061454 0.015910232 -0.46394756 -0.046608817
000290 44 9f 79 be a1 16 36 bd ff 5b 01 3e 92 e3 9b 3e
       -0.24377161 -0.044455174 0.1263275 0.3044706
0002a0 7c dc 9b 3d fe 1f 6e be d3 72 cd 3e 21 1d 3f 3e
       0.076104134 -0.23254392 0.40126666 0.18663456
0002b0 5c e4 76 3e a7 4e 42 3c cb 8a 05 bd bd a5 bf 3d
       0.2411055 0.0118595725 -0.032603066 0.09357784
0002c0 06 e7 79 3e b8 5e 85 3d d3 8a f2 be 05 aa 45 3e
       0.24404535 0.06512207 -0.4737154 0.19303139
0002d0 5b 49 53 be 41 e6 1d bd a0 aa 12 be c9 da 19 be
       -0.20633452 -0.038549665 -0.14322901 -0.15024866
0002e0 ea a6 8c bd 77 03 5f 3d 3b ee 3e 3e 2c 21 c3 3d
       -0.06867774 0.054446664 0.18645565 0.095278114
0002f0 1f 63 71 3e b1 74 cd be 91 0e 1c 3e 09 a5 bd 3e
       0.23572968 -0.4012809 0.15239932 0.37039974
000300 d1 f5 ff 3d a7 61 a5 3e 76 d9 81 bd cb ef e5 3c
       0.12498058 0.32301065 -0.063403055 0.028068444
000310 e8 13 7d ba 6f 85 22 be 1c c6 f2 3d d6 90 09 be
       -0.00096541503 -0.15871213 0.118541926 -0.13434157
000320 50 aa bc 3d 8d 84 00 bc 59 7d 92 3e 93 f9 3b 3e
       0.09212172 -0.007844103 0.28611258 0.18356924
000330 4d fa 13 3d 2a fc b4 bc 32 c6 d6 3e 26 55 48 bd
       0.036127377 -0.022092897 0.41948086 -0.04890933
000340 be c3 59 be 57 bc 1d 3d d7 e4 46 be 49 c2 8f be
       -0.21266076 0.038509693 -0.19423233 -0.28077915
000350 b9 10 8c 3d 5e 8e f6 3d 35 96 0e 3e 88 fc fb 3d
       0.06839127 0.12038873 0.13924487 0.12304026
000360 a5 4e 70 bc da fc fc be 47 ec 41 bd 53 cd f5 3e
       -0.014667188 -0.4941166 -0.047344472 0.48008212
000370 80 29 dd 3c d8 46 f7 be bf 72 cd bd 76 83 cb 3d
       0.026997328 -0.48296237 -0.10031652 0.099371836
000380 0a 0b 10 3e 12 c1 ac bd ff 38 9c 3e 90 c3 72 3d
       0.14066711 -0.08435263 0.30512235 0.059268534
000390 3b 14 d0 bd 09 9b 17 be b0 de 0e 3d c1 e3 de 3e
       -0.10160109 -0.14805235 0.03488034 0.43533137
0003a0 fa b3 69 3c c0 1b 77 3e 8a 9b 49 be 7c 9d 80 bd
       0.014264101 0.2413168 -0.1968824 -0.06280038
0003b0 e3 93 28 3d 62 39 a9 3e 4c 0f 30 3d 70 f3 3b 3e
       0.04115666 0.33051592 0.04298334 0.18354583
0003c0 bf d4 20 be d1 5f cd 3e 8b a6 d8 be 98 8c d7 3d
       -0.15706156 0.40112165 -0.42314562 0.10524863
0003d0 18 6a ae 3d 1e e2 45 3c 2d 93 cd bc 95 7e d5 3c
       0.085163295 0.012077836 -0.025094593 0.026061336
0003e0 2d 1e fd 3d 00 f8 a7 be c4 01 62 3e 5e 5a bb 3d
       0.12359271 -0.32806396 0.22070986 0.091480955
0003f0 d2 88 96 3d 8e 3b 81 be 2e d4 8a bd 67 55 81 bd
       0.07350315 -0.2524075 -0.06778751 -0.06315117

lstm.weight_hh_l0 f4 [128, 32]
000000 10 e4 77 3e ba c9 c6 be 96 a4 38 3e 27 fe 1e 3f
       0.24208093 -0.3882578 0.18031535 0.62106556
000010 d3 9f 2a be 62 ab 57 3e a7 23 cd 3e 9e 5c 88 3d
       -0.1666253 0.21061471 0.40066263 0.0665829
000020 0e a5 91 bb a9 a0 18 3d 91 67 d1 be 3e a7 8c bd
       -0.004444725 0.037262592 -0.40899327 -0.068678364
000030 ee 8f 1e be 16 0d 88 bd 70 b2 8a 3e ac b6 4b be
       -0.15484592 -0.06643121 0.27089262 -0.19893903
000040 f4 37 fb 3d 35 21 78 be 5b b2 c0 3d cf 64 8d 3d
       0.122665316 -0.24231417 0.094090186 0.06903993
000050 f9 bc f7 be dd 1b b5 bd fb 68 29 be 74 77 ac bd
       -0.48386362 -0.08843205 -0.16543953 -0.084212214
000060 d8 f5 8b bd 3c 84 d9 3d ef 3a 06 3e ff d7 82 3e
       -0.06834 0.10620925 0.13108419 0.25555417
000070 62 94 26 be 91 f5 59 3d a5 be cb be 42 c5 0d bf
       -0.16267541 0.053212706 -0.39793888 -0.55379117
000080 95 b6 05 be 9a 70 39 3c f2 42 0a bd d8 e2 9d bd
       -0.13057931 0.01131835 -0.03375525 -0.07709283
000090 b5 42 29 3d 16 9d 65 3d 05 c9 23 3e 9b b2 94 3d
       0.041323382 0.056058012 0.15994652 0.07260629
0000a0 48 32 91 3d dc 76 08 3d f1 8a e1 bd ad d6 8f bd
       0.070896685 0.033316478 -0.11012829 -0.07023368
0000b0 54 9d d3 be 64 7a 21 3e a5 75 71 be 2c e9 86 be
       -0.4133097 0.15769345 -0.23580034 -0.2634977
0000c0 36 f9 43 be ce 28 d5 be a0 59 82 be a6 9b a3 3d
       -0.19138035 -0.41632694 -0.25459003 0.07988672
0000d0 8a d6 83 be 5d 24 20 be 8f 02 b3 bd 4a e8 f1 3d
       -0.25749618 -0.15638871 -0.087407224 0.11811884
0000e0 90 14 04 3e 12 af 78 3e eb 41 ed 3d 8c 8d a3 3e
       0.12898469 0.24285534 0.115848385 0.3194393
0000f0 e1 78 c9 3d c4 1f 9d 3c 55 40 49 3c db 9d 14 be
       0.09837509 0.019180186 0.012283404 -0.14513342
000100 2c 02 42 3e e2 65 80 3e dd 4b ca 3e ce 45 48 3e
       0.18946141 0.2507773 0.39511004 0.19557878
000110 65 45 b4 3d 70 60 e6 3e b8 54 8e 3e fb f9 11 3f
       0.088022985 0.4499545 0.2779901 0.57022065
000120 26 2c 8f 3d e8 ce 1c 3f ec aa b6 3e 9e 59 53 bd
       0.069908425 0.61253214 0.35677278 -0.051599137
000130 e0 a8 ff bd 83 48 19 be cd 18 3b bc 9f 9c 7e be
       -0.12483382 -0.14969067 -0.011419487 -0.24864434
000140 cd e7 ca 3d 8c d7 26 be 09 47 f4 be 86 79 f0 be
       0.09907494 -0.16293162 -0.47710446 -0.46967715
000150 36 ee e6 be 7a 01 02 be 21 13 41 be 2c 6d 6f 3c
       -0.45103616 -0.12695876 -0.18854953 0.014613431
000160 88 0e e5 3e fe 2e 9d 3d 80 ae b3 3e 33 c4 a7 3d
       0.4473765 0.07674979 0.3509407 0.08191719
000170 d3 5b 0a 3f 63 2b ec 3d 79 e2 69 be dd 04 d1 be
       0.5404636 0.11531713 -0.22840299 -0.40824023
000180 eb 47 90 bd c4 b6 80 be e4 94 f1 bc 7f 26 af be
       -0.07044967 -0.2513944 -0.029489942 -0.34209058
000190 41 ac a5 3d 49 66 11 be 36 44 bc 3e c6 30 54 be
       0.080894955 -0.14199175 0.3677079 -0.2072173
0001a0 b9 7b a4 be 8f d6 5b 3d 07 8e 8b be 3d 0b 95 3d
       -0.32125643 0.053671416 -0.27256796 0.07277534
0001b0 12 11 c0 bd a8 7e e7 be 04 9e c6 bd f5 30 28 be
       -0.09378256 -0.4521382 -0.09698108 -0.16424926
0001c0 73 34 28 be e5 70 67 bc 58 fd 39 be 65 7f 13 be
       -0.16426258 -0.014126037 -0.18163049 -0.14404066
0001d0 7c b3 a1 be d4 c1 3c bd 26 2e ba 3d eb 5c 02 bf
       -0.31582248 -0.046083286 0.09090833 -0.5092303
0001e0 e3 53 76 3e fe 38 ef 3c 1b b0 f6 3e 3a ab 0a ba
       0.24055438 0.02920198 0.48181233 -0.0005289797
0001f0 60 a6 57 3e 86 9a a3 3d d9 90 9c bd f2 ab 63 be
       0.21059561 0.079884574 -0.07644815 -0.2223356
000200 ef 7c d3 3d 6e 30 40 be 87 ca bf be 83 01 41 3e
       0.103265636 -0.18768474 -0.37459204 0.18848233
000210 29 a4 6c 3e 9d cb 60 3e 27 84 99 3d 4c 2d be bd
       0.23109497 0.21952672 0.07495909 -0.092859834
000220 c1 0e 83 be 1a 53 8b bc 9f 01 2b 3e 55 3d 89 3d
       -0.25597194 -0.0170074 0.16699837 0.06701151
000230 cf 59 49 be b7 74 b1 3e 30 91 12 bd 82 cd 83 3d
       -0.19663166 0.3465936 -0.035782993 0.06435682
000240 1a 64 65 3e 96 9f a4 3e 9a e0 90 be 87 74 4d 3e
       0.22401467 0.32153004 -0.28296357 0.20063983
000250 ed f3 46 be 30 23 70 be cd 2c 8f be 23 cc 81 bd
       -0.19428988 -0.23450923 -0.27963868 -0.06337764
000260 ec d9 34 3e 80 a8 ac 3e 47 56 7f be 63 33 a8 3e
       0.17661256 0.33722305 -0.24935256 0.32851705
000270 9b 61 0f bd 4e bf 06 3e 30 dd e9 bd f8 6f ac bb
       -0.035005193 0.13158914 -0.11419141 -0.005262371
000280 ee cc cf 3e e9 0a 18 be 59 3c e9 be 09 ca 17 3e
       0.40586036 -0.14847912 -0.45553854 0.14823164
000290 89 a3 c0 3d ed 02 ef bd 47 64 f5 3e 5b 5f a7 be
       0.09406192 -0.1167048 0.47928068 -0.32689938
0002a0 97 fd 43 3e 47 8a b8 3e dd 29 0b 3e 6a d5 6d bd
       0.19139706 0.36042997 0.13590188 -0.058064856
0002b0 c1 f6 23 3e 71 1a 84 3e a2 f6 29 3e ca 22 2f be
       0.16012098 0.25801423 0.16597989 -0.17103115
0002c0 f8 b2 9b be c4 4a 5c bc 8c 1c 31 be d3 75 d9 bd
       -0.3040998 -0.01344556 -0.17296046 -0.10618176
0002d0 4a 25 fa 3d 8a 35 a7 bd 57 fe 7b bd 20 4b 1f bd
       0.122141436 -0.08164509 -0.061521854 -0.038890004
0002e0 2b df 51 3e cf 8b df 3e 99 fc b9 3e 32 2c b4 3e
       0.20495288 0.43661353 0.3632553 0.35189968
0002f0 01 37 e1 be c9 66 e2 3e 02 5f 1d be 21 3c 66 be
       -0.43987277 0.44219044 -0.15368274 -0.22483875
000300 3d 59 22 3e e4 85 50 bd 95 70 25 be f1 75 9c 3c
       0.15854354 -0.050908938 -0.16156228 0.019099208
000310 19 99 51 3e 22 2e e7 be b8 06 70 3e 45 71 55 be
       0.20468558 -0.45152384 0.23440063 -0.2084399
000320 75 13 fa be 77 73 48 be 82 aa c0 be a0 de ea b7
       -0.4884297 -0.19575296 -0.37630087 -2.7998642e-05
000330 1b 9f 0f be d8 d7 01 be 30 c4 82 be d6 3e 01 be
       -0.14025538 -0.12679994 -0.25540304 -0.12621626
000340 71 b8 56 be 81 f5 20 3e 51 34 bc be 6b 29 0f be
       -0.20968796 0.15718652 -0.36758664 -0.13980643
000350 85 f6 dd 3d 8f c8 74 be bd b7 e4 3d 3b 77 b0 be
       0.108380355 -0.23904632 0.11167858 -0.34465966
000360 56 ad 92 3d fc 11 c8 3e 62 7b 12 bd 01 89 48 3c
       0.071619675 0.3907622 -0.0357622 0.0122396955
000370 33 4a b5 be a3 11 44 3e bf 6e d7 3c c9 31 7f be
       -0.35408172 0.19147353 0.026297925 -0.24921335
000380 61 f9 1b ba 43 b6 7f 3e 73 82 83 be a8 82 e5 bc
       -0.0005949941 0.24971871 -0.25685462 -0.028016403
000390 df 61 21 3f a9 d2 5e be 38 b8 7b be 70 fb 67 3e
       0.63039964 -0.21760048 -0.24581993 0.2265451
0003a0 08 4f fd be 51 6c 08 3f d7 66 dd 3d 0b 0a fd 3b
       -0.4947436 0.5329028 0.10810631 0.0077221445
0003b0 c7 92 29 3d 31 a2 d2 be 28 e9 ab be b2 af b3 bd
       0.041399743 -0.41139367 -0.33576322 -0.087737456
0003c0 7f 59 4c be 04 db 95 3e b6 f9 29 bf 2c b5 05 be
       -0.19956015 0.29268658 -0.66396654 -0.13057393
0003d0 ff fb 7f bd f9 dd 09 3e b2 d1 aa 3d f7 13 d0 be
       -0.06249618 0.13463582 0.083407775 -0.40640232
0003e0 de 85 a3 3e a4 0b 80 3e a3 cd a2 3d f8 d8 a4 3e
       0.3193807 0.2500888 0.07949378 0.32196784
0003f0 da 93 13 3e 2b 1a 86 3e c0 51 05 3e 95 e1 be 3b
       0.1441187 0.2619184 0.13019466 0.0058252313

lstm.bias_ih_l0 f4 [128]
000000 43 02 59 3e db 84 8d 3e 64 9d 6a 3e f6 76 19 3e
       0.21192269 0.27640423 0.22911602 0.14986786
000010 1e 9a 64 3e 69 a5 2d 3e 85 bb 27 3e 31 c7 9c 3e
       0.22324416 0.1695763 0.16380127 0.3062072
000020 39 6b 7c 3d af ce ca 3e cc 89 0a 3e 86 00 5a 3e
       0.061625693 0.39610812 0.13529128 0.21289262
000030 b3 cb 98 3e 96 31 0f 3f d6 b7 4a 3e 7b 4e a6 3e
       0.2984291 0.5593504 0.1979669 0.3248175
000040 ba ec 80 3e 47 34 3e bd 31 7f 83 3e 7c 70 75 3e
       0.25180608 -0.046436574 0.25682977 0.2396869
000050 9a 77 5e 3e 47 cf 09 3e 00 22 ad 3e 68 6d ce 3e
       0.21725312 0.13457976 0.33815002 0.40317845
000060 1a 3d 11 3e a1 00 b6 3d ca e2 ed 3d 24 05 a9 3e
       0.14183465 0.08886839 0.11615522 0.33011734
000070 37 3c b0 3e 0a e7 19 3d 70 0e 1b 3e a3 ce e9 3d
       0.3442094 0.03757385 0.15142226 0.11416366
000080 66 5e 64 3e 30 43 b6 3d f4 1a bd 3c 98 9b a6 3d
       0.22301635 0.08899534 0.023084141 0.08135146
000090 b6 5c 9b 3e 13 6e 3e 3e d4 02 4b 3d e7 e0 64 3d
       0.3034417 0.18596677 0.049563244 0.055878546
0000a0 13 6c 60 3e 4b ec 5a 3d 95 ae 62 3e 71 b4 54 3e
       0.21916227 0.053448003 0.2213691 0.20771958
0000b0 db be bd 3d da 48 86 3d f1 cb 2c 3e 81 84 40 bd
       0.092649184 0.06556864 0.16874672 -0.047001366
0000c0 18 e9 5d 3e 9e f7 1a 3d 43 64 20 be de 01 81 3e
       0.2167095 0.037833802 -0.15663247 0.25196737
0000d0 94 c5 4d 3e 9a a5 59 3e d1 aa 12 3e d1 8b 31 bc
       0.20094901 0.21254578 0.14322974 -0.0108365575
0000e0 a6 49 70 bd d8 fd 36 be 07 99 05 3e ad 83 c7 3d
       -0.058663987 -0.17870271 0.13046657 0.09741912
0000f0 cb 5b 79 3d 6b 18 0a 3c fe ad 82 3e 31 f0 82 3c
       0.060878556 0.008428673 0.2552337 0.015983673
000100 c5 f4 4e bd 0f 36 19 3d d2 a0 c7 3c 2f 2d f9 3d
       -0.0505264 0.03740507 0.024368677 0.12166821
000110 5e f3 4f 3c e1 35 70 bd a6 c4 93 ba 71 04 2b 3d
       0.012692301 -0.058645133 -0.0011273816 0.041752283
000120 41 63 1d bd 34 33 95 3c d3 20 4b bc 33 02 80 3d
       -0.038424734 0.018212892 -0.012397963 0.062504195
000130 a7 28 24 be cf c4 5a 3e 61 52 18 3e 70 41 88 bd
       -0.16031133 0.21364139 0.14875175 -0.06653106
000140 75 7f db bd 81 4e dc bd 2c de d6 bd aa 12 41 3e
       -0.1071767 -0.10757161 -0.10491595 0.18854776
000150 2b 5d 27 be f1 be af bd 16 cd 0a 3d 4b bd 0b 3d
       -0.16344135 -0.08581341 0.03388699 0.03411607
000160 8e 35 d7 3c 95 7d 08 3e e0 e1 43 bd 1a f5 10 3e
       0.026270654 0.13329156 -0.047822833 0.14155999
000170 69 fa 21 3e bf 60 99 3d 02 87 74 bd 97 ee 2f be
       0.1581818 0.07489156 -0.059699066 -0.17180859
000180 fb bb 93 3d bb 0c ac bb 6c 32 2c 3e 15 c8 19 3e
       0.07213589 -0.005250541 0.1681611 0.15017731
000190 76 6f 94 3e 6c a2 11 3e 03 af 07 3e d8 aa 8e 3e
       0.28991288 0.14222115 0.13250355 0.27864718
0001a0 e5 09 6b 3d 99 0f cd 3e 0c 51 ae 3e 5a c9 a3 bd
       0.057382483 0.40050963 0.3404621 -0.07997389
0001b0 31 c7 fe 3d a3 db d9 3e bb b1 13 3e 26 42 8b 3d
       0.124403365 0.42550382 0.14423268 0.06799726
0001c0 c9 9c 7d 3e 3d e1 99 3e c8 6b c4 3e a4 1e 45 3e
       0.2476684 0.30054656 0.3836348 0.1924997
0001d0 92 90 f2 3d 5f 96 18 3e bc d7 88 3d 36 b5 07 3f
       0.11843981 0.14901112 0.06681773 0.5301088
0001e0 6c d8 47 3d bd c7 11 3e e5 ec ad 3d 9c e5 b4 3e
       0.04879038 0.1423635 0.0849245 0.35331428
0001f0 24 a4 eb 3e 79 74 52 bd d2 02 27 3e 4e 4c 3e 3e
       0.46023667 -0.05138061 0.1630967 0.18583795

lstm.bias_hh_l0 f4 [128]
000000 c5 e4 b4 3d cf 2a b4 3e c4 a0 4f 3e 56 40 29 3e
       0.08832697 0.3518891 0.20276171 0.16528448
000010 c3 74 e3 3d 3b 6d 67 3e f1 f1 3c 3e 88 b4 f0 3d
       0.11106255 0.22600262 0.18451668 0.117531836
000020 f9 8b 8e 3e 80 42 60 3e 94 41 2c 3e 7e b2 5e 3e
       0.27841166 0.21900368 0.16821891 0.21747777
000030 96 54 7f 3d 46 b6 cd 3e 60 fa d2 3c 4d 8b b6 3e
       0.062336527 0.40178126 0.025754154 0.35653153
000040 80 39 36 3e 2e 32 7c 3c 3b ac 90 3e af 68 85 3d
       0.17795372 0.015392823 0.282564 0.065141074
000050 4f b8 f8 3c fd f9 2f 3d cf 18 f1 3d e1 28 1c 3e
       0.030361323 0.042963017 0.1177231 0.15249969
000060 b1 b3 58 3e 67 65 c0 3d 9a 84 a7 bd 08 73 b0 3e
       0.21162297 0.09394341 -0.081795886 0.34462762
000070 51 6d c5 3e f6 a8 4f bd 15 46 80 3e a2 4d 6f 3e
       0.38559964 -0.050698243 0.25053468 0.23369458
000080 6d 20 db 3c b4 a6 3d bc 04 ec 9a 3e a3 89 06 3e
       0.02674886 -0.01157539 0.3025819 0.13138442
000090 08 18 90 3d 0a 90 36 3d 46 06 4e 3d 15 70 6b bd
       0.070358336 0.04457096 0.05029895 -0.057479937
0000a0 8d 29 51 3e 6b f4 59 bd 88 f3 8a bc 0a 25 de 3c
       0.20426007 -0.05321161 -0.016961828 0.027117271
0000b0 ad 26 5a 3e 89 2a 18 3d fc 1a 24 3d 42 5e ed 3d
       0.21303816 0.03714994 0.040064797 0.11590244
0000c0 c9 9b a4 3d c2 c8 53 3e 2d 64 30 be c9 53 29 3e
       0.08037526 0.20682052 -0.17225714 0.16535868
0000d0 d7 fb f9 3d ca 61 9d 3e 5f 80 f7 bc 5b 26 90 3d
       0.12206238 0.3073867 -0.03021258 0.07038566
0000e0 33 bc 87 bd 18 c3 84 3d ef e9 f3 3d 63 06 9e 3c
       -0.06627693 0.06482524 0.11909854 0.019290155
0000f0 51 5e 89 3d 5a b2 40 3e 35 50 23 3e 73 03 db bd
       0.067074426 0.18818036 0.15948565 -0.10694017
000100 ed 8c 96 3d 80 35 87 3b 0a 04 4a be 12 45 57 bd
       0.07351098 0.0041262507 -0.19728103 -0.052556105
000110 5b 68 f4 3d 9f 03 83 bc da 79 ca 3d d1 2d a8 3c
       0.11933967 -0.015992938 0.098865226 0.02052966
000120 e3 d7 3c 3d 29 e8 bb 3d 1b 35 01 be 73 d6 22 bc
       0.046104323 0.091751404 -0.12617914 -0.009938824
000130 c3 54 6f bc 43 e7 13 bd d3 af 26 be 24 f2 d6 bd
       -0.014607611 -0.03610922 -0.16278009 -0.104954034
000140 29 e3 cc 3d 3f 68 e0 3d d6 d4 c4 bd c4 52 1c bd
       0.10004265 0.10957383 -0.09610908 -0.03816487
000150 de 48 ef bd f4 9e 2f be 76 8b 2c be f6 9c ec bd
       -0.1168382 -0.1715048 -0.16850075 -0.115533754
000160 c1 bd 0b 3e fa 54 82 3d 94 3f 66 3d 10 47 c1 3d
       0.13646604 0.06363864 0.056212977 0.09437382
000170 da c8 4f bd 5d 4e dc 3d ae 1b 80 bd 75 18 02 be
       -0.050728656 0.10757134 -0.062552795 -0.12704642
000180 7c be 92 3d 05 03 b3 3d d5 fa aa 3e 2c 06 92 3e
       0.07165238 0.0874081 0.33394495 0.28520334
000190 a9 f6 07 3e ce 88 c1 3e 6b bc b1 bc ba 83 62 3e
       0.13277687 0.37799686 -0.02169629 0.22120562
0001a0 dd 12 6f 3d 67 2e fb 3e a0 c8 57 3e 12 c2 b3 bd
       0.0583676 0.4905884 0.21072626 -0.0877725
0001b0 c1 2a b4 3e 79 bc f7 3e d2 57 88 3e bb 83 06 3e
       0.3518887 0.4838598 0.26629502 0.13136189
0001c0 9b 30 70 3e a6 b6 a3 3c 02 eb b9 3e 43 d2 e4 3e
       0.23456042 0.019984554 0.3631211 0.44691667
0001d0 e4 89 8d 3e 37 14 76 3e 26 07 f0 3c a3 a9 87 3e
       0.27644265 0.24031149 0.029300284 0.2649661
0001e0 85 83 92 3d cc cf 2c 3d 70 bf 10 3d 33 1e 5c 3e
       0.071539916 0.042190358 0.03533882 0.21495895
0001f0 68 7f df 3e a5 60 5c 3d 8b 6a b9 3e 84 bd 4e 3d
       0.4365189 0.053803105 0.36214098 0.050473705

fc.weight f4 [1, 32]
000000 9f e7 31 bd 33 a9 c1 3e 45 2d b1 3e ba 35 04 bf
       -0.04343378 0.378244 0.3460485 -0.5164448
000010 48 c8 a1 3e 20 25 e0 3e 77 07 db 3c 68 52 0f 3e
       0.31598115 0.43778324 0.026736958 0.13996279
000020 fb 59 bb be 8c fc db 3e d6 c6 af 3e c1 ff 8f be
       -0.36592087 0.42966115 0.34331387 -0.28124812
000030 90 0a 5d 3e c9 49 87 3e 61 2e e5 be 9e 1b cb 3e
       0.2158606 0.2642348 -0.44761947 0.39669508
000040 7d a1 e9 be ca 8f a5 3e c1 04 1d 3f 20 7a c9 be
       -0.45631018 0.32336265 0.6133538 -0.39350986
000050 f6 1f 3b bd 92 cc 10 3e fa 68 28 3e 5d 55 7d 3e
       -0.045684777 0.14140537 0.16446295 0.24739595
000060 40 5d 95 3e 76 76 bf 3e c7 f3 c1 3d 04 3b b5 3e
       0.29172707 0.37395066 0.09470325 0.35396588
000070 4b dd dc 3e 6f c6 de 3c 41 9c 28 3e 7c bd 9a bd
       0.43137583 0.02719423 0.16465856 -0.075556725
