MIX_fut_lihovidov_model/best_model_second.pth (torch, 25202 bytes, 6 tensors)

embedding.weight f4 [19, 8]
00000000: 3fc0 35bf 77e1 553f 8004 77bf 10df eabf
00000010: 4f60 863f d362 cc3f b975 a23f 50cf c8bf
00000020: 9bea 9d3e c1b2 e93e b35b 2cbe 38a9 a63f
00000030: 794b c6be f992 8ebf 9331 bcbf c685 973e
00000040: 59f5 7a3f bec5 e93d 028a 643f 76d3 a73c
00000050: d89b 1dbe 5c60 443e d664 523f c02e 61bf
00000060: 90ab 22be 6af5 973f ed79 8fbe bd2f 12bf
00000070: 2449 72bf 316f 1ec0 3ed9 58bf b85f 51be
00000080: b301 1a3f f61b dfbf e980 bd3f 357b 75be
00000090: 2287 5f3c 9fda 983f 8b5c 033f b317 463e
000000a0: f26b dfbd 53d2 78bf 15f9 0fbf af7f 393e
000000b0: eabd 533f 608d 88bd ab27 90be f9d6 03bf
000000c0: 43bf 573f c554 b2bf c112 8bbf ca44 c13e
000000d0: 39a0 6a3f e310 efbe 9b70 9b3f bec7 84bf
000000e0: 413b a33f a49a 773f df5b 7a3f 9160 46be
000000f0: ab54 e33f 634e 163f 0d82 8bbf 9f05 0ec0
00000100: 4363 633d f953 1540 324b c33f 0322 843e
00000110: 696c c53d 21e1 c6be cd3a dbbf 3776 c03f
00000120: d48a b8bf 10d8 8e3f 916c 48bf ad84 8e3f
00000130: 183b c03e f8a5 1c40 e53d 123e a4a3 d5be
00000140: 475f 7bbe 101c eebe 4f9f af3f 4c66 403e
00000150: 5308 b23f 7261 133f 23d0 d4be 918e d43e
00000160: fa1a ac3f 1d4f 973f 102d 80bf 0180 73bf
00000170: 31d0 20bf ea9c 75be 1fb3 cf3d 92b3 b23f
00000180: 45fc 4ebf eb0a cf3f d610 bebf f0d3 d6bf
00000190: 5f57 abbf a324 cdbf e4b2 d83a 73bb 11bf
000001a0: 0dcc 0ec0 1391 b03f abb9 843f 16eb 953f
000001b0: 0cc1 c3be 3242 3d3f b15d 1abf b8ff ab3f
000001c0: f2a0 acbd 15fa b2bf 7d05 553f f3b3 a63e
000001d0: f6e5 ae3c 2e3d 40c0 4b49 433f d456 fa3e
000001e0: c260 2ac0 9122 653e 3f66 35bf ad97 bcbf
000001f0: 81bc 433f a36b 913c 8075 7fbf e787 583f
00000200: 68e5 b2be 0fc5 d5bf 0d96 32c0 754e b73d
00000210: 304a 2f3f e401 5b3f 51d8 ec3e 12b4 cebc
00000220: c869 7d3f 4450 dd3e 6941 a7bf 6bfa fe3e
00000230: 3422 3d40 b9a3 8b3e d61c f63d fe32 b73f
00000240: 7375 0d3f 3b77 d23e 0c10 60bf 5f2f b13f
00000250: 6e54 cbbd e6f0 783d cebd 3cbf 32a6 00bf
-0.7099647 0.8354716 -0.9649124 -1.8349323 1.0498141 1.5967659 1.2692176 -1.5688267
0.30843052 0.4564419 -0.16831855 1.3020391 -0.38729456 -1.1138602 -1.4702629 0.2959425
0.9803062 0.114146695 0.89273083 0.020486575 -0.15391481 0.19177383 0.82185113 -0.8796196
-0.15885758 1.187177 -0.2802271 -0.5710409 -0.94642854 -2.4755366 -0.84706485 -0.2044667
0.6015884 -1.7430408 1.4804965 -0.23972781 0.013643058 1.1941718 0.51313084 0.19344978
-0.10909261 -0.9719593 -0.56239444 0.18115114 0.8271166 -0.0666759 -0.28155264 -0.514999
0.8427622 -1.393212 -1.0865098 0.37747794 0.9165073 -0.4669257 1.214374 -1.0373456
1.2752458 0.9672034 0.97796434 -0.19372775 1.7760214 0.5871336 -1.0899063 -2.219093
0.055514585 2.3332503 1.5257323 0.258072 0.09639818 -0.38843635 -1.712732 1.5036076
-1.4417367 1.1159687 -0.7829066 1.113424 0.37545085 2.44763 0.14281423 -0.4172641
-0.24548064 -0.46505785 1.3720492 0.18789023 1.390879 0.57570565 -0.41565046 0.4151502
1.3445733 1.1821018 -1.0013752 -0.95117193 -0.62817675 -0.23985639 0.101415865 1.396105
-0.8085368 1.6175207 -1.4848888 -1.6783428 -1.3386039 -1.6026806 0.0016532806 -0.5692665
-2.2312043 1.3794273 1.0369161 1.1712368 -0.3823322 0.7392913 -0.6029921 1.3437414
-0.084291354 -1.3982569 0.832115 0.32559165 0.021349888 -3.003734 0.7628371 0.4889437
-2.6621556 0.22376467 -0.7085914 -1.4733788 0.7645951 0.01775152 -0.99788666 0.8458237
-0.34940648 -1.6700763 -2.7904084 0.08950511 0.68472576 0.8554976 0.46258786 -0.025232349
0.98989534 0.432253 -1.3066837 0.4980043 2.9552126 0.27273348 0.12017219 1.4312437
0.5525734 0.4110659 -0.87524486 1.3842582 -0.09928213 0.060776614 -0.7372712 -0.50253594

lstm.weight_ih_l0 f4 [128, 8]
00000000: 551d 2b3e f565 253e d8e8 c0bd d4a6 2bbe
00000010: b2fe d13c d514 1cbc a74e 933d fc17 8e3d
00000020: f404 fabd c3db bfbd d7eb 983d 4740 5b3d
00000030: 548b 6e3d 8c3d fdba fc1a 0fbd ea86 9cbd
00000040: ae50 1dbe 6e75 fa3d a64d 26ba d174 733c
00000050: 9546 323e 83b5 be3d 54d0 073e 509a 10be
00000060: caf3 cb3d f149 94bd 2b85 973d 2077 44bb
00000070: 81bd 0dbe 2898 c7bc c495 9bbd ab5b 2d3e
00000080: e656 013c 48ea 26be 70c0 db3d 2a39 083e
00000090: 22be 39be fddf 273e d8bb ddbd 3c2f 8cbc
000000a0: ce10 be3c 120d 593b 8346 eabd fa24 7b3c
000000b0: 0c94 4dbd 0c0f ffbc 9bd2 063e 7f35 283d
000000c0: a364 953d 689f 29be 4037 cb3d 4fe4 c03d
000000d0: 40bb 0d3e 675d e83c 04f7 05bd fb7c 153e
000000e0: e620 39be 3b9e 8dbd bc8a 033d 4afe 1c3e
000000f0: 2a7a 35be f269 173e 4d82 b13d be74 ad3d
00000100: 12e5 51bc 3dab 11be badb ddbc 1017 1d3e
00000110: 847f ee3b dcda fdbb b374 abb9 a4ca 333e
00000120: a6da 31bd 6e75 a03c 22c1 dabc baf1 a43d
00000130: ce1c 13be a700 db3d beef 313d 5ba1 39bc
00000140: ad26 b23d 000f a63d cec3 38bd d693 1cbd
00000150: cf8d 07be 98e0 a5bd 87bb 343e 7a66 30be
00000160: 2033 063e bff6 aa3d a2d6 313d e8d8 ba3c
00000170: 7041 003d b38d 9c3d d675 bc3d 2a9e a4bd
00000180: 9edd 17be 509d db3d 2f58 343d 2033 0f3e
00000190: a218 c73d 334a 06be 4700 953d 399f 1abe
000001a0: e829 1a3e d8cc 11be f04c b6bc 9ad9 9f39
000001b0: 6c73 013e 9a6a 13bd 6b25 e1bc acc6 9bbc
000001c0: 4452 293d 27d4 0a3e 2543 90bd f285 e83d
000001d0: 64a0 143e aa2f d8bc 539b cb3d 291c 5d3d
000001e0: 218b c63d ca3c 13bd c344 0cbe beb0 46bd
000001f0: b2ce a53d 5861 4a3d 8a18 5b3c 07b1 903d
00000200: c62c efbd f435 fabd 3a82 853c e831 4fbd
00000210: f7e4 ba3d 5acd 28be e85d 2e3d 42bb 933c
00000220: 9d21 ca3d d3c2 17be dd6d 6bbd a103 07be
00000230: 8d9c bf3d 7428 583d 94ba f5bd 2b04 8cbd
00000240: 7849 153e 3e91 383d cf96 103e 51a7 f43d
00000250: 3cdc 253e 6174 283e 69ee eb3d 58b1 da3d
00000260: 52a2 203e ef79 263e b5fa 9d3d 8b83 bf3d
00000270: 323c 433b 6fba 01be 83fc 2abd d065 26bc
00000280: d41a 183e 138e cbbd 0827 c639 80d5 33be
00000290: 9446 85bd d438 ea3c 7494 b1bd 5b26 d7bd
000002a0: 0324 e43d dc6b 2a3e 4497 0dbe aa4e aebd
000002b0: e0c7 80bd 2d3c 8dbd face cfbd 770b 383e
000002c0: 6339 cb3d 291a 173d 8b20 5bbd 998e 4abd
000002d0: d142 c63d 7f00 233e 25f4 003e 4749 e93d
000002e0: 9ef4 d93d d31f 2f3d d9d3 fcbd 6f89 453d
000002f0: 578b aebd 5fbe c83d 1e80 123e 8ce3 213e
00000300: e095 ec3d 6649 70bd b3f4 9f3b 27f1 103d
00000310: 8383 abbd a7b6 a9bd 3f98 753d 181c a8bd
00000320: 5733 07be ebef f6bd b710 29be c806 97bc
00000330: b267 183e 256f 21bd 9ee1 07be 8b8a 913d
00000340: dfe5 2c3e 7983 45bd cfbe d33d 7139 28be
00000350: 0fb1 373e 40a5 e33d 2f76 0a3e 6c01 033e
00000360: 3369 1dbe b3d6 be3c 5776 2f3e c927 d73d
00000370: acbb a6bc 5cd0 9fbd 7db1 db3c 984c 2bbe
00000380: a180 1a3d 2749 273e 49a6 133e 4701 afbc
00000390: cd73 0e3e 1636 253d c2af a0bd 856e dcbd
000003a0: 31fc ef3d 1363 e93d 035e d33d cd72 93bd
000003b0: e4e1 c2bd 183b c6bd 93d7 e5bd 7bd3 7c3d
000003c0: bf4b 69bd 177f 01bd 81fe ce3d be71 bb3d
000003d0: d2fa 5fbd aaa0 2b3e 80fc 7d3d 8a45 debd
000003e0: 9554 0a3e 7982 a53c 456c 31be 258e cdbd
000003f0: 6e21 d93d fd60 a9bd 86b5 dc3d ce8c d33d
0.16710408 0.16152175 -0.094194114 -0.16762859 0.025634144 -0.009526451 0.07192736 0.069381684
-0.12207976 -0.09368088 0.07466858 0.053528097 0.058238342 -0.001932071 -0.034937844 -0.0764292
-0.15362808 0.12229429 -0.0006343968 0.014859394 0.17409737 0.09311964 0.13263065 -0.14121366
0.099586084 -0.07240666 0.07398447 -0.002997823 -0.13841821 -0.024364546 -0.07596925 0.169295
0.007894253 -0.16300309 0.10730064 0.13303056 -0.18138936 0.16394038 -0.10826844 -0.017112367
0.023201372 0.0033119363 -0.1143923 0.01532864 -0.050190017 -0.031135105 0.13166277 0.041066643
0.072945856 -0.16564715 0.099226475 0.094185464 0.13840961 0.02836485 -0.032706276 0.14598458
-0.18078956 -0.06914946 0.03211473 0.15331379 -0.17722383 0.14786509 0.08667431 0.084695324
-0.012810962 -0.14225478 -0.027082313 0.15340829 0.0072783846 -0.0077470373 -0.0003270261 0.1755777
-0.04342141 0.019587245 -0.026703421 0.08053918 -0.14366457 0.10693484 0.043441527 -0.011329974
0.08698783 0.0810833 -0.04510861 -0.038226925 -0.1323769 -0.080994785 0.17649661 -0.17226592
0.1310544 0.08347844 0.04341758 0.022808507 0.031312406 0.076442145 0.09202163 -0.0803798
-0.14830634 0.10723364 0.04402941 0.13984346 0.09721495 -0.13114242 0.072754435 -0.15099801
0.15055048 -0.14238298 -0.022253484 0.0003048897 0.12641686 -0.035990335 -0.027483663 -0.019015633
0.04133822 0.13557492 -0.07044057 0.11353673 0.14514309 -0.026389915 0.09941735 0.053981934
0.096945055 -0.035946645 -0.13698106 -0.0485084 0.080960646 0.04940924 0.01337255 0.07065015
-0.11678462 -0.12217322 0.016297448 -0.050584704 0.09125703 -0.16484585 0.042570025 0.018033627
0.098696925 -0.14820413 -0.05747782 -0.13184978 0.093560316 0.052772954 -0.119984776 -0.068367325
0.14578807 0.04506039 0.14120029 0.119459756 0.16197294 0.16450645 0.115200825 0.10678357
0.1568692 0.16257451 0.07713834 0.09351262 0.0029790518 -0.12668775 -0.04174472 -0.01015611
0.14853984 -0.09939208 0.00037794583 -0.17561913 -0.06507602 0.02859155 -0.08670893 -0.105053626
0.11139681 0.16642708 -0.13827235 -0.08511098 -0.06288123 -0.06896243 -0.101468995 0.17973123
0.09923055 0.036890183 -0.053497832 -0.049452398 0.09680713 0.15918158 0.12593134 0.1139093
0.1064236 0.04275496 -0.12345094 0.04822677 -0.08522671 0.098019354 0.14306685 0.15809458
0.11552024 -0.05866375 0.0048814653 0.03538623 -0.08374693 -0.08286791 0.059959646 -0.082084835
-0.13203178 -0.120574795 -0.16510282 -0.01843585 0.14883307 -0.039412636 -0.1326966 0.07106503
0.16884564 -0.048221085 0.10339128 -0.16428162 0.17938636 0.11115503 0.13521646 0.12793511
-0.15372162 0.023295736 0.17134987 0.10505635 -0.02035316 -0.07803413 0.026818031 -0.16728437
0.037720326 0.16336499 0.14418902 -0.021362914 0.13911362 0.040334783 -0.07846023 -0.107632674
0.117180236 0.1139585 0.10320666 -0.07199631 -0.095157415 -0.0967924 -0.11222758 0.06172512
-0.056957003 -0.031615343 0.101071365 0.09152554 -0.05468256 0.16760507 0.06200838 -0.10853107
0.13508828 0.020203816 -0.17326458 -0.100368775 0.10602079 -0.08270452 0.1077681 0.10329591

lstm.weight_hh_l0 f4 [128, 32]
00000000: 3e35 24be 4e6c 14bd 115b 203e 3bd8 a9bd
00000010: f65f 81bd 9876 a5bd 7bcf 1bbe a491 b8bd
00000020: 0240 0cbe b7c0 1a3e 3711 99bd 95e2 da3c
00000030: 1c5a 873d cfc9 f63d 0724 c2bd 25c3 d0bd
00000040: c0c7 b23b 74fe 9b3b 3714 a4bd 1e08 ee3d
00000050: e46a 253e 9d54 9d3d 2677 f03d 27f7 003e
00000060: 0e14 073e 7623 90bc 8f74 143e b51c 273e
00000070: 957f f0bd 42c3 8f3d 200c 2ebe 38a4 06be
00000080: 84ec 003d d3d7 023e d367 e1bd 9a80 25be
00000090: 78b1 f83d 8882 d83d 79d6 3ebe 9224 dabd
000000a0: 183f e9bd 268d 30be d069 243e 782e 1f3e
000000b0: 8162 56bc 06b5 1d3e 2214 5fbd 9a6f 3d3d
000000c0: ff84 093d d0a7 293e 83c0 ed3d aa72 00be
000000d0: 1e0a 033e 17a1 3d3e 55d1 0c3e 2974 143e
000000e0: 6fd9 02be 7fe0 b73d 922e 193e 7601 4abe
000000f0: 7011 883d b7ba 4cbd 09cb 2dbe dffc bebd
00000100: 6e0a 0abe 15fa 1c3d 3cc6 53bc fe83 0c3d
00000110: 8de5 143e 09ef 543d 53a3 b7bd 8f7b 28be
00000120: f2d9 31be 70bc 203e b7e5 973d 4a92 afbd
00000130: 5e0d 373c d22d afbc a1bd e7bd 56a2 5d3b
00000140: 5daf 0dbe 5040 09bd cff6 75bd 5365 aa3d
00000150: aac2 153d b838 17bd 3b23 c03d 55a8 cdbd
00000160: 7535 553d 39bb a03d cb92 c83d 8ff0 31be
00000170: 71a7 c6bc 8e62 d63a bdf3 78bc a993 0fbe
00000180: 18e7 93bd f3c4 14be cd9f 893d 4511 7b3d
00000190: d13f a3bd 36ee 6bbd 1d71 9a3d 90a8 283c
000001a0: 2558 c43d 6321 0ebe fb93 293e baad e93d
000001b0: 4c0b e83d 9c30 0fbe 56b7 c03d 937e ba3d
000001c0: d141 c73d 6d17 fbbd b0a8 b7bd cd46 c43c
000001d0: 7467 043e 3f98 23be ae5b 1dbd 08fe a53d
000001e0: ea15 c43d a70f 903d be35 05bd 47dc 073e
000001f0: c10b 8ebd 4f04 0a3e f67a 1b3b 630e 393e
00000200: 225d 23be 9634 a0bc 4299 09be c65a 0b3d
00000210: 6d1c ddbd 172a 5abd b19e aabd 66d8 af3d
00000220: 7b50 09be 886a 3b3e 3871 2d3e 8a96 c63d
00000230: b109 6b3d 72b0 cb3d 49b0 09be e352 35bd
00000240: ca3f 87bd 1126 de3d 9d80 9a3d 522d 753d
00000250: b5af 9d3d c008 25be 0df8 95bd a590 bbbd
00000260: 4030 c43d 63dd b73c b1ac 10bd 5ab3 853d
00000270: e282 0fbe 2140 e7bb 9458 683d 696b 893b
00000280: 3ff7 f93d 31ec b6bb ed49 1d3d 4825 a4bd
00000290: 0ba0 17be 26ef 86bd f83a 433e abbd 043e
000002a0: a73c 183e 8742 983d 8bd3 923c c065 1d3e
000002b0: 311a 3fbe 6225 cebd c2b8 923d 8872 bfbd
000002c0: 78dd a7bd 34e0 ed3d b77f f2bd 3b7d b5bd
000002d0: 2abf 1ebe 4131 12be d1a2 ebbd 7e25 dabd
000002e0: 5adc 133e 4875 ea3d 1324 0f3e 5a77 3b3e
000002f0: 84e8 98ba 86d9 ad3d 8e4c e63d 416d 233e
00000300: 9270 3cbc 7cff cbbd dda6 353d 0df2 da3d
00000310: e708 2f3d 7628 06be c4e2 343c c1df 12bc
00000320: 9f61 c4bd 5d38 8dbd 3dc1 213e ca45 b2bd
00000330: 0919 843d 3a10 0f3e e706 983b 7ef9 c63b
00000340: 6ba9 0ebe 6565 38be b509 193e b9e8 db3d
00000350: d1bd 76bd f6c5 5c3d 4ff7 f3bc 2b6f 1d3c
00000360: a426 1cbd 2a52 c33d eb6b 50bd 6758 a0bd
00000370: f696 cbbc 8a46 0bbe cfed 0d3e 7362 073e
00000380: 455c 273e c58c 1ebe 65e2 eebc bf88 9f3d
00000390: 4e8f 353e c867 c6bd f809 0bbe 4ff2 3e3c
000003a0: f1c2 ebbc 785c f13d 23f2 20bd 7840 22be
000003b0: 815e b13d e193 da3d b958 433c 7cbf 393e
000003c0: e8c5 063e 6291 23be 943f 15be ce22 abbc
000003d0: dda2 a73d 65c3 3fbd 04f4 70bc f39e 983c
000003e0: 8f39 debd 1c0e 6e3d 7c21 a1bc a505 a1bd
000003f0: 3bfa 283e 5ef1 a2bd f966 e1bd 9ca5 27be
-0.16035935 -0.0362361 0.15659739 -0.08293196 -0.06317131 -0.080792606 -0.15215866 -0.09012154
-0.13696292 0.15112577 -0.074739866 0.02671937 0.06608984 0.12050211 -0.09479528 -0.10193471
0.005455941 0.004760558 -0.08011668 0.11622642 0.16154057 0.07682154 0.11741476 0.12594281
0.13191244 -0.017595034 0.14497589 0.16319545 -0.11743084 0.07019664 -0.16996813 -0.13148582
0.03147556 0.12777643 -0.11006131 -0.16162339 0.121432245 0.10571772 -0.18636502 -0.106515065
-0.11388987 -0.17241344 0.1605599 0.1554507 -0.013085009 0.15401086 -0.05446256 0.04624901
0.0335741 0.16567922 0.11608984 -0.12543741 0.12796828 0.18518482 0.13751729 0.14497437
-0.12778257 0.08978366 0.14959171 -0.1972712 0.06643951 -0.049982753 -0.16971983 -0.09325575
-0.13480541 0.038324434 -0.012925681 0.034305565 0.14540692 0.051985774 -0.089666985 -0.16453384
-0.17368296 0.15696883 0.074168615 -0.08572824 0.011172621 -0.021384154 -0.11315466 0.0033818684
-0.13836427 -0.0335086 -0.06004983 0.08320107 0.0365626 -0.036919326 0.0938172 -0.100418724
0.052052934 0.0784821 0.097936235 -0.17376922 -0.024249764 0.0016356276 -0.0151948305 -0.14021172
-0.07221812 -0.14528255 0.06719933 0.061295766 -0.079711564 -0.057600223 0.07541106 0.010294095
0.09587125 -0.13879924 0.16560356 0.11410089 0.1133028 -0.13983387 0.094099686 0.09106173
0.0972935 -0.122603275 -0.089677215 0.023959542 0.12930089 -0.15976046 -0.03841751 0.08105093
0.09574492 0.070342354 -0.032521956 0.13267623 -0.06935836 0.13478206 0.0023724413 0.18071894
-0.15953496 -0.019556325 -0.1343737 0.034022115 -0.107964374 -0.053262796 -0.08331049 0.085861966
-0.13409607 0.18302357 0.16937721 0.09696682 0.05738229 0.09945764 -0.13446154 -0.0442685
-0.06603964 0.10847104 0.07544062 0.059857674 0.07699529 -0.16116619 -0.073227026 -0.09158448
0.095795155 0.022444433 -0.03532094 0.06528349 -0.14014772 -0.0070572053 0.0567251 0.0041937125
0.122053616 -0.0055823554 0.03840058 -0.08014923 -0.14807145 -0.06588583 0.19065464 0.12962978
0.14866887 0.07434564 0.017923137 0.15370846 -0.18662335 -0.10065724 0.07164146 -0.09348017
-0.08196539 0.11615029 -0.11840766 -0.088617764 -0.15502611 -0.14276601 -0.11505664 -0.10651682
0.14439526 0.11448151 0.13978605 0.18307248 -0.0011665975 0.08488755 0.112450704 0.15959646
-0.011501448 -0.09960839 0.044348586 0.10690699 0.0427331 -0.13101372 0.011040393 -0.00896448
-0.09588932 -0.06895516 0.15796371 -0.087047175 0.064500876 0.13971034 0.0046394947 0.0060722223
-0.13931815 -0.18007429 0.14945109 0.10737748 -0.060239617 0.053899728 -0.029781012 0.009609024
-0.038122788 0.09537156 -0.05088417 -0.078293614 -0.024852257 -0.13601127 0.13860248 0.13221149
0.16343792 -0.15483387 -0.029160688 0.07789754 0.17730448 -0.096877635 -0.13578022 0.011654451
-0.028779479 0.11785215 -0.03929342 -0.15844905 0.08660603 0.10672737 0.011923009 0.18139452
0.13161433 -0.15973428 -0.14575034 -0.02089062 0.081853606 -0.046817202 -0.014706615 0.01863048
-0.10850822 0.058118924 -0.019669287 -0.07862405 0.16501705 -0.079561934 -0.110059686 -0.16371769

lstm.bias_ih_l0 f4 [128]
00000000: c1b4 70bc 39ee c13d 6f7f 173e 6913 453d
00000010: 3b3e 80bd 580e e1bd 655d aa3d 42da 2bbd
00000020: 2edc e53d 57ef cabc f42d 6cbd 2964 12be
00000030: 4667 453d 0982 6fbd 0b55 0a3e bca0 d8bd
00000040: f41c 043e 8a6b 823c 3a1b 863d e69b c3bd
00000050: 9b0b 3dbe 9702 233c c407 d9bd bd17 e5bd
00000060: 0803 c8bd 7800 e73d 9dab 123e e694 5fbc
00000070: 0100 113e 19c8 1ebe b257 aa3c b1f6 0a3e
00000080: 483e 243e ac55 8fbd d0a7 2cbe cb5b e6bd
00000090: d273 0dbe 5341 423d ea3b b1bb ce44 78bc
000000a0: ee7a 3e3e d534 cc3d 9672 d73c 23f3 94bd
000000b0: 4335 f7bd 7f44 cb3c 4d2f a6bd fccc b53d
000000c0: 9469 8f3d 449f b53c dbb1 e83d e47e 1ebe
000000d0: 17a1 0dbc d9be cb3d eb9b 5fbc 2572 033e
000000e0: 1a10 9dbd 6b54 653d 055e 093e 35af 3c3e
000000f0: b3e0 c4bc 9595 903d bde7 0d3e 5e3c 7e3d
00000100: fc20 08be 7005 3a3e 9fc7 00be 0585 2fbe
00000110: c486 2dbd ac5d 973d aa12 d6bd fd08 ae3c
00000120: a32a 623b eded 41bd edd9 013e 0c53 803d
00000130: 9ae6 95bd ef82 063e cd2e 83bc 07aa f3bc
00000140: 0917 f83d 1aee 54bd 1087 01be 1fa1 403d
00000150: a373 8e3d 813b 053b 6e00 c4bd 5999 a4bd
00000160: d874 223e 87ae fc3d 2cdc 953d 8832 f3bd
00000170: 85ba 943d 9484 ab3d 4950 3ebe 1a88 99bd
00000180: c7b8 993d 9883 49bd 07f5 2d3c de70 12be
00000190: adc0 c0bc d33a b4bd 7ded 083e 748c ea3d
000001a0: 40d9 7fbd 7ebc 263d 6bfe 1b3e 392d 12be
000001b0: 62a7 28bd 7548 b6bd ed94 863d 297e f93d
000001c0: b1b9 e1bd 7cb8 f4bc b4ae 1a3d 7c50 423d
000001d0: 56a3 f0bd 3742 15be 90ed 103e 4d54 e43c
000001e0: 6539 c23c 2374 303e 8770 073e d1a3 123c
000001f0: 3008 01bb 7b2e 3e3d bfcc f33d fc7e 90bd
-0.014691533 0.094692655 0.14794706 0.048114214 -0.062618695 -0.10989064 0.08318595 -0.041956194
0.112236366 -0.02477233 -0.05766101 -0.1429602 0.048194192 -0.05847362 0.13509004 -0.10577533
0.1290167 0.01592042 0.06548162 -0.0955122 -0.18461458 0.009949348 -0.10597184 -0.11186168
-0.09766203 0.11279386 0.14323278 -0.01364634 0.14160158 -0.15506019 0.02079377 0.13570668
0.16039383 -0.069987625 -0.1686089 -0.11247977 -0.13813713 0.04742558 -0.0054087536 -0.015153123
0.18601581 0.099710144 0.026299756 -0.07272937 -0.12070706 0.024812935 -0.08114491 0.08876988
0.07002559 0.02217067 0.11362048 -0.15478092 -0.008644364 0.09948511 -0.013648014 0.12836511
-0.07669087 0.05598871 0.13414772 0.18426211 -0.024032926 0.070597805 0.13857932 0.06206929
-0.13293833 0.18166137 -0.1257615 -0.17140587 -0.04236485 0.07390913 -0.10452779 0.02124452
0.0034510277 -0.047346044 0.12680788 0.0626584 -0.073193744 0.13135885 -0.016013527 -0.029744161
0.121137686 -0.051984884 -0.12649179 0.047028657 0.0695565 0.0020329657 -0.095703945 -0.08037061
0.15864885 0.12337976 0.07317385 -0.118748724 0.07262138 0.08374897 -0.18585314 -0.074966624
0.075059466 -0.049197763 0.010617501 -0.14300868 -0.023529375 -0.08800282 0.13371845 0.114525706
-0.062463045 0.040707104 0.15233772 -0.14275064 -0.041175254 -0.08900539 0.06571374 0.12182266
-0.11021746 -0.029873125 0.037764266 0.047440037 -0.11749904 -0.1457604 0.14153123 0.027872229
0.023709008 0.17231803 0.1322652 0.00895019 -0.0019688718 0.046431046 0.119042866 -0.0705547

lstm.bias_hh_l0 f4 [128]
00000000: c761 bb3d 21f2 d4bc 712e d83d 4799 f3bc
00000010: 5ba6 d53d e51b d9bd 2d7a 313d e559 46be
00000020: 493e 233e f0df ec3c aff5 df3d 7028 203e
00000030: 9b86 1dbe ec46 083e de73 e0bd 100b a73d
00000040: cd30 2bbd 5f63 39be 7ea1 e63d dba6 213e
00000050: 52ad edbd b94e eeb9 40c0 313e 23b0 dcbd
00000060: a27e 08be 43d1 8ebc d97e ba3d a8cc 093e
00000070: 5883 ffbd 3948 57bd 6665 213e c931 3fbd
00000080: f8c6 6f3c 6f37 ad3c ee41 353e 7b76 65bd
00000090: 4eae 043e 9507 a23d de87 01bd caf4 413c
000000a0: 9eb2 0c3e a9fb bf3d 3705 7a3d e747 1d3c
000000b0: 5aa2 b13d 5d1d e1bd fc89 a9bd 9609 2fbe
000000c0: 6b99 febd 45bb 37be 4d53 3a3e ea3b d03d
000000d0: eb60 ff3c 88ba fa3a 42df c5bd ad00 c3bc
000000e0: c78c f73c 8fa0 21be 5c21 303e 51cf 263e
000000f0: cd08 12bd 7102 073e caf5 573c b06b de3d
00000100: 7888 183e 7c4a 363e e4bc 02bc b89a 323e
00000110: b97e 23bc c317 163e ee68 25be 2cde 0f3e
00000120: 5575 18be 4804 a83d 6d2d 08bd a8ed 223e
00000130: 54ff c13d a0ae 1dbd 21a8 e0bc 6722 9f3d
00000140: e1e1 3dbe 1af8 e33d 3115 d83d 524c ae3d
00000150: a8e4 dbbd bf97 d6bd 9f04 24be 07b1 ebbd
00000160: 1f4a b53d f2e7 17bc e05b ca3d d0ac f5bc
00000170: beba a1bd ea93 1cbe f1eb 30be 4286 1ebc
00000180: 3871 0fbe eb0f a3bd 7af3 acbd 3883 eebd
00000190: 0e3a e83d daf0 1e3e 5523 1f3e c73e c2bd
000001a0: ea83 a6bd dcb3 8a3d c0ee a03d 13e5 c4bd
000001b0: 3d3c 063e 57b5 ef3d a017 12bd 05ba 573d
000001c0: 64dc 14be 9d1f 1ebe e307 b03d 0805 cd3c
000001d0: 4214 153e eaea dfbc be6d 0ebd 1a76 06be
000001e0: e1cc d8bc 0e39 8e3c 1ba3 e0bd 2c2b cb3d
000001f0: 0ee2 59bd a23e f3bd ae5a 40bd c168 41bd
0.09149509 -0.025994362 0.10555733 -0.029736174 0.104321204 -0.106010236 0.043329407 -0.1937023
0.15941729 0.028915375 0.10935532 0.15640426 -0.15383379 0.13308305 -0.109596 0.08156407
-0.041794587 -0.18104313 0.11261271 0.15786307 -0.11605324 -0.0004545355 0.17358494 -0.10775783
-0.13329557 -0.017433768 0.091062255 0.13456976 -0.12476224 -0.05255911 0.15761337 -0.04667834
0.01463484 0.021144597 0.17700931 -0.056021195 0.12957117 0.079116024 -0.031623714 0.011838147
0.13740012 0.09374172 0.06104013 0.009599662 0.08673544 -0.10991929 -0.082782716 -0.170935
-0.12431606 -0.17942531 0.18195839 0.10167678 0.031174144 0.0019129077 -0.09661724 -0.023804033
0.030218495 -0.15783904 0.17200226 0.16290022 -0.035652924 0.13184525 0.013181159 0.108603835
0.14895809 0.17801851 -0.007979605 0.17441833 -0.0099789435 0.14657502 -0.16153309 0.14049596
-0.14888509 0.082039416 -0.033246446 0.15910971 0.09472528 -0.038496614 -0.02742392 0.077702336
-0.18543197 0.11131306 0.10550917 0.08510651 -0.10736972 -0.10478162 -0.16017388 -0.11508375
0.08852028 -0.009271609 0.09880805 -0.02998963 -0.07896946 -0.152908 -0.17277505 -0.009675564
-0.14008033 -0.079620205 -0.08444877 -0.11646122 0.11339198 0.15521565 0.15540822 -0.0948463
-0.08130629 0.06772587 0.07858038 -0.09614005 0.13108917 0.1170451 -0.03566706 0.052667636
-0.14537197 -0.15441747 0.08595254 0.025026813 0.14558509 -0.027333695 -0.034772627 -0.1313099
-0.026464881 0.01736119 -0.1096861 0.09920344 -0.0531941 -0.11877181 -0.04696148 -0.04721904

fc.weight f4 [1, 32]
00000000: 2b7d 10bd 60e9 283e aaa2 2abe 1641 883c
00000010: 89aa 583d b695 1cbe 7fb0 d13d 0c7a 16be
00000020: 531f 31bd 85ec 043e d607 8a3d 8f9d babc
00000030: 1b5c 153e 194b 163e fd92 e73d b071 b4bd
00000040: 19cd c1bd f830 0fbe 417a 153e 415f f3bd
00000050: e107 b43d 64eb 003d 4ad8 bbbd 609f 70bd
00000060: 49a9 333e d939 3d3e bc1a b83d 1b4d abbd
00000070: ad0c 9e3d c7d6 a43d 13f2 0ebd bc2b bfbd
-0.03527562 0.16495275 -0.16663614 0.016632598 0.05289701 -0.15291485 0.10238742 -0.14694995
-0.043242764 0.1298085 0.06739776 -0.022780208 0.14585917 0.14677085 0.11307333 -0.08810747
-0.094629474 -0.13983524 0.14597417 -0.118834026 0.08790565 0.031474486 -0.09172113 -0.05874574
0.17545046 0.18479098 0.08989474 -0.08364316 0.077172615 0.08048778 -0.03489883 -0.093345135
