MIX_fut_lihovidov_model/best_model_first.pth (torch, 25191 bytes, 6 tensors)

embedding.weight f4 [19, 8]
0	0x3d868ab9	0.06569428
1	0xbfabf9d7	-1.343562
2	0x3e50110f	0.20319007
3	0x3f4c4c1c	0.79803634
4	0x3c9af2d3	0.018914616
5	0xbfab5376	-1.3384845
6	0xbf4a658b	-0.7906119
7	0xbed57f26	-0.4169857
8	0x3ea3b312	0.31972557
9	0xbec3b498	-0.3822372
10	0xbf0a8b80	-0.5411911
11	0x3e474e75	0.19463523
12	0x3fdd172e	1.7272699
13	0xbfc1fb60	-1.5154839
14	0xbe55b06f	-0.20868085
15	0x3f2c3078	0.6726146
16	0x4000d3aa	2.012919
17	0xbfe47245	-1.7847372
18	0x3f2b9d39	0.6703678
19	0xbf91d0f0	-1.1391888
20	0xbefd74d3	-0.49503192
21	0xbf58fffe	-0.84765613
22	0xbf7e9ad0	-0.99454975
23	0x3fbae5d2	1.4601386
24	0x3e774031	0.24145581
25	0x403b9e61	2.9315417
26	0xbf29634b	-0.66167134
27	0xbfbd46e0	-1.4787254
28	0xbdea367a	-0.11436172
29	0xbee7a049	-0.45239475
30	0x3e9c5022	0.30529886
31	0xbed74494	-0.42044508
32	0xbfdea09e	-1.7392766
33	0x3f237b18	0.638597
34	0xbf86db6a	-1.053571
35	0x3f508385	0.8145068
36	0x3f5f8a8d	0.87320787
37	0xbe66e4ac	-0.22548169
38	0xc040b6c3	-3.011155
39	0xbfc70388	-1.5547953
40	0xbf8ffa03	-1.1248173
41	0x3f7ea189	0.99465233
42	0x3e6cf7af	0.23141359
43	0x3e737d89	0.23778357
44	0x3f4c4835	0.7979768
45	0x3feac0ed	1.8340126
46	0x3f37635c	0.71635985
47	0x400eea49	2.2330496
48	0x3f954d6f	1.1664256
49	0xc0213237	-2.5186899
50	0x3fa87848	1.3161707
51	0x3f22d658	0.6360831
52	0x3ea9a113	0.33130702
53	0xbeb735ed	-0.3578333
54	0x3fa51272	1.2896254
55	0x401b3531	2.4251215
56	0xbeb88a06	-0.36042804
57	0xbf70ea0b	-0.9410712
58	0x3f84fca2	1.0389597
59	0x3e1d05ad	0.15334196
60	0xbfee5d10	-1.862215
61	0xbed49a7b	-0.4152411
62	0x3f0219c1	0.5082055
63	0x3fa7b2c6	1.3101432
64	0x3e8ba381	0.2727318
65	0xbf6277c9	-0.8846403
66	0xbfacab16	-1.3489711
67	0x40192e99	2.393469
68	0xbf237c4b	-0.6386153
69	0xbd89511a	-0.06704922
70	0x3f9aa92e	1.208288
71	0x3edca4a6	0.43094367
72	0x3f8d6b5d	1.104839
73	0xbf775696	-0.96616495
74	0x4001f611	2.0306437
75	0x3eb9517f	0.3619499
76	0x3f0215f7	0.50814766
77	0x3f346ab0	0.7047529
78	0xbf6cad10	-0.9245157
79	0x3f2a4846	0.6651653
80	0xbfe7ad1e	-1.8099706
81	0x40364585	2.8479931
82	0xbd5a03a7	-0.05322614
83	0x3ed4ad0f	0.41538283
84	0xbe8748bd	-0.26422682
85	0x3fb74c2c	1.4320121
86	0x40295923	2.6460655
87	0x3fcefdf3	1.6171249
88	0xbf1f49e1	-0.62222105
89	0xbf5d4c37	-0.8644442
90	0xbf9b2f00	-1.2123718
91	0x4009a271	2.1505396
92	0x3f83eade	1.0306051
93	0xbf7f2958	-0.9967246
94	0x3e287a89	0.16452993
95	0xbfc39fd0	-1.5283146
96	0xbf0df875	-0.5545724
97	0xbf24e181	-0.6440659
98	0xbf0a341a	-0.5398575
99	0xbf53bdae	-0.82711303
100	0x3f74639f	0.9546451
101	0xbdbf9520	-0.09354615
102	0x3da2c2ff	0.07947349
103	0x3f1ac394	0.6045468
104	0xbeae1ab7	-0.34004757
105	0xbf8960b0	-1.0732632
106	0x3f72d32d	0.9485348
107	0xbed02c94	-0.4065901
108	0x3d8a487e	0.06752108
109	0xbf77fa61	-0.9686642
110	0xbea2e58d	-0.31815758
111	0xbfab69ec	-1.33917
112	0x3f7c48f6	0.9854883
113	0xbf8b8031	-1.0898496
114	0x3f987dd7	1.1913403
115	0xbfb33af6	-1.4002368
116	0xbdcb19df	-0.09917044
117	0x3eb2e05c	0.34936798
118	0xbe28bce4	-0.16478306
119	0xbeee5c4d	-0.46554795
120	0xbffe7d37	-1.9881963
121	0x3e1911f7	0.1494826
122	0xc02c5d31	-2.693188
123	0xc02112a4	-2.5167627
124	0xbf0d8b92	-0.5529109
125	0xbfadded8	-1.3583632
126	0x3e2bbc81	0.16771127
127	0x3d135222	0.035967
128	0xbf63e013	-0.89013785
129	0x3f16d9a2	0.5892583
130	0x3f4876fc	0.78306556
131	0xbfaf4bb7	-1.3694981
132	0x3f27dc20	0.6557026
133	0xbf049c81	-0.51801306
134	0xbcffb197	-0.031212611
135	0x3dde0873	0.10841455
136	0xbe2d99b0	-0.16953158
137	0xbedc6e99	-0.4305313
138	0xbf828f42	-1.0199969
139	0x3f250280	0.6445694
140	0x401cf045	2.452165
141	0x403060fa	2.755919
142	0x3e0c8a47	0.13724624
143	0xbf41aa9f	-0.7565097
144	0xbe4c32e0	-0.19941282
145	0xbf4ed0cb	-0.8078734
146	0x3f9948d5	1.1975352
147	0x3ef37c87	0.47555944
148	0x3fa4d754	1.2878213
149	0xbe755e11	-0.23961665
150	0xbf093736	-0.5359987
151	0x3f889d68	1.0673037

lstm.weight_ih_l0 f4 [128, 8]
0	0xbc8ca62f	-0.017169086
1	0x3e6bb7e6	0.2301937
2	0x3e8e88c4	0.2783872
3	0xbdefd1a3	-0.11709907
4	0x3e2ef912	0.170872
5	0xbe2279e3	-0.15866809
6	0xb952651a	-0.00020064824
7	0xbe4b2574	-0.19838506
8	0x3e464492	0.19362095
9	0xbd7fc39d	-0.06244241
10	0x3e2b3772	0.1672037
11	0xbd9a1427	-0.07523375
12	0xbe718e5a	-0.23589459
13	0x3d15febc	0.036619887
14	0x3e8c92cc	0.27455747
15	0x3df90666	0.121594235
16	0x3b998b4c	0.004685795
17	0x3dc3fccc	0.095697016
18	0xbda4a6d7	-0.08039635
19	0xbed58f3c	-0.41710842
20	0xbd81fa91	-0.0634662
21	0xbde4dc54	-0.11174837
22	0xbe61270c	-0.21987551
23	0xbe2f44c4	-0.17116076
24	0x3e928d8b	0.28623614
25	0xbeacb723	-0.33733472
26	0xbe07f316	-0.13276324
27	0x3e9a34fc	0.3011855
28	0x3ea5331f	0.32265565
29	0x3bf93a6b	0.007605841
30	0x3de33241	0.110935695
31	0xbeb881de	-0.3603658
32	0xbe2a0f9d	-0.16607518
33	0xbd36f23a	-0.0446646
34	0x3e3b5acd	0.18296356
35	0x3d514436	0.05109044
36	0xbda703b3	-0.081550024
37	0xbe932fa7	-0.28747293
38	0x3e6ca0cc	0.23108214
39	0x3e9d896a	0.307689
40	0xbe0b1b54	-0.13584644
41	0xbc137cb6	-0.009001901
42	0x3d565a2a	0.05233208
43	0x3e5f02e0	0.2177844
44	0xbe8de1f6	-0.27711457
45	0x3d909b5f	0.07060885
46	0x3efd372f	0.49456164
47	0x3f0b5547	0.54427
48	0xbdf9a8d8	-0.121904075
49	0x3daa55d8	0.08317155
50	0xbe3b2e34	-0.18279344
51	0xbe0d4f9c	-0.137999
52	0x3db1e211	0.08685697
53	0x3dd937d6	0.10606353
54	0x3e8aab0a	0.27083617
55	0xbda1162f	-0.07865559
56	0xbdc025d7	-0.093822174
57	0x3da34b78	0.07973379
58	0x3df227ac	0.11823973
59	0x3e03e251	0.12879302
60	0x3ec8c37d	0.39211646
61	0x3dab4fe5	0.08364848
62	0xbe87dc61	-0.26535323
63	0xbd84545c	-0.06461403
64	0xbbeec216	-0.0072863204
65	0x3da78c66	0.08181076
66	0x3d2b0abe	0.04175829
67	0x3c0c5c71	0.008566962
68	0x3e54a03e	0.20764253
69	0x3e93fac6	0.28902262
70	0x3dcf8e3e	0.101345524
71	0xbc6f1c99	-0.014594221
72	0xbd802e68	-0.06258851
73	0x3e44d8bd	0.19223304
74	0xbe135733	-0.14388733
75	0xbe51311e	-0.20428893
76	0x3e1038b8	0.14084136
77	0x3d9b8024	0.075928
78	0xbd6cc297	-0.057802763
79	0xbec5cde7	-0.38633654
80	0xbe24913a	-0.16071025
81	0x3ea38d20	0.31943607
82	0x3deb108c	0.114777654
83	0xbe4d73f8	-0.2006377
84	0x3eb32b20	0.3499384
85	0x3d1cb079	0.038254235
86	0x3da710c5	0.081574954
87	0xbe5f6a43	-0.2181788
88	0xbeaa8b94	-0.33309615
89	0xbd3fb227	-0.04680076
90	0xbd10d2d4	-0.03535731
91	0x3e36591e	0.17807433
92	0x3e95b832	0.29242092
93	0xbe839450	-0.2569909
94	0x3e2189f3	0.1577528
95	0xbdd616e1	-0.104535826
96	0x3ca2a15f	0.019852338
97	0xbda9300e	-0.08261119
98	0x3d235180	0.039872646
99	0x3e3de34e	0.18543741
100	0x3e959ebf	0.29222676
101	0x3d349099	0.04408321
102	0xbe318e5e	-0.17339465
103	0x3c8c74aa	0.017145474
104	0xbd85354f	-0.065043084
105	0xbe5a7b38	-0.21336067
106	0xbe00bff9	-0.12573232
107	0x3e958c2b	0.29208502
108	0xbcb2cd10	-0.021826297
109	0xbd7733fd	-0.060352314
110	0xbd61c07d	-0.05511521
111	0x3dc7912a	0.09744485
112	0x3c324e32	0.010882901
113	0x3e70801a	0.23486367
114	0xbd9ba503	-0.07599833
115	0x3d784f13	0.060622286
116	0x3ccacfb1	0.024757238
117	0x3d67f771	0.056632463
118	0x3e94ff22	0.291009
119	0x3d648208	0.05578807
120	0xbe30acf5	-0.17253478
121	0x3dc302fb	0.09522053
122	0xbe83f8a6	-0.2577564
123	0xbe29bf14	-0.16576797
124	0x3e1d8880	0.15384102
125	0x3e21b1bc	0.15790457
126	0xbebdcf27	-0.37072107
127	0xbeb20308	-0.34767938
128	0xbe02beac	-0.12768048
129	0xbe22c3ae	-0.15894958
130	0x3dff6f93	0.12472453
131	0xbd6f0444	-0.058353677
132	0x3e46520a	0.19367233
133	0xbdbeb4fb	-0.09311863
134	0xbd5d0356	-0.05395826
135	0xbe237345	-0.1596194
136	0x3e1b4083	0.15161328
137	0xbe97aff1	-0.2962642
138	0x3e4de7fa	0.20108023
139	0xbdcee14f	-0.10101568
140	0x3ed08caa	0.40732318
141	0x3e885c97	0.2663314
142	0xbc80426b	-0.01565667
143	0xbdea6ab1	-0.11446131
144	0x3a9c5ee5	0.0011930136
145	0xbd89e2a5	-0.06732682
146	0xbe372e5f	-0.17888783
147	0x3e24655c	0.1605429
148	0xbe45056f	-0.19240354
149	0xbe231a91	-0.15928103
150	0x3e3013db	0.17195074
151	0x3e7732bb	0.24140446
152	0xbe65936e	-0.22419521
153	0x3e317836	0.17331013
154	0x3e620d92	0.22075489
155	0xbe9a3437	-0.30117962
156	0xbe209b14	-0.15684158
157	0xbe4b6815	-0.19863923
158	0xbe5e8d28	-0.21733534
159	0x3df006ef	0.117200725
160	0xbe839ec2	-0.2570706
161	0xbe108569	-0.14113392
162	0x3d48df9d	0.04904138
163	0x3e2fe685	0.1717778
164	0xbd8d612b	-0.06903299
165	0xbdc925e7	-0.098216824
166	0xbd59caba	-0.05317185
167	0xbd24740e	-0.04014974
168	0x3defad8f	0.117030255
169	0xbe450847	-0.19241439
170	0x3e2794e8	0.16365397
171	0xbe10e4b7	-0.14149748
172	0x3e98f8ea	0.29877406
173	0xbd8db7ff	-0.0691986
174	0xba92d942	-0.0011203664
175	0x3d6b3fa8	0.057433754
176	0xbed7219b	-0.42017826
177	0x3d9e5a8c	0.07732114
178	0xbeaebafa	-0.34127027
179	0x3dfa3582	0.12217237
180	0x3e7d72b2	0.24750784
181	0x3eab271d	0.3342828
182	0xbdbc2949	-0.09187562
183	0xbd32a45c	-0.043613777
184	0xbebb5023	-0.36584577
185	0xbe319fce	-0.17346117
186	0x3ecd8e70	0.40147734
187	0xbe2feda1	-0.17180492
188	0x3eb3d995	0.3512694
189	0x3e2f9c7f	0.17149542
190	0x3e0430a7	0.12909184
191	0xbe0c0b11	-0.13676096
192	0xbecbf8ab	-0.39838156
193	0xbc40f821	-0.011777909
194	0xbdef71f7	-0.11691659
195	0x3c16b0cf	0.009197428
196	0x3dffd387	0.124915175
197	0xbea147d6	-0.3150012
198	0xbe07bac4	-0.13254839
199	0xbd28f32b	-0.041247528
200	0xbe8c23e3	-0.2737113
201	0xbb54f2e6	-0.0032493412
202	0xbe2f8a47	-0.17142592
203	0x3cea0224	0.028565474
204	0x3dab655b	0.083689414
205	0xbe0e543d	-0.13899322
206	0x3dd65ddf	0.10467123
207	0xbe3ef2e2	-0.1864734
208	0x3ece7d7e	0.40330118
209	0xbecd2826	-0.40069693
210	0x3ebde93c	0.37092006
211	0xbdcc50b7	-0.09976333
212	0xbdf13b28	-0.11778861
213	0xbdcec198	-0.10095519
214	0xbe31d60e	-0.17366812
215	0x3eae5205	0.3404695
216	0x3eb4686e	0.35235924
217	0x3de02633	0.10944786
218	0x3db1ac28	0.08675414
219	0xbdb8a2ec	-0.0901545
220	0xbe3df775	-0.18551429
221	0x3e15cdf4	0.14629346
222	0x3edf3634	0.4359604
223	0x3dc291dd	0.095004775
224	0x3e81d6ee	0.2535929
225	0xbcd4db89	-0.025983589
226	0xbdb74031	-0.089477904
227	0xbe9504ba	-0.2910517
228	0x3dfe1d47	0.12407928
229	0x3dbe5fd0	0.092956185
230	0xbeb64ccd	-0.3560547
231	0xbeaf1d07	-0.34201834
232	0x3d27ba73	0.040949296
233	0xbcc19ec0	-0.023635268
234	0x3dbbaaf4	0.09163466
235	0xbe747b3c	-0.23875135
236	0xbe5bdb66	-0.21470413
237	0x3ceb7112	0.02874044
238	0x3e8eb516	0.27872533
239	0xbd319b4b	-0.04336099
240	0xbe9777b4	-0.29583514
241	0xbe39f686	-0.18160447
242	0xbeb53de1	-0.35398772
243	0xbd2f1e03	-0.04275323
244	0x3b71d811	0.0036902467
245	0xbdf49417	-0.119423084
246	0x3c806341	0.015672328
247	0x3e9286d2	0.28618485
248	0xbd904c22	-0.07045771
249	0x3b9d9b0a	0.004809742
250	0xbdda84ee	-0.106698856
251	0xbd34d0c5	-0.04414441
252	0x3e2880b9	0.16455354
253	0x3d3a71e3	0.045518767
254	0xbe1e7ddf	-0.15477704
255	0xbe8a3915	-0.26996675

lstm.weight_hh_l0 f4 [128, 32]
0	0xbe0917a8	-0.1338793
1	0x3db1afc8	0.08676106
2	0xbe7dcd84	-0.24785429
3	0x3e99fe17	0.30076668
4	0xbed69183	-0.41907892
5	0xbe2eff5f	-0.17089604
6	0xbe614768	-0.21999896
7	0xbef92c13	-0.48666438
8	0xbbd96270	-0.006634049
9	0xbe5ddaef	-0.21665548
10	0xbec94cf0	-0.3931651
11	0xbefc1c0b	-0.49240145
12	0xbe9fc4d2	-0.3120485
13	0x3e054a6b	0.1301667
14	0xbc29c13c	-0.010361012
15	0xbd703c11	-0.058651034
16	0x3e5bfb2f	0.21482538
17	0xbd7141d8	-0.058900684
18	0xbe7cdd8a	-0.24693885
19	0xbe8a2a7a	-0.26985532
20	0xbe155ec4	-0.14586931
21	0xbe5ee426	-0.21766719
22	0xbf3f4f9e	-0.7473086
23	0x3cc64371	0.02420208
24	0xbde5eb40	-0.11226511
25	0x3e377bd2	0.17918327
26	0xbeadefa9	-0.3397191
27	0xbea7df7f	-0.327877
28	0xbe43dd2e	-0.19127342
29	0xbee4fbe6	-0.44723433
30	0x3ec34f15	0.38146272
31	0xbc99e782	-0.01878715
32	0x3c44f068	0.012020208
33	0x3e170b11	0.14750315
34	0xbe81ec82	-0.25375754
35	0xbec140d0	-0.3774476
36	0xbe927e21	-0.28611854
37	0xbeae2951	-0.34015897
38	0xbe4473e3	-0.19184832
39	0xbe6aea87	-0.22941028
40	0xbeb35f54	-0.35033667
41	0x3e723d12	0.23656109
42	0xbe26d4dd	-0.16292138
43	0x3e4fead4	0.20304424
44	0xbf08f767	-0.53502506
45	0x3e5310cf	0.2061188
46	0x3ef68cfe	0.48154444
47	0xbe0dae71	-0.13836075
48	0xbdf63d08	-0.120233595
49	0x3e17b17d	0.148138
50	0xbe77b10b	-0.2418863
51	0x3f272878	0.65296125
52	0x3e7a6cb0	0.24455523
53	0xbd6f8469	-0.058475886
54	0xbe963b67	-0.29342195
55	0xbe591a2c	-0.2120139
56	0x3d877f75	0.066161074
57	0x3ddd1062	0.107941404
58	0x3aa1789b	0.0012319268
59	0xbd9784ae	-0.073983535
60	0x3d236d78	0.03989932
61	0x3d858183	0.06518843
62	0x3d153a61	0.036432628
63	0xbebf4069	-0.3735383
64	0xbf00d5fc	-0.50326514
65	0x3e769b9a	0.24082795
66	0x3dcbdbac	0.099540085
67	0x3d80217f	0.06256389
68	0xbe9f8e3f	-0.31163213
69	0xbed1c582	-0.40971
70	0xbe874c39	-0.2642534
71	0xbf725136	-0.9465517
72	0x3ce43d59	0.027861284
73	0xbd27771b	-0.040885072
74	0xbcdee0f2	-0.027206872
75	0x3e4dfe7b	0.20116608
76	0xbe8c5f16	-0.27416295
77	0x3e0c0492	0.13673618
78	0x3d7362a2	0.059420235
79	0x3f0d4369	0.55180985
80	0x3e084c4f	0.1331036
81	0x3e5662b0	0.20936084
82	0x3d5f1940	0.05446744
83	0xbe78e126	-0.24304637
84	0xbeaa1e36	-0.33226174
85	0xbe1af0d8	-0.15130937
86	0xbedc8cbe	-0.43076128
87	0x3ea4b764	0.32171166
88	0x3e8b790b	0.27240786
89	0x3d009848	0.031395227
90	0xbda49cb8	-0.08037704
91	0xbe77ce89	-0.2419988
92	0x3e8da245	0.27662864
93	0xbe4c318d	-0.19940777
94	0xbeacaec9	-0.337271
95	0xbdd35835	-0.103195585
96	0xbe0e3046	-0.13885602
97	0xbd44ebf9	-0.048076604
98	0xbd821156	-0.06350963
99	0xbd9a3456	-0.075295135
100	0x3d92a719	0.071607776
101	0x3d73e2a7	0.059542324
102	0xbed9ac2a	-0.42514163
103	0x3d9c386a	0.07627948
104	0x3ea00c12	0.3125921
105	0x3d8b57b9	0.06803841
106	0xbdf7150f	-0.120645635
107	0x3e8c442d	0.27395764
108	0xbe83ae98	-0.25719142
109	0xbd8260d3	-0.06366124
110	0xbe8713c1	-0.2638226
111	0xbeab137a	-0.33413297
112	0xbf170e83	-0.5900652
113	0xbe4e76f4	-0.20162565
114	0xbee5e6b0	-0.44902563
115	0x3de00aba	0.10939546
116	0x3d8f0c4b	0.069847666
117	0x3e00ad38	0.12566078
118	0x3a9fc988	0.0012190798
119	0xbd8a310a	-0.06747635
120	0xbc7ba257	-0.015358529
121	0xbd738ef0	-0.059462488
122	0x3e86496c	0.2622789
123	0xbddc112b	-0.10745462
124	0xbd9467ff	-0.07246398
125	0x3e4cc845	0.19998272
126	0x3ef9c1f8	0.487808
127	0x3df41ffc	0.11920163
128	0x3e747c63	0.23875575
129	0x3e96de8b	0.29466662
130	0x3e98ad04	0.298195
131	0x3cb5cc87	0.022192253
132	0x3d811e00	0.0630455
133	0x3e72e7bc	0.23721212
134	0xbe7ed406	-0.24885568
135	0x3e631083	0.22174267
136	0xbd89ff6a	-0.067381695
137	0xbdab3c86	-0.08361153
138	0xbd03323c	-0.03203033
139	0x3c400c37	0.011721662
140	0x3e5ac258	0.21363199
141	0xbd22df1c	-0.039763555
142	0xbdd6aae6	-0.10481815
143	0x3df8649c	0.12128565
144	0xbe3d706b	-0.18499915
145	0xbe854436	-0.26028603
146	0xbeddac48	-0.43295503
147	0x3ea0ebdd	0.3142995
148	0xbdf8304a	-0.121185854
149	0xbec80213	-0.39064083
150	0xbe5db057	-0.216493
151	0xbe96acf5	-0.2942883
152	0xbd11dd8b	-0.03561167
153	0xbe7b60db	-0.24548666
154	0x3e709b58	0.23496759
155	0xbecd0cd6	-0.40048856
156	0xbe621221	-0.22077228
157	0xbe2b45ff	-0.1672592
158	0x3e8485dd	0.2588338
159	0xbe529971	-0.20566346
160	0x3f17c042	0.5927774
161	0x3c558e78	0.0130344555
162	0x3d326c5c	0.04356037
163	0xbd1369a2	-0.03598941
164	0x3e7fbe64	0.24974972
165	0x3e859ce0	0.2609625
166	0x3e323e30	0.17406535
167	0x3ed3accb	0.41342768
168	0x3dede3a5	0.116156854
169	0x3e365db1	0.17809178
170	0x3e515905	0.20444115
171	0x3eace0b9	0.337652
172	0xbe5802f0	-0.2109487
173	0xbdad3936	-0.08458178
174	0x3e913579	0.2836111
175	0xbd56d594	-0.052449778
176	0xbdb32646	-0.087475345
177	0x3e05cfeb	0.13067596
178	0x3e39773b	0.18111889
179	0x3f08e336	0.53471696
180	0x3ed49803	0.41522226
181	0xbe990981	-0.29890063
182	0x3f07bdde	0.5302409
183	0x3d3d4939	0.04621241
184	0x3ecbdadf	0.39815423
185	0xbd8e6aff	-0.06954002
186	0x3e078f05	0.13238151
187	0x3e30c2a9	0.17261757
188	0xbe16d8b5	-0.14731105
189	0x3f067650	0.5252428
190	0xbe618d8c	-0.22026652
191	0xbe98710a	-0.29773742
192	0x3e759849	0.23983873
193	0xbd642864	-0.055702582
194	0xbe1958e7	-0.1497532
195	0x3f0d9014	0.5529797
196	0x3eaa9c73	0.33322486
197	0x3f14334e	0.57890785
198	0x3d51494d	0.051095296
199	0xbe4364a1	-0.19081356
200	0x3e28d727	0.16488324
201	0x3eac632b	0.3366941
202	0x3f18e883	0.59729785
203	0x3e11c619	0.14235725
204	0x3d334f57	0.043776836
205	0xbed17dd8	-0.40916324
206	0xbeca1987	-0.394726
207	0xbc0c8cf5	-0.008578529
208	0x3e148e86	0.14507493
209	0xbdccf1c7	-0.10007053
210	0xbba71375	-0.005098755
211	0x3d45c92c	0.048287556
212	0x3e274feb	0.1633908
213	0x3e20b2a8	0.15693152
214	0x3bd4afe9	0.0064906967
215	0x3edb618b	0.42847857
216	0x3e0edfef	0.13952611
217	0x3e22d25b	0.15900557
218	0x3db6391d	0.08897612
219	0x3eddffeb	0.43359312
220	0x3e340edd	0.17583795
221	0x3ec6f1a8	0.38856244
222	0xbd77f450	-0.06053573
223	0x3e0fcc0c	0.14042681
224	0x3cf39a0d	0.029736543
225	0x3ecaf949	0.39643314
226	0xbdb70c6e	-0.08937918
227	0x3ebbf757	0.36712143
228	0xbdccffba	-0.100097135
229	0xbeb8f3c2	-0.36123472
230	0xbf00e194	-0.50344205
231	0xbf1a6fad	-0.60326654
232	0x3e45ec02	0.19328311
233	0xbaa0e878	-0.0012276312
234	0xbe042f9c	-0.12908787
235	0xbed56dc1	-0.41685298
236	0xbed38c35	-0.41317907
237	0x3d94ca95	0.07265202
238	0xbdee9f16	-0.11651437
239	0xbdeedb40	-0.11662912
240	0x3e812708	0.2522509
241	0x3d991266	0.07474212
242	0xbef3381c	-0.47503746
243	0xbdf4fca0	-0.11962247
244	0x3eb3e899	0.35138395
245	0xbed498aa	-0.41522723
246	0xbf0f9790	-0.5609064
247	0x3e28c55b	0.16481535
248	0x3db13e10	0.086544156
249	0x3ec757fc	0.38934314
250	0x3e40bef3	0.18822841
251	0x3d512697	0.051062193
252	0x3e01f73c	0.12691969
253	0xbe34e86e	-0.1766679
254	0x3e7dca3d	0.24784179
255	0xbba10d08	-0.0049148835

lstm.bias_ih_l0 f4 [128]
0	0x3e43b47b	0.19111817
1	0x3d93ef49	0.072233744
2	0x3e597048	0.21234238
3	0x3e165341	0.14680196
4	0x3d91b6ef	0.0711497
5	0xbcc03784	-0.023463972
6	0x3dfe5d3c	0.12420127
7	0x3f233880	0.6375809
8	0x3e9dd74c	0.3082832
9	0xbd243b78	-0.040095776
10	0x3db3c9c4	0.08778718
11	0x3df1b80a	0.11802681
12	0x3d6f75d3	0.058461975
13	0x3f030bc2	0.51189816
14	0x3e4c45a8	0.19948447
15	0x3ea78711	0.32720235
16	0xbd350c71	-0.04420132
17	0x3e987f88	0.297848
18	0x3ea98f3b	0.3311709
19	0x3dc91413	0.09818282
20	0x3e9f4a34	0.311113
21	0x3e0eaf9e	0.1393418
22	0x3df42e29	0.11922867
23	0x3ecc7735	0.39934698
24	0x3e9a92ca	0.30190116
25	0x3e4d8f1d	0.20074125
26	0x3e5e8a7b	0.21732514
27	0x3e4a7051	0.19769408
28	0x3d26acbf	0.040692087
29	0x3ed1184f	0.40838858
30	0x3e882c35	0.26596227
31	0x3d89a5dd	0.06721089
32	0x3dd2a60c	0.10285577
33	0x3dc1f0da	0.09469767
34	0x3eb60285	0.35548797
35	0xbd4dae37	-0.050214972
36	0x3df7d539	0.12101216
37	0xbe79bb89	-0.24387945
38	0xbb8cd36b	-0.004297664
39	0x3dd171ee	0.102268085
40	0x3de2a07e	0.11065768
41	0x3e771674	0.24129659
42	0x3eb7a176	0.35865372
43	0x3e6050e8	0.21905863
44	0x3de9a99e	0.11409305
45	0x3e69fbe5	0.22849996
46	0x3e412246	0.1886073
47	0x3e11efe7	0.14251672
48	0x3e0d329c	0.13788837
49	0x3e203462	0.15644982
50	0x3e0d731f	0.13813446
51	0x3ea0b68d	0.31389275
52	0xbce055a3	-0.027384585
53	0x3e564018	0.20922887
54	0x3e3826fb	0.1798362
55	0x3e26ec8d	0.16301174
56	0xbcb57378	-0.022149786
57	0x3e486f3a	0.1957368
58	0x3e4349f9	0.19071187
59	0x3e3ac4c1	0.18239118
60	0xbcddd5cf	-0.027079491
61	0x3eb40c61	0.35165694
62	0x3da94468	0.082650006
63	0xbcd28f9e	-0.025703248
64	0x3d5af761	0.053458575
65	0x3dd0a939	0.10188527
66	0x3d61898c	0.055062816
67	0x3e50e80e	0.20401022
68	0xbe3f827f	-0.18702124
69	0x3d214272	0.039370008
70	0xbe35ed7e	-0.17766377
71	0xbc5d394c	-0.01350243
72	0x3d325317	0.043536272
73	0x3dacb822	0.08433558
74	0xbe86193f	-0.26191136
75	0x3d9f11ec	0.0776709
76	0x3d9bb4b0	0.07602823
77	0xbdb28c6a	-0.08718188
78	0xbdced40e	-0.1009904
79	0xbe0650c2	-0.13116744
80	0xbd1b26e2	-0.03787888
81	0xbc16e797	-0.009210489
82	0xbe0302c1	-0.1279402
83	0x3cfde9b8	0.030995235
84	0x3e36ffb9	0.17870988
85	0xbd59c9ef	-0.053171095
86	0xbdb0f63b	-0.08640715
87	0xbddd84c6	-0.1081634
88	0x3decddf8	0.11565775
89	0x3d144859	0.03620181
90	0x3d055cef	0.03255933
91	0xbe457ff0	-0.19287086
92	0x3d17b6fd	0.037039746
93	0x3d96bb84	0.073599845
94	0xbdebdd66	-0.11516838
95	0x3dd00b13	0.10158362
96	0x3eac5b86	0.33663577
97	0x3e9f36b6	0.3109643
98	0x3e8dd2ca	0.27699882
99	0x3ebf2ff1	0.37341264
100	0x3de1c507	0.11023908
101	0x3e686eb6	0.22698483
102	0x3ecd7689	0.40129498
103	0x3e29931a	0.16560021
104	0x3e82a6b3	0.25517806
105	0x3d8ace8a	0.067776754
106	0x3ea389ef	0.31941172
107	0x3dd8cf6e	0.10586439
108	0x3e631157	0.22174583
109	0x3e597d91	0.21239306
110	0x3db815ac	0.089885086
111	0x3d6d746f	0.057972368
112	0xbcdc1546	-0.026865613
113	0x3e3d7f6a	0.18505636
114	0x3eafeb90	0.34359407
115	0x3e82f4cf	0.255774
116	0x3e603c48	0.21897995
117	0x3ec2302d	0.3792738
118	0x3e96e1e1	0.29469207
119	0x3e0a25e9	0.13491024
120	0x3eb66ca7	0.3562977
121	0x3e430e40	0.19048405
122	0x3ec0652d	0.3757719
123	0x3e43908d	0.1909811
124	0x3ca0d167	0.0196311
125	0x3e9626ae	0.29326385
126	0x3ede2791	0.43389562
127	0x3dac8d70	0.084254146

lstm.bias_hh_l0 f4 [128]
0	0x3e6a3f53	0.22875719
1	0x3e3538be	0.17697427
2	0x3d3ae48a	0.045628108
3	0x3db8bc01	0.09020234
4	0x3c1f4746	0.009721583
5	0x3df7aac1	0.120931156
6	0x3e572a16	0.21012148
7	0x3f26f74c	0.65221095
8	0x3ebfce9c	0.37462318
9	0x3e01e96b	0.12686698
10	0x3e7555e2	0.23958543
11	0x3e92e7a3	0.2869235
12	0x3eb47beb	0.35250792
13	0x3e5a0efc	0.21294779
14	0x3e918e65	0.2842895
15	0x3e8c7a47	0.2743704
16	0x3e8623bc	0.26199138
17	0x3d9f4351	0.077765115
18	0x3e871b15	0.2638785
19	0xbc612c61	-0.013743491
20	0x3b08e611	0.0020889083
21	0x3df55f27	0.119810395
22	0x3eaad29a	0.333638
23	0x3ef7a4d7	0.4836795
24	0x3e8899a4	0.26679718
25	0x3ef26030	0.4733901
26	0x3e695725	0.22787149
27	0x3e995dcb	0.2995437
28	0xbbfd872e	-0.007737062
29	0x3e1b224c	0.15149802
30	0x3e7a95b3	0.24471168
31	0x3eb4ed4e	0.353373
32	0xbd99b294	-0.07504764
33	0x3dd07cca	0.101800516
34	0x3dc15a4f	0.09441053
35	0x3e764b52	0.2405217
36	0xbe104a7a	-0.1409091
37	0xbd8c7746	-0.06858687
38	0x3e7b0792	0.24514607
39	0x3dc00054	0.093750626
40	0x3e088026	0.13330135
41	0x3e53073b	0.20608227
42	0x3ea2ba34	0.31782687
43	0x3e4b6786	0.1986371
44	0xbda57514	-0.080789715
45	0x3e893280	0.2679634
46	0x3dc8faa8	0.09813434
47	0xbd64867a	-0.05579231
48	0x3e83eef9	0.2576826
49	0x3e7a40e3	0.24438815
50	0x3e32a9bf	0.17447565
51	0x3daeb444	0.08530477
52	0x3e11b7a3	0.14230208
53	0x3d7172b3	0.058947276
54	0x3e741986	0.23837861
55	0x3d54ff3f	0.052001234
56	0xbdf39774	-0.11894122
57	0x3e0a11c2	0.13483337
58	0xbd71dcff	-0.05904865
59	0x3e330a59	0.17484416
60	0xbe38b1d8	-0.18036592
61	0x3ec370fd	0.3817214
62	0xbdb9d54e	-0.09073888
63	0xbda6e771	-0.08149613
64	0x3e0ea9df	0.13931988
65	0x3e0d13cf	0.13777088
66	0xbc272999	-0.010202789
67	0x3d516d7f	0.051129814
68	0x3bbbfede	0.0057371696
69	0xbdcb9e08	-0.099422514
70	0xbe34241c	-0.175919
71	0x3dc1b252	0.0945784
72	0xb6d59880	-6.365648e-06
73	0xbe33615f	-0.17517613
74	0xbe0812be	-0.132884
75	0xbcce3253	-0.02517048
76	0xbd8caa94	-0.06868473
77	0xba898649	-0.0010492291
78	0xbe44430a	-0.19166198
79	0xbe3f3bc5	-0.18675144
80	0x3dd925f9	0.10602946
81	0xbde40812	-0.11134352
82	0xbdbc1af0	-0.091848254
83	0x3cddba84	0.027066477
84	0x3ce3f606	0.027827274
85	0xbe43688d	-0.19082852
86	0xbe23d61c	-0.15999645
87	0xbdadedbc	-0.0849261
88	0xbd888b6a	-0.06667216
89	0x3d7340b7	0.05938789
90	0x3da7d7f2	0.08195485
91	0xbd57092c	-0.05249898
92	0xbdb897d7	-0.09013336
93	0x3da654d1	0.08121646
94	0xbcf1b4a0	-0.029505074
95	0xbdf14173	-0.117800616
96	0x3e4880ea	0.19580427
97	0x3e879509	0.26480892
98	0x3e008434	0.12550431
99	0x3e365d1c	0.17808956
100	0x3eaddb18	0.33956218
101	0x3e4571b8	0.19281662
102	0x3e87584e	0.2643456
103	0x3ea4eef3	0.32213554
104	0x3dee1b19	0.11626262
105	0x3dc2be46	0.09508948
106	0x3ec67097	0.38757774
107	0x3ee3431a	0.44387132
108	0x3e96e646	0.2947256
109	0x3eb0bdcc	0.34519804
110	0x3dca830f	0.09888279
111	0x3e85060f	0.25981185
112	0x3e211e24	0.15734154
113	0x3e7b166e	0.24520275
114	0x3eba89bb	0.36433205
115	0x3edad25e	0.42738622
116	0xbce29219	-0.027657555
117	0x3e90755f	0.28214547
118	0x3eb6e20a	0.3571933
119	0x3ead5ad0	0.33858347
120	0x3e292ba9	0.16520561
121	0x3ebf8ae6	0.3741066
122	0x3edc3c12	0.4301458
123	0x3e3d05a0	0.18459177
124	0x3e9b2b4a	0.30306464
125	0x3ed8a837	0.42315838
126	0x3e874646	0.26420802
127	0x3e92d004	0.28674328

fc.weight f4 [1, 32]
0	0xbebaaf25	-0.3646175
1	0xbeedce16	-0.46446294
2	0xbeeacfff	-0.45861813
3	0xbebad21e	-0.36488432
4	0x3e9ca30e	0.3059315
5	0x3efbaaba	0.49153692
6	0x3e10437b	0.14088242
7	0xbf10cda0	-0.5656376
8	0xbdcaa864	-0.09895399
9	0x3ea8e7f1	0.32989457
10	0xbdf7bbc1	-0.12096358
11	0x3f11bf42	0.5693246
12	0xbeba94f1	-0.36441758
13	0xbee2ac5e	-0.4427213
14	0x3e05afee	0.13055393
15	0x3ef91a8c	0.48653066
16	0xbeb0b7dc	-0.34515274
17	0xbe3c116a	-0.18366018
18	0xbddeb8d6	-0.108750984
19	0x3eb7b7f5	0.35882536
20	0xbeee95e0	-0.4659872
21	0x3e838fd9	0.25695685
22	0xbe95d75c	-0.2926587
23	0xbec11f77	-0.37719318
24	0xbed0a5e2	-0.4075156
25	0x3ea3378f	0.31878325
26	0x3edaf99d	0.42768565
27	0xbe93dec1	-0.28880885
28	0x3ed62f7e	0.4183311
29	0x3bb0988f	0.00538928
30	0x3f05dabe	0.522869
31	0x3db3cc65	0.087792195
