MIX_fut_lihovidov_model/best_model_first_MIX.pth (torch, 25235 bytes, 6 tensors)

embedding.weight f4 [19, 8]
0.76039153 0.35111952 -0.79984915 0.97166765 -0.53821427 0.33439466 -0.1832594 -1.2830333
-0.29868522 -0.17824008 2.1782372 -0.4949093 -0.26160035 -0.6829629 -0.22808678 -0.5646107
1.4144425 -0.74106014 0.11703787 0.45692667 -0.5490901 1.5877002 0.35645735 1.7859168
0.91779613 -1.8723723 -0.7442625 -1.2367026 -0.039623268 -0.31320775 -0.54169554 2.3335295
1.127978 0.30730605 -0.7730284 -0.027964173 -1.623411 0.019842584 0.050752237 0.48428103
-0.7190841 -1.0427278 -0.4518343 -1.2362447 0.30447498 -0.6938448 0.3086265 0.031237375
-1.5946009 -0.4695454 0.9857127 -0.7945039 0.5411777 1.5030352 -1.7624413 0.60731435
0.7317803 1.5120542 0.030706426 -0.113758706 -0.7190513 -0.20916411 1.4251882 0.83393633
-0.5147327 -2.1371086 1.0227758 1.1250409 -0.4200281 -0.1216315 -0.040252827 -1.059456
-1.2354306 0.009336627 1.0209004 -0.32114512 0.26418534 -0.9227234 0.08163289 2.3096077
1.439624 -0.5742087 -0.7362107 -1.3355813 -0.48008904 -1.5227859 -1.2355 -0.018187866
2.396997 0.3441449 0.118878715 -0.20873566 0.97251356 2.0145333 -0.03263245 -1.0380026
0.33758193 1.6919731 0.1892771 -0.59426075 -0.45972216 0.1840629 0.64812875 -0.4275399
0.41601035 -1.2024939 0.7991356 -0.32550433 2.5307627 -2.4386852 1.0155121 -0.0064914804
-0.053729452 0.5356306 -0.8972947 -0.05610176 1.1677263 1.1889712 1.4395573 -1.7360237
-0.7629973 -0.04593958 1.6906401 1.8692421 0.5995723 -2.0080724 0.44881544 2.1525464
1.4362166 -0.5144477 -1.213917 2.7169273 0.0655111 -2.050546 -0.5384461 -1.1682457
-1.1417935 0.91824037 -0.061343282 0.95248103 0.5614074 -0.24854107 -0.198801 0.9738581
0.61384124 -0.4790886 0.7554079 -0.75717497 -1.5447716 -0.02847856 -0.6331571 0.010097394
00000000: 05a9 423f f0c5 b33e eac2 4cbf 36bf 783f
00000010: 69c8 09bf c735 ab3e 5aa8 3bbe 6f3a a4bf
00000020: 45ed 98be 9184 36be 3d68 0b40 c064 fdbe
00000030: 7bf0 85be a8d6 2ebf 958f 69be 548a 10bf
00000040: 740c b53f 1eb6 3dbf 8db1 ef3d 4bf2 e93e
00000050: 2b91 0cbf c339 cb3f 9481 b63e ec98 e43f
00000060: b0f4 6a3f e5a9 efbf fd87 3ebf 454c 9ebf
00000070: 024c 22bd c45c a0be 8fac 0abf 8c58 1540
00000080: 9561 903f 3857 9d3e 30e5 45bf 1f15 e5bc
00000090: efcb cfbf ea8c a23c 94e1 4f3d aff3 f73e
000000a0: e515 38bf 1b78 85bf d356 e7be 443d 9ebf
000000b0: 25e4 9b3e d09f 31bf 4b04 9e3e 86e5 ff3c
000000c0: e21b ccbf 4168 f0be ab57 7c3f 9c64 4bbf
000000d0: 9f8a 0a3f 7563 c03f ad97 e1bf f478 1b3f
000000e0: f455 3b3f fe8a c13f 0b8c fb3c 53fa e8bd
000000f0: bf13 38bf 1e2f 56be 916c b63f da7c 553f
00000100: 86c5 03bf 63c6 08c0 51ea 823f 5701 903f
00000110: ec0d d7be f019 f9bd 26e0 24bd 419c 87bf
00000120: 9722 9ebf a7f8 183c ddac 823f 226d a4be
00000130: 4d43 873e 9a37 6cbf 252f a73d 9dd0 1340
00000140: 9945 b83f 57ff 12bf 4e78 3cbf 54f4 aabf
00000150: 3bce f5be a6ea c2bf dd24 9ebf b8fe 94bc
00000160: 6668 1940 c333 b03e af76 f33d cdbe 55be
00000170: a6f6 783f 1dee 0040 9ba9 05bd 45dd 84bf
00000180: 8ad7 ac3e 9392 d83f dbd1 413e 7921 18bf
00000190: b460 ebbe fc7a 3c3e c4eb 253f 83e6 dabe
000001a0: 4fff d43e 52eb 99bf 2794 4c3f 81a8 a6be
000001b0: 04f8 2140 6b13 1cc0 4dfc 813f 7cb6 d4bb
000001c0: 6a13 5cbd 161f 093f 1bb5 65bf f6ca 65bd
000001d0: 0e78 953f 3530 983f 6a43 b83f 0636 debf
000001e0: cb53 43bf 242b 3cbd e566 d83f 5343 ef3f
000001f0: 927d 193f 4284 00c0 23cb e53e 52c3 0940
00000200: f2d5 b73f d8b2 03bf a261 9bbf 23e2 2d40
00000210: af2a 863d 253c 03c0 9bd7 09bf 1389 95bf
00000220: 4a26 92bf cd11 6b3f 1843 7bbd ccd5 733f
00000230: 65b8 0f3f 8d81 7ebe 7d92 4bbe c44e 793f
00000240: b324 1d3f 1a4b f5be 6a62 413f 38d6 41bf
00000250: 13bb c5bf de4b e9bc 9516 22bf 8a6f 253c

lstm.weight_ih_l0 f4 [128, 8]
0.02101793 0.29961157 -0.1514407 -0.1755369 -0.08889781 0.39227137 -0.08261064 -0.41463792
-0.034958713 -0.28138998 0.46629634 0.09992413 0.28291112 0.21797073 0.05776906 0.41473538
0.16847305 0.34313884 -0.17093164 -0.06105126 0.47867185 0.12299195 -0.17092851 0.35487002
0.80195343 0.14550954 -0.24983767 -0.28929955 0.5208738 0.1324738 0.22087787 -0.5139171
0.31340018 0.22133821 -0.027587702 0.35258785 -0.3010553 0.15302512 -0.25693646 -0.10175491
-0.021495208 0.44781914 0.2695978 -0.6009141 -0.02072694 0.035913058 0.19990149 0.630946
-0.12287881 0.101929486 0.3570768 0.4965719 -0.24548808 0.07747526 0.14841059 0.016578449
0.30883065 0.16252789 -0.21072084 0.022474717 -0.030664489 0.13834152 -0.1933867 -0.0408655
0.056654487 -0.030922852 0.17982861 -0.022504516 -0.115587905 0.65573794 0.40813056 -0.104931295
-0.067506745 0.23980758 -0.3212151 0.05977186 -0.071191944 0.26144612 0.66640127 -0.015916456
0.38354847 -0.24951686 -0.12118029 0.35772493 0.1540395 -0.39914188 -0.20674732 -0.39481813
-0.018096566 0.009115958 0.7568028 0.12196926 0.12566248 0.2822976 0.35779777 -0.16885157
-0.17435639 0.15570688 -0.07986646 0.6316226 -0.10432971 -0.2168982 0.044755373 0.16677119
0.67856914 -0.31786838 -0.14332706 0.75156677 -0.4822206 -0.49724266 0.3281115 0.26797616
0.47523257 0.06753121 0.29604822 0.11281473 0.35654438 0.25359878 0.404047 0.21268488
-0.24047439 0.03353749 0.09821655 0.71436995 0.44139475 0.180131 0.74804956 0.08052321
-0.119264655 0.18516542 -0.05985602 0.7404421 -0.50400096 -0.025921255 -0.07861322 0.24668923
-0.017438896 -0.3170051 0.34811032 -0.27421862 0.23548946 0.4595914 -0.020929197 -0.1079668
-0.37526995 0.38103643 0.74504304 0.73554546 0.67408204 0.26048923 0.25928852 0.011685937
0.4370191 -0.43867162 0.13988006 0.17891495 -0.11124227 -0.007855408 0.010781696 0.03150839
-0.15600495 0.114797525 -0.38356042 -0.13452713 -0.2196617 -0.41955012 0.107782446 0.34809613
0.0596083 -0.29903397 0.37563348 0.27414006 0.22766112 0.023858823 -0.12764445 -0.02241193
0.40498897 0.10556385 -0.7132785 0.1137993 -0.45268482 0.03147535 -0.17323975 -0.30616283
-0.1731418 -0.001858497 0.35938323 -0.075788416 0.30231214 -0.40053606 0.25757477 0.38305053
-0.0597418 0.75644594 0.37795335 0.69103223 0.41109622 -0.49116513 0.31632364 0.0011351092
-0.17010911 0.19161806 0.29755342 0.095999606 0.08097518 -0.035459746 0.644461 -0.11470453
-0.055139292 -0.0045903693 -0.39277515 -0.28538677 -0.106078304 0.21693553 0.10959055 -0.08175177
0.014852517 -0.6727256 -0.116796784 0.48762086 0.071841314 -0.6080803 -0.23583427 0.10589554
0.15361896 -0.0869102 0.30441657 0.08272688 0.099378906 -0.32168695 0.28861022 0.3895427
-0.08478729 0.3652427 -0.12584284 -0.041319676 -0.011620713 0.38263926 0.020237707 0.13257778
-0.41829345 0.5967481 -0.39140216 0.09730282 0.13667442 0.02184843 -0.10445284 -0.1831697
0.028871017 -0.5594444 0.15324378 0.19096592 -0.086665355 -0.37446928 -0.36599657 -0.23025511
00000000: cb2d ac3c b066 993e 4513 1bbe f2bf 33be
00000010: 0e10 b6bd cbd7 c83e c42f a9bd 6c4b d4be
00000020: de30 0fbd 5912 90be 65be ee3e 06a5 cc3d
00000030: bad9 903e b833 5f3e 409f 6c3d 3258 d43e
00000040: 3384 2c3e e5af af3e b408 2fbe e310 7abd
00000050: 7a14 f53e 34e3 fb3d e207 2fbe 86b1 b53e
00000060: d24c 4d3f 7400 153e 72d5 7fbe 121f 94be
00000070: fc57 053f 36a7 073e cf2d 623e 1290 03bf
00000080: fd75 a03e 7ca6 623e 9bff e1bc 6586 b43e
00000090: ec23 9abe 9eb2 1c3e 2d8d 83be e164 d0bd
000000a0: b816 b0bc 8d48 e53e b908 8a3e 82d5 19bf
000000b0: 8bcb a9bc 9219 133d fab2 4c3e ad85 213f
000000c0: e3a7 fbbd 68c0 d03d c5d2 b63e ac3e fe3e
000000d0: 3a61 7bbe 59ab 9e3d f2f8 173e 87cf 873c
000000e0: 0d1f 9e3e b66d 263e 34c7 57be e61c b83c
000000f0: 1834 fbbc 66a9 0d3e 2a07 46be 9562 27bd
00000100: 890e 683d ec51 fdbc fe24 383e 645b b8bc
00000110: 5ab9 ecbd 71de 273f 7df6 d03e 38e6 d6bd
00000120: fa40 8abd 1e90 753e 4e76 a4be 56d3 743d
00000130: 15cd 91bd 44dc 853e 4699 2a3f 3a63 82bc
00000140: 7760 c43e 5981 7fbe 5f2d f8bd b927 b73e
00000150: 88bc 1d3e 535c ccbe 92b5 53be 9a25 cabe
00000160: 403f 94bc 195b 153c d4bd 413f 05cb f93d
00000170: aaad 003e 5089 903e 4531 b73e 6de7 2cbe
00000180: 7b8a 32be a071 1f3e 0791 a3bd 05b2 213f
00000190: d1aa d5bd 901a 5ebe 6951 373d 11c6 2a3e
000001a0: b5b6 2d3f a5bf a2be 54c4 12be ae66 403f
000001b0: 9ee5 f6be 9796 febe 3bfe a73e 2c34 893e
000001c0: af51 f33e ce4d 8a3d a293 973e 690b e73d
000001d0: fc8c b63e b3d7 813e 40df ce3e 11ca 593e
000001e0: eb3e 76be 9b5e 093d c225 c93d f3e0 363f
000001f0: 7efe e13e 4374 383e 2d80 3f3f 5ae9 a43d
00000200: 0741 f4bd 019c 3d3e 962b 75bd 9d8d 3d3f
00000210: 3506 01bf d058 d4bc f8ff a0bd 1a9c 7c3e
00000220: 04dc 8ebc 7e4e a2be 843b b23e 6266 8cbe
00000230: 2624 713e 904f eb3e b573 abbc b31d ddbd
00000240: 6223 c0be 3517 c33e 24bb 3e3f b54c 3c3f
00000250: a490 2c3f d85e 853e 77c1 843e 5f76 3f3c
00000260: f8c0 df3e 9199 e0be b83c 0f3e 7b35 373e
00000270: fdd2 e3bd f8b3 00bc b6a5 303c f10e 013d
00000280: c3bf 1fbe f71a eb3d 0862 c4be 7bc1 09be
00000290: ffee 60be 46cf d6be 0bbd dc3d a839 b23e
000002a0: d527 743d fb1a 99be 0853 c03e 165c 8c3e
000002b0: ff1f 693e 9473 c33c 3ab5 02be 3999 b7bc
000002c0: b75a cf3e dc31 d83d 6b99 36bf 9b0f e93d
000002d0: 4ec6 e7be 4cec 003d c365 31be 60c1 9cbe
000002e0: 164c 31be d098 f3ba 1401 b83e f536 9bbd
000002f0: a8c8 9a3e 1013 cdbe d7e0 833e 331f c43e
00000300: d1b3 74bd 71a6 413f 1a83 c13e 7de7 303f
00000310: 347b d23e ff79 fbbe 2cf5 a13e f2c7 943a
00000320: 1531 2ebe 8637 443e ec58 983e 719b c43d
00000330: 51d6 a53d 3d3e 11bd 65fb 243f 35ea eabd
00000340: bdd9 61bd cf6a 96bb d319 c9be 371e 92be
00000350: 953f d9bd 5924 5e3e 0371 e03d 796d a7bd
00000360: f957 733c bf37 2cbf 2733 efbd 71a9 f93e
00000370: 8a21 933d 27ab 1bbf 8a7e 71be c3df d83d
00000380: 4a4e 1d3e fafd b1bd 7ddc 9b3e b66c a93d
00000390: 2b87 cb3d 27b4 a4be b8c4 933e 2472 c73e
000003a0: f5a4 adbd 1701 bb3e f2dc 00be d23e 29bd
000003b0: ce64 3ebc 4be9 c33e 8cc9 a53c 78c2 073e
000003c0: 8f2a d6be 7cc4 183f dd65 c8be b346 c73d
000003d0: 61f4 0b3e 7bfb b23c 5feb d5bd d690 3bbe
000003e0: e982 ec3c c037 0fbf f0eb 1c3e 928c 433e
000003f0: 9b7d b1bd 70ba bfbe e763 bbbe ffc7 6bbe

lstm.weight_hh_l0 f4 [128, 32]
0.22092469 -0.6825653 0.29331115 0.5933547 -0.18430372 0.3510856 0.5103893 0.14377297
0.11976862 -0.15577066 -0.46740213 -0.15573607 -0.23054029 0.13909799 0.3300819 -0.118566945
0.15064786 -0.38161138 0.016558317 0.25512782 -0.5059467 -0.020479437 -0.35889193 0.2115783
-0.27205423 0.11991272 0.27767637 0.4828377 -0.21435525 -0.18132997 -0.5096818 -0.9020214
0.17764445 -0.17292698 0.17243715 -0.05771477 0.2043589 -0.096657634 0.42006907 0.36520615
0.104819566 -0.050934725 -0.15708297 0.12150519 -0.86730117 0.44874373 -0.6031859 -0.31235087
-0.3856711 -0.61737615 -0.526199 0.11904905 -0.47846892 -0.29869223 -0.44311067 0.20446129
0.39258236 0.4605925 0.065326564 0.43081346 0.12751517 0.15207042 -0.24447682 -0.42239732
0.505467 0.45479336 0.26327944 0.12423126 0.39458153 0.57709336 0.16651502 0.5309334
0.2339413 0.6546638 0.38502383 -0.25067186 -0.21716061 -0.13016967 -0.016217396 -0.2311439
-0.044701736 -0.09422473 -0.7501714 -0.49477613 -0.47458392 0.099119544 -0.16690819 0.16161916
0.30335808 0.44551793 0.58605003 0.14235747 0.7024595 0.43205065 -0.15817896 -0.6794699
-0.017733077 -0.24817608 -0.052468058 -0.41911286 0.23065643 -0.526302 0.26562163 -0.2134214
-0.24748117 0.29112402 -0.1274279 0.16132966 -0.032072578 -0.5769025 0.12084296 -0.4562091
-0.36443615 -0.08671053 -0.24634708 -0.08802735 -0.6197097 -0.17133243 0.098446056 -0.8041602
0.6183336 0.44292134 0.9289604 0.024809401 0.35485455 0.01867958 -0.29161105 -0.22079088
0.07746671 -0.19154494 -0.36437145 0.18852824 0.12475687 -0.11623235 0.0073108873 -0.24713272
-0.31559658 -0.13841419 0.12419477 0.069830395 -0.42915824 0.4044527 -0.11724596 0.065446496
0.24202088 0.3505139 -0.28882822 0.21045865 -0.28405294 -0.3044927 -0.41666558 -0.09620975
0.49297434 0.41134363 -0.5409961 0.41954437 -0.15586385 0.32772115 -0.06609837 -0.080203146
1.0028646 -0.36598864 -0.56905764 0.5242059 0.06848073 0.081010155 0.6002853 -0.31144366
0.42383948 0.55981165 0.20988525 -0.12762363 0.49285603 0.40163484 0.33528638 -0.30755654
-0.52500737 0.028124511 -0.1869244 -0.23402417 0.16452363 -0.11329131 0.1314903 0.031087533
0.020004366 0.62269735 0.40352297 0.3594173 -0.66144717 0.57441074 -0.24444963 -0.47593963
0.4236868 -0.008320754 -0.017869715 0.3271481 0.47417217 -0.8177747 0.4457376 -0.41856194
-0.45971346 -0.050456002 -0.5270864 0.04386216 0.055399176 -0.16000253 -0.43917057 -0.15078934
-0.32326433 0.22020283 -0.5241833 -0.31817907 -0.021278229 -0.33531895 0.22109622 -0.5026926
0.102829665 0.60967505 -0.20445846 0.0018019961 -0.5055304 0.09299582 0.129797 -0.6406774
0.24747372 0.5892021 -0.3675507 -0.14903171 0.8751875 -0.385739 -0.28236842 0.15348697
-0.57410645 0.7520766 0.27976072 -0.16322322 -0.0116011165 -0.5780604 -0.4498936 -0.30970848
-0.13500941 0.63146985 -0.76805645 -0.32889485 -0.18604188 0.14506374 0.12715742 -0.46611413
0.31255725 0.37848824 0.02175674 0.44534284 0.22358872 0.35795128 -0.09311675 0.24255303
00000000: 153a 623e 99bc 2ebf e12c 963e 18e6 173f
00000010: 1dba 3cbe 7ec1 b33e e0a8 023f 3939 133e
00000020: 4049 f53d 5882 1fbe 554f efbe 4779 1fbe
00000030: c112 6cbe b46f 0e3e 7f00 a93e 3ad3 f2bd
00000040: 6f43 1a3e 9162 c3be 4fa5 873c 1da0 823e
00000050: b985 01bf 7ec4 a7bc afc0 b7be fba7 583e
00000060: b14a 8bbe cd94 f53d 992b 8e3e 8136 f73e
00000070: f17f 5bbe 90ae 39be 827a 02bf e0ea 66bf
00000080: 6de8 353e c513 31be 5d93 303e 5366 6cbd
00000090: 7643 513e 70f4 c5bd 4b13 d73e 4dfc ba3e
000000a0: a4ab d63d eea0 50bd 5cda 20be b7d7 f83d
000000b0: 7307 5ebf bdc1 e53e 646a 1abf 74ec 9fbe
000000c0: af76 c5be 5d0c 1ebf fab4 06bf fdcf f33d
000000d0: e1f9 f4be 30ee 98be 67df e2be 4d5e 513e
000000e0: 8e00 c93e c8d2 eb3e efc9 853d 9593 dc3e
000000f0: 5693 023e 59b8 1b3e 2258 7abe 7644 d8be
00000100: 4966 013f adda e83e 90cc 863e f56c fe3d
00000110: 9706 ca3e 64bc 133f ea82 2a3e 40eb 073f
00000120: 4f8e 6f3e 0c98 273f d821 c53e 1058 80be
00000130: 5a5f 5ebe 334b 05be 58da 84bc fdb0 6cbe
00000140: 2b19 37bd e5f8 c0bd 3c0b 40bf 4c53 fdbe
00000150: aafc f2be 30ff ca3d fbe9 2abe 7e7f 253e
00000160: c051 9b3e ed1a e43e 6007 163f 28c6 113e
00000170: 63d4 333f be35 dd3e aaf9 21be bdf1 2dbf
00000180: f544 91bc df21 7ebe bfe8 56bd f695 d6be
00000190: 3331 6c3e babb 06bf 8fff 873e 248b 5abe
000001a0: b46b 7dbe 350e 953e 767c 02be 9a33 253e
000001b0: 895e 03bd e2af 13bf 847c f73d 3d94 e9be
000001c0: 6097 babe 4a95 b1bd 6942 7cbe af47 b4bd
000001d0: 4ba5 1ebf c571 2fbe 169e c93d 71dd 4dbf
000001e0: 1c4b 1e3f 96c6 e23e 59d0 6d3f 163d cb3c
000001f0: 7faf b53e eb05 993c 0b4e 95be 0117 62be
00000200: dea6 9e3d 5b24 44be e58e babe 8c0d 413e
00000210: 8880 ff3d 3a0b eebd 2b90 ef3b 5c10 7dbe
00000220: e095 a1be 73bc 0dbe d459 fe3d 3d03 8f3d
00000230: a1ba dbbe 6d14 cf3e a61e f0bd d008 863d
00000240: 52d4 773e 8f76 b33e 4be1 93be 7982 573e
00000250: 636f 91be 78e6 9bbe 3155 d5be 9e09 c5bd
00000260: 2267 fc3e a29b d23e b87e 0abf 85ce d63e
00000270: c69a 1fbe 11cb a73e 955e 87bd 8c41 a4bd
00000280: de5d 803f dd62 bbbe c3ad 11bf 5c32 063f
00000290: a03f 8c3d a7e8 a53d 4cac 193f 8b75 9fbe
000002a0: 7d01 d93e d14f 0f3f 29ec 563e c5af 02be
000002b0: a057 fc3e 15a3 cd3e a8aa ab3e 0d78 9dbe
000002c0: e266 06bf 6065 e63c 1c69 3fbe 08a4 6fbe
000002d0: e278 283e 4605 e8bd 65a5 063e 48ab fe3c
000002e0: 32e0 a33c 1869 1f3f 909a ce3e 8b05 b83e
000002f0: 9a54 29bf 950c 133f 0151 7abe 5cae f3be
00000300: 7aed d83e c653 08bc 8263 92bc f57f a73e
00000310: b2c6 f23e af59 51bf b837 e43e c04d d6be
00000320: 905f ebbe f4aa 4ebd 22ef 06bf cfa8 333d
00000330: 3fea 623d b4d7 23be f7da e0be 8568 1abe
00000340: e782 a5be da7c 613e e030 06bf 5ee8 a2be
00000350: ae4f aebc edae abbe 0c67 623e 76b0 00bf
00000360: 5c98 d23d aa13 1c3f 8f5d 51be f530 ec3a
00000370: 716a 01bf 9874 be3d 81e9 043e 6f03 24bf
00000380: c069 7d3e f3d5 163f 9b2f bcbe c59b 18be
00000390: 4a0c 603f 957f c5be 9892 90be b02b 1d3e
000003a0: a4f8 12bf 1888 403f cc3c 8f3e fd23 27be
000003b0: 9c12 3ebc c4fb 13bf 7458 e6be 1c92 9ebe
000003c0: e83f 0abe 02a8 213f 599f 44bf e864 a8be
000003d0: c381 3ebe 978b 143e 8e35 023e 83a6 eebe
000003e0: 8107 a03e 36c9 c13e 313b b23c fa03 e43e
000003f0: 71f4 643e 6445 b73e ffb3 bebd d25f 783e

lstm.bias_ih_l0 f4 [128]
0.16151503 0.44712284 0.25917274 0.33146915 0.37810954 0.29278198 0.2184109 0.38230094
0.071835406 0.5207851 0.0415159 0.23346855 0.3510592 0.58963215 0.38198534 0.55279315
0.4646857 0.05612016 0.36154336 0.37062964 0.45603222 0.2904313 0.47983402 0.58758134
0.3817283 0.09979419 0.22110118 0.5589157 0.5702135 0.20273489 0.35009617 0.23384875
0.34609228 0.060973015 -0.003912152 0.14588715 0.3209165 0.19681917 0.14279751 0.09691681
0.28455696 0.052466214 0.28900573 0.27090818 0.05616395 0.036491957 0.1760199 -0.032165356
0.21439627 -0.0010911811 -0.14066379 0.28991112 0.3619987 0.30434662 0.23483884 0.008207361
-0.009101484 -0.27976093 0.112500004 0.13304617 0.042782534 0.0002592501 0.29014856 0.12040877
-0.039693862 0.023174122 -0.0237327 0.1560672 0.01461977 -0.09871325 -0.0042211367 0.052324217
-0.085140646 0.033820145 0.0075648674 0.054301497 -0.20256089 0.29399016 0.1547942 -0.015261438
-0.12727487 -0.080961384 -0.049436994 0.20534995 -0.17472766 -0.075484045 0.024632927 0.027607597
0.06306996 0.19470866 -0.108266495 0.19778833 0.17811917 0.10993911 -0.09237582 -0.24360988
0.16248861 0.20273398 0.26686862 0.33233887 0.40392753 0.3592078 0.26697466 0.36582848
0.08020649 0.43299007 0.36558953 0.057972483 0.16746357 0.53692573 0.26194054 0.257795
0.26726976 0.45679036 0.4532556 0.21353713 0.35097128 0.29167268 0.26631165 0.64978486
0.29546276 0.30134454 0.13764349 0.48277336 0.63541645 0.10532602 0.46897385 0.41014728
00000000: 3264 253e 49ed e43e 4ab2 843e 53b6 a93e
00000010: 9397 c13e 85e7 953e 1ba7 5f3e f3bc c33e
00000020: 711e 933d 2c52 053f 940c 2a3d 6112 6f3e
00000030: 08be b33e 22f2 163f 9593 c33e da83 0d3f
00000040: 49eb ed3e 41de 653d 361c b93e 2bc3 bd3e
00000050: 0e7d e93e 69b3 943e ceac f53e bb6b 163f
00000060: e471 c33e e560 cc3d 5968 623e 1915 0f3f
00000070: 83f9 113f bc99 4f3e ce3f b33e 0c76 6f3e
00000080: 0233 b13e d7be 793d 8231 80bb 7163 153e
00000090: 2b4f a43e f78a 493e 8339 123e 527c c63d
000000a0: 73b1 913e d0e6 563d 8ff8 933e 7ab4 8a3e
000000b0: 2c0c 663d 9778 153d 903e 343e d2bf 03bd
000000c0: b28a 5b3e f605 8fba 2b0a 10be 3b6f 943e
000000d0: e557 b93e 52d3 9b3e 9879 703e 2b78 063c
000000e0: 641e 15bc d33c 8fbe 6766 e63d 413d 083e
000000f0: bd3c 2f3d f6eb 8739 5a8e 943e e098 f63d
00000100: 0896 22bd a8d7 bd3c 146b c2bc 14d0 1f3e
00000110: c387 6f3c 2c2a cabd 7651 8abb eb51 563d
00000120: 385e aebd fe86 0a3d b5e2 f73b 3f6b 5e3d
00000130: 1f6c 4fbe e185 963e 5f82 1e3e 1c0b 7abc
00000140: 5854 02be 15cf a5bd 727e 4abd 4247 523e
00000150: cfeb 32be 6197 9abd feca c93c 5429 e23c
00000160: d32a 813d b561 473e d3ba ddbd 0689 4a3e
00000170: df64 363e c227 e13d 892f bdbd de74 79be
00000180: 6a63 263e 7f99 4f3e 01a3 883e 5228 aa3e
00000190: 97cf ce3e 16ea b73e e7b0 883e df4d bb3e
000001a0: 4d43 a43d e0b0 dd3e 8d2e bb3e 8e74 6d3d
000001b0: 927b 2b3e f773 093f 121d 863e b5fd 833e
000001c0: 95d7 883e 6de0 e93e 1e11 e83e 7aa9 5a3e
000001d0: 82b2 b33e 1f56 953e 005a 883e 4d58 263f
000001e0: e546 973e d549 9a3e 6af2 0c3e 122e f73e
000001f0: a7aa 223f 2bb5 d73d 571d f03e d3fe d13e

lstm.bias_hh_l0 f4 [128]
0.037919495 0.5226067 0.23281845 0.34688595 0.26592734 0.34920856 0.23912643 0.19362473
0.28862134 0.34368062 0.07444336 0.23805372 0.114966586 0.43206602 0.20977318 0.5845064
0.39083323 0.117949516 0.38727742 0.19608246 0.26914075 0.19881463 0.259407 0.33690414
0.4515165 0.104869254 0.023149911 0.57342654 0.6116041 0.114463024 0.44920886 0.35338086
0.1498241 -0.039597493 0.27558553 0.19592024 0.0878332 0.055423252 0.14353321 -0.016441716
0.26965496 -0.054193556 0.050674286 0.090305805 0.1765525 0.008073253 0.04733805 0.13073862
0.07806224 0.1678954 -0.15628849 0.20330244 0.2831122 0.39918834 0.061396062 0.08942937
-0.016714422 -0.03623338 0.10113198 0.054917555 0.048978362 0.18001075 0.19440146 -0.002514787
0.08434363 -0.010104674 -0.24538194 -0.018156687 0.12126714 -0.056060884 0.09577136 0.03110145
-0.00061169895 0.10735851 -0.10621649 -0.018141495 -0.05685787 0.044239633 -0.15673767 -0.053684622
0.079944335 0.13618386 -0.040630117 -0.02136284 -0.12812419 -0.16117556 -0.17775491 -0.12204234
0.17326555 0.12505615 -0.0042304005 0.15060228 -0.030791491 0.14261839 -0.09522962 -0.19884756
0.1620051 0.29539287 0.4326518 0.467364 0.24679133 0.5949816 0.1127755 0.308387
0.08119165 0.5230681 0.2358538 0.05017398 0.39494923 0.5952826 0.38400364 0.3211594
0.25416175 0.17622767 0.43274188 0.46795365 0.5089752 0.382973 0.22879417 0.38464335
0.31821242 0.20117064 0.0880579 0.34441847 0.6116988 0.21050973 0.66801846 0.274783
00000000: 7951 1b3d 8dc9 053f f667 6e3e 099b b13e
00000010: a127 883e 77cb b23e 8fdd 743e 9045 463e
00000020: 2dc6 933e e8f6 af3e c375 983d 5bc4 733e
00000030: 9a73 eb3d c237 dd3e c8ce 563e 36a2 153f
00000040: 4b1b c83e 848f f13d 3a49 c63e d7c9 483e
00000050: d1cc 893e 1096 4b3e ffd0 843e b37e ac3e
00000060: 2c2d e73e b1c5 d63d e2a4 bd3c 15cc 123f
00000070: 1692 1c3f 976b ea3d b4fe e53e 56ee b43e
00000080: 7d6b 193e fb30 22bd 8c19 8d3e 519f 483e
00000090: e5e1 b33d 7e03 633d 5ffa 123e c7b0 86bc
000000a0: 3710 8a3e 10fa 5dbd d78f 4f3d 40f2 b83d
000000b0: 2eca 343e ad45 043c 8be5 413d 58e0 053e
000000c0: 18df 9f3d c6ec 2b3e 170a 20be 842e 503e
000000d0: 15f4 903e 6a62 cc3e 707a 7b3d bf26 b73d
000000e0: afec 88bc 7469 14bd 491e cf3d 3bf1 603d
000000f0: 899d 483d bd54 383e 2d11 473e 20cf 24bb
00000100: 5abc ac3d 138e 25bc 6745 7bbe 55bd 94bc
00000110: e85a f83d 19a0 65bd c623 c43d 78c8 fe3c
00000120: 6c5a 20ba c7de db3d 0888 d9bd 799d 94bc
00000130: cce3 68bd 9e34 353d d77f 20be 68e4 5bbd
00000140: dbb9 a33d c873 0b3e c46b 26bd 1f01 afbc
00000150: fd32 03be 350b 25be 6205 36be 56f1 f9bd
00000160: 866c 313e b80e 003e 2c9f 8abb 7c37 1a3e
00000170: 703e fcbc 8e0a 123e bf07 c3bd b29e 4bbe
00000180: aae4 253e bc3d 973e 8984 dd3e 564a ef3e
00000190: deb6 7c3e b750 183f d7f6 e63d e7e4 9d3e
000001a0: cf47 a63d cae7 053f a983 713e 3b83 4d3d
000001b0: c936 ca3e 7164 183f 209c c43e 016f a43e
000001c0: 7d21 823e 0775 343e 5890 dd3e 9f97 ef3e
000001d0: 334c 023f 0915 c43e 0549 6a3e f9ef c43e
000001e0: bdec a23e adff 4d3e b357 b43d 9e57 b03e
000001f0: 4b98 1c3f dd8f 573e 4203 2b3f 5bb0 8c3e

fc.weight f4 [1, 32]
0.055381395 0.99667186 0.8125946 -1.6067754 0.62505704 1.1550016 0.20506704 0.0810521
-0.71646917 1.4936858 0.98260117 -0.69202775 0.6251875 0.94983673 -1.4448495 1.2910527
-1.4044446 0.58478725 1.8621557 -0.96815675 -0.21782185 0.46357825 0.33555084 0.97160804
1.6292573 1.4490654 0.06393485 1.193317 1.6105257 -0.01275871 0.45811492 -0.30408263
00000000: 9ad7 623d e325 7f3f 3306 503f d1aa cdbf
00000010: bd03 203f 18d7 933f 18fd 513e a5fe a53d
00000020: 866a 37bf 1931 bf3f c08b 7b3f bb28 31bf
00000030: 4a0c 203f 8028 733f d4f0 b8bf 3741 a53f
00000040: d7c4 b3bf 9eb4 153f 1e5b ee3f 1fd9 77bf
00000050: b10c 5fbe 215a ed3e 52cd ab3e 4ebb 783f
00000060: 818b d03f fa7a b93f 46f0 823d 9dbe 983f
00000070: b525 ce3f e909 51bc 0a8e ea3e b8b0 9bbe
