fut_opt_lih_features_prepare/zno_3_categories/best_model_03.pth (torch, 25414 bytes, 7 tensors)

embedding.weight f4 [19, 8]
0.40782243 0.5107489 1.8137977 -0.060037103 0.3712025 -1.3523016 -0.7658458 -0.20148139
-0.2664109 1.0611793 0.7830026 0.35936412 -0.045717325 0.103726506 0.0810332 1.9289916
0.97955054 -0.29330638 -1.6290351 0.025531715 -2.4754672 0.044042725 0.8621575 0.31416875
-0.3051746 0.5085979 0.62982994 -0.4124652 0.696931 1.0269531 0.5743548 1.6507019
1.3689786 1.8905602 0.6115384 -0.55122894 0.2619289 0.17712651 1.5455173 -0.36126363
-0.2912005 0.54353744 -2.8368623 0.3852965 -0.98862773 -0.7185662 -0.4643488 0.39402494
0.3638697 -1.1734618 1.1681429 -1.3872412 0.21915364 -1.7755889 -1.258462 -0.7571977
0.5777266 -1.5015638 0.9820176 -0.7386444 0.49139455 1.4382352 0.8888369 1.0514395
0.25058058 -0.12855823 0.046846062 -1.4192443 -1.1081252 1.2491816 1.428102 -0.4254777
0.3468453 0.1935368 0.89305705 -0.741921 1.3483729 2.7611787 0.88133377 -0.3051309
-0.051516265 -0.16601641 -0.038040634 0.05705234 0.39623898 -1.374855 0.014688613 1.7600828
2.3910356 -0.5846001 -0.07642756 -2.5047162 0.41080126 -1.4383044 -1.5563318 1.1912711
-0.76604784 0.45422885 -0.1479761 0.92356277 1.0627214 0.16612755 0.45750603 0.42880353
1.4933231 1.5059943 0.93576354 -0.72709525 -1.0188504 -0.23789367 -0.8846813 0.6019582
-0.6013402 -1.3479826 -0.68492275 -1.7113496 2.1071105 -0.5053422 0.26753926 -0.9442374
0.13767897 0.015257531 -0.11313445 -1.464084 -0.40187263 1.3807505 -1.6254774 -0.10891694
0.22574863 0.5802125 1.7981404 -2.9361756 0.040329974 -0.92463684 -0.30739504 -1.9214416
-2.176618 1.6288698 1.3256155 -0.4426212 1.1349512 1.8106543 -0.3145395 1.3099685
0.18329357 -0.7409169 0.2372601 -0.60483974 0.21782729 -0.61157 -0.90483975 -1.1682245
00000000: 1ace d03e 71c0 023f 862a e83f 77e9 75bd
00000010: 410e be3e 3818 adbf 780e 44bf 2351 4ebe
00000020: 0267 88be b9d4 873f dc72 483f 93fe b73e
00000030: 1742 3bbd 906e d43d bcf4 a53d 32e9 f63f
00000040: d3c3 7a3f 412c 96be 3984 d0bf e327 d13c
00000050: 0e6e 1ec0 2566 343d 5bb6 5c3f bada a03e
00000060: d83f 9cbe 7933 023f 893c 213f a42e d3be
00000070: 126a 323f 3373 833f eb08 133f 334a d33f
00000080: b13a af3f e0fd f13f c88d 1c3f 571d 0dbf
00000090: 8b1b 863e a760 353e 83d3 c53f 8cf7 b8be
000000a0: 3b18 95be 4525 0b3f 278f 35c0 9545 c53e
000000b0: b516 7dbf f4f3 37bf 20bf edbe a3bd c93e
000000c0: 214d ba3e ff33 96bf b585 953f 1f91 b1bf
000000d0: d069 603e 7f46 e3bf 4815 a1bf b5d7 41bf
000000e0: e4e5 133f 3e33 c0bf 8165 7b3f cd17 3dbf
000000f0: 1198 fb3e 1718 b83f d18a 633f 9295 863f
00000100: 194c 803e c5a4 03be a8e1 3f3d cca9 b5bf
00000110: 0cd7 8dbf 2fe5 9f3f 0ccc b63f 37d8 d9be
00000120: b595 b13e 832e 463e 639f 643f 89ee 3dbf
00000130: 7c97 ac3f 27b7 3040 179f 613f 1e3a 9cbe
00000140: b802 53bd 3500 2abe 7fd0 1bbd b7af 693d
00000150: d6df ca3e 40fb afbf 82a8 703c 654a e13f
00000160: ba06 1940 5aa8 15bf 0d86 9cbd 454d 20c0
00000170: 8b54 d23e 5c1a b8bf e135 c7bf 927b 983f
00000180: b61b 44bf af90 e83e 0c87 17be 9c6e 6c3f
00000190: 4107 883f 571d 2a3e 3b3e ea3e 238c db3e
000001a0: 3625 bf3f 6cc4 c03f 338e 6f3f ea22 3abf
000001b0: b169 82bf 669a 73be 797a 62bf ef19 1a3f
000001c0: 6ef1 19bf b28a acbf 1957 2fbf 810d dbbf
000001d0: e6da 0640 1b5e 01bf e8fa 883e 8bb9 71bf
000001e0: b7fb 0c3e b9fa 793c 09b3 e7bd 1b67 bbbf
000001f0: 40c2 cdbe 6fbc b03f a50f d0bf d80f dfbd
00000200: a62a 673e ce88 143f 7729 e63f 4dea 3bc0
00000210: 0b31 253d 00b5 6cbf e262 9dbe ccf1 f5bf
00000220: b64d 0bc0 ce7e d03f c5ad a93f 3f9f e2be
00000230: 1546 913f 85c3 e73f 520b a1be 0cad a73f
00000240: 4fb1 3b3e bbac 3dbf 50f4 723e c7d6 1abf
00000250: 1e0e 5f3e da8f 1cbf 94a3 67bf 6188 95bf

lstm.weight_ih_l0 f4 [128, 8]
0.043197963 0.2888058 0.23785226 -0.101492435 0.18255003 0.18215013 -0.14372467 -0.012079522
0.06954193 0.066069946 0.07548057 0.08695159 -0.10040513 0.099661656 -0.10607388 0.09969001
0.13723662 0.3337729 0.10723962 -0.033131 -0.20805067 0.5157611 0.30452707 -0.1171605
0.2131637 0.096776515 0.21152097 -0.15423796 -0.06641269 0.24143179 -0.061423875 0.06985494
0.12591355 -0.09555765 -0.04344762 0.009194659 -0.288946 0.088484526 -0.028411068 0.22516063
0.013318485 -0.16794904 -0.021210713 -0.021832159 -0.048995674 0.15670505 -0.19979692 0.004272277
-0.135368 -0.09540898 -0.07537856 -0.13043618 0.16912621 0.10261295 -0.21198095 -0.13285854
0.07687841 -0.015973339 -0.1638003 0.14795288 -0.13034502 0.19514214 0.09724532 0.17617276
-0.2566169 -0.035059333 -0.08465116 0.27645352 -0.015491217 0.32846385 0.14208823 0.24335204
0.20431574 0.10990674 0.048088554 0.0950093 0.05529625 -0.108597495 -0.00940547 0.19609633
-0.21679905 0.15710168 -0.016254812 0.08055713 -0.098956235 0.17243037 -0.10196203 0.20403951
0.14329039 -0.122387156 -0.029278751 -0.13150118 0.092484415 0.006795334 -0.03312271 -0.1931503
-0.32428282 0.0018791687 -0.03817383 0.10463399 -0.011181092 0.56215006 0.14676885 0.028766349
0.037401665 -0.10122375 -0.08177784 0.0722245 -0.1452999 -0.14281668 -0.25505272 0.13482957
-0.13028528 -0.22061121 -0.21368927 -0.124228634 0.005872279 -0.021923136 0.10575053 -0.0861885
-0.041496426 0.07595549 -0.0015124654 -0.08025837 0.046019226 0.07319429 0.07372851 0.039250672
0.021062426 -0.08573604 0.22364117 -0.12128058 0.1656913 0.08997266 0.22583169 0.0486941
0.23911382 -0.09956377 -0.2469166 -0.19771624 -0.06650133 0.0021444957 0.057084553 -0.11518273
0.049938463 -0.37614217 -0.23197086 0.04187285 0.0014343942 -0.34492955 -0.23668624 -0.19023708
-0.04835719 -0.32397082 -0.13783962 -0.2329341 0.10560635 -0.02863361 -0.37311986 -0.018360779
0.18100886 -0.15728584 -0.08418123 0.043566573 0.1666056 0.12630738 -0.08241271 -0.12879041
0.16158569 0.14857997 0.07158221 -0.042714242 -0.10687713 -0.057921965 -0.18184243 -0.019673008
0.15906735 0.15123427 0.057306558 0.075138934 0.059566732 0.014781547 -0.18926272 -0.10811335
0.06444628 -0.052611377 -0.10109906 -0.05725582 0.107316695 -0.11673027 -0.3297865 -0.0856854
0.10738785 0.047105804 -0.12057545 -0.13502431 -0.06923935 0.09859333 0.081953 -0.029586764
0.0021396307 -0.084582046 0.027148928 -0.26521766 0.114432976 0.1399861 0.3729864 0.030212808
0.26870885 0.27767116 -0.008631719 -0.08419006 -0.2089297 -0.16570851 -0.18472654 0.18668777
0.25657472 -0.08661053 0.09124196 -0.042510465 -0.010716509 0.18615612 -0.09512923 0.14958963
0.05350569 0.0033593983 0.07991904 -0.1118053 0.041723475 -0.11351 -0.09417515 0.18902439
0.0036723302 0.07527092 -0.04724225 -0.028863374 0.00034837858 0.12330573 -0.15351035 0.121382594
0.30574703 -0.043906365 0.016421054 0.07409242 -0.43016058 -0.13730435 -0.23680843 0.123077154
-0.12583601 -0.14912021 -0.077894814 -0.11788956 0.0718618 -0.119305044 0.19238482 0.12029376
00000000: 59f0 303d 5bde 933e 8b8f 733e 44db cfbd
00000010: 65ee 3a3e 9085 3a3e 8f2c 13be 30e9 45bc
00000020: 006c 8e3d ae4f 873d 8f95 9a3d ad13 b23d
00000030: 34a1 cdbd 691b cc3d 433d d9bd 472a cc3d
00000040: c287 0c3e 48e4 aa3e 72a0 db3d 5fb4 07bd
00000050: 3c0b 55be eb08 043f f9ea 9b3e d8f1 efbd
00000060: 9647 5a3e c432 c63d f498 583e 8ef0 1dbe
00000070: 6003 88bd e539 773e 9a97 7bbd 1b10 8f3d
00000080: 7bef 003e bbb3 c3bd 22f6 31bd 32a5 163c
00000090: bbf0 93be 6037 b53d 54be e8bc 8290 663e
000000a0: c635 5a3c d5fa 2bbe 17c2 adbc 5bd9 b2bc
000000b0: b0af 48bd 4a77 203e 9097 4cbe 75fe 8b3b
000000c0: e99d 0abe c965 c3bd 1360 9abd 1091 05be
000000d0: 6c2f 2d3e bd26 d23d 8911 59be 120c 08be
000000e0: 6e72 9d3d 85da 82bc 44bb 27be f680 173e
000000f0: 2a79 05be 57d3 473e 8e28 c73d a266 343e
00000100: 4a63 83be 609a 0fbd 965d adbd 518b 8d3e
00000110: e0ce 7dbc 6a2c a83e 947f 113e 4731 793e
00000120: 2538 513e c916 e13d 81f8 443d 3c94 c23d
00000130: 527e 623d 5d68 debd 6719 1abc 7acd 483e
00000140: 9200 5ebe 43df 203e d028 85bc 23fb a43d
00000150: 91a9 cabd 9691 303e 78d1 d0bd bcef 503e
00000160: b7ba 123e 1ea6 fabd fed9 efbc 3fa8 06be
00000170: 7868 bd3d 65ab de3b aeab 07bd 31c9 45be
00000180: 6608 a6be 704e f63a 295c 1cbd 584a d63d
00000190: e630 37bc 11e9 0f3f 934a 163e 68a7 eb3c
000001a0: 7d32 193d 664e cfbd 247b a7bd 70ea 933d
000001b0: 7fc9 14be 893e 12be 4596 82be c310 0a3e
000001c0: 8169 05be e8e7 61be 5cd1 5abe 956b febd
000001d0: 3f6c c03b 2698 b3bc bc93 d83d 9983 b0bd
000001e0: 28f8 29bd 8d8e 9b3d eb3d c6ba 805e a4bd
000001f0: a87e 3c3d e3e6 953d f9fe 963d 50c5 203d
00000200: 1c8b ac3c 6096 afbd 3102 653e f461 f8bd
00000210: fbaa 293e 9643 b83d 6c40 673e 7773 473d
00000220: 41da 743e 17e8 cbbd b5d7 7cbe 2076 4abe
00000230: d931 88bd ab8a 0c3b 7ed1 693d ece4 ebbd
00000240: 468c 4c3d b595 c0be c589 6dbe de82 2b3d
00000250: 4802 bc3a 9b9a b0be e15d 72be 82cd 42be
00000260: 3012 46bd 81df a5be d425 0dbe 4786 6ebe
00000270: 2448 d83d 0891 eabc 9109 bfbe 5869 96bc
00000280: 635a 393e 8a0f 21be 3567 acbd dd72 323d
00000290: a99a 2a3e b956 013e ffc7 a8bd a2e1 03be
000002a0: b876 253e 5925 183e b299 923d 21f5 2ebd
000002b0: 66e2 dabd 953f 6dbd e734 3abe 4a29 a1bc
000002c0: 8de2 223e 28dd 1a3e 48ba 6a3d 71e2 993d
000002d0: 3ffc 733d 4d2e 723c 16ce 41be 886a ddbd
000002e0: 69fc 833d 077f 57bd 060d cfbd 1485 6abd
000002f0: dbc8 db3d 4810 efbd c7d9 a8be d47b afbd
00000300: 29ee db3d 04f2 403d 43f0 f6bd d043 0abe
00000310: 5ccd 8dbd 4deb c93d f9d6 a73d f15f f2bc
00000320: 0c39 0c3b 5a39 adbd 6e67 de3c 9cca 87be
00000330: d65b ea3d 8458 0f3e 13f8 be3e da80 f73c
00000340: 3594 893e ea2a 8e3e 0e6c 0dbc d76b acbd
00000350: abf1 55be 7eaf 29be f428 3dbe 142b 3f3e
00000360: c35d 833e dd60 b1bd 11dd ba3d 741f 2ebd
00000370: 4c94 2fbc b69f 3e3e 1dd3 c2bd 062e 193e
00000380: c828 5b3d 5a29 5c3b 98ac a33d 2dfa e4bd
00000390: 3ce6 2a3d ee77 e8bd e7de c0bd 9c8f 413e
000003a0: 7aab 703b a427 9a3d 1781 41bd e272 ecbc
000003b0: 95a6 b639 b787 fc3d d131 1dbe 7097 f83d
000003c0: e08a 9c3e 29d7 33bd 7285 863c c4bd 973d
000003d0: 023e dcbe 8399 0cbe e97d 72be e00f fc3d
000003e0: 28db 00be f8b2 18be 5187 9fbd 1570 f1bd
000003f0: 482c 933d 3456 f4bd 8700 453e 935c f63d

lstm.weight_hh_l0 f4 [128, 32]
0.052437205 0.007643828 0.10344951 -0.10795847 0.072058275 0.099107206 0.016232291 -0.15812361
0.09716505 -0.1694419 0.063737854 -0.05366962 -0.087888025 -0.23333855 -0.10051559 -0.104837686
-0.20285313 -0.18266548 0.13715948 -0.10093908 0.07515878 -0.0042023943 0.12703733 0.26494247
0.058088 0.06405287 -0.19167238 -0.010863875 0.12259396 0.05005155 0.15842135 0.034928437
0.02497869 0.10118219 0.04806745 -0.06962024 0.0625451 0.13658105 0.091150165 -0.12765545
-0.036709204 -0.15066156 -0.0197615 -0.009766418 -0.014747907 0.026641715 -0.0087757595 -0.044179466
0.056355692 -0.028242525 0.041689534 0.095571004 -0.08358582 0.16808145 0.018429134 -0.0485827
0.123976246 -0.055622462 -0.27725428 0.07413502 -0.11228583 -0.06377854 0.12486055 0.07419434
0.10253433 -0.19125727 0.092649035 -0.070899226 -0.21806544 0.18848485 -0.052019496 -0.16446598
-0.16757818 -0.20208552 0.111817665 -0.0104367295 0.1474651 -0.012369074 0.020493533 -0.10047998
0.046401888 0.0046920953 -0.13353743 -0.14030263 0.067371674 0.014709274 -0.05132257 -0.37032261
0.10723673 -0.17063588 -0.091949135 -0.1833831 0.12477913 0.19885775 0.23695269 -0.08624756
0.07366708 0.20518662 0.2558268 -0.09677765 0.1654531 0.12773156 0.06401171 0.14299351
0.046398804 -0.1475096 0.16713913 0.0041049095 -0.10330533 0.05790074 0.16591442 0.097560525
-0.23656327 -0.15550515 0.1750667 -0.113901526 0.014757216 0.09820268 -0.08247661 -0.26954472
0.1665651 0.17225958 0.10650564 0.09281324 0.05992623 0.026380535 -0.31676412 0.13597314
0.050153177 0.18785939 0.23366605 0.030982312 0.093658246 0.09067551 0.14888747 0.19024058
0.27787825 0.040452596 0.13970421 -0.12046884 0.12886076 0.101774916 -0.197772 -0.046596337
-0.090706855 -0.15048411 -0.08929364 0.04508446 -0.15959173 0.1664501 -0.04450075 -0.29918647
0.030633474 0.08707105 0.34000412 -0.032662235 -0.04893078 0.19792566 -0.37920487 0.20013978
0.12160231 0.15830019 0.035106372 -0.16623046 -0.074286625 0.0547983 0.082554586 -0.040226273
0.12019507 0.027101438 -0.06835231 -0.016805448 0.20450784 0.06701452 -0.043220352 0.07321696
-0.13995668 -0.22617725 0.13472602 -0.06939246 -0.18110065 -0.029060213 0.06025036 -0.18265918
-0.17292787 0.1658739 -0.13385786 -0.11428567 -0.011183567 -0.08450944 -0.23955196 -0.166267
-0.16455355 0.0032752368 0.28466728 -0.07169724 -0.1382817 -0.10849733 0.15804729 -0.0066364515
0.08387738 -0.15832151 -0.07256262 0.03346653 0.23072061 -0.18700713 -0.09271262 -0.053947248
-0.22868411 -0.074680895 0.08416378 -0.17176333 -0.20732597 0.14179541 0.039783213 0.11548763
-0.1689052 0.11584017 -0.09662086 -0.14291473 -0.13159966 -0.024614256 -0.0089061735 -0.11536282
0.08334893 -0.32184118 -0.098785706 0.02093366 -0.073070295 -0.11361769 0.12368152 -0.04106451
0.086425096 -0.3823712 0.124420725 -0.1269718 -0.18926716 0.034720153 -0.16652149 -0.076880544
-0.07493558 0.10472577 -0.045453943 0.118856914 0.09682805 -0.03345493 0.21140908 -0.15032117
0.05685979 0.16157685 0.1567131 -0.12831683 0.08896128 0.10569648 -0.19458869 0.17372087
00000000: 65c8 563d 1479 fa3b 56dd d33d 5519 ddbd
00000010: 4a93 933d b8f8 ca3d 95f9 843c 28eb 21be
00000020: 78fe c63d 2d82 2dbe fe88 823d add4 5bbd
00000030: a3fe b3bd 4df0 6ebe 1edb cdbd 24b5 d6bd
00000040: bbb8 4fbe a90c 3bbe 8973 0c3e 26b9 cebd
00000050: d9ec 993d 3db4 89bb 1316 023e 8aa6 873e
00000060: afed 6d3d 272e 833d c445 44be 65fe 31bc
00000070: 8b12 fb3d db02 4d3d 3539 223e 1f11 0f3d
00000080: 1ca0 cc3c 9c38 cf3d 60e2 443d 0e95 8ebd
00000090: a517 803d e7db 0b3e f0ac ba3d 1cb8 02be
000000a0: 645c 16bd 0647 1abe dfe2 a1bc 5303 20bc
000000b0: 35a1 71bc ba3f da3c 34c8 0fbc 87f5 34bd
000000c0: 3ad5 663d de5c e7bc a5c2 2a3d bbba c33d
000000d0: 0b2f abbd 8b1d 2c3e b2f8 963c a7fe 46bd
000000e0: 42e7 fd3d 61d4 63bd 46f4 8dbe 1ad4 973d
000000f0: 1df6 e5bd 539e 82bd e3b6 ff3d 34f3 973d
00000100: 85fd d13d f2d8 43be c7be bd3d 9d33 91bd
00000110: 8c4c 5fbe 2c02 413e 6512 55bd c569 28be
00000120: 9d99 2bbe 82ef 4ebe a900 e53d d1fe 2abc
00000130: 1701 173e a8a7 4abc 0ee2 a73c 73c8 cdbd
00000140: e80f 3e3d 26c0 993b 09be 08be 7eab 0fbe
00000150: 29fa 893d 2bff 703c 9d37 52bd ed9a bdbe
00000160: ee9e db3d 2cbb 2ebe d44f bcbd c8c8 3bbe
00000170: 338c ff3d 5ea1 4b3e baa3 723e 90a2 b0bd
00000180: c4de 963d 711c 523e bbfb 823e 5c33 c6bd
00000190: 8a6c 293e 10cc 023e 9218 833d e46c 123e
000001a0: ac0c 3e3d c20c 17be 8526 2b3e 7a82 863b
000001b0: bf91 d3bd 5429 6d3d 78e5 293e d0cd c73d
000001c0: a43d 72be be3c 1fbe af44 333e 3445 e9bd
000001d0: 40c8 713c 7d1e c93d 7fe9 a8bd c401 8abe
000001e0: 0b90 2a3e d164 303e a11f da3d de14 be3d
000001f0: 3575 753d fe1b d83c e82e a2be 8b3c 0b3e
00000200: 6b6d 4d3d 365e 403e 2746 6f3e 9ece fd3c
00000210: e5cf bf3d 15b4 b93d f575 183e 6dce 423e
00000220: 0f46 8e3e 9fb1 253d 9f0e 0f3e 5eb8 f6bd
00000230: 13f4 033e 5e6f d03d be84 4abe cddb 3ebd
00000240: 84c4 b9bd 8218 1abe 95df b6bd 7caa 383d
00000250: 046c 23be e571 2a3e 6b46 36bd f82e 99be
00000260: 0df3 fa3c 4f52 b23d 0515 ae3e d6c8 05bd
00000270: a46b 48bd 06ad 4a3e 2427 c2be 71f1 4c3e
00000280: a20a f93d 7219 223e b3cb 0f3d 5138 2abe
00000290: 9623 98bd 2f74 603d 6112 a93d 4ec4 24bd
000002a0: d528 f63d d603 de3c 4cfc 8bbd 94ab 89bc
000002b0: 816a 513e e93e 893d d307 31bd c6f2 953d
000002c0: ce50 0fbe 029b 67be 9ef5 093e a21d 8ebd
000002d0: 7372 39be af0f eebc 15c9 763d 020b 3bbe
000002e0: 0114 31be d9da 293e 0912 09be 9b0e eabd
000002f0: 483b 37bc 4913 adbd 1c4d 75be e541 2abe
00000300: ba80 28be 5ba5 563b e9bf 913e 01d6 92bd
00000310: b899 0dbe d933 debd 26d7 213e 9776 d9bb
00000320: e7c7 ab3d 091f 22be b69b 94bd 3314 093d
00000330: 0642 6c3e cc7e 3fbe 1de0 bdbd caf7 5cbd
00000340: 2b2c 6abe 4cf2 98bd 0f5e ac3d bae2 2fbe
00000350: 424d 54be d132 113e b9f3 223d c784 ec3d
00000360: 7cf5 2cbe 9c3d ed3d 28e1 c5bd 3d58 12be
00000370: 10c2 06be d6a3 c9bc 33eb 11bc 5843 ecbd
00000380: d8b2 aa3d 5ec8 a4be 2950 cabd 117d ab3c
00000390: e1a5 95bd 64b0 e8bd bd4c fd3d 4233 28bd
000003a0: a4ff b03d 28c6 c3be 4bd0 fe3d e504 02be
000003b0: 40cf 41be b836 0e3d 9c84 2abe 8c73 9dbd
000003c0: d377 99bd 777a d63d ea2d 3abd 416b f33d
000003d0: c94d c63d 0908 09bd 9f7b 583e cbed 19be
000003e0: d0e5 683d 6774 253e 6679 203e 7d65 03be
000003f0: 5531 b63d 6577 d83d 4242 47be e2e3 313e

lstm.bias_ih_l0 f4 [128]
0.2810342 0.1090644 0.034437776 0.17867713 0.19031957 0.081371255 -0.07618637 0.16330434
-0.062047288 0.19181602 -0.06960758 0.009797678 -0.18753442 -0.16312398 0.16618676 -0.06976883
0.15825205 0.16091256 -0.0033611618 -0.047034256 -0.012512589 0.14193612 -0.036987253 -0.0920233
-0.030927967 0.09341056 0.12778418 0.13839361 0.080115475 0.18568163 -0.028747946 -0.106891744
0.06768663 -0.055967946 0.26719305 -0.061977327 -0.09599209 0.21997453 -0.10166233 0.27351177
-0.0073276684 0.0700207 0.09576922 0.096757844 0.0859554 -0.018022764 -0.11085043 0.17826809
-0.074110836 -0.03867537 -0.04315277 0.14190851 -0.018261017 -0.1015902 -0.052251317 -0.11757849
0.07889033 0.13986929 0.14296332 0.0008305742 0.13309011 -0.07424512 0.110605575 0.14309487
0.014744747 0.0635959 0.008030853 0.012802626 0.046726186 0.052990578 0.19479306 -0.035556436
-0.025021758 -0.08397369 -0.036163434 -0.16753538 0.07761634 -0.091670945 -0.20206466 -0.13452075
0.051065933 0.10637736 -0.102239914 0.04180531 -0.1491217 -0.15832856 0.17721356 0.0026322363
-0.20691745 0.14870107 -0.105465956 -0.1477326 0.16390616 -0.073066674 0.085667506 -0.08943453
0.14447625 -0.15384987 0.007297322 0.16828413 -0.09564188 0.017721903 0.13187483 0.0027975384
0.059677742 0.18387412 -0.023335075 0.1888358 0.15171427 -0.06064976 0.046698865 0.066559345
0.022830376 0.19874641 0.1490135 0.02929718 0.1198432 0.003502376 0.057145134 0.007937181
0.08372901 0.13228597 0.34565285 0.18096764 -0.053084943 0.23131284 -0.007862909 0.014352957
00000000: b7e3 8f3e 285d df3d a00e 0d3d 23f7 363e
00000010: 22e3 423e f9a5 a63d 9907 9cbd 4139 273e
00000020: 4c25 7ebd 6b6b 443e 6b8e 8ebd 7186 203c
00000030: 0609 40be f909 27be dd2c 2a3e f6e2 8ebd
00000040: d30c 223e 43c6 243e f046 5cbb fea6 40bd
00000050: 9a01 4dbc b457 113e f27f 17bd b676 bcbd
00000060: a65c fdbc 094e bf3d dbd9 023e 0eb7 0d3e
00000070: 9513 a43d 5323 3e3e d080 ebbc 0fea dabd
00000080: 4a9f 8a3d a53e 65bd 87cd 883e f0db 7dbd
00000090: 8097 c4bd 0141 613e 5734 d0bd bc09 8c3e
000000a0: f01c f0bb 0367 8f3d a722 c43d fa28 c63d
000000b0: 6209 b03d 7aa4 93bc 8d05 e3bd e98b 363e
000000c0: 6cc7 97bd 116a 1ebd f5c0 30bd 7750 113e
000000d0: 2198 95bc 860e d0bd 7a05 56bd fecc f0bd
000000e0: 4191 a13d e539 0f3e fa64 123e e4ba 593a
000000f0: c648 083e d30d 98bd 2d85 e23d 7687 123e
00000100: f493 713c 913e 823d d793 033c 1bc2 513c
00000110: f563 3f3d a60c 593d d577 473e a0a3 11bd
00000120: 6efa ccbc 66fa abbd 1c20 14bd 658e 2bbe
00000130: 51f5 9e3d fabd bbbd 0aea 4ebe cfbf 09be
00000140: 832a 513d 60dc d93d 2963 d1bd 0b3c 2b3d
00000150: 5cb3 18be e220 22be 7977 353e 9981 2c3b
00000160: 2be2 53be 1845 183e 89fe d7bd 3747 17be
00000170: 04d7 273e fba3 95bd 7272 af3d 7329 b7bd
00000180: 95f1 133e d28a 1dbe 601e ef3b ad52 2c3e
00000190: e4df c3bd 862d 913c 320a 073e e856 373b
000001a0: a670 743d 7f49 3c3e 3329 bfbc 2c5e 413e
000001b0: fc5a 1b3e e26b 78bd 4f47 3f3d 4450 883d
000001c0: c506 bb3c 2e84 4b3e ff96 183e a400 f03c
000001d0: 5a70 f53d 1e88 653b 0411 6a3d f30a 023c
000001e0: 1d7a ab3d f975 073e 69f9 b03e 954f 393e
000001f0: 996f 59bd 46dd 6c3e 6ed3 00bc aa28 6b3c

lstm.bias_hh_l0 f4 [128]
0.08075149 -0.15356861 0.1957432 0.20429422 -0.103086345 0.16382398 0.11316496 0.24666396
0.14458165 0.19690208 -0.10479753 0.15336381 -0.006139897 -0.0799474 -0.063576005 0.1577508
-0.002356076 0.12532303 0.13614334 -0.04438831 -0.11495547 0.18558967 -0.037339382 0.20836882
0.14754054 0.047049977 0.31378797 -0.04825384 -0.019484201 -0.04538624 0.13412094 -0.0087139215
0.08141022 -0.14732377 0.23913342 -0.046852455 -0.09294845 -0.089504935 0.09646537 0.07193675
-0.009120911 0.037689343 -0.113517225 -0.09056252 0.020700995 0.046009347 0.21316934 -0.050977875
-0.1685664 -0.0040688273 0.2121862 0.23751523 -0.07042099 0.11390951 -0.10697683 0.14343722
-0.05321601 0.024744328 -0.013972678 0.14087747 0.12393604 0.0011105476 0.0057027102 0.0919889
-0.026318133 0.09526007 0.06788232 -0.0740519 0.18218665 0.15472561 0.047055308 -0.06871813
-0.03747426 -0.15842983 0.10041069 0.013397484 0.045208145 -0.060749758 0.10998066 -0.07013357
0.028163802 -0.066680804 0.1888352 -0.1328601 -0.07543675 0.10808899 0.043197714 -0.1556496
-0.033241924 0.030722206 -0.1055712 0.06435488 0.1501688 0.17790924 -0.10116045 -0.08488058
-0.023055306 -0.18659866 0.097982705 0.008252132 0.067343324 0.0838388 0.17934328 0.09578851
0.1730089 -0.0835318 -0.12545896 0.119397566 0.21996075 0.08832247 0.11986656 0.11716393
-0.11342833 -0.02411872 0.077791564 0.21519606 0.0893186 0.21444471 -0.07005755 0.11390328
-0.14781907 -0.039011 0.40794793 -0.12074208 0.18482785 0.032938194 0.067785285 0.09582936
00000000: 0a61 a53d 1741 1dbe e870 483e 8132 513e
00000010: ef1e d3bd 79c1 273e 08c3 e73d 7a95 7c3e
00000020: 360d 143e b3a0 493e 16a0 d6bd 670b 1d3e
00000030: 3031 c9bb 76bb a3bd 2334 82bd 6d89 213e
00000040: 6568 1abb ae54 003e 2969 0b3e 84d0 35bd
00000050: c66d ebbd 380b 3e3e 2ef1 18bd a35e 553e
00000060: de14 173e 7ab7 403d d1a8 a03e d2a5 45bd
00000070: 559d 9fbc ece6 39bd 0057 093e d6c4 0ebc
00000080: 67ba a63d 0bdc 16be 64df 743e 5ce8 3fbd
00000090: c25b bebd 5d4e b7bd a38f c53d 9353 933d
000000a0: e06f 15bc 2460 1a3d b87b e8bd d878 b9bd
000000b0: 2295 a93c 4c74 3c3d 1049 5a3e 2dce 50bd
000000c0: ac9c 2cbe cc53 85bb 5747 593e 3137 733e
000000d0: e138 90bd 6449 e93d ab16 dbbd 35e1 123e
000000e0: 08f9 59bd 9eb4 ca3c a9ed 64bc 2f42 103e
000000f0: 2ed2 fd3d cb8f 913a cddd ba3b ad64 bc3d
00000100: 2099 d7bc b617 c33d e305 8b3d 86a8 97bd
00000110: 238f 3a3e 6470 1e3e 11bd 403d 17bc 8cbd
00000120: 9c7e 19bd 6e3b 22be 1fa4 cd3d 1f81 5b3c
00000130: 2d2c 393d bdd4 78bd 8a3d e13d 30a2 8fbd
00000140: c6b7 e63c f28f 88bd 045e 413e 7a0c 08be
00000150: 957e 9abd c35d dd3d 16f0 303d 9c62 1fbe
00000160: af28 08bd 23ad fb3c b735 d8bd 7ecc 833d
00000170: dac5 193e d72d 363e 362d cfbd dfd5 adbd
00000180: 7bde bcbc b813 3fbe 28ab c83d f333 073c
00000190: 4ceb 893d adb3 ab3d c4a5 373e c42c c43d
000001a0: 3f29 313e b812 abbd 5078 00be b686 f43d
000001b0: 643d 613e 69e2 b43d 997c f53d a4f3 ef3d
000001c0: 1d4d e8bd 9f94 c5bc 2f51 9f3d 5b5c 5c3e
000001d0: acec b63d 6597 5b3e 557a 8fbd 1f46 e93d
000001e0: e25d 17be 00ca 1fbd 8dde d03e a047 f7bd
000001f0: 8343 3d3e 33ea 063d 03d3 8a3d 2f42 c43d

fc.weight f4 [3, 32]
0.23513155 0.087756716 0.010986414 -0.0015764033 -0.12711926 0.068610325 -0.15120369 0.055761874
0.064358085 0.1747697 0.11079999 0.018648664 0.066991016 0.10120709 0.11178876 0.17951968
-0.19216177 -0.112807974 0.038854975 0.124769524 0.18930748 -0.12962694 0.0956877 0.20227289
-0.0487586 0.32239574 -0.02592775 0.18627019 -0.1511827 -0.2404377 0.05763344 0.20562343
-0.25534987 -0.09841942 -0.23256013 -0.17700712 -0.11781121 0.26239702 0.025250765 -0.0063080583
0.035226885 -0.19326223 0.11904423 -0.094113044 -0.14078832 -0.123005524 0.03231303 -0.18807368
0.11228147 0.29774705 0.22704263 -0.1975541 -0.09135181 0.1834815 0.19382721 -0.017691348
-0.10680665 -0.20961128 -0.2794754 -0.16791195 0.07221772 0.20636995 0.091105424 0.03305355
-0.09113343 0.15069683 -0.118012674 0.07724515 0.024192348 0.108271 -0.17448725 0.10657199
-0.121190794 -0.0032122098 0.09456585 0.15601136 0.04547901 0.04700092 -0.16257171 0.007549685
-0.083872914 -0.26586697 -0.271471 0.2758546 -0.109865636 -0.11162891 0.018588115 -0.17098925
0.20367056 0.11725222 0.4005519 0.21171594 -0.18897045 -0.095851235 0.18033382 -0.09974772
00000000: 53c6 703e cbb9 b33d 5c00 343c 519f ceba
00000010: 8d2b 02be 9283 8c3d 24d5 1abe 9066 643d
00000020: 2cce 833d d4f6 323e 1beb e23d 15c5 983c
00000030: 9632 893d aa45 cf3d 81f1 e43d 02d4 373e
00000040: 0ec6 44be de07 e7bd 6526 1f3d 2a87 ff3d
00000050: d2d9 413e edbc 04be eaf7 c33d a020 4f3e
00000060: 19b7 47bd 0e11 a53e 6f66 d4bc 9dbd 3e3e
00000070: a3cf 1abe 4d35 76be 0b11 6c3d f38e 523e
00000080: 38bd 82be 1f90 c9bd 3e24 6ebe 5b41 35be
00000090: 0147 f1bd e758 863e b1da ce3c d4b3 cebb
000000a0: 114a 103d 89e6 45be 76cd f33d 57be c0bd
000000b0: d02a 10be 52ea fbbd ab5a 043d 6396 40be
000000c0: d4f3 e53d 4d72 983e dd7d 683e 9f4b 4abe
000000d0: a816 bbbd 93e2 3b3e a47a 463e 72ed 90bc
000000e0: 72bd dabd 57a4 56be 6617 8fbe 1cf1 2bbe
000000f0: e2e6 933d a552 533e 7b95 ba3d 2963 073d
00000100: 2aa4 babd 4550 1a3e a1b0 f1bd b532 9e3d
00000110: 082f c63c 30bd dd3d c9ac 32be 6a42 da3d
00000120: e132 f8bd f083 52bb beab c13d 71c1 1f3e
00000130: 3348 3a3d 0984 403d 3379 26be 5963 f73b
00000140: 90c5 abbd b71f 88be 3ffe 8abe d03c 8d3e
00000150: 3c01 e1bd b39d e4bd 1a46 983c ce17 2fbe
00000160: 048f 503e ef21 f03d 2315 cd3e 10cc 583e
00000170: 7881 41be a74d c4bd 6ea9 383e 8848 ccbd

fc.bias f4 [3]
-0.020763127 -0.11231425 -0.058138967
00000000: 6f17 aabc 0305 e6bd 2023 6ebd
