fut_opt_lih_features_prepare/best_model_05.pth (torch, 26374 bytes, 6 tensors)

embedding.weight f4 [57, 8]
000000 c7 b2 b4 be ff 98 1a bf a5 ca d0 3f 2b f5 3b bf
       -0.35292646 -0.60389704 1.6311842 -0.7342097
000010 6f ff 2c 3f 6e 84 b4 3e d1 2a ae 3f 96 d5 43 3e
       0.6757726 0.35257286 1.3606817 0.19124445
000020 d1 8a 99 3f 53 57 1e bf 2f 20 24 40 f9 47 a5 3f
       1.1995488 -0.61851996 2.5644643 1.2912589
000030 1b 07 d0 bf ca a7 4b 3f d9 4e 1b be da 32 6b 3d
       -1.6252168 0.795529 -0.15166797 0.057421543
000040 ea 4f d1 3e 99 93 ae 3e bf 62 b1 3f ea 6f 2b 3f
       0.40881282 0.34096983 1.385826 0.6696764
000050 74 99 c4 bf 32 06 c5 bf 3b b4 9d be a2 0f 8c bf
       -1.535933 -1.5392516 -0.30801567 -1.0942271
000060 fb ee 72 3f b6 92 f0 3d 38 55 9a 3f 15 94 25 bf
       0.94895905 0.11746733 1.2057257 -0.6467908
000070 2b dc 82 bf 8d 45 2b be e5 99 3a be a2 a0 07 3f
       -1.022344 -0.1672575 -0.18222769 0.5297948
000080 1f 8d 30 bf 56 56 59 bd 69 6d d7 3f 95 24 35 3f
       -0.68965334 -0.053060852 1.6830264 0.70758945
000090 0b ae 7f bf cb 6b 99 bf f4 2f 47 bf 9a e9 60 bf
       -0.99874943 -1.1986021 -0.77807546 -0.8785645
0000a0 cd 0a fb bf 91 49 90 bf 45 09 58 be 57 e1 30 bf
       -1.9612671 -1.1272451 -0.21097286 -0.6909384
0000b0 6e de 21 be 24 62 c9 bd 17 85 9d 3f 11 35 48 3f
       -0.15807506 -0.09833172 1.2306241 0.7820597
0000c0 41 63 b4 bf 6e b6 a5 bf d9 21 49 be a6 00 ae be
       -1.409279 -1.2946298 -0.19641818 -0.3398487
0000d0 ad 34 83 bf 3e 2a 55 c0 85 96 84 3f 56 07 ef 3f
       -1.025045 -3.3307033 1.0358435 1.8674114
0000e0 a7 1f 0c 3e 4b e5 3d 40 a9 85 01 40 16 b9 26 bf
       0.1368395 2.96712 2.023783 -0.6512617
0000f0 1d 9e 23 3f 14 8f 97 3f 0e 20 91 bf 9d b1 23 40
       0.63913137 1.1840539 -1.1337907 2.5577157
000100 24 1d 63 3e d7 eb 6a 3f ac da b2 3f 05 4d 23 3f
       0.22179085 0.91766113 1.3972983 0.637894
000110 0a d9 41 be ab 51 73 be 2b 08 53 bf 99 76 ca be
       -0.1893045 -0.23761623 -0.8243434 -0.39543608
000120 5c b1 df 3f 9e ec 8f 3f d7 e5 02 bf 95 1c f2 3f
       1.7476001 1.1244085 -0.5113196 1.8914973
000130 1d e6 cb 3f b6 d9 cb bf 55 c6 33 3f 35 8f fe bd
       1.59296 -1.5925815 0.70224506 -0.12429658
000140 0f ac 31 40 7e 33 52 bc 28 9a 80 bd 7e b8 14 c0
       2.7761266 -0.0128296595 -0.06279403 -2.3237605
000150 ab 76 53 bc 9c b4 1d 3f 17 2e 44 bf ba c0 2e 3f
       -0.012906711 0.61603713 -0.7663283 0.6826283
000160 d5 58 ac 3d ab 06 9d be f9 bf e4 bf d9 dc 5a bf
       0.08415381 -0.3066915 -1.7871085 -0.85493237
000170 79 22 19 be 0f e9 17 3e be 1f 77 3f 9f c4 c6 bf
       -0.14954557 0.14834999 0.9653281 -1.5528754
000180 3b 15 ea 3e 69 c7 e9 3f 43 88 de bf 3c 84 83 3f
       0.45719323 1.826398 -1.7385334 1.027473
000190 7f 03 1c 3f d2 1a 62 3e c4 32 88 be 43 3e 45 be
       0.60942835 0.22080544 -0.2660123 -0.19262032
0001a0 47 4b 77 3e 39 ea 2b c0 f8 dc 82 3f 7c a3 eb be
       0.2414981 -2.6861708 1.0223684 -0.46023166
0001b0 0a 3d e9 3e e9 96 d1 bf 28 0c 46 3e 06 55 60 3f
       0.45554382 -1.6374179 0.19340575 0.87629735
0001c0 62 81 99 3e a7 65 55 bf 21 cc ea 3e c7 e4 9d 3f
       0.29981524 -0.83358234 0.45858863 1.2335442
0001d0 4e 31 1e 3f 95 9f ea 3e 5b 8b 49 bd da 7e 4b bf
       0.61793983 0.45824876 -0.049205165 -0.79490435
0001e0 91 48 28 3e cb c3 a4 3d d7 03 8e 3f 85 1e 8a bf
       0.16433932 0.08045157 1.1094922 -1.0790564
0001f0 c8 9e 8b bd 50 f6 1a bf 74 f1 92 3f ba ac 5c 3f
       -0.068173945 -0.60532093 1.1479936 0.8620106
000200 62 aa ee 3d f7 ae 01 3e b3 e3 10 3f fc 47 c8 bf
       0.11653592 0.126644 0.5659744 -1.5646968
000210 99 79 a4 3f 29 d3 e5 be 25 d5 87 bf f2 de 46 3f
       1.2849609 -0.44887665 -1.0611922 0.7768394
000220 a7 8f 11 be b8 89 95 3f 8d 2f 89 be 93 6e fc 3f
       -0.14214955 1.1682653 -0.2679409 1.9721245
000230 00 cb 9a bc be d9 55 c0 3b 10 17 3e 49 d2 94 bf
       -0.018895626 -3.341415 0.14752285 -1.1626674
000240 df 47 17 c0 1a 67 1e 3d bf 36 9d 3f f1 96 97 bf
       -2.3637617 0.038672544 1.2282332 -1.1842939
000250 9a 71 36 bf 2d 78 e4 3c 9f 5f 69 bf 06 99 d2 3f
       -0.7126709 0.027889336 -0.9116153 1.6452949
000260 2b 48 8b bf c8 b6 7e 3f 02 8d 17 bf 97 56 85 3f
       -1.0881399 0.9949765 -0.59199536 1.041705
000270 d7 95 66 3f d5 6c 2f bf 2a 42 c0 be 09 b5 fd 3f
       0.9007239 -0.6852544 -0.3755048 1.9820873
000280 d7 33 34 bf c2 3b 16 40 d8 25 1f be 53 bc 0a 3f
       -0.703916 2.3473973 -0.1554178 0.5419361
000290 40 68 c4 3f 88 0b ee 3d 91 2f 64 3f a5 50 73 bf
       1.5344315 0.11623293 0.8913508 -0.9504493
0002a0 df 69 21 bf 5b a3 47 3f aa 76 52 3f 11 e9 f6 3f
       -0.6305217 0.77983636 0.82212317 1.9289876
0002b0 40 48 a3 3e 58 90 3d be 72 9c 24 c0 b9 f4 0a 40
       0.3189106 -0.18512094 -2.5720487 2.1711867
0002c0 01 9e c7 3f b9 f1 4d bf 51 72 6b bf 95 a6 ed bf
       1.5595094 -0.80446965 -0.9197131 -1.8566462
0002d0 cb 3a 2c 3d ab 67 40 bf 52 2c 41 bf 47 e5 f4 be
       0.042048257 -0.75158185 -0.7545825 -0.47831175
0002e0 e4 22 60 bf 69 e8 00 3e ac ec f7 3f 2d 54 6b bf
       -0.8755324 0.12588657 1.9369102 -0.9192532
0002f0 00 fe d0 3f e6 fe 83 3f c6 50 85 bf 7f f2 f1 3e
       1.6327515 1.0312164 -1.0415275 0.47255322
000300 77 22 9f be 7d 46 3d c0 91 32 72 bd 45 a9 33 bf
       -0.31080982 -2.9574273 -0.059130255 -0.7018016
000310 f3 38 18 3e 1c a3 b6 3f 45 a5 9d bf 44 7e 26 3d
       0.14865474 1.4268527 -1.2316061 0.04064776
000320 5a a0 ac 3e ac 51 ad 3f 18 3e 42 c0 fc 21 21 bf
       0.3371609 1.3540549 -3.03504 -0.6294248
000330 e8 42 29 40 fc ec 3b bd d1 f2 6c 3f 28 26 a2 3f
       2.6447086 -0.045880303 0.9255801 1.2667894
000340 0d 28 0c bf a5 a7 37 3f 61 43 6f bf dc 16 a6 bf
       -0.5474861 0.7174018 -0.9346219 -1.2975726
000350 53 3b 40 3e b8 02 82 bf 07 57 4b c0 9e ae d2 bc
       0.1877263 -1.015708 -3.1771867 -0.02571803
000360 d7 a9 94 3e 20 5a 35 3f 7e f4 af 3e b4 94 8c 3c
       0.29035828 0.70840645 0.3436622 0.01716075
000370 e7 96 09 c0 09 ea 02 40 c7 be ee be 0f 5f 9f bf
       -2.1498353 2.0455344 -0.46629927 -1.2450885
000380 28 be 3c c0 78 43 e2 bd bc 8c 9d 3f d5 a8 b7 be
       -2.9491062 -0.11048025 1.2308574 -0.35870996
000390 ea a5 b3 3f 7e 0f 4a 40 a8 3d ef 3e 98 b2 a9 bf
       1.4035008 3.1571956 0.46726727 -1.3257627
0003a0 1a d9 69 3f 7b 72 de 3f 67 a0 f0 bd 96 4a f5 be
       0.91346896 1.7378687 -0.11749344 -0.47908467
0003b0 b6 ae 8f bf 8e ea 9b bf 76 70 57 3e 1f dc 35 bf
       -1.1225193 -1.2180955 0.21038994 -0.71039003
0003c0 b6 9c a9 3e 16 c8 00 3f 42 ee 4a c0 03 50 b6 3e
       0.33127373 0.50305307 -3.170792 0.3560792
0003d0 e8 16 db bf b5 ca 0e bf 65 75 5e 3f 46 42 a4 3f
       -1.7116365 -0.55778056 0.8689788 1.2832725
0003e0 b7 b9 06 bf a9 e5 33 bf b2 37 a5 bf 48 bd 9b 3f
       -0.5262713 -0.7027231 -1.2907622 1.2167139
0003f0 d5 c3 82 3f 67 40 61 3f 8c ef f1 3e df d8 79 3f
       1.0216013 0.87988895 0.47253072 0.97596544

lstm.weight_ih_l0 f4 [128, 8]
000000 68 c8 7e bd 48 eb 16 bd 55 ab 12 be 8e 39 2e be
       -0.06220284 -0.036845475 -0.1432317 -0.17014143
000010 fa 60 77 be 1b 24 56 3e 9e e8 fe be 7d b4 25 bf
       -0.24158087 0.2091221 -0.49786848 -0.6472853
000020 b6 f2 e2 3d be f5 62 3e de 15 0f be 9e ab f7 3d
       0.1108145 0.22164056 -0.13973185 0.1209328
000030 5d 2b e8 3e b8 f5 84 3e b7 53 ab 3d aa 09 56 be
       0.45345584 0.2596872 0.08365577 -0.20902124
000040 c1 12 62 3f 45 4c 0f 3e 0b 9c 74 bf e1 4d ce 3d
       0.88309866 0.13993938 -0.955506 0.10073448
000050 3f dc 36 bc 25 ad b9 be ad 4b 4d 3e bc eb b4 be
       -0.011160909 -0.3626491 0.200484 -0.353361
000060 12 d5 b5 3e e2 58 09 bf 35 73 4c be e7 39 08 3d
       0.35514122 -0.5365125 -0.19965823 0.033258345
000070 a2 63 00 3f 18 01 87 3c 05 6f 04 3f 8a 47 41 be
       0.5015203 0.016480014 0.517319 -0.18874946
000080 66 d2 ab ba 44 96 97 3e 6f 90 97 be bc 51 01 3e
       -0.0013108968 0.2960683 -0.29602382 0.12628835
000090 4e 9b dc 3e 7e 68 05 be d9 1c 45 3e d5 5f 75 be
       0.43087238 -0.13028142 0.19249286 -0.23962338
0000a0 8f c4 83 3d 53 f3 17 3e 8d 47 b6 be 15 7d 3c bd
       0.06433975 0.14838915 -0.35601464 -0.046017725
0000b0 b3 5e e5 be da 07 5e 3e 04 0d 0d 3f 60 3f c8 be
       -0.44798812 0.21682683 0.55097985 -0.3911085
0000c0 c5 44 9f be 77 09 f2 3d b9 7f 5a 3e c0 c9 34 bf
       -0.31107154 0.118182115 0.21337785 -0.70620346
0000d0 17 6c 02 3f a9 ea 11 3e 7c f7 3f bf 80 66 04 3f
       0.5094618 0.14249672 -0.74987006 0.517189
0000e0 d3 75 27 bf 86 3f 6e bf 1f ef 6d 3e e1 bb c3 3d
       -0.6541416 -0.9306568 0.23235749 0.095573194
0000f0 a6 3f 6a be 33 c1 a7 bd 89 39 9d bc bb 13 93 3e
       -0.22875842 -0.08191147 -0.019192474 0.2872599
000100 be c7 20 3c 15 68 75 3d 9d 3b b8 3d 59 94 b4 3d
       0.009813247 0.059913713 0.08995745 0.088173576
000110 a5 8c 3b 3f ad d4 a4 3e 50 95 90 3b df a4 66 bf
       0.7326148 0.3219351 0.0044123307 -0.90095323
000120 44 81 75 bd cb f2 b8 be d7 60 a5 3e 88 cc 02 3e
       -0.05993773 -0.36122736 0.32300445 0.12773335
000130 6b 57 53 3e 18 b8 09 be cb 26 fa be b8 6d cf 3e
       0.20638816 -0.13449132 -0.48857722 0.40513396
000140 64 68 8b be 32 ec c8 3d 22 d1 80 be be fe 80 3e
       -0.2722808 0.09810676 -0.25159556 0.25194353
000150 77 e8 fc 3e 0c 3f 80 bd 4d 1e 83 bc fe 3f 32 3f
       0.49396107 -0.06262025 -0.01600566 0.69628894
000160 66 05 0a 3f 75 3b 70 be 53 91 cd 3d 76 34 34 3e
       0.5391449 -0.23460181 0.10037484 0.17598137
000170 09 37 6f bc 95 0e 02 3f dd 22 13 3e 2b 4e cd bc
       -0.014600524 0.508035 0.14368768 -0.025061687
000180 ba 91 2d 3f 62 e8 ac 3e c2 77 60 3e 45 5b 96 be
       0.67800486 0.33771044 0.21920684 -0.29366508
000190 29 35 bf bd 17 61 35 bf d9 74 0b 3e 64 2b d4 3d
       -0.09336311 -0.7085127 0.13618793 0.103598386
0001a0 e3 4d 8b be a4 30 25 bf 62 18 4b bd 93 0d 31 be
       -0.2720786 -0.64527345 -0.0495838 -0.17290334
0001b0 f7 f5 8c 3c 31 c8 66 3e 37 9a ce be eb 47 4b 3e
       0.017207129 0.22537304 -0.40352032 0.19851653
0001c0 f0 c6 83 bd ad bd 9a 3d a5 d0 e7 be d2 ef 55 3e
       -0.06434429 0.07555709 -0.4527637 0.20892265
0001d0 72 70 c4 be b4 a9 f1 3e 6e 81 8c be 5c aa 13 3e
       -0.3836704 0.47199786 -0.27442497 0.14420456
0001e0 7d f0 5b be c3 ee c0 3d fb 6d 6f 3d 43 9d da bd
       -0.21478458 0.0942054 0.058454495 -0.106745265
0001f0 57 e9 d0 3e a5 6c 82 be 79 1a 1e bb 4c 53 36 3f
       0.40803024 -0.25473514 -0.0024124666 0.7122085
000200 da 6e 07 3f c7 99 07 3e 29 89 b5 be d6 07 60 3e
       0.5290352 0.13242255 -0.35456207 0.21877989
000210 19 e4 6a 3e 69 45 e3 be 7e 52 80 bd c2 09 c6 3d
       0.22938575 -0.44388893 -0.06265734 0.0966983
000220 d2 8c 52 3f a2 10 5c 3e bd 0d 1b be db f1 8c be
       0.82246125 0.2149072 -0.1514196 -0.2752827
000230 0e 2a ba 3e 98 48 c1 3e 5c 38 be 3e 71 0f 2e 3d
       0.3636021 0.37750697 0.37152374 0.042495195
000240 a7 57 e0 3e 05 94 cf bd 12 9a 98 3e 53 eb e1 3e
       0.43816873 -0.10135654 0.29805046 0.4412485
000250 e8 5e 67 3e 4f ec 07 bd fa 6d 99 3d 89 8d 3e be
       0.22594798 -0.033184346 0.074916795 -0.18608679
000260 44 c8 8d bf 29 7b 1c 3e 24 47 17 3d 4b ab b0 be
       -1.1076741 0.15281357 0.03693308 -0.34505686
000270 b2 7e a5 be d6 02 b3 3d 6c 9d c0 be 5f af f8 bd
       -0.32323223 0.08740775 -0.37620103 -0.121428244
000280 11 2c bf 3e a5 c7 8f bc f4 4b 94 be 2b 83 70 be
       0.37338307 -0.017551253 -0.28964198 -0.23487537
000290 5c c9 19 3d 38 3f 9e 3f bb c1 50 bd d6 30 ce be
       0.037545547 1.2363043 -0.050966006 -0.40271634
0002a0 54 7c 7b bf c2 c1 0d 3e 4a 2e 20 3e ee f6 b8 be
       -0.98236585 0.13843444 0.15642658 -0.36125892
0002b0 74 6a 9c 3e 37 d7 98 be 74 bd 77 3d 0b 70 44 3e
       0.30549967 -0.29851696 0.06048341 0.19183366
0002c0 19 e8 30 bf 50 44 32 3e 44 e2 84 3e 7e 7e f2 be
       -0.6910415 0.17408872 0.25953877 -0.4736213
0002d0 a9 e9 10 bf c2 b3 6c be 5e d5 32 bf fe 49 de 3b
       -0.5660654 -0.23115447 -0.6985682 0.006783723
0002e0 71 4d 59 bc 03 f7 47 be 1b 12 60 bd d6 ef da be
       -0.013263092 -0.19527821 -0.054704767 -0.42761105
0002f0 e6 62 87 3c 3d 4c e1 bd 5c 15 90 3e 1b 44 09 bf
       0.01652665 -0.110008694 0.28141296 -0.53619546
000300 0e 4c 2e 3f 6b c0 21 ba 3c 38 d5 be 69 f5 57 be
       0.680848 -0.0006170335 -0.41644466 -0.2108971
000310 fa 6d a5 be ee 4b 16 3e ca b8 48 bd d0 a1 ee be
       -0.32310468 0.14677402 -0.049004354 -0.46607828
000320 09 00 af bc 81 37 03 3f 23 11 0f bf 09 5c 35 bf
       -0.021362321 0.5125657 -0.55885524 -0.7084356
000330 71 1e a6 be fa 01 21 bb 76 c4 9d 3e 56 23 f1 3c
       -0.324451 -0.0024567829 0.3081395 0.029435795
000340 87 e8 37 be 2b bd a9 3e 8f 71 07 3f 85 c5 37 be
       -0.17959796 0.33152136 0.5290765 -0.17946441
000350 0f 59 22 3e f0 1c 9a bd cb 10 8a 3d a5 db 4e be
       0.15854286 -0.07525051 0.06741484 -0.20200975
000360 d2 36 b3 be d4 fe 02 3f 83 52 61 be 23 81 0f be
       -0.35002762 0.51170087 -0.22004132 -0.14014105
000370 25 3b b6 be 2e b3 57 bf 50 cb 10 3e d8 e5 4b be
       -0.35592 -0.8425778 0.14140058 -0.19911897
000380 17 78 51 3e c9 3d a1 3e 8c e7 97 be 18 fa 30 3e
       0.20455967 0.3149245 -0.29668844 0.17282903
000390 47 53 2c 3d 7c 3b 0b bf 7d 13 4a 3e 51 ed 99 3e
       0.042071607 -0.5438764 0.19733997 0.3006387
0003a0 f7 3b 0c bf f9 c3 c6 be 4a de 9a be 26 ca 11 3e
       -0.54779 -0.3882139 -0.30247718 0.1423727
0003b0 8d 4b 58 be 8d 59 04 3f 40 a8 9b bd 02 67 b4 be
       -0.2112257 0.51699144 -0.076004505 -0.3523484
0003c0 b5 31 c4 3d ed c3 10 3e 65 01 88 be 40 c2 af be
       0.09579793 0.1413724 -0.26563564 -0.34327888
0003d0 0d 63 97 be 00 33 82 3e c5 e0 5b bd 92 37 a3 be
       -0.29567757 0.25429535 -0.053681154 -0.31878334
0003e0 44 fc cf 3e 08 82 93 bc 1b 39 c2 be 79 0f 03 bf
       0.4062215 -0.01800634 -0.37934193 -0.51195484
0003f0 e3 b8 fd 3e 96 a6 fd bd b4 c5 1e 3f f5 07 fe bd
       0.4955512 -0.12385289 0.6202042 -0.124038614

lstm.weight_hh_l0 f4 [128, 32]
000000 fd 50 02 be 90 0d ea bd 07 7a 9a 3e 49 6b b7 3d
       -0.12726207 -0.11428368 0.30171224 0.0895601
000010 0b d9 52 be 2e b0 6f bf 98 bd 79 3f 26 3f 8b 3e
       -0.20590608 -0.93628204 0.9755492 0.27196616
000020 15 d0 20 be 36 82 1b be 9f 40 18 bf 75 ef 15 bf
       -0.15704377 -0.1518639 -0.59473604 -0.5856851
000030 83 c7 b6 be 1d f5 3d 3e e6 bb e9 3e cb e8 79 bf
       -0.3569909 0.18550535 0.45651168 -0.9762084
000040 6a 05 27 be af 7d a5 bf 27 c5 89 3f 2b 56 b3 be
       -0.16310659 -1.292898 1.0763291 -0.35026678
000050 da cc 59 3e 9e af 49 3f c0 60 3c bf e6 c6 88 bf
       0.21269551 0.78783596 -0.7358513 -1.0685699
000060 46 8a 04 3f 5e d8 aa 3e ed 2e 1e 3e 9d 3f 00 3f
       0.5177349 0.333682 0.15447588 0.50097066
000070 39 53 61 3f 20 9a 8f bd ee 09 8b 3f e9 c7 ec 3c
       0.8801761 -0.07011819 1.0862405 0.028903918
000080 e6 9e 77 3e 7e c8 72 3d 88 b4 cd 3f 73 86 7c bf
       0.24181709 0.059273235 1.6070719 -0.98642653
000090 f6 14 d2 be 3e fa 27 bf 84 0b a7 be c7 39 e8 bd
       -0.41031617 -0.65616214 -0.32625973 -0.11339145
0000a0 1a a7 24 bf 2e 19 84 bc a9 3d 11 bf e7 89 b0 be
       -0.64317477 -0.016125288 -0.5673471 -0.3448021
0000b0 f9 9e f4 3d 6c af 32 be d0 20 0b 3e 3c 7e 3e be
       0.11944384 -0.1744973 0.13586736 -0.18602842
0000c0 0a 20 09 bf 27 91 93 3b 75 3d 2f 3f 1f 8a 8c bf
       -0.5356451 0.0045033875 0.6845315 -1.0979651
0000d0 29 6e bf 3e 07 5f 37 3f 4b b7 93 be f5 93 83 bf
       0.37388733 0.71629375 -0.2885078 -1.0279528
0000e0 5d 28 15 3f 88 a4 0c 3f 32 f9 85 bd 22 a1 10 3e
       0.58264714 0.54938555 -0.06541671 0.14123967
0000f0 97 29 16 3e 5b 4f 11 3f 9d 92 af 3f 5f 7b d5 3e
       0.14664303 0.5676171 1.3716618 0.41695687
000100 b2 f3 45 3e 53 83 92 be 76 89 93 3e 18 78 11 bf
       0.19331244 -0.28615817 0.28815812 -0.56823874
000110 4e 1e 39 3e 61 4d d6 3e db 31 8c 3e d9 f4 29 3e
       0.18077967 0.4185591 0.27381787 0.16597308
000120 d2 e9 88 bf fa b1 64 be 39 b0 97 3e d8 cb 90 3f
       -1.0696356 -0.22333518 0.29626635 1.1312208
000130 e0 fb 03 3f ba 7e 43 bf ce 1c f4 3e 47 25 20 bb
       0.51556206 -0.76365244 0.47678226 -0.0024436282
000140 10 9c 56 3c ac 21 06 3f de 37 d6 be 84 1e ea 3d
       0.013098732 0.5239513 -0.41839498 0.11431602
000150 9b 22 44 bc 11 64 9f be 7d 0d bc 3e 79 ec 74 bf
       -0.011971141 -0.31131032 0.3672904 -0.9567333
000160 1e f2 7a 3e 05 fc af 3d d7 f0 cd 3e f0 82 bc 3e
       0.24506423 0.08592991 0.4022281 0.36818647
000170 83 a9 6c 3e 1a 4f da 3d 61 f4 66 3e 77 d4 54 3f
       0.23111539 0.10659619 0.2255416 0.83136696
000180 a0 b3 9b bd af 6a 8f bf 0c 1b 90 3f 31 d2 1c bf
       -0.0760262 -1.1204432 1.1258254 -0.61258227
000190 7e ac 7e be b7 d4 92 3d b9 f5 f3 3e 6f 49 15 bf
       -0.24870488 0.071694784 0.4764841 -0.58315176
0001a0 3c 07 63 bf ab 73 c0 bd 71 7c 4a 3f 5f 6f 0f 3d
       -0.88682914 -0.09397062 0.7909613 0.03501832
0001b0 c7 66 8a 3f 5c 13 ce bf 99 eb ef 3e 1e 84 0a 3f
       1.0812615 -1.6099658 0.46859434 0.54107845
0001c0 2a 33 a0 3b 53 3e 4b bf 04 98 7b be 61 fd cf 3e
       0.0048889117 -0.79391974 -0.24569708 0.40623
0001d0 d0 5c b1 be e1 96 a9 3e 28 10 5d 3f bf a6 7c be
       -0.34641123 0.33122924 0.8635278 -0.24672984
0001e0 2b 60 ab be 74 aa 06 bf 00 64 2b 3f fc 0a 5f 3f
       -0.33471808 -0.5260384 0.6694946 0.87126136
0001f0 4c b6 7e 3f 79 dc 23 3f 95 c4 8f 3e d6 67 37 3f
       0.9949691 0.6400829 0.28079668 0.71642816
000200 a2 cd 0e bf 08 bc db be 6b d4 f8 3e f9 1a 91 be
       -0.5578252 -0.42916894 0.48599562 -0.2834089
000210 a0 70 36 bf 01 f5 06 be ac 79 99 3f 39 0c 64 3c
       -0.712656 -0.13179399 1.1990256 0.01391893
000220 36 4a 25 3e 6e 51 d8 3e 4b 86 11 bd 6e ca 1d bf
       0.1614159 0.42249626 -0.035528462 -0.6163701
000230 66 25 29 3f 72 09 9d be 96 34 52 3f f9 76 07 bf
       0.6607269 -0.3067127 0.8211149 -0.5291591
000240 08 99 e0 be 9e c1 ca be b4 a8 65 bf 3c 38 c4 be
       -0.43866754 -0.39600843 -0.89710546 -0.38324153
000250 82 e0 a3 3e b7 47 b1 3e 99 c3 4e 3e 10 d6 85 be
       0.32007223 0.34625027 0.20191802 -0.2613988
000260 7a c5 da bc ae 17 73 bf b2 55 51 3d 50 5c 17 3f
       -0.026705492 -0.9495801 0.051107116 0.5912523
000270 10 b5 87 bc d5 c1 66 3f c3 8b 44 3f a1 05 21 bf
       -0.01656583 0.90139514 0.7677576 -0.62899214
000280 6a 4e 4c be 41 5a 81 be 72 fe 9a 3e 98 d2 dd 3e
       -0.19951788 -0.2526417 0.3027225 0.43324733
000290 01 cd 21 3e a9 f5 90 be b5 e3 bb be fa 87 39 be
       0.15800859 -0.28312424 -0.36697164 -0.18118277
0002a0 b9 96 ac be 20 dc af 3c a1 22 f7 3b 16 f0 08 3f
       -0.33708742 0.021467268 0.00754197 0.5349134
0002b0 bf fa 18 3f 6d 29 08 bf 71 fc 12 bf 81 0b 20 bf
       0.5975761 -0.5318821 -0.57416445 -0.62517554
0002c0 e1 96 ad be 62 23 33 3f 53 1a e6 bd 69 3e 08 bf
       -0.33904174 0.69975865 -0.1123549 -0.5322023
0002d0 8f e8 9c 3f 51 eb 77 be 41 07 f9 3e 1e 9b a2 3d
       1.2258471 -0.2421086 0.48638347 0.079397425
0002e0 0a 2a 71 3f 00 5a 55 3f 84 b9 ea 3e 5b a1 35 bd
       0.9420477 0.83340454 0.45844662 -0.044343334
0002f0 95 6e 59 bd 04 48 d6 3e f4 59 0a 3f f0 ee fa 3e
       -0.053083975 0.4185182 0.5404351 0.4901042
000300 a1 f2 19 3e b6 3a a3 3c c1 a8 5c be 31 ee b2 bd
       0.15033962 0.019925456 -0.2154875 -0.08736838
000310 53 ae 38 be aa c5 ac 3d 94 a3 e4 3d d5 cb 3c be
       -0.1803525 0.08436139 0.111640126 -0.18437131
000320 4f 10 81 3e 7f d2 20 bd c5 07 0b 3f 72 c6 6a bc
       0.25207755 -0.039263245 0.5430873 -0.01432954
000330 df 89 33 be 75 00 3a 3e 90 bb 80 be 82 13 42 3e
       -0.17533062 0.18164237 -0.251431 0.18952754
000340 92 3b af be ae 3b 47 bf 05 3b 01 3f 65 57 e5 bd
       -0.34225136 -0.7782544 0.5048068 -0.1119831
000350 8b 02 cb 3e 0f 00 85 be c7 b9 ba 3d fc d8 26 be
       0.39650378 -0.25976607 0.091174655 -0.1629371
000360 66 dc bd 3e 8f d7 d7 be 58 a6 2d 3e ea 80 83 3e
       0.37082213 -0.42156646 0.16957986 0.2568429
000370 a2 2b 05 bf aa ee 68 be 2a a9 00 be a3 70 01 bf
       -0.52019703 -0.22747293 -0.12564531 -0.50562495
000380 5f 38 32 bf 12 52 62 bd 51 f2 8c 3d 64 65 70 3e
       -0.69617265 -0.05525405 0.06882156 0.23476177
000390 00 e9 83 be 46 c1 24 bc 7b e3 c2 3e c8 10 25 bf
       -0.25763702 -0.010055846 0.3806418 -0.6447873
0003a0 96 47 86 be 2a e9 08 bf 0a 75 10 3e 3b ab d8 be
       -0.2622649 -0.5348078 0.14107147 -0.42318138
0003b0 55 46 27 3e 08 30 20 3d 9e cc 8d 3e d4 bd 06 be
       0.16335423 0.039108306 0.27695173 -0.13158351
0003c0 9a ac e3 be f3 84 b8 3d 54 31 59 3d df 96 aa bd
       -0.44467622 0.09009733 0.05302556 -0.083295576
0003d0 10 df ab 3d 3e d2 87 3e 2d 4d 9c 3d 8a 30 e7 3d
       0.08392155 0.2652759 0.076319076 0.11288555
0003e0 69 75 88 be 1c 43 a1 be 3c ff c9 be 9d 54 d7 bb
       -0.26652077 -0.31496513 -0.3945254 -0.006571366
0003f0 c2 11 2f 3e 07 ae 2b 3f 96 a8 33 3f 1c 68 d8 bd
       0.17096618 0.6706242 0.70179117 -0.10566732

lstm.bias_ih_l0 f4 [128]
000000 2f 58 ee 3e 99 e2 23 3e f9 2a f0 3e 08 b3 22 3f
       0.46551654 0.16004409 0.46907786 0.6355443
000010 49 88 d4 3e 5e 3a d2 3e ea 09 bf 3d 3e ed d0 3e
       0.41510227 0.41060156 0.09328063 0.40806
000020 a3 eb 4d 3f a7 fb 52 3e d1 3f 4d 3e ac 34 03 3f
       0.8043768 0.2060381 0.20043875 0.51252246
000030 70 5d 8c 3e cf 76 0d 3f a6 6d 72 3e 47 d1 d6 3e
       0.27415037 0.5525941 0.2367464 0.4195654
000040 dd c0 bc 3e 0b 33 41 3f a6 99 ab 3e b6 4d 20 3f
       0.36865893 0.7546851 0.33515662 0.6261858
000050 36 a1 1e 3f e7 ad 9e 3e 25 cd 27 3f 28 de 0a 3f
       0.6196474 0.30992052 0.655474 0.54245234
000060 7e 23 b1 3e 75 da 1c 3f 00 5e fe 3e 56 e3 70 3e
       0.3459739 0.6127084 0.4968109 0.23524222
000070 f1 e5 89 3e 43 81 e0 3d c8 07 c2 3e 42 28 d0 3e
       0.26933244 0.10962155 0.37896562 0.40655714
000080 6e c4 14 3e 63 a5 4b 3e c1 52 f9 3d 72 1e 4e 3e
       0.14528057 0.19887309 0.12173987 0.20128801
000090 e6 63 18 bc 8d dd 82 3e 65 3f b9 3e 53 aa 49 3e
       -0.009301161 0.25559655 0.3618118 0.1969388
0000a0 11 8c e6 3e 84 3f 92 3e 6b 86 d7 3e ba a6 10 3e
       0.45028737 0.28564084 0.4209474 0.14126101
0000b0 8c 85 08 3e 7c a6 0f 3e 84 dc 2d 3d 3f 7c 0f 3e
       0.13332194 0.14028352 0.04244663 0.1401224
0000c0 57 c6 5b 3c 22 12 e3 3d 45 a0 87 3e da 63 05 3f
       0.013413987 0.11087443 0.26489463 0.52105486
0000d0 34 98 fb 3e 2a 3f 4e bc c4 f2 ca bd fa ec 77 3e
       0.4913956 -0.012588302 -0.09909585 0.24211493
0000e0 9b 13 5e 3d cd 49 aa 3e 1a 67 d2 3d 90 ee 45 3e
       0.054217916 0.3325943 0.10273571 0.19329286
0000f0 14 4b b1 3e 28 c7 ab 3e 1a 3b c1 3e c4 f1 09 bc
       0.34627593 0.33550382 0.37740403 -0.008419458
000100 61 06 95 3d 25 8f 53 be ae aa 3e ba 6c 2d 1d 3d
       0.07276607 -0.20660074 -0.0007273358 0.038373396
000110 95 46 36 be 62 5d 7a 3d 82 65 22 3e af af 68 3e
       -0.17800362 0.061124213 0.15859035 0.22723268
000120 f9 51 17 be 75 66 d6 bd b8 24 f0 3d e2 da b2 3c
       -0.14777364 -0.10468761 0.117257535 0.021832887
000130 8e 14 bb 3d 96 73 7a be b8 97 0c 3d 3c 31 d2 3d
       0.0913478 -0.24458155 0.034324378 0.10263297
000140 28 76 01 be d6 50 e1 bd f3 7e 82 bc d5 b0 1d be
       -0.1264273 -0.11001746 -0.015929675 -0.15399487
000150 c2 1c ef 3d 0e 07 a6 3c a6 1c 0b 3e a3 7e 23 be
       0.11675407 0.020267036 0.13585147 -0.15966277
000160 bd 73 76 3d 68 11 2b be f2 2f 2a bd 94 c4 23 3e
       0.06016897 -0.16705859 -0.04154963 0.15992957
000170 63 77 89 3d dd 3e 50 3e fc 66 a7 3e 6f b1 03 bd
       0.06712224 0.2033648 0.32695758 -0.032151636
000180 cf c0 f2 3e 55 18 82 3e 8e f2 8b 3e 09 e9 0c 3f
       0.47412726 0.2540919 0.27333492 0.55043083
000190 4c 29 6b 3e b3 bd 0c 3f de 6b 2b 3f 0b 7b ef 3e
       0.22964972 0.5497696 0.6696147 0.46773562
0001a0 2d 21 4b 3f 6c 22 cc 3e e9 4f f4 3e 06 6f 2f 3f
       0.793475 0.39870012 0.47717217 0.68528783
0001b0 6d 2b 32 3f 23 84 d5 3e 9f 4e 93 3e ad 5c 21 3f
       0.6959751 0.41702375 0.2877092 0.63032037
0001c0 36 34 07 3f d8 d6 08 3f 4a 1e 97 3e 37 d1 01 3f
       0.5281404 0.53452826 0.29515296 0.5070986
0001d0 8b 3d 4f 3f a5 31 0b 3f 5d f1 14 3f b9 19 e2 3e
       0.8095328 0.54372627 0.5818079 0.4416025
0001e0 c8 09 1a 3f 53 55 d4 3e 99 e4 27 3f 80 9d 80 3e
       0.60171175 0.41471347 0.6558319 0.25120163
0001f0 01 f9 e6 3e 08 39 12 3f 79 3f ea 3e c0 8c a9 3e
       0.4511185 0.5711827 0.4575155 0.33115196

lstm.bias_hh_l0 f4 [128]
000000 65 15 d1 3e 42 dc fe 3c 77 78 06 3f 14 be 03 3f
       0.40836635 0.031110886 0.52527565 0.5146191
000010 fb 17 a4 3e 6a da a3 3e 64 91 ad 3d 4a c7 02 3f
       0.32049546 0.32002574 0.08474997 0.5108534
000020 a2 8f 32 3f 00 43 82 3e 44 08 a4 3e 28 24 e9 3e
       0.69750416 0.25441742 0.32037556 0.45535398
000030 8d ba 63 3e 42 54 85 3e 7c 7c d1 3e 38 6c f3 3e
       0.22239132 0.26040846 0.40915287 0.47543502
000040 21 97 ba 3e e3 4e 23 3f b4 83 b7 3e e9 0a e2 3e
       0.36443427 0.63792247 0.3584267 0.4414895
000050 a9 a9 23 3f 08 21 86 3e ed b1 24 3f 7f 3a 37 3f
       0.63930756 0.26197076 0.64333993 0.7157363
000060 ac c1 d8 3e fe cb b6 3e d5 f1 20 3f 33 26 a0 3e
       0.4233526 0.3570251 0.62869006 0.31279144
000070 f9 0c 9d 3e 33 5d dc 3e 94 4f 8f 3e 5f 5e 18 3f
       0.3067396 0.43039855 0.279904 0.59519
000080 2f 2c e5 3d 26 b7 cf 3d 82 71 29 3e 2b 9b a8 3e
       0.11190068 0.10142355 0.16547206 0.32930884
000090 b6 b3 17 bc 13 98 0d 3d da ca 56 3e 9f fe 45 3e
       -0.009259155 0.034568857 0.20975819 0.19335411
0000a0 bd e2 d3 3e 94 98 21 3e b7 e3 f1 3e 03 79 fc 3d
       0.41383925 0.1578086 0.47244045 0.12327769
0000b0 1d 6c 2d 3e f5 6f cd 3d 21 35 b4 3d 97 5e cd 3e
       0.16935773 0.1003112 0.08799196 0.4011123
0000c0 d2 53 79 3d 4f b4 03 3e 8d 5f a4 3e e4 34 e6 3e
       0.060870953 0.12861751 0.3210415 0.44962227
0000d0 64 43 1f 3f 95 2c 4c 3e 29 86 1e be 87 b2 1b 3e
       0.62212205 0.19938882 -0.15480866 0.15204822
0000e0 79 bd 4b 3e a9 fe 6f 3e 97 ba 52 3d 28 64 c7 3e
       0.19896497 0.23436989 0.051447477 0.389436
0000f0 6c f4 d0 3e d6 22 cc 3e 26 c1 ab 3e 5c 3d d5 3c
       0.4081148 0.39870328 0.33545798 0.026030235
000100 33 ae 99 3c 35 57 11 be 4a 6a cb 3d 9e 38 67 bd
       0.018759822 -0.14193423 0.099323824 -0.05645048
000110 74 a1 cf bd 8d 54 10 3e a8 c3 24 3c 0f 15 b9 bd
       -0.101382166 0.14094754 0.010056414 -0.0903722
000120 34 c1 3a be b9 6c 8c bd f3 9b 58 3c aa 43 1f 3e
       -0.18237764 -0.06856675 0.013220775 0.15553156
000130 3d b7 04 3e cc 5f 7e be b5 e7 53 be 5f 66 fc bd
       0.12960525 -0.24841231 -0.20693858 -0.12324213
000140 9a 6b f7 3d cb 79 e8 bd b2 34 80 3d 96 fa b6 bc
       0.1208107 -0.11351355 0.06260051 -0.022336286
000150 86 1e d2 3d 2f 4d dd 3d a6 42 08 3e 11 74 1e be
       0.10259728 0.10805737 0.13306674 -0.15473963
000160 a5 63 c1 bd a5 e9 18 bd 0a 3f 0f be fc ef f5 3d
       -0.09442834 -0.037332196 -0.13988891 0.12008664
000170 07 ad 04 be 3f a2 b2 3d ae 85 a2 3e 3a 13 95 bc
       -0.1295663 0.08722352 0.31742615 -0.018197645
000180 97 e0 d0 3e 4f ba 0b 3e de a0 81 3e 66 83 ca 3e
       0.40796348 0.1364529 0.25318044 0.39553374
000190 7a 43 09 3f 22 a7 4c 3f 25 14 4e 3f b3 eb 9b 3e
       0.53618586 0.79942524 0.8049949 0.30453262
0001a0 61 c1 58 3f b8 fc 9f 3e d6 9a 00 3f 4e 78 13 3f
       0.8467007 0.31247497 0.5023626 0.57605445
0001b0 26 e7 d3 3e 47 bc 53 3e 2e 58 87 3e 0f 8a 41 3f
       0.4138729 0.20677291 0.26434463 0.75601286
0001c0 35 c1 06 3f 01 4e 1c 3f d0 3f 83 3e fa 5c 07 3f
       0.5263856 0.61056525 0.25634623 0.52876246
0001d0 f9 dd 64 3f 2b 23 dc 3e b8 93 d4 3e b5 87 21 3f
       0.89401203 0.4299558 0.4151895 0.630977
0001e0 4b 25 03 3f 71 17 ae 3e 32 c4 fa 3e 57 15 8e 3e
       0.5122878 0.3400226 0.4897781 0.27750656
0001f0 46 6b 0c 3f bc a1 a6 3e 61 fe 0b 3f b7 d6 0f 3e
       0.54851186 0.3254527 0.54685026 0.14046751

fc.weight f4 [1, 32]
000000 5b e6 53 40 9d eb 0b c0 81 20 89 40 5f 85 a7 c0
       3.3109348 -2.1862557 4.285218 -5.2350307
000010 56 aa 13 c0 0d 87 19 c0 4e 4b a5 3f 6d 50 1d 40
       -2.3072715 -2.3988678 1.2913606 2.4580338
000020 c6 01 3f c0 4c 80 f1 3f 2f f4 82 3f 9a 75 79 c0
       -2.9844832 1.8867278 1.0230769 -3.8978028
000030 2c b8 21 c0 4f a7 0e 3f b1 23 01 40 d2 ea 2d c0
       -2.526866 0.5572404 2.0178034 -2.7174573
000040 9b 3e 91 bf 13 be 96 c0 82 7c 3f 40 a9 35 4b 40
       -1.1347231 -4.7107024 2.9919744 3.1751502
000050 74 ba 8d c0 46 d1 27 40 3a a2 98 c0 72 af 39 c0
       -4.4290104 2.622148 -4.769803 -2.9013333
000060 ab 34 b5 40 44 6b b9 bf 8a 21 6c c0 e6 a2 1d 40
       5.662679 -1.448586 -3.689547 2.4630675
000070 53 db bd bf c0 31 32 40 80 71 2a c0 c9 3a a2 c0
       -1.4832557 2.7842865 -2.6631775 -5.069676
