fut_opt_lih_features_prepare/best_model_3.pth (torch, 25403 bytes, 7 tensors)

embedding.weight f4 [19, 8]
000000 09 51 d0 bf d2 d5 5a bd c1 f1 88 3f 37 42 4c bf
       -1.627473 -0.05342657 1.0698777 -0.79788536
000010 07 94 0d bf c0 55 35 3f ec 3e 7b bf a5 93 a3 3d
       -0.55303997 0.7083397 -0.98142886 0.07987145
000020 eb 1a 15 40 eb cd c4 3f 2e 6b e8 be f3 b3 4e bf
       2.329768 1.5375341 -0.45394272 -0.8074333
000030 69 b2 b5 be 1e 5e f2 be fd 60 36 3f df 71 7e 3f
       -0.3548768 -0.4733743 0.7124174 0.99392503
000040 b4 e9 6d 3f eb 03 70 3e 21 4a 02 3f c8 fc df 3e
       0.9293473 0.23438995 0.5089436 0.43747544
000050 d6 32 96 3f 74 f4 85 bf 7e a6 83 be fe 5e e0 be
       1.1734264 -1.0465226 -0.2571296 -0.43822473
000060 b8 da 67 bd 32 44 b0 bf d7 0b b9 3f e3 1a 0a 3f
       -0.05660507 -1.3770812 1.4456738 0.53947276
000070 aa 18 01 c0 88 61 98 bf 6e 47 1d 3f f8 7e 3d bf
       -2.0171304 -1.1904764 0.6143712 -0.74021864
000080 9b 42 ea 3e a1 fd 70 3f 78 e0 55 3f ab bd dc be
       0.4575394 0.94137007 0.8354564 -0.43113455
000090 38 da 1e 3f d7 c9 da bf 12 22 98 3f b0 b9 ea bc
       0.62051725 -1.7092847 1.1885397 -0.028652996
0000a0 2d 37 28 3f cc 8b 91 3f 6f fc d7 3e 98 b9 2a 40
       0.6570919 1.1370788 0.4218478 2.6675777
0000b0 45 95 20 3f bb 9f ba 3f e7 39 04 c0 91 35 ee be
       0.6272777 1.4579996 -2.066034 -0.46525243
0000c0 3a 86 e9 bd 0c 14 61 bf 2b d3 51 bf f8 45 23 3f
       -0.11402555 -0.87921214 -0.8196284 0.6377864
0000d0 b3 17 80 be eb 73 37 bf 48 30 ca 3f c4 7f b6 bf
       -0.2501808 -0.7166125 1.5795984 -1.4257741
0000e0 f7 ee 0b 3e 20 2d 9a 3f fd e6 28 3d 65 ed f2 be
       0.13665377 1.2045021 0.041235913 -0.47446743
0000f0 c0 9f 93 3f 16 8a d2 3e e9 41 2e 3e d3 45 e3 3f
       1.1533127 0.41120976 0.1701733 1.7755684
000100 3f 64 b4 bf 7c e1 0e 3f 5c d5 af 3e 87 d6 00 3f
       -1.4093093 0.5581281 0.34342468 0.5032734
000110 14 77 11 3f 13 c7 eb 3d 3a 07 e8 be 79 3b 43 3f
       0.56822324 0.1151258 -0.45318013 0.76262623
000120 f8 56 63 bf 5c ac 39 40 bc 6d 3b 3e 79 b1 7d be
       -0.8880458 2.901145 0.18303579 -0.24774732
000130 c1 42 f8 be ca a6 73 3d ba 10 a4 be d8 30 04 bf
       -0.4848843 0.059485234 -0.3204401 -0.5163703
000140 2b ce 5e be 0e fe 31 bd fb 5a 61 3f 2b 8b 4e be
       -0.21758334 -0.043455176 0.8802945 -0.20170276
000150 f2 72 16 bf 2d 35 3b bf 70 aa 8b bf aa 14 0d 40
       -0.5876914 -0.73128015 -1.0911388 2.2043862
000160 75 24 64 bd c1 b5 a3 3f d0 83 8b be de 2c dc be
       -0.05569883 1.2789842 -0.27249002 -0.4300298
000170 eb 5c 89 3e 45 41 0b bf ae 56 c8 bd 21 da 86 bc
       0.26828703 -0.5439647 -0.09782158 -0.016461434
000180 ec 1d b8 3f ad 7e 53 be 17 63 5f 3f 4a cb 9c 3d
       1.4384131 -0.20653792 0.87260574 0.07655962
000190 29 c7 0d bf 3d 49 d4 be da 88 ed 3f cb 6f ab 3f
       -0.5538202 -0.41462126 1.8557389 1.3393492
0001a0 45 e2 ac bf a4 46 de 3f a3 48 61 3f 3c 77 4e bf
       -1.3506552 1.7365308 0.8800146 -0.8065069
0001b0 5b ff e4 3f 33 d4 d4 bf f2 cc be be 50 6a 27 3f
       1.7890428 -1.6627258 -0.37265736 0.65396595
0001c0 0f 88 b9 3f 6a 97 49 bf cc b7 90 3e c1 06 aa bf
       1.4494647 -0.78746665 0.28265226 -1.3283311
0001d0 de 1e 78 bd ec 1f 61 3f d8 96 86 3e 0a f5 8d bf
       -0.060576312 0.87939334 0.2628696 -1.1090405
0001e0 96 12 62 bf ca 27 14 bf cd 74 6d be 78 54 81 bf
       -0.8830961 -0.57873213 -0.23189087 -1.0103903
0001f0 5a 3a 80 3e ec ea af 3e 05 8c 32 be 68 ac 73 be
       0.2504452 0.3435892 -0.17436226 -0.23796237
000200 f8 39 97 bf d8 e4 d3 3f 3c b0 7e bf d3 89 97 be
       -1.1814566 1.6554213 -0.9948766 -0.2959734
000210 62 bc 36 3f 9a f3 8d bf 59 b1 38 3f 2e 92 ea 3e
       0.713812 -1.1089966 0.7214561 0.4581465
000220 ff 34 b5 3f fa 45 37 3f 4b 69 c4 bf 51 ae 9f bf
       1.4156798 0.7159115 -1.5344633 -1.2475072
000230 67 4e 86 3f 7f 30 1f 3f 59 4a 31 3f 6e 58 79 bf
       1.0492676 0.62183374 0.6925407 -0.9740056
000240 80 06 ba 3f 15 b6 25 bf 28 73 79 3f f8 71 99 bf
       1.4533234 -0.6473096 0.9744134 -1.1987906
000250 cf 80 b4 be fc f9 d9 3e 7f f6 b7 be 6d 11 ee be
       -0.35254523 0.42573535 -0.3593025 -0.4649767

lstm.weight_ih_l0 f4 [128, 8]
000000 f5 c7 1f bd a6 67 82 3a 79 a1 3d 3e 94 db 88 3d
       -0.039009053 0.0009949103 0.18518628 0.06682506
000010 b7 76 6a bd da 5d 89 be 4c 67 61 3e 0e 11 8b bd
       -0.05724212 -0.26829416 0.22012061 -0.06790362
000020 e5 39 f7 bc e9 c4 6c 3e de 20 91 bd 49 fb a9 bc
       -0.030178973 0.2312199 -0.07086347 -0.020749705
000030 9b 44 fd 3d 89 c9 60 3d ff 31 03 be 27 1c cd 3d
       0.12366601 0.0548797 -0.12812041 0.10015135
000040 00 0f cd bd 8e 57 41 3e 02 ab dd 3c 45 6f ae bd
       -0.10012627 0.18881056 0.027059082 -0.08517317
000050 d0 29 6e 3c 1b ff f1 3c 78 07 09 3e 2f 9f 0d 3e
       0.014536336 0.02954059 0.13381755 0.13830255
000060 82 0e 0e 3e af 09 9f 3c 5a b1 de bd 3d ee 9b bc
       0.13872722 0.019413797 -0.10873671 -0.0190345
000070 3f 6d 14 3e 7a 18 70 be 89 75 df bc ed 49 ec bc
       0.14494799 -0.23446837 -0.027277725 -0.028843844
000080 50 50 b5 3d 30 bf 34 3e 2f ff 04 bd 48 51 9e 3d
       0.08853209 0.17651057 -0.032469925 0.07730347
000090 e8 81 22 3e dc 47 c0 3d 3d 41 dd 3d 26 13 aa 3d
       0.15869868 0.09388706 0.10803459 0.083044335
0000a0 ab b1 ee bd cf 79 f5 bd 9d 11 b9 bc 5d 9e 9f bd
       -0.11654981 -0.11986124 -0.022591406 -0.07793877
0000b0 a8 e9 46 3e 4c 90 23 3e d1 2a 38 3d d6 d1 c5 3d
       0.1942507 0.15973014 0.044962708 0.09659164
0000c0 58 0d 60 3e 90 6d a7 3d 40 85 43 3d 78 89 d5 bd
       0.2188009 0.08175194 0.0477345 -0.10426611
0000d0 f1 ae dd 3d a7 74 89 bd 5a fe 60 3e a6 6e 2c 3e
       0.10824383 -0.06711703 0.21972027 0.16839084
0000e0 96 d4 b8 bd 02 96 c6 3c 36 89 56 bd d4 21 60 3d
       -0.090249225 0.024241451 -0.05237695 0.05471976
0000f0 96 e2 b5 3d d4 81 df 3c f5 60 3d 3d e7 3b 14 3e
       0.088811085 0.027283587 0.046235044 0.14475976
000100 53 58 95 be 7c a7 ed bd 8c d7 eb 3d 21 43 8e 3d
       -0.2916895 -0.11604211 0.11515722 0.069463976
000110 dd ca c6 bd 31 45 a4 be b8 81 46 3e d0 7f b0 3e
       -0.09706662 -0.3208404 0.19385421 0.34472513
000120 d4 84 6e bd ec 02 2a be 58 8f f2 3d 63 f2 2e 3e
       -0.058232144 -0.16602677 0.11843747 0.1708465
000130 22 c4 ba be c5 9f e3 3d 04 a8 8b 3d 1b 1d 03 3d
       -0.36477762 0.11114458 0.06819156 0.03201018
000140 72 b0 14 3e 7a d9 a1 3e b6 87 1c 3d 2c 1a 90 3d
       0.14520434 0.31611234 0.03821536 0.07036242
000150 fb 6b d3 3d 6c 82 71 be 4f 46 1d 3e b3 12 0c be
       0.1032333 -0.23584908 0.15358852 -0.13679008
000160 5c 07 3b bd 51 b4 21 3e f9 d5 0b be 23 39 d2 bd
       -0.045661315 0.15791442 -0.13655843 -0.10264804
000170 28 17 52 3e 6b 4f 31 be 17 da 9f 3e 45 26 ab 3d
       0.20516646 -0.17315452 0.31221077 0.08356909
000180 77 c2 9b 3d d9 59 ec bd 2f 3c 9a 3d 5c 91 f5 3c
       0.076054506 -0.115405746 0.0753101 0.02997654
000190 45 6c 00 bd 9c 92 bc 3c 3a d6 2d 3d 46 bd 82 bd
       -0.031353254 0.023019128 0.04244063 -0.06383757
0001a0 52 23 52 bc fd 44 52 be 5c 3b 09 3e e8 ba b1 3d
       -0.012825804 -0.2053413 0.1340155 0.08678228
0001b0 56 e9 17 3d cc 0f 3a be 55 1c aa bd 5a ef 15 be
       0.03708776 -0.18170089 -0.08306185 -0.14642087
0001c0 43 92 c0 3d 07 9d 80 3d 1c db a3 3d 06 db dc bd
       0.09402897 0.062799506 0.08000776 -0.10783963
0001d0 63 c3 ed 3d 5c d4 d9 bd 90 72 2e bd 10 a7 da bc
       0.11609533 -0.106362075 -0.042589724 -0.02669099
0001e0 53 d6 7a 3c 6e dc 39 3d f3 76 31 3c 5e 53 07 3e
       0.015309888 0.045376234 0.010831582 0.13215396
0001f0 02 9a ba bd 49 86 09 be 89 43 b0 3d 24 f7 0b be
       -0.09111406 -0.13430132 0.08606631 -0.13668495
000200 db 75 f0 3d e9 c1 68 bc 8b fe 35 3e 66 ee 32 3e
       0.11741229 -0.014206388 0.17772882 0.17473754
000210 d7 bc 02 be 94 29 3a be 7a 22 9f 3d 11 ee f1 bc
       -0.12767349 -0.18179923 0.07770248 -0.029532464
000220 72 f9 93 3d 5b 91 06 3e ee cd fc bd 8b 67 9b 3d
       0.07225312 0.13141386 -0.123439655 0.07588109
000230 8a 00 26 3e 06 d1 ed 3b 73 0a a7 3d 36 1f 03 be
       0.16211143 0.0072575836 0.0815629 -0.12804875
000240 44 c1 7f 3d 8a cf 61 bb bd 67 2e be a0 04 17 be
       0.06244017 -0.0034455978 -0.1703176 -0.14747858
000250 2a 24 9b 3d 44 da d4 bc 0c 2a 22 bc 5c 9b 85 bd
       0.07575257 -0.025982983 -0.00989772 -0.06523773
000260 a4 a9 55 3e be 7f 08 be fd 63 a6 3c 40 b0 09 be
       0.20865494 -0.1332998 0.02031135 -0.1344614
000270 e6 08 e2 3d 71 79 b8 bc 4a 7e 07 be 8f 9d af 3d
       0.110368535 -0.022518845 -0.13231769 0.08574974
000280 ba 54 35 3e 3c 86 06 be ad 56 21 be 6f fd 31 be
       0.17708102 -0.13137144 -0.1575572 -0.17381833
000290 28 8f 3d 3e dc f8 54 3d 66 43 21 bd 40 20 f8 bc
       0.18511641 0.051995143 -0.039370917 -0.030288815
0002a0 8f d4 10 3e 13 18 cb 3d b6 0e cf bd 6a 7b ad bd
       0.14143585 0.09916701 -0.10110228 -0.08470805
0002b0 89 b9 04 3e 2d 4f 1d 3e bf 38 42 3e ec eb 7f bd
       0.12961401 0.15362234 0.1896696 -0.062480852
0002c0 53 4f 6e 3e c1 a8 0d 3d 09 6c 11 3e 1a c2 91 3d
       0.23272447 0.034584764 0.14201368 0.071171
0002d0 eb a7 c2 bd 0a 71 fc 3d 64 5a 8b bd 3f ee d2 bd
       -0.09504684 0.12326248 -0.0680435 -0.10299348
0002e0 01 13 45 3e 55 ee a7 bd cc 19 59 3e 12 d2 19 bd
       0.1924553 -0.08199755 0.21201247 -0.037553854
0002f0 37 c9 19 be b1 3e a6 bc 26 9d 0a be fb ee 14 3e
       -0.15018164 -0.020293565 -0.1353651 0.14544289
000300 72 dc eb 3d 1d eb 33 3d 4e 89 df bc f2 3c b9 3d
       0.11516656 0.043925393 -0.027287152 0.090448275
000310 40 7c 27 be 6b 0d 03 bd ac 88 e6 3d 33 b1 49 be
       -0.16355991 -0.03199522 0.11256537 -0.19696502
000320 80 bf 02 be 5e cd c1 3d a6 bf 7c 3e 4b e0 f7 3c
       -0.12768364 0.09462999 0.24682483 0.030258318
000330 3f c5 9c bd af dd 1f be be 7a d0 3d ed 5c c8 bd
       -0.07654809 -0.1561191 0.10179661 -0.09783349
000340 16 ac 17 3e d4 2a e4 bd 69 e3 50 3e 7d 67 69 bd
       0.1481174 -0.11140981 0.2039925 -0.05698346
000350 60 af ef 3c c5 60 42 3c dd 64 9e 3d e6 f8 57 3d
       0.02925843 0.011863892 0.07734082 0.052727602
000360 99 16 51 3e 6f e3 2c 3e 60 f2 49 3d 96 cd 32 be
       0.20418777 0.16883634 0.049303412 -0.17461237
000370 da e3 a1 3e de d2 b6 bc 97 00 7c bd 85 f3 6b 3d
       0.3161915 -0.022317346 -0.061524 0.057605285
000380 3d 51 04 bd fb f2 09 3e 71 27 38 3e f5 63 bd 3d
       -0.032304037 0.13471596 0.17983796 0.09247581
000390 c9 58 60 3e dc ab 2f 3e 90 eb 2a be 83 53 64 3c
       0.21908869 0.17155403 -0.16691422 0.013935926
0003a0 27 0c 98 bd 5b 8a c4 bd 4e e8 8f 3e fc a7 af 3d
       -0.07424193 -0.09596702 0.28106922 0.08576962
0003b0 a1 09 7d 3d 42 14 1d bd 7f 4d a5 3c f5 a6 53 be
       0.06177676 -0.038349397 0.020178555 -0.20669158
0003c0 d2 85 23 bd ff 6a c1 bd 51 b7 b9 bd ea 4d 25 3e
       -0.039922543 -0.09444236 -0.09068168 0.16143003
0003d0 b0 98 09 bd 68 84 08 3e 12 4a b3 3d ed 28 86 3d
       -0.03359288 0.13331759 0.08754362 0.06550775
0003e0 6b 65 89 3e 85 05 fe 3d 24 3a df 3d b5 dc 9e 3d
       0.26835188 0.124033965 0.10899761 0.0775694
0003f0 35 e4 13 3e c9 78 56 bc 92 99 54 3e 06 27 d0 3d
       0.14442523 -0.013090321 0.20761707 0.10163693

lstm.weight_hh_l0 f4 [128, 32]
000000 62 c9 79 3d ef dd 9f bc 73 d6 7e bd 5d 7a 10 be
       0.06098307 -0.019515006 -0.062216233 -0.14109178
000010 8b 0f 95 3d e9 fb 21 3e e9 60 20 3e 77 d3 6b 3e
       0.07278355 0.15818752 0.15661968 0.23029886
000020 65 c1 b6 3d 99 0d 1b be c4 ee c3 bd 51 0a 5f bd
       0.08923606 -0.15141906 -0.09567025 -0.054453198
000030 c6 7a 20 3c 54 a6 cd bd 0e 40 6a bd 1b 34 d0 3d
       0.0097948965 -0.1004149 -0.057189994 0.10166188
000040 54 4c 83 3e f7 eb 24 be 6c c5 8a 3c 1a 5c 87 3d
       0.2564417 -0.16105638 0.016939841 0.06609364
000050 02 e4 48 3d 30 c1 bf 39 62 31 22 be af 22 14 be
       0.04904557 0.00036574295 -0.1583915 -0.14466356
000060 64 eb 60 be 0c 1a 48 3e e9 90 d7 3d 25 86 0f 3d
       -0.21964794 0.19541186 0.10525686 0.03504004
000070 54 b5 05 bd 67 a1 c7 bd 66 de 1c be 03 30 40 bd
       -0.03264363 -0.09747582 -0.15319213 -0.046920788
000080 0d 59 d2 3d 57 eb 76 bc c1 31 4e bd b7 89 ae 3c
       0.10270891 -0.015070758 -0.050340418 0.021305902
000090 fa 1b 15 bd 2f 56 2d 3e 09 bf ea bd 13 d8 46 3e
       -0.036403634 0.16927408 -0.11462218 0.19418363
0000a0 43 ac 2b be ae 0a 28 be b9 d0 97 bd e8 86 49 3d
       -0.16764931 -0.16410324 -0.074128576 0.049200922
0000b0 86 0f 45 be 12 19 67 be b2 bd 11 be 92 4d 9b 3e
       -0.19244203 -0.22568157 -0.1423252 0.3033262
0000c0 17 d8 82 3d 29 5a ed 3c 3b 37 0b bc 3f 6e 06 be
       0.06388872 0.028973656 -0.008497055 -0.13127993
0000d0 45 8a ea bb ae 5d 2c bd 36 82 54 3e dd d4 ee 3d
       -0.0071575963 -0.042081527 0.20752797 0.11661694
0000e0 59 89 63 be 6b ba 58 3e 46 c2 70 3d d7 10 59 3e
       -0.22220363 0.21164863 0.058779024 0.2119783
0000f0 a5 99 3c bb da d0 0a be b7 e2 c8 3d 99 b3 e9 bd
       -0.0028778103 -0.13556233 0.098088674 -0.11411209
000100 73 66 52 bd 5a e7 30 3b 3f 75 14 3e 6c 2d e0 3c
       -0.051367234 0.0026993365 0.14497851 0.027365409
000110 42 e2 f6 bd 64 46 29 3e 06 f3 07 3e dc 1b 13 3e
       -0.12054874 0.16530758 0.132763 0.14366096
000120 89 79 47 be 8f a4 62 bc 2e 33 13 be 15 86 18 bd
       -0.19479956 -0.013833179 -0.14374992 -0.037237246
000130 86 f7 1b be 17 77 62 be 98 b7 28 bd c2 eb 4d 3e
       -0.15231141 -0.22115742 -0.041190714 0.20109466
000140 28 78 c7 bc f5 d3 f8 bd ee a6 18 be 60 ec be 3d
       -0.024349287 -0.121498026 -0.14907429 0.09322429
000150 ca f7 2f 3e d5 24 62 bc b5 84 f8 3c bb 13 37 bd
       0.17184368 -0.013802727 0.030336717 -0.04469655
000160 00 d4 89 bc c4 9b 48 3e a6 10 f5 bd fc ab a2 3d
       -0.016824722 0.1959067 -0.11966066 0.0794296
000170 de a3 d2 bd 18 5a c3 bd 66 9f 17 be 91 9c c0 bd
       -0.102851614 -0.095386684 -0.148069 -0.09404863
000180 00 43 a5 bd a7 3c 06 3e 11 73 0c bd 4c ac 0b be
       -0.0806942 0.13109075 -0.034289423 -0.13639945
000190 ff 6c ca bd c7 a0 14 3d 63 e5 2b 3e 7f 95 aa 3d
       -0.098840706 0.03628614 0.16786723 0.08329295
0001a0 e0 ab 49 3d b8 1d 17 3e 3d f8 71 be d4 c3 d6 3c
       0.04923618 0.1475743 -0.23629852 0.026216425
0001b0 7c b6 eb 3d 36 5c 99 be b1 09 f0 bd 2b e1 b4 3c
       0.115094155 -0.29953164 -0.117205985 0.022080025
0001c0 2c 60 61 3d 2f 5f df bc 2a 49 5e be a5 5d 6f 3d
       0.055023357 -0.027267067 -0.21707597 0.058438916
0001d0 6a 1d 42 bd 48 e1 3c be 49 d9 3d ba 3b 35 0f 3b
       -0.047391333 -0.18445313 -0.0007242156 0.0021851796
0001e0 51 f8 16 be f9 a8 36 be aa 7e d8 3d 3e 66 36 bc
       -0.14743163 -0.17837895 0.10571034 -0.011132775
0001f0 54 65 8a 3d 17 a0 07 3d a5 2a fe bc f8 18 47 3d
       0.06757608 0.033111658 -0.031026194 0.048607796
000200 78 f4 ec 3d 0b 75 0f 3d 27 27 00 3e 5a 61 a0 bc
       0.11570066 0.03502373 0.12514935 -0.01957767
000210 bc 21 c3 bd 3a e6 29 be 96 05 e5 bd fc fa 85 3d
       -0.09527919 -0.1659173 -0.11182706 0.06542012
000220 6f 46 3a 3d 6e 7f 66 3e b2 2d 77 3c b3 cf 22 3e
       0.045477327 0.22509548 0.015086578 0.15899543
000230 bd ef 12 be d6 5a cb 3c 6c 47 ae bc a6 94 06 3e
       -0.14349265 0.024823587 -0.021274291 0.13142642
000240 f8 8a 01 bd a2 67 3e be 85 1b 72 bc 79 38 dd bd
       -0.03162667 -0.1859422 -0.014777069 -0.10801787
000250 2f ee 7f 3e 23 ed c1 3d 9a fe 76 3e 22 98 4a 3e
       0.24993204 0.09469058 0.2412056 0.19784597
000260 72 d4 1e be b6 3c 89 bc ae a3 2c 3b 53 a4 10 3e
       -0.15510729 -0.016752582 0.0026342678 0.14125185
000270 ca f3 57 3e a2 20 0e bd 6b 7e 87 3d 65 13 b8 3d
       0.21089092 -0.03469909 0.06615909 0.08988074
000280 45 d9 8f bd 1d 63 aa bd 80 6a 0b 3e b0 3d 54 be
       -0.07023863 -0.083196856 0.13614845 -0.20726657
000290 15 37 8a 3e 1a ca 38 3e c7 26 62 bc 4b d7 23 3e
       0.2699515 0.18045846 -0.013803191 0.16000096
0002a0 45 95 dd bc 5a 24 37 3e c5 f9 f2 bd 51 36 53 bd
       -0.027048716 0.17884961 -0.11864046 -0.051565472
0002b0 43 05 48 bc 2a 83 b5 3d c5 ae 3f bc 9c b4 88 bd
       -0.012208286 0.08862908 -0.011699383 -0.066750735
0002c0 f0 6e 21 3e 98 be b3 be 10 5e e0 bd e0 c8 d1 3c
       0.15764976 -0.3510635 -0.10955441 0.02560848
0002d0 6b c2 11 be 4c ca 2d bd 20 4e 57 3e ac 06 a2 bd
       -0.14234321 -0.042429253 0.21025896 -0.07911429
0002e0 eb 83 94 bd dc 33 98 3d 9a 0d 3c 3e 4b 93 6d 3e
       -0.07251724 0.074317664 0.18364564 0.23200719
0002f0 cc a0 3b 3e 1e 46 23 3e 95 dd c0 bc d0 14 27 be
       0.18323058 0.15944716 -0.023543159 -0.16316533
000300 76 95 48 3e 82 45 17 be 09 2d 18 3e 00 ed a3 bd
       0.19588265 -0.14772609 0.1486093 -0.080041885
000310 a8 03 34 3e 2b 0b 2d 3c de 8a fe bd b7 af b4 bd
       0.1757952 0.010561745 -0.124288306 -0.088225774
000320 5d ec 1e 3e 28 4a 09 be 19 58 65 be 02 8c 59 bd
       0.15519853 -0.13407195 -0.22396888 -0.053112037
000330 aa 72 52 be a4 cf a6 3d c0 0d c9 bb 17 c6 09 3e
       -0.20551553 0.08145073 -0.0061356723 0.13454472
000340 01 7f 66 3d 1d c6 2c be 0e d8 16 3e cd 07 03 3e
       0.056273464 -0.16872449 0.14730856 0.12795945
000350 4a 63 9d bd ae 70 25 3e 47 e9 1b be 1d 6b 10 3d
       -0.076849535 0.16156265 -0.15225707 0.0352584
000360 f9 6b 5c be a8 a4 c8 bd d7 db e9 3d 28 a4 8b bc
       -0.21525563 -0.09797031 0.11418884 -0.01704605
000370 0a 79 93 bd 50 56 e3 bc 9d 6e ff 3d 80 90 2c 3d
       -0.07200821 -0.027751118 0.1247227 0.042129993
000380 1a 80 89 3d e4 79 0c 3d d1 f3 5f 3c d1 7c 76 bd
       0.067138866 0.03429593 0.01366897 -0.060177628
000390 96 3b c2 bc e9 15 76 3e 38 f0 ab 3d a3 dc ba bd
       -0.023710053 0.24031796 0.083954275 -0.09124114
0003a0 8b 2b 02 3d ec 98 fb bc ad f6 50 3d 05 29 2e 3e
       0.031779807 -0.030712567 0.0510165 0.17007835
0003b0 e4 91 92 be d5 5f 00 be f6 c1 4a 3d 34 07 7d 3e
       -0.2862693 -0.12536557 0.04950138 0.24709779
0003c0 32 d3 6b bc 03 43 81 be 43 fc 3e be eb 08 47 bd
       -0.014393615 -0.25246438 -0.18650918 -0.04859249
0003d0 62 19 1a 3d e5 1e 6c be 99 8c e4 3c 3a b3 0e 3e
       0.037621863 -0.2305866 0.027899073 0.13935557
0003e0 fe f6 10 be 49 1c 86 3d 52 3a 8d 3d 42 d3 28 bc
       -0.1415672 0.06548364 0.06895889 -0.010304274
0003f0 91 3e 9e bd 48 f8 3a be 79 d7 a2 3d 15 64 d4 3d
       -0.07726777 -0.18258774 0.079512544 0.10370652

lstm.bias_ih_l0 f4 [128]
000000 d2 35 08 3e 53 1a 69 3e 0f c2 41 3e 3f 8d 65 3e
       0.13301781 0.22763948 0.18921684 0.22417162
000010 fc b9 4a 3d 3e 64 14 3e 66 cd 33 bc 19 49 e1 bd
       0.049493775 0.14491364 -0.010974264 -0.110002704
000020 70 f7 2a 3e 7b e7 8b 3d d0 a4 19 3c 7d 9e b4 bd
       0.16695952 0.06831261 0.009377673 -0.08819292
000030 e3 7c 0d 3e 14 ea b5 3d 59 c4 1f 3d 38 5e 4c 3c
       0.13817172 0.088825375 0.03900561 0.012473635
000040 e0 b1 31 3e 65 c3 f0 3d 6c 32 dd 3d b3 eb ac 3c
       0.1735301 0.117560185 0.10800633 0.021108484
000050 ee 34 03 be ef 4c 09 3e 13 b4 96 3c 39 93 f3 3d
       -0.1281316 0.13408254 0.018396413 0.11893315
000060 f2 d4 67 3e 26 ff 13 3e 70 6e 80 3c 9b 13 3f 3e
       0.22639826 0.144528 0.01567766 0.18659823
000070 34 eb d5 bd b0 e7 f7 bd eb d4 22 3e ea 06 5d 3e
       -0.10445252 -0.12104738 0.15901534 0.21584669
000080 39 39 d1 3d d0 a9 08 be ae 24 9d 3c 8e 56 16 3d
       0.102159925 -0.13346028 0.01918253 0.03670364
000090 6a 8e 8e bd c6 9a 1a be d5 bc 30 3d b5 44 1d 3e
       -0.06960757 -0.15098104 0.043148834 0.15358241
0000a0 e7 67 ef 3d f3 f7 24 3d 02 f9 e7 3d fa 1e 51 3e
       0.1168974 0.040275525 0.11326791 0.20421973
0000b0 bd da 3b 3e 9d bc 22 bd 61 69 39 3e 87 28 94 bd
       0.18345161 -0.039730657 0.18106605 -0.072342925
0000c0 70 d4 9c 3d 23 63 65 3e c4 fc 4d 3e e9 84 45 bc
       0.07657707 0.22401099 0.20115954 -0.012055614
0000d0 48 52 b6 bc 6d f4 9f 3d 38 bf 47 bd 75 62 1a 3e
       -0.022256032 0.078102924 -0.048766345 0.15076621
0000e0 39 52 4f bd d3 86 00 3e 07 37 a4 bc 56 9b 91 3d
       -0.050615523 0.12551431 -0.02004577 0.07109706
0000f0 1c 88 13 3d 75 a7 8d 3c bd 8b ce bd 96 7c ac bc
       0.036018476 0.017291764 -0.10085247 -0.021055501
000100 71 34 f8 bd e7 d0 12 3e ea 9f 52 bd f8 48 fa bd
       -0.121193774 0.14337502 -0.051422037 -0.12220949
000110 2e 5a bd 3d 2c 7e 8f bb 5e 9f 8f 3d 18 d3 2b 3e
       0.09245716 -0.0043790545 0.07012819 0.16779745
000120 5f 99 c5 bb 3d 81 05 be 5f 70 1f 3e bf 62 b8 3d
       -0.006030246 -0.13037582 0.1557021 0.09003209
000130 5f 7c 93 bd 78 05 b6 bd 95 e4 ed 3d da 78 d6 3d
       -0.07201456 -0.08887762 0.11615864 0.10472269
000140 38 1c 82 bd bf 5e cf bd 90 47 fe bd 88 ef dc bd
       -0.063530385 -0.10125493 -0.12415993 -0.107878745
000150 d9 8c c7 3d 81 cc ca bd da 3c 43 3e 15 98 fb 3c
       0.097436614 -0.09902287 0.19066182 0.030712167
000160 c2 e0 ec bd dc f4 39 be 83 ea 18 bc be 39 db 3d
       -0.11566307 -0.18159813 -0.009333256 0.10704373
000170 48 3f 2b 3e 78 e9 04 be 4b 78 31 3c bd 57 2e be
       0.16723359 -0.12979686 0.010831903 -0.17025657
000180 dc 21 c1 3d e0 71 9c 3d 3f b9 62 bd 2e d3 80 3d
       0.09430286 0.076389074 -0.055352446 0.06290279
000190 52 fe 4d 3e ff d0 60 3e 88 31 ad bd 79 eb 58 3e
       0.20116547 0.21954726 -0.08456713 0.21183576
0001a0 cc 0c 8a 3e 63 d5 c3 3d 2e 7b 23 3d ec c0 22 3e
       0.26962888 0.09562185 0.039912395 0.15893906
0001b0 1d b7 43 3e 66 23 d3 3d 64 eb 12 3e 62 2e e1 bd
       0.19112821 0.10309486 0.14347607 -0.10995175
0001c0 b9 73 5f bc 98 c2 12 3e eb 25 48 bd f3 71 c5 3d
       -0.01363843 0.14332044 -0.048864286 0.09640875
0001d0 44 62 a5 3d 34 26 84 3b 4a 86 d7 3c ad 45 91 bb
       0.08075383 0.0040328745 0.026309151 -0.004433355
0001e0 67 b5 39 3e df 87 1d 3e 80 8d a7 bd 2f a5 01 be
       0.18135606 0.15383862 -0.08181286 -0.12660669
0001f0 72 1c 00 3e 1d e7 5a 3d 75 25 1f 3e 7f dc 69 bc
       0.12510851 0.053443063 0.15541632 -0.014273762

lstm.bias_hh_l0 f4 [128]
000000 df 64 be bd 0f 7b c0 3d bc bf a6 bd e5 77 17 bd
       -0.092965834 0.093984716 -0.08142039 -0.036979575
000010 f1 de 57 3e 48 b6 81 3d 81 5d 3c bd c9 f6 df 3d
       0.21081139 0.063335955 -0.04598761 0.109357424
000020 d0 eb cf 3d 39 3c 85 3d e0 33 7b 3d ab 5d fc 3d
       0.101523995 0.06505627 0.06132877 0.12322553
000030 1b ef 64 3b f0 58 ce 3c 5b 2c c9 bd a3 b2 98 bc
       0.0034932557 0.025188893 -0.09822913 -0.018639868
000040 13 d7 04 be 3f c4 85 bd 95 da 02 3e 89 5f 32 3e
       -0.1297267 -0.065315716 0.12778695 0.17419256
000050 ce b2 05 be 3d db 3e 3e bf 95 96 3d c5 9d 40 3e
       -0.1305649 0.1863832 0.073527806 0.18810184
000060 38 4d af 38 5a 8f a5 bd 60 11 b7 3d 03 5b 20 3e
       8.3590334e-05 -0.08083983 0.08938861 0.15659718
000070 90 73 f3 bd 58 9e 24 3d 0e 8d 66 3d 40 61 d9 3d
       -0.11887276 0.04019007 0.056286864 0.10614252
000080 d0 e2 44 3c 5a d6 1b be c2 54 70 3d 96 7d 20 bd
       0.012016967 -0.15218487 0.05867458 -0.039182268
000090 98 6e 07 3e 3b af b8 bc cf 3a 15 3d ac e8 03 bd
       0.13225782 -0.022544494 0.036433037 -0.032204315
0000a0 58 1b 35 3e e0 c2 f4 3c 77 5d b8 bd dc 87 70 3e
       0.17686212 0.02987808 -0.09002202 0.23489326
0000b0 10 76 20 bd fe b4 25 3e 73 f4 18 3e af 3b ca bd
       -0.039175093 0.16182324 0.14937 -0.09874665
0000c0 b4 1d 75 bd cc 88 12 3e fb 7e a3 bc 1d fc ed bd
       -0.05984278 0.14309996 -0.01995801 -0.116203524
0000d0 f6 d8 1e be ad 11 b5 3d 97 4c 01 3e 04 4e a2 3d
       -0.15512452 0.08841262 0.12626873 0.079250365
0000e0 bf 3d c0 3c 82 bc ae bd 73 c6 05 3e bb 8d 2e 3e
       0.023466943 -0.08532049 0.13063984 0.17046253
0000f0 3c 16 59 3d 26 d6 3f 3d 25 e7 b2 bd e6 6b 72 3e
       0.05299972 0.046835087 -0.087354936 0.23673972
000100 dd e2 1b 3e a7 57 3b be 31 51 13 3e f3 c0 d5 bd
       0.1522326 -0.18295155 0.14386441 -0.10437193
000110 f8 b7 44 bd e3 69 c4 bd 8c ef 94 bd f3 7b 57 bc
       -0.04802701 -0.09590509 -0.072722524 -0.01315211
000120 a4 20 5a be f7 f3 7b bd 47 4c ac bd 7a 58 c6 bc
       -0.21301514 -0.06151196 -0.08412986 -0.02421211
000130 05 23 a2 bd ba 1b 14 bd 77 c1 3e 3d 83 2e 76 3d
       -0.07916836 -0.036159255 0.04657122 0.06010295
000140 7a 0e fc 3d 36 82 4f 3d 06 a1 02 be de ac 21 be
       0.12307449 0.05066129 -0.12756738 -0.157886
000150 d3 20 03 3e f4 f5 f3 3b 78 40 27 3e c5 43 33 3e
       0.1280549 0.0074450914 0.16333187 0.17506321
000160 27 c1 00 3e 33 56 b1 3d 5d 61 0d 3e 3e c9 4c 3d
       0.12573682 0.08659019 0.13806672 0.049996607
000170 bb 71 01 3e 15 5f ff 3d 64 b9 02 bd a8 49 d2 bd
       0.12641041 0.12469307 -0.031915084 -0.10267955
000180 64 3e be bd 85 71 8d 3e 31 c0 33 3e ae d5 f3 bb
       -0.09289244 0.2762567 0.17553784 -0.007441244
000190 ce 15 a3 bd 00 23 58 bc 88 90 e9 bd c1 8a e9 bd
       -0.07963143 -0.013191938 -0.1140452 -0.11403418
0001a0 9b bc 56 3e f7 82 17 3e bf 52 f2 3d 00 16 d9 bb
       0.20970385 0.14796053 0.11832189 -0.006624937
0001b0 32 d1 65 bd 04 3c 67 3b 22 38 4a 3e 63 10 2a 3e
       -0.056107707 0.0035283575 0.19747975 0.16607814
0001c0 61 a9 ec bd 58 b9 73 3e 03 51 ba 3d e8 e1 47 3b
       -0.11555744 0.23801172 0.09097483 0.003049964
0001d0 8b 4d 3b be f8 5d 94 bc f8 92 d3 bb 40 b8 09 bd
       -0.18291299 -0.018111214 -0.006456729 -0.03362298
0001e0 7d dd 4f 3e 96 cc 71 bd 22 63 db 3d 2d 2a 27 3d
       0.20299335 -0.059033 0.107122675 0.040811706
0001f0 66 31 55 3d e5 ad d2 3b bd e6 1e 3e f7 76 23 3e
       0.052049063 0.0064294212 0.15517707 0.1596335

fc.weight f4 [3, 32]
000000 4c 19 7d 3c ff ee 13 3e 81 f2 dc bd 6e e0 26 3e
       0.015447926 0.14446639 -0.107884414 0.1629655
000010 35 50 c9 bd 6a 30 2a 3d 57 83 4e 3d 0d 42 50 3e
       -0.098297514 0.041550077 0.050418224 0.20337696
000020 97 e9 8d be 80 c1 5b be 89 14 c1 3d a0 ab 4b 3d
       -0.27717277 -0.21460533 0.09427745 0.04972422
000030 ad d0 29 be f5 85 2d be 60 36 3a 3e a2 22 04 3e
       -0.1658351 -0.16945632 0.18184805 0.12903836
000040 c5 39 6c bd ad 7e f5 bd 00 f3 9d bc 47 15 c6 3d
       -0.05767228 -0.11987052 -0.01928091 0.09672027
000050 83 fa 88 bc 60 7e 9a bd a8 43 aa 3d 31 7b 1c 3e
       -0.016721016 -0.07543635 0.08313686 0.15281369
000060 cf 8d 0f be f0 ef 37 3e c9 eb 1e be 64 e1 a1 bd
       -0.1401894 0.17962623 -0.15519632 -0.07904318
000070 6e a2 64 bd 4e 4c 27 3e 2d d6 3f 3c 8b 62 89 3c
       -0.055818968 0.16337702 0.011708778 0.016770622
000080 2d 67 e1 bd 9d ea 0d 3d 8a e5 26 be 23 a1 6f 3e
       -0.11006007 0.034647573 -0.162985 0.23401313
000090 a0 d5 c5 bd 66 87 7e bb 58 85 50 be 26 31 51 3d
       -0.09659886 -0.0038838028 -0.20363367 0.051072262
0000a0 88 45 90 3e 9c f4 3a 3d 09 fd de bd 69 a4 56 be
       0.28178048 0.045643434 -0.108881064 -0.20961155
0000b0 55 59 1c 3e b4 f5 b2 3d 4e d3 04 be 20 ce 8f bd
       0.15268452 0.087382704 -0.12971231 -0.07021737
0000c0 3a 1e 3a 3d 8d dc 6e 3d 93 91 29 bb 77 1a d5 3d
       0.045438983 0.058315802 -0.0025874123 0.104054384
0000d0 d2 bd df 3c e5 9f 16 3e 37 a7 61 be a6 44 29 be
       0.027312193 0.14709432 -0.22036444 -0.16530094
0000e0 6a 06 76 3e a7 45 1f bb 0c 7e 69 be 04 58 eb bd
       0.24025884 -0.002430299 -0.2280199 -0.11491397
0000f0 84 e6 2f be 21 5e 96 3d 9f 57 4b 3d 57 27 6e 3e
       -0.17177778 0.073421724 0.04964411 0.23257194
000100 72 8e fe 3c 29 3f 30 be ae fc c8 bd 55 dc b3 3d
       0.031073783 -0.17211594 -0.0981382 0.087822594
000110 cb be a8 bc d4 f0 06 3e 92 e7 d2 3d d7 7d dd bc
       -0.02059879 0.13177806 0.10298075 -0.027037544
000120 07 31 4c bd 8c 8d bc 3d 4e aa 69 be c0 6e a4 bc
       -0.049851444 0.092066854 -0.22818872 -0.020072341
000130 35 6a 2c be 78 62 c9 3d 20 11 3f 3d 01 03 a7 bc
       -0.1683739 0.098332345 0.04664719 -0.020387175
000140 ee 54 0f 3e c4 86 86 bd 9d f7 55 bd 0b 57 b1 bd
       0.13997242 -0.06568673 -0.052238096 -0.0865918
000150 e4 cd 27 be c1 ad f6 3d 98 78 49 3e c5 a6 1b 3e
       -0.16387135 0.1204486 0.19674909 0.15200336
000160 bf fd 16 3e 7d df 21 be ac 3e a2 bd 32 e2 de 3d
       0.14745234 -0.1580791 -0.0792211 0.10882987
000170 86 59 1d bd 17 fd b5 bc 45 85 26 be 06 6d e4 bc
       -0.038415454 -0.02221541 -0.16261776 -0.027884018

fc.bias f4 [3]
000000 05 1a c5 bd 6a 71 3d be ad 3b 2e bd
       -0.096241035 -0.18500295 -0.04253738
