fut_opt_lih_features_prepare/best_model_02.pth (torch, 25158 bytes, 6 tensors)

embedding.weight f4 [19, 8]
00000000: fad5 c1bf 3305 553f 2e9f b03e 5172 fb3f
00000010: a610 df3f e728 d3be 6510 92bf 67e4 9d3f
00000020: 73f8 39c0 3cd6 403f 7277 0340 1c9c 753e
00000030: dc95 10bf d309 2f3f f852 943f 1735 b13f
00000040: b135 d13f 3907 2e3f b6bc 1e40 2def 22bf
00000050: 8a17 273e 5a73 d13d 6ce9 abbf 2e08 85bd
00000060: 29b3 bd3d d37d 20c0 f6ed 5abf 3581 1c3f
00000070: cfd1 89be 66d7 45bb 293b a7bf 3432 c8bf
00000080: c55c 433e 94e6 a1bf bd1d 9cbf 7bae 9a3d
00000090: e957 963f 5f2f 0fbf 09ac 013f a27c b13e
000000a0: b354 893e 215f 623f 08da a6bf 016a f63e
000000b0: 60cc 833f d7da be3f 84c7 ad3e 6fb5 293f
000000c0: c86b 9bbf e2ff 23c0 2463 c63f 0aac 9abe
000000d0: 2dd3 0dc0 98e6 053f 85d3 3fbe 0ef3 c8bf
000000e0: c7a4 0bbf 1303 cdbf 55f7 803f 4ed4 823e
000000f0: 7282 9f3f 33b6 d73f 5d23 083f 6d8b eabe
00000100: 3d51 08bf 8285 3d3f 4a3e 16bf 878f 213f
00000110: b8a0 babe 73e8 be3e e984 063f 420a 16c0
00000120: b97b 593e 5320 e53e cfa4 dc3e d5ee c9bf
00000130: 98d2 0d3f 03dd 2740 cd64 afbe c520 3b3f
00000140: cc0c 3840 00eb 003f db84 5a3f d018 1a3f
00000150: eb81 823f d6c9 5fbf 0e1a 843f db42 1fbf
00000160: 4abd 2fbf b027 b33f 6325 a2be 5822 c0bf
00000170: 2c92 25c0 5c71 0dbe fad6 82bc 232d 6cbf
00000180: 14e7 863e 7401 84bf 3877 343f 4eba 62bf
00000190: 994b ed3f 3dd7 c43f 9a89 23bf ef7c 703f
000001a0: 2406 cdbf cb66 2140 de53 98bf f7c7 d83d
000001b0: 5f8d 173f 5caf 683f fc6b 3abf 6ce5 c4bf
000001c0: 2eda 8b3e fe1e f4be 21c0 1c3e fd49 17bf
000001d0: ba53 60be 5d46 13c0 4f0b 993f 2dc9 8e3e
000001e0: 9a33 0c40 a255 ce3e 29ba a13f 060a e33e
000001f0: 91f3 4dbf 1204 493f d28d bb3d be79 903e
00000200: be94 063f 2c28 363f 1643 e13e 737b 0540
00000210: faa2 c6be 3333 bf3f 80a0 8d3e 9655 453f
00000220: 1677 c8bf 034b 4a3f c105 203f 1428 f93e
00000230: 8484 efbf 00ae 853d 0682 97bf 5063 a03f
00000240: 97b2 9c3e 5c76 bb3e 86ef 03c0 8121 6cbe
00000250: a5a4 223f 5a8c a83f 121e b33d 046b bebe
-1.5143425 0.8321106 0.34496444 1.9644262 1.7426956 -0.41242144 -1.1411253 1.2335328
-2.9057891 0.75326896 2.0541654 0.23985332 -0.5647867 0.68374366 1.158782 1.3844327
1.634451 0.6797977 2.480268 -0.63646203 0.16317573 0.1022708 -1.343061 -0.06495701
0.09262688 -2.5076797 -0.8551935 0.61134654 -0.26917884 -0.0030188202 -1.3064929 -1.5640321
0.19078358 -1.2648492 -1.2196575 0.07552811 1.1745578 -0.5593166 0.5065313 0.346654
0.26822433 0.88426405 -1.3035288 0.4812775 1.0296745 1.4910535 0.3394128 0.6629247
-1.2142267 -2.5624928 1.5499005 -0.3020938 -2.2160141 0.52304983 -0.18733032 -1.5699174
-0.54548305 -1.6016563 1.007548 0.255526 1.2461684 1.6852478 0.5317896 -0.45809498
-0.5324896 0.7403184 -0.58688796 0.6310963 -0.36450744 0.3728672 0.52546555 -2.344376
0.21238603 0.44751224 0.4309449 -1.5776011 0.55399466 2.6228645 -0.34256592 0.7309688
2.875781 0.5035858 0.8535897 0.6019411 1.0195898 -0.8741735 1.0320451 -0.6221139
-0.6864821 1.3996487 -0.3166915 -1.5010481 -2.5870466 -0.13812774 -0.01597165 -0.92256373
0.26348174 -1.0312943 0.70494413 -0.8856553 1.8538696 1.5378186 -0.6388184 0.93940634
-1.6017499 2.521899 -1.1900594 0.10585015 0.5920009 0.9089258 -0.7282102 -1.5382514
0.27314895 -0.47679895 0.15307666 -0.5909727 -0.21906939 -2.3011696 1.1956576 0.2788786
2.1906495 0.40299708 1.2634937 0.44343585 -0.8044978 0.78521836 0.091579095 0.28217882
0.5257071 0.7115505 0.43996495 2.0856597 -0.38796216 1.49375 0.27661514 0.7708372
-1.5661342 0.7902071 0.6250878 0.4866339 -1.8712316 0.065273285 -1.1836555 1.2530308
0.30605003 0.3661374 -2.0614944 -0.23059656 0.6353248 1.3167832 0.0874597 -0.3719102

lstm.weight_ih_l0 f4 [128, 8]
00000000: 03d4 50be cc76 323f d730 27bf 9f21 283d
00000010: 3474 f83e c600 923e 2795 f8be 3ecb 103c
00000020: b8cd 8dbd 281b e5be 5e77 3b3e 75ac 843e
00000030: 4ea4 9abe 2fea 8f3e 2029 82be 7f31 2cbe
00000040: 6933 063e 1422 d5be 4bfa 30be 268b 46bd
00000050: e27d 273e 43bb 283e 2d43 4a3d 6503 a7bc
00000060: b43c 7abf 849c 3c3e bb5c 34bf 9012 5dbe
00000070: ae01 dcbe 4e67 b83d a876 00bf 3ccd 9c3d
00000080: 18ce b43e 34d4 c3bd 4aaf f6bb faaf 87bd
00000090: d660 f13d 9c92 4f3e 285c 093d 6ce0 31bf
000000a0: 4567 423e 7846 fdbd 19ea b23e bba4 773e
000000b0: 0722 1b3e 2310 d23c 7f47 01bd 7c74 5a3e
000000c0: cf40 26bf 56f8 773e b9c7 2f3f 4055 413b
000000d0: be91 3abe fd02 b23e 5757 0f3d a29a 9c3e
000000e0: 36c8 0dbf 031b 04bf 0943 863d 83eb 063f
000000f0: 5ab3 92bd 4676 d73c d52a 843e 46d5 adbe
00000100: edc8 a8be 4295 eb3e dab8 cb3e 1e02 8339
00000110: 777a 50be af0d 0f3e 67a2 7c3c 2ee3 443e
00000120: cd1e 803d cb32 06bf 2812 9ebe 1ba1 eabe
00000130: 0056 83be 7457 bfbe 3f54 1ebc a307 2bbe
00000140: 70c3 d5bd bc7f 4a3b 0276 87be 5d9f c23d
00000150: a74a 9fbd 2e78 80be 221a 1b3c 76c6 ac3d
00000160: a63a a93d 16b5 82be 4182 d63e 5f6b d33d
00000170: 8733 52bf cfdd fdbe 2008 86be 2ba4 5d3e
00000180: 7273 19be 35c8 d4be d2b2 9e3e 3bd1 9b3d
00000190: 30bd d5be 07cb ca3e fb61 433e e77c 023e
000001a0: a0e3 d03d 3c15 a6be f57d 3e3e 3d4a a73d
000001b0: 21f6 17bd 3bf5 173e 6b1f e93e 5d14 b93e
000001c0: fcaf 7cbd 207d 21be 3854 32be 4fd7 51be
000001d0: c6f8 7d3e de0a 813e 1afc f7be 04eb 973d
000001e0: 0491 4c3d 6c74 2fbd dae5 5bbe 757d 00bf
000001f0: 6168 9e3c 359a 71bd 84db 11bd fd21 10bd
00000200: ae18 fc3e 5cd2 f8be 85b0 5bbe 969e 183f
00000210: 6f93 8dbe 8f25 dc3d b044 f83d 8c53 adbe
00000220: 1b2f aebe ec8f 85be 9cc1 03bf b8a4 24be
00000230: 280c 4dbe 5271 18bf 617e 51be 5c48 3f3e
00000240: 3a38 763e cebc 9dbe 720f dd3e 1329 26bd
00000250: 64fb e33d 0464 52be 2f52 ffbd 2cef a33c
00000260: c326 c9be 481a 583f 16ef 003f 03ab b0be
00000270: f437 24bf a262 ffbe e3c2 c0bd d8b5 f83e
00000280: 0cd6 703e c814 51bc 26f4 fdbd 4878 083e
00000290: b7a1 823c f654 28be 347c dc3e 0612 0fbe
000002a0: 6cdd 6b3e 78cd 3cbd 31f1 a83e f0db e93d
000002b0: 3440 e5be 78eb 74be 798c 7fbf 0433 b13e
000002c0: 11bb 26be a86f 09be 68bb 143f 8d73 e23d
000002d0: f154 06be c201 4d3f b850 43be 62ba 853d
000002e0: c8e6 86be a160 5bbd cbd6 e7be 5da7 19be
000002f0: 9dbf b6be fbd8 273d 9a87 abbd bf85 c6be
00000300: 855f 723d 2312 a0be 0ca8 623e 68df 05bf
00000310: ce0b b9be cdca b43b 524e f5bd 6c3a c93d
00000320: 4d40 a33e 40e5 50be d700 1b3e 48f2 3a3e
00000330: 1037 913e c18e 2c3e 7a8f 82be 5608 53b9
00000340: 34fa 8a3d 65ab d8be fd72 b93e 57ac 0c3c
00000350: e2d6 093e 850d e03d 4a59 09bf 0a1a e13d
00000360: f310 d1be 5c03 533e 9866 04be 0a05 83bc
00000370: 74e8 86be 5a06 f53e 5420 94be 1d8a febd
00000380: 8198 9f3e 6cb6 0abe f7af d7be a2fa e23e
00000390: 0017 183e df16 043e 73dc e5bd 6a45 39be
000003a0: 7b0c ba3c 089c 54bc 288c 803e 12d2 9fba
000003b0: cc70 da3e 1545 b33e 2473 dcbe 451b 3c3d
000003c0: f35b 05bf 339a 793e 4b7d cf3d 3876 033d
000003d0: a3a5 80bd 9331 09bf 1a52 a53c 4973 843e
000003e0: 4132 8abc 1468 06be afed 093d 65d0 9a3e
000003f0: 913f f73d 53c8 663e 8d1e 2abe 65a1 24be
-0.20393376 0.6971252 -0.653089 0.04104769 0.48526156 0.28516215 -0.48551294 0.008837519
-0.06924003 -0.4474728 0.18307254 0.25912824 -0.3020348 0.28108355 -0.25422 -0.16815756
0.13105549 -0.41627562 -0.17282979 -0.048472546 0.16356614 0.16477685 0.04938047 -0.02038736
-0.97748876 0.18419081 -0.70453995 -0.21589112 -0.42970031 0.09004079 -0.50181055 0.07656333
0.35313487 -0.09561959 -0.0075282203 -0.06625362 0.11786048 0.20270771 0.033535153 -0.69483066
0.18984707 -0.123669565 0.34944227 0.24183933 0.15149699 0.02564246 -0.031562325 0.21333498
-0.6494264 0.24215826 0.6866413 0.0029500276 -0.18219659 0.34767905 0.034995403 0.30586725
-0.5538362 -0.51603717 0.06555755 0.5270311 -0.07163115 0.026301514 0.25813928 -0.33951777
-0.32965794 0.46012312 0.39789468 0.00024987845 -0.20359217 0.13970064 0.015419579 0.19227287
0.06255875 -0.52421254 -0.30873227 -0.4582604 -0.2565155 -0.3737141 -0.0096636405 -0.16702132
-0.10437667 0.003089889 -0.2645722 0.095030524 -0.07777911 -0.2509169 0.00946668 0.08436291
0.082631394 -0.25528783 0.4189625 0.10323214 -0.82109874 -0.4958329 -0.26178074 0.21644656
-0.14985445 -0.41558996 0.30995804 0.07608267 -0.417459 0.39608023 0.19080345 0.12742959
0.10199666 -0.32438076 0.18602736 0.08168457 -0.03709996 0.14839642 0.45531783 0.36148348
-0.06169127 -0.15770388 -0.1741494 -0.2049229 0.24801931 0.25203604 -0.48434526 0.074178725
0.049942985 -0.042835638 -0.214744 -0.5019143 0.019336881 -0.058984954 -0.035609737 -0.035188664
0.4923758 -0.4859799 -0.21454056 0.5961698 -0.27651545 0.10749351 0.12122476 -0.33852804
-0.34020314 -0.26086366 -0.514673 -0.1607846 -0.20024168 -0.59547913 -0.20458366 0.18679947
0.24044886 -0.3080811 0.43175846 -0.040566515 0.11131933 -0.20545965 -0.12466847 0.020011507
-0.39287385 0.844151 0.50364816 -0.34505472 -0.6414788 -0.49879938 -0.09412172 0.48576236
0.23519152 -0.012761302 -0.12400083 0.13327134 0.015946252 -0.1643866 0.4306351 -0.13971719
0.23033684 -0.046094388 0.32996514 0.11418903 -0.44775546 -0.23917949 -0.9982372 0.34609234
-0.16282298 -0.134215 0.5809846 0.11057196 -0.1311834 0.8008081 -0.1907376 0.0652969
-0.26347947 -0.05355895 -0.45281062 -0.1500525 -0.35693064 0.040978413 -0.08375473 -0.38773915
0.059173126 -0.31263837 0.22134417 -0.52294016 -0.3614182 0.00551734 -0.11977829 0.09825596
0.31884995 -0.20399952 0.15137039 0.18256485 0.28362322 0.16851331 -0.2550009 -0.00020125633
0.06786004 -0.42318264 0.36220542 0.008586011 0.13460878 0.10940079 -0.5365187 0.10991295
-0.40833244 0.2060675 -0.12929761 -0.015993614 -0.26349223 0.47856408 -0.28930914 -0.12428687
0.3117104 -0.13546151 -0.42126438 0.44331843 0.14852524 0.1289935 -0.11223688 -0.18092886
0.02271103 -0.012976654 0.2510693 -0.0012193343 0.42664182 0.35013643 -0.43056595 0.045924444
-0.5209343 0.24375229 0.101313196 0.032095164 -0.06281593 -0.5359127 0.02018075 0.25869206
-0.016869666 -0.1312564 0.03367394 0.30237117 0.12072671 0.22537355 -0.16613217 -0.16077192

lstm.weight_hh_l0 f4 [128, 32]
00000000: 4330 9c3c ab23 2a3f da35 db3e 36f7 1b3c
00000010: 079b f03d 6bed 043f 7851 75be 942a 593f
00000020: 2e6f cc3e cc0a 1a3f 28fc 28be 3a13 ef3d
00000030: 1160 babe 3ce4 39bf 9dbd cc3e 03bb 1abf
00000040: 0240 16be 4ac8 4dbe c323 313f 557b 9bbd
00000050: 9f42 043f f59b 023f bc55 263d af43 083f
00000060: 0c3e 403f 0394 033f d9ff 81bf 9c92 01bf
00000070: 875f b13b e5e6 a53e 9d0e a9be f9b3 98be
00000080: ec8a 59bf a85d 96bd eddf b2be 9e6f f03d
00000090: 6855 883b 21cb 783f 89a3 423f 2ff0 f5bd
000000a0: a601 903e f20e c5be cdcb 8bbf 5a28 14be
000000b0: 506f bcbe 7f8b 13bf 87d0 253f 5ee9 5a3f
000000c0: 25db ebbd 2a87 ad3e 6de3 843f 1707 0fbf
000000d0: 4566 3c3f c420 39bf 1b8d 0c3d ef43 84be
000000e0: cc6d 9d3d 7909 0ebe d9ee f1be c91b 19bf
000000f0: e566 da3e 90bc 0f3e 6cf3 233e 7c81 f1be
00000100: 8b34 6cbc 4ee1 db3e 21bb b7be 490e 47bf
00000110: f334 66be 0130 47be 068f 7b3f eff6 2cbe
00000120: c890 943e 410b 7cbe a8b4 a1be 4829 14bf
00000130: 5a67 2cbd 2080 d4be e215 d83e 3fff 6a3f
00000140: 4cae 823e 6111 453f 5f0a b53e 97ee 9abe
00000150: b23c 5d3e 79e0 0cbe 43ee 06bf 1c43 c3be
00000160: 3672 093f 7f38 183e 749f 61bd 04ac 89bd
00000170: 64f6 2d3f bab9 23bf b029 853e 5b8b 31be
00000180: 1362 37bf 51a6 3a3d 6aae b1be 2467 84bf
00000190: 4d60 10bd 53df d53d 79aa 023f c21d 1ebf
000001a0: 65bb 503f f6f0 5cbe c5b9 d43d 8df2 983e
000001b0: 6626 cabd 6bc9 54bf 75e4 2c3f a4a3 d0bc
000001c0: 9821 9f3e 9f05 0e3f c709 ee3e fa6e b4bd
000001d0: 64f1 023f b5d0 a6bc bf72 01be 847c d6bd
000001e0: f0b8 4bbf 2109 6fbe 8b69 45bf fe6c 36bf
000001f0: e883 0a3f 6961 15bd ddaa 52be 370b 11be
00000200: ef1e 4ebe bd72 dbbc aaae 223f 3a7b 0b3e
00000210: 2c3a 143e 2f95 febd 72cc 333f eef9 ba3e
00000220: d5c7 223f 998d 303f fd8c 28be 05b5 7e3d
00000230: 8edd 2f3e 25ec 8bbe a903 a63e 134c f4be
00000240: da86 bf3c 7eef 2fbe 6cd3 d43d 2acf b7be
00000250: 0a58 c1bd 2dee 413f ce45 0ebf 87cd d6bd
00000260: 9107 b33e 6731 033f 87c2 183e f263 c13e
00000270: e841 63be 4bde 17bf 5234 2cbe ab42 dabc
00000280: 87bc 63be 04eb bbbd a82c 5b3d 1b43 fcbe
00000290: a540 0d3e c70f 55be 864e 163e 0e67 573f
000002a0: 486d 603f e3be 31bd 6858 1abf c551 fe3e
000002b0: 7830 5ebe e3ac 0fbf 1ba1 adbd 13d8 a3be
000002c0: 585f e3be d57b cebe 0fca 163f 0013 ad3e
000002d0: 4cf8 403d 22aa 10be ad8e bd3e a7e4 e73e
000002e0: 45f2 083f 9632 6d3c 6255 c2be 9f53 28bc
000002f0: f326 38bc f6d0 323f 4a10 cc3e 41d0 cdbd
00000300: 5e66 cd3e b42c 1abe 9438 c5be 1da3 04bd
00000310: 5d96 a1bd faec 9c3d 8e47 1b3f 4087 d8bd
00000320: 7cc6 353e 5e67 5d3e 7256 a6bd b62a 0e3f
00000330: 3535 e6be 1678 59be 082b 693e 71d4 9fbd
00000340: 4623 ef3e 8ddf e43e 8ba1 1ebf c603 22bf
00000350: 90aa 613f 04f6 f93e e69b 553f 4d59 26bd
00000360: 81aa 4b3d 006e 04bf b756 36bf 2715 42bf
00000370: 0963 cd3e 1418 82be cb5a 0cbf 1e38 35be
00000380: fc1c 3dbf 018d b43d 4ada 65bf ff57 a3bf
00000390: 0bf8 57bf 7d8a 1c3e 3004 f53e 2554 2fbd
000003a0: b528 a03f 8600 dabe c294 92bf b1b1 083e
000003b0: 1cf9 f53d ada2 6fbe ea73 74be 5422 8abe
000003c0: af47 f43e 736f 033f f1af ac3c 0da2 e3be
000003d0: 0b68 a53f 14ff 21be f12d 913e 0760 12be
000003e0: 9a7f c0be 0eab 7fbf 17af 57bf 4cb4 1fbf
000003f0: 585f b23e 842f 9abe e42e 5bbe 0177 a0be
0.019065982 0.66460675 0.42814523 0.009519389 0.11748319 0.5192477 -0.23956859 0.84830594
0.39928573 0.60172725 -0.1650244 0.11673589 -0.36401418 -0.72613883 0.39988413 -0.6044161
-0.14672855 -0.20095935 0.69195193 -0.07591883 0.51664156 0.5101922 0.040609106 0.53228277
0.75094676 0.5139772 -1.0156204 -0.50614333 0.005412999 0.3240272 -0.33018962 -0.29824808
-0.849776 -0.07342082 -0.34936467 0.11740039 0.004160572 0.9718495 0.76030785 -0.12008702
0.28126258 -0.38487965 -1.092157 -0.14468518 -0.36803675 -0.5763473 0.6477131 0.8551234
-0.11516408 0.33892184 1.0381905 -0.55870193 0.7359355 -0.7231562 0.034314256 -0.2583308
0.07686958 -0.13870801 -0.4725254 -0.5980802 0.42656627 0.14036775 0.16010827 -0.471691
-0.014416824 0.4294533 -0.35884956 -0.7775617 -0.22481136 -0.19451906 0.9826511 -0.16891073
0.2901671 -0.24613668 -0.31583142 -0.5787549 -0.04209075 -0.41504002 0.42204195 0.91795725
0.25523603 0.76979643 0.35359475 -0.30260155 0.21605185 -0.13757505 -0.5270731 -0.38137138
0.536899 0.14865302 -0.055083707 -0.067222625 0.6795409 -0.6395527 0.26008368 -0.17338316
-0.71634024 0.045568768 -0.3470338 -1.0343976 -0.03524809 0.10442986 0.5104137 -0.61764157
0.8153594 -0.21576294 0.10386995 0.29872552 -0.09870605 -0.8311984 0.675361 -0.025468655
0.31080317 0.5547733 0.46491835 -0.088102296 0.5114958 -0.020363191 -0.12641428 -0.10472968
-0.7957907 -0.23343326 -0.7711417 -0.7126006 0.5410752 -0.03646985 -0.20572992 -0.14164434
-0.20128988 -0.02678811 0.63547766 0.13621226 0.14475316 -0.12430798 0.70233834 0.36518806
0.6358617 0.6896606 -0.16460033 0.062184352 0.1717436 -0.273286 0.32424667 -0.4771429
0.023379732 -0.17181203 0.10391888 -0.3590024 -0.0944062 0.7575405 -0.55575264 -0.1048842
0.3496671 0.51247257 0.14917956 0.37771565 -0.2219311 -0.5932357 -0.16816834 -0.026643118
-0.22239886 -0.09175685 0.053509384 -0.49269947 0.13794191 -0.208068 0.14678392 0.84141624
0.8766675 -0.043394934 -0.6029115 0.4967176 -0.21698177 -0.5612318 -0.08477994 -0.3200079
-0.4440868 -0.4032885 0.58902067 0.33803558 0.047111794 -0.141274 0.37022915 0.45291635
0.53494674 0.014477393 -0.37955767 -0.010273843 -0.011239755 0.698501 0.39856178 -0.10049487
0.40117162 -0.15056115 -0.38519728 -0.03238212 -0.07890008 0.07662387 0.6065606 -0.10572672
0.17751497 0.21621463 -0.08121957 0.5553392 -0.4496247 -0.21237215 0.22770321 -0.07804192
0.467066 0.44701806 -0.61965245 -0.6328701 0.8815088 0.48820508 0.8344101 -0.040612508
0.049723152 -0.51730347 -0.71226066 -0.75813526 0.4011462 -0.25408995 -0.5482604 -0.17697188
-0.7387235 0.08815957 -0.8978621 -1.2761229 -0.8436286 0.15287204 0.47854757 -0.042804856
1.2512423 -0.42578524 -1.1451647 0.13349034 0.120104045 -0.234019 -0.23872343 -0.26979315
0.4771094 0.51341933 0.02107999 -0.44459572 1.2922376 -0.15819961 0.28355363 -0.14294444
-0.37597352 -0.99870384 -0.8425154 -0.62384486 0.34838367 -0.30114377 -0.21404606 -0.31340793

lstm.bias_ih_l0 f4 [128]
00000000: f58e 3c3e 4676 d03e c66c 953e a009 043f
00000010: 8a20 903d c872 d93e dbd9 c93e 5819 523f
00000020: 3fda 043f 5bfa 463e 0315 df3e 7996 573e
00000030: 0519 813e 5730 243d fa51 e83d 9968 f13d
00000040: 4b09 e13e d679 023f 37b9 be3e b554 7b3e
00000050: fd16 443f e979 e23d 9027 c53e 2fff b43e
00000060: abd2 ca3d a9b8 cc3d 71bc b43d 9ad5 913e
00000070: 1c58 97bd 0b31 fa3e 12de 2a3f 9702 c33e
00000080: 25c1 743e 13bd ee3d 77b2 a33e 3a29 bd3e
00000090: c19d 733e 991b c13e 4637 27be 4090 383e
000000a0: 10cc 423e 81a1 9a3e 2cd5 273e 360f fa3e
000000b0: 4a8c 533c 28f9 693e 39ee 6b3e 68a3 8f3e
000000c0: be2a da3c 7b0f 663e 4064 b0bd db13 fb3b
000000d0: a0ce 643d ddb7 653d 6cc4 983d 4146 803e
000000e0: 9c05 8d3e db32 e73e dc1f c83d 3135 863e
000000f0: a59f 9a3e 14ce 733c 3284 433e 7ad8 0c3f
00000100: b5ef a5bd aac0 0d3d 5531 173e 43de abbd
00000110: ddd2 553d 175c b23c f17c 923d 9069 d43d
00000120: 9825 883e 365a 1d3e bb21 15be 2d34 533d
00000130: 3d7b 27bc e745 56be 7ce2 ab3d 72f2 17be
00000140: d08d 243d 6764 b33e 4cde 5d3d e6dd 9bbe
00000150: 5077 6d3e 27cb 1dbd 206a b93d 0645 973d
00000160: 6a5a 5b3e e842 87bd bc83 c1bb 5ff5 71bd
00000170: dab7 f8bd 54e8 91bd 625b 2b3e be16 b5bd
00000180: df19 ba3e 79c2 d63e d567 893e ae50 573f
00000190: 8004 683e 3683 3d3e e917 9c3d 64b0 c03e
000001a0: 4c2d 083f d6aa 2f3f 034a 8b3e 7521 dc3e
000001b0: 68ac 543e fd22 403e 06c0 d53d 67e8 e53e
000001c0: df24 473e 45c8 3e3f 4a6f a93e a640 063f
000001d0: a4b6 053f d586 833e 23db b13d 7ca4 e63e
000001e0: 71eb a23e cbfb 803d fc07 823e 8400 9f3e
000001f0: 2b99 ec3e 3afb 083f f3ea 313e b853 ac3e
0.18413909 0.40715235 0.2918455 0.51577187 0.07037456 0.42470384 0.39424023 0.8206992
0.5189552 0.1943144 0.43570718 0.21053495 0.252144 0.040085163 0.11343761 0.117875285
0.43952402 0.50967157 0.37250683 0.24544032 0.7659758 0.11058409 0.38506746 0.3535094
0.09903463 0.09996159 0.08825005 0.28483278 -0.073898524 0.48865542 0.667451 0.38087913
0.23901804 0.11657157 0.31972095 0.36945516 0.23790647 0.37716368 -0.16329679 0.18023777
0.19023156 0.30201343 0.16389912 0.4883973 0.0129118655 0.22848952 0.23040093 0.28054357
0.02663171 0.22466843 -0.08612871 0.007662279 0.055861115 0.05608355 0.074593395 0.250536
0.27543342 0.45155987 0.09771702 0.26212457 0.30199924 0.014880676 0.19093397 0.5501782
-0.08102361 0.034607567 0.14764912 -0.083920024 0.052203048 0.021772427 0.07152737 0.10371697
0.26591182 0.15366444 -0.14563648 0.05156343 -0.010222253 -0.20925103 0.08392808 -0.1483858
0.040174305 0.35037538 0.054167077 -0.30442733 0.23190045 -0.03852382 0.09053445 0.07386212
0.21421209 -0.06604558 -0.0059055965 -0.059071895 -0.12144442 -0.07124391 0.16734079 -0.08842228
0.36347863 0.41945246 0.2683703 0.8410748 0.22657967 0.18507084 0.07621748 0.37634575
0.5319412 0.6862005 0.27204904 0.42994276 0.20768893 0.18763347 0.10437016 0.4490387
0.19447659 0.7452434 0.3309272 0.52442396 0.5223181 0.25688806 0.08684375 0.45047367
0.31820253 0.06298026 0.25396717 0.3105508 0.46210608 0.5350834 0.17374782 0.33657622

lstm.bias_hh_l0 f4 [128]
00000000: b073 0c3e 48eb bb3e 7cb7 a23e 1e36 1c3f
00000010: b5c9 4d3e c28f 933e c13d ad3e 827f 1b3f
00000020: d66b ff3e 4c65 503e cd6f 9e3e d28d af3d
00000030: 2052 8e3e 4368 bebd aa81 583e e1a6 a83e
00000040: 6a74 ca3e 1509 063f 77db d73e 6842 9b3e
00000050: 79ab 253f 5b7b a13e 2805 a23e df43 d43e
00000060: 9b28 ab3d 96ee a93e 1571 8c3e 4577 a83d
00000070: 7afe 98ba fe0f da3e 3e90 2a3f f722 ad3e
00000080: d9c1 cf3e 6e97 003e dfd2 043e 45d8 3d3e
00000090: ca3c a63e e577 a43e 0349 e63c d8ad 4f3e
000000a0: b8e6 233e cd60 fc3e dab1 94bd 9a5f e43e
000000b0: e160 c03d aec7 b43e 7f9c 503e 537e a83e
000000c0: 6db2 cf3d 5a1b 66bd bf54 543e 25f7 823d
000000d0: 3627 033e e96c 5e3e 28dc 593e d05c 7d3e
000000e0: 7099 b73e 015e 793e e1dd a13e ce66 6c3d
000000f0: 83a3 9b3e b50f 543d dfff eb3d 7bce 963e
00000100: 8eb4 0d3d 06de 10be 8bdb cabb 6074 06be
00000110: 72dc c4bc a9f7 0e3e 9f69 143e ce90 b83d
00000120: 1d01 183e a0f7 0fbe 80e3 4ebd b75d 8c3e
00000130: 142c 493e 49d5 41be 1ff5 1c3d b4bf 4cbd
00000140: 0974 5abc 0d93 623d 59df e5bc 90f9 90be
00000150: 1142 26bd 579b 8cbd 6a45 bebd 474a 813e
00000160: fef3 85bc 3c18 1a3c 0750 73be d259 b03d
00000170: c2d0 0d3e db5f 2b3d f8e5 763e 9fa0 2fbe
00000180: 1e7c fd3e 2dad 9e3e 2303 c03e 46e2 803f
00000190: 5336 d63d 308b 273e f914 fbbd e936 2a3f
000001a0: 5d2d 1d3f 4ead 2c3f 24a8 d53e 66d7 153f
000001b0: 9ad6 213e 3d85 a23e bbf0 cc3e f5d5 203f
000001c0: 5725 fb3d e134 123f ec06 563e 0468 123f
000001d0: 7e59 b73e 41ea 073f 1164 9e3e 80da 9b3e
000001e0: 478e bd3e 9e66 bc3e 37be ef3e 9c65 ae3e
000001f0: 781a c73e e7db fd3e e172 b83e 884b 1a3f
0.13716006 0.36702943 0.31780612 0.61020076 0.20096476 0.28820616 0.33836177 0.60741436
0.4988696 0.20351142 0.30944672 0.08571972 0.2779703 -0.0929723 0.21143213 0.32939819
0.39541942 0.5235761 0.42159626 0.303241 0.6471477 0.31539425 0.3164456 0.41458032
0.08357354 0.3318984 0.27430025 0.08225874 -0.001167252 0.42590326 0.66626346 0.3381574
0.40577582 0.12557766 0.12971066 0.18539532 0.32468253 0.32122722 0.028110987 0.2028116
0.16005981 0.49292603 -0.07260485 0.44604188 0.09393478 0.35308594 0.20372199 0.32908878
0.10141454 -0.05617843 0.20735453 0.06394795 0.12807927 0.21721233 0.21275389 0.24742436
0.3585925 0.24352266 0.31614593 0.05771523 0.30398187 0.051772792 0.11523413 0.29454407
0.03459602 -0.14147195 -0.0061907223 -0.13130331 -0.024030898 0.13961662 0.14493416 0.09011994
0.14844175 -0.14059305 -0.05050993 0.2741525 0.1964572 -0.18929018 0.038319703 -0.04998751
-0.013333329 0.05531602 -0.028060602 -0.283154 -0.04059035 -0.06865566 -0.092905834 0.25251982
-0.016351696 0.009405192 -0.23760997 0.08610882 0.13849166 0.04183946 0.24111164 -0.17151116
0.49508756 0.30991498 0.37502393 1.0069053 0.1045958 0.1636169 -0.122598596 0.66490036
0.61397344 0.6745194 0.41729844 0.58531797 0.1580452 0.31742278 0.40027413 0.6282647
0.122629814 0.57111937 0.20901078 0.57189965 0.35810465 0.5309182 0.3093572 0.3044014
0.37022611 0.3679704 0.4682481 0.34061897 0.38887382 0.49581835 0.36025146 0.602715

fc.weight f4 [1, 32]
00000000: 8150 0840 4f72 3fc0 341f 6ebf 9760 96c0
00000010: ceb2 72bf 7a84 07c0 496f 2ac0 ef01 81c0
00000020: 2c4b 89bf 1619 0c40 0044 953f 1b53 2440
00000030: 9de0 fd3f 9609 ea3f 33d3 8bbf 97ba bebf
00000040: a2ba e93f 0c71 6d40 8ade 50bf 7de8 46c0
00000050: 8850 5740 26a4 3a40 a521 efbf 39f1 2940
00000060: 12ea 82bb 66d9 2f40 8672 0a3f 8fdd ac3f
00000070: bdcb 1e3f f995 f3bf acfe 1440 f9c9 d23f
2.1299136 -2.9913518 -0.9301636 -4.6992908 -0.94804084 -2.1174607 -2.6630423 -4.031486
-1.0726066 2.1890311 1.1661377 2.5675724 1.9834172 1.8284175 -1.0923828 -1.4900693
1.8260081 3.7100248 -0.8158957 -3.10794 3.3642902 2.9162688 -1.8682142 2.655348
-0.0039951885 2.747644 0.54081 1.3505114 0.6202963 -1.9030143 2.328044 1.6467887
