fut_opt_lih_features_prepare/best_model_2.pth (torch, 25147 bytes, 6 tensors)

embedding.weight f4 [19, 8]
00000000: 5968 683f 0970 f83d de22 b3be 334a 233e
00000010: 188e 1d40 f5e7 2b3c fade bf3f bcdb 62bf
00000020: 10ef 6e3d 5007 2b3c 120a b03e 0c06 4abf
00000030: fbc3 043f d03c 5d3f b499 383f 6089 1a40
00000040: b018 f2be ab65 a8bf 7b29 6a3f c8f1 f23e
00000050: 91b2 9cbf b8b4 223f 7d31 a13e 03b5 463c
00000060: 9a21 cabe 9c79 bc3f 5415 74bf f4a1 b7bf
00000070: f1fd b8be 56a5 013a 3614 70bf b53e 19bf
00000080: a9ee 8ebf 636e 3cbf 6dcb d33d fb1c febf
00000090: a8cd 083f db05 f9be 9fcd b3bf 432a 6c3f
000000a0: 2deb 073f 32ed 28bf af81 863f 1d8a 8c3d
000000b0: 763a 8ebe 8fa6 39be 5fa7 afbf c180 533f
000000c0: 8d88 8bbf 87b9 2d3f baf7 dcbf 0a78 4cbe
000000d0: f7d5 173f 4365 a7bf 8269 2f3f 1dee cf3f
000000e0: 0f1f 2540 8368 ea3e 4fb6 b53c a40c 44bf
000000f0: a469 c7bf f0bb d73f 9068 c63f 540d 833f
00000100: 6248 903f 5375 3f3d e3eb c63f 5cdc de3e
00000110: dabe 99bf 3752 25c0 4ff4 b0bf 0990 acbe
00000120: 9052 b7bc ddb8 76bf 0fb0 06bf d339 c23e
00000130: 387c 113f 280d 4ebf 1830 0a3f c77f c7ba
00000140: d16d ad3f 323c 18be 91b7 c03e b239 9d3f
00000150: b0e0 723f ad9d a43e d933 373f b121 94bf
00000160: 1ee9 0f3f b443 f03d da63 9f3e 604b 993f
00000170: c396 7bbe 0877 b53e 850d abbf d6e4 1a40
00000180: ce46 cc3f 6590 28bf b942 e8be c850 953f
00000190: 0895 9cbf c042 643e 40cb 00c0 4ca6 513e
000001a0: 2ba5 7a3e 84b4 c1bf 2229 6a3d 00c9 563f
000001b0: a239 27bf 610a 2d40 45bf 28c0 4f2a 34be
000001c0: 881d 67bf 4fce d83e 932e 5f3d a076 a5bf
000001d0: d2c1 783f 9681 0fbd 9002 a83f fcbb bebe
000001e0: 1f1c 533e 4043 d8bf 7892 12bf 167c aa3d
000001f0: 6b36 b53e abe8 62bf 1fea 9fbd c593 ae3e
00000200: 5773 dcbf de14 95be 523e 0f3f 1e0a 01bf
00000210: 7e69 cabf 4e7b 0dbf 70f1 0540 7235 a9be
00000220: 7266 cebf fd48 7ebe 437f d13e dde4 0abf
00000230: e0e8 4fbe fbd1 573f 698b 26bf 7063 023f
00000240: 71b2 273e e45b 0740 e52a 41bf 96a4 cebf
00000250: 7223 83bf c8ad 703e bb30 a4bf d518 65bf
0.9078422 0.12130744 -0.3498754 0.15946274 2.4617977 0.010492315 1.4989922 -0.8861654
0.058333457 0.010438755 0.34382683 -0.78915477 0.5186154 0.8642092 0.7210953 2.4146347
-0.4728446 -1.3156027 0.91469544 0.4745009 -1.2241994 0.63557005 0.3148307 0.0121281175
-0.3947876 1.4724612 -0.95345044 -1.4346299 -0.36131242 0.00049455964 -0.9378084 -0.5986131
-1.1166583 -0.73605937 0.10341535 -1.9852594 0.53438807 -0.4863728 -1.4047126 0.92251986
0.53093225 -0.6598693 1.0508326 0.068622805 -0.27778977 -0.18129943 -1.3722953 0.8261834
-1.0901047 0.6786122 -1.72631 -0.19967666 0.5931086 -1.3077778 0.6852037 1.6244541
2.5800207 0.4578286 0.022181658 -0.7658179 -1.5579114 1.6854229 1.550066 1.0238442
1.127209 0.04674275 1.5540737 0.43527496 -1.2011368 -2.583143 -1.3824557 -0.3370364
-0.022378236 -0.9637583 -0.52612394 0.3793474 0.5683017 -0.80488825 0.53979635 -0.0015220576
1.3549138 -0.14866713 0.3764005 1.2283232 0.94874096 0.32151547 0.7156349 -1.1572782
0.56215084 0.11731663 0.31130868 1.1976128 -0.2456923 0.35442376 -1.3363501 2.420217
1.5959108 -0.6584533 -0.45363405 1.1665277 -1.2232981 0.22291088 -2.0124054 0.20473593
0.24477069 -1.5133214 0.057168134 0.8390045 -0.65322316 2.7037585 -2.6366742 -0.17594264
-0.90279436 0.423449 0.054487776 -1.2926826 0.97170746 -0.035035692 1.3125782 -0.37252796
0.20616196 -1.6895523 -0.57254744 0.08324449 0.3539308 -0.88636273 -0.07808327 0.34097114
-1.7222699 -0.29117483 0.5595447 -0.5040606 -1.5813444 -0.55266273 2.0928612 -0.33048588
-1.6125014 -0.2483253 0.40917405 -0.5425547 -0.20303679 0.8430478 -0.65056473 0.5093298
0.16376664 2.1149836 -0.75456077 -1.6143978 -1.0245192 0.23503792 -1.2827371 -0.89491016

lstm.weight_ih_l0 f4 [128, 8]
00000000: 1c37 6bbd 5f6a e5bd 449f a8bc 7bea 9ebd
00000010: 33e1 10be 0899 f33d 27df 03be 8851 cf3d
00000020: 34dc 6ebe 53dc 583e 457e e13d 16b7 c2be
00000030: 3327 b53d 1007 c2bd 23c2 05bd 939a 193e
00000040: d888 1a3e 1d01 77bd 98bc 83be 83bf 803c
00000050: 3b3a 64be 5e72 123d c4a3 92be 6b3d 5c3e
00000060: c768 15bc 3e83 e7bd 6d34 21bd c512 1ebe
00000070: 4f9d f43d 0911 2fbd 6ede 9c3c 5f35 d93e
00000080: 0312 69be 41a0 e0bd 980a 233c 662a f1be
00000090: 2822 bcbe 060c 0dbe 7ebe c9bd 45d6 883e
000000a0: 595c b9bc 3ac7 9fbc 5b86 a0bd bfb4 30be
000000b0: 4dfb 9e3e a86b dc3d 0047 933d 7ba2 17be
000000c0: a556 6ebd 2d76 fd3c 7b77 9c3d b648 ecbd
000000d0: 4e66 87be c918 e03c 25de c63d dfd8 b23d
000000e0: a6e9 a53e 1022 f0bd 9664 993d 68f7 c83e
000000f0: ecf0 3bbe a9ee 533e 421e 86be b483 1a3f
00000100: 76f4 083e 1db2 45bd 8fc3 51be c964 b2bd
00000110: 939e 57be dd49 f23d 0d18 403c dfd2 ad3e
00000120: b758 f93a e516 863e 3366 f13e 0965 51be
00000130: cd7c ddbe aef8 a93d be12 60bd adc6 103f
00000140: 862f d33d 3f71 d4be f7b0 833e b3ea 05be
00000150: 7210 003e 707b b4bc d14f 39be 55ee 793e
00000160: 6a8a 1d3e e3d8 29be 4077 9d3d dc2d 1a3d
00000170: dcb7 bcbe 7d1d d2bb dfdd f93b 3e8a 89bb
00000180: e38b 2abe 6e2b 82be 3a2c bcbe 0061 95be
00000190: 09ae 933e adb1 9d3e 0002 de3d d3b9 d93e
000001a0: d668 2e3d d018 91be 055a 78bd 33dd 2dbd
000001b0: 2add febd 91d3 c53e 65e7 0abe fe68 2a3e
000001c0: a14a 9cbd affe bcbe b229 883e dfdc 57be
000001d0: fce4 d7bd b69f 13bc debc 73bd 7cf8 413e
000001e0: 1c02 813e d39d eabe d8ec 2e3e 9e83 c83c
000001f0: b2fc e63d 297c 903d d491 14be b4ec 1c3e
00000200: 286b 84be 0247 febb 7fd2 a63c d3c4 a2be
00000210: ecb7 073e a270 77be ef1f 683d 52da 913e
00000220: 3644 79bd 9717 a6bc cf69 a13e 0b99 59bd
00000230: 18b0 10be 583c acbd c28a 4ebd 251e 0a3e
00000240: 8502 b63d aee5 3fbe 44b1 9dbc 2045 09be
00000250: 2266 24bd 73b3 51be a83d 13bd 9c12 013e
00000260: c74d 153e 3190 a0be 61ec 9e3e bcf9 303e
00000270: 91c1 2ebe 1207 03be 1b2b 923d adc0 afbd
00000280: 04f2 713e fe8a 07bf de24 a23e 9dde bb3e
00000290: 44ea 3bbf 8db0 a83d bfac bbbd 6259 0cbd
000002a0: f0f2 1cbe ad3e 933d bf84 b13b c90d 12be
000002b0: a925 bb3e ecc6 68be d696 1ebc d34c b8bc
000002c0: 5495 b83c 4db9 e1bd 5c6d a43d 06b6 febd
000002d0: 05d4 1fbe 93ee 32be 464f 97bc 14ef 663d
000002e0: ac66 09be 1439 3abe 663f 213e 0727 b63d
000002f0: 0ee7 4dbb f864 de3c 1aeb 643c 71b1 2f3e
00000300: 90f9 74be 2974 9ebe 5814 403d a527 1c3e
00000310: d743 8dbd a744 643c bee3 42be e826 b3bd
00000320: 7e13 4abc 35f7 0d3e 81fe 81be f48c aebe
00000330: a23c 773e f1a7 fe3d 6d1b b43c 68fb 3e3e
00000340: 3420 6b3e 46f4 a9be 4523 df3e 75de bb3d
00000350: ef54 acbe 0eef 28bd 3be5 9a3c c2f0 843e
00000360: 22cf 0dbc 27cb 733e f78b 10be 58db 52be
00000370: b57c 07be 4894 7fbe 6ed8 01bd 0e58 8b3c
00000380: 7854 afbe 2f44 81be 820e 51bd 1b4a 92be
00000390: b8d9 9a3d b5bd 05be e170 82bd b2a2 263e
000003a0: 198f 82bd 7721 423d 0e46 263c 6978 153d
000003b0: 5e25 823d abc8 1d3e 5418 403c 5413 4e3e
000003c0: a168 673d 2160 66be 39fb 9a3c 63d4 15be
000003d0: 5fa9 eb3c 3b2c 59be 6ca6 08bc 06aa 2c3e
000003e0: 62a7 e8bd 31d7 343e c10b 1a3e 9869 57be
000003f0: b052 a9be 3a23 263d 149f c03d 9a2b 06be
-0.057425603 -0.11201929 -0.020583756 -0.07759567 -0.14148407 0.11894423 -0.12878095 0.10122973
-0.23326188 0.21177797 0.11010412 -0.38030308 0.08845367 -0.09474003 -0.032655846 0.15000372
0.15091264 -0.060303796 -0.25729823 0.01571632 -0.22287838 0.0357536 -0.28640568 0.21507804
-0.009119219 -0.11304329 -0.039356638 -0.15436848 0.11944067 -0.042740855 0.019149031 0.4242353
-0.22760777 -0.10968066 0.009951256 -0.4710266 -0.3674481 -0.13774118 -0.098507866 0.26725975
-0.022627043 -0.019504178 -0.07838126 -0.17256449 0.31051102 0.10762721 0.071912766 -0.14808075
-0.0581881 0.03094014 0.076399766 -0.11537306 -0.2644524 0.027355568 0.097103395 0.08732771
0.32404822 -0.11725247 0.07489888 0.39251256 -0.18353623 0.2069651 -0.2619496 0.60357213
0.13374504 -0.048265565 -0.20484756 -0.087106295 -0.21056585 0.118304946 0.011724484 0.33949944
0.0019023631 0.26189342 0.47148284 -0.20448698 -0.43259278 0.08299385 -0.054705374 0.56553155
0.10311799 -0.4149265 0.2572095 -0.13077812 0.12506273 -0.022031516 -0.18096854 0.24407323
0.15384832 -0.16586642 0.07688761 0.03764139 -0.36859024 -0.0064122067 0.007625326 -0.004197388
-0.16654925 -0.2542376 -0.36752492 -0.29175568 0.28843716 0.30799618 0.10840225 0.42524585
0.042580448 -0.28339243 -0.060632724 -0.04244728 -0.124445274 0.38637975 -0.13564833 0.16641614
-0.07631422 -0.36913058 0.2659431 -0.2108035 -0.10541722 -0.009010246 -0.05950629 0.18942446
0.25196922 -0.45823535 0.17082536 0.024476822 0.112786666 0.07054932 -0.14508754 0.1532467
-0.25863004 -0.0077599296 0.020364044 -0.3179079 0.13253754 -0.2416406 0.05667108 0.28486878
-0.060856067 -0.02027492 0.31526038 -0.05312447 -0.14129674 -0.08409947 -0.0504253 0.13488062
0.08887199 -0.1873996 -0.019249566 -0.13405275 -0.040136464 -0.2047861 -0.03594747 0.12604755
0.14580451 -0.3136001 0.31039718 0.17282766 -0.17066027 -0.12795666 0.07137128 -0.08581672
0.23627478 -0.5294646 0.31668752 0.36693278 -0.73404336 0.082367994 -0.09163808 -0.03426493
-0.15327048 0.07189689 0.005417436 -0.14263071 0.3655217 -0.22732133 -0.009679517 -0.02249757
0.022532143 -0.110216714 0.08028671 -0.12437062 -0.15608223 -0.17473821 -0.018470418 0.056380346
-0.13418072 -0.18185836 0.15746841 0.088941626 -0.0031418237 0.027147755 0.013972068 0.17157532
-0.23923326 -0.30947998 0.0468944 0.15249498 -0.06897705 0.013932384 -0.19032189 -0.08747655
-0.012333749 0.13863833 -0.25389484 -0.34091914 0.24144223 0.12434376 0.021985734 0.18650591
0.22961503 -0.33194178 0.43581596 0.0917329 -0.3365855 -0.041243605 0.018908134 0.25964934
-0.008655341 0.23807965 -0.14115892 -0.20591486 -0.13231166 -0.24958909 -0.031700544 0.017009761
-0.34244132 -0.25247332 -0.051039226 -0.28572163 0.07561058 -0.13060649 -0.06369186 0.16273001
-0.0637495 0.047395196 0.010148538 0.036491785 0.063547835 0.1540858 0.01172455 0.2012456
0.056496266 -0.22497608 0.01891862 -0.146318 0.028767286 -0.21208279 -0.008340459 0.16861734
-0.11360051 0.17660214 0.15043546 -0.21036375 -0.33070898 0.04056094 0.09405342 -0.1310257

lstm.weight_hh_l0 f4 [128, 32]
00000000: d511 8b3c f65b 1ebe b7b4 4d3e 7884 afbe
00000010: b0a2 af3e 4ec3 f3be 4c9a ab3e 4f5c 3c3e
00000020: 2b4a 633e b74a 173e 3f88 0f3f e812 9e3c
00000030: ae28 01be 5fcd bc3e dae0 843e 1d66 043e
00000040: fd8c ae3d f9e9 103e b38b bbbe d3df 423e
00000050: 7119 233d 2c7e 213e fafc b7bd cc5e adbe
00000060: 6723 2f3e 02ad 273d ec15 f43d 804e 0c3f
00000070: a200 b43e 5050 67bc 9fe8 dcbe 6794 73be
00000080: 9dad 493e 64e2 6ebf 21e8 2c3d 7915 b7be
00000090: e18c 753e 4a2e e1be 2e36 a23d 47c2 6b3c
000000a0: 568a dbbc 8765 13bf d1c2 953e 4751 4abe
000000b0: fc45 523d d247 863e 75e4 ae3d 63bd a33d
000000c0: e6e2 97be d812 0b3e b26c a2be 72a7 163f
000000d0: c9bb 873d d938 74be db8c d03d c723 7ebe
000000e0: 502f 5dbe 3134 d6bd d600 233e e57c f13e
000000f0: 1514 3a3f d387 953e 7efe 0ebf 1fbf 06bf
00000100: 9da8 b4be 7c85 863e 4ff1 8ebd 442b 8abd
00000110: 8529 803e 06d3 17be 8100 833e 77aa 4abc
00000120: 276e 51be ad18 1c3e 5be1 97bc 89d1 db3c
00000130: 165e 1f3e 4730 4dbe 2cd4 1bbc 7e26 b73d
00000140: 54f5 453e 25db d63d abe0 e2be 69bf 203e
00000150: babf 9cbd f17e 35be a783 1fbc 9c09 afbd
00000160: 6f49 843e bad9 81be f127 d23e be66 63be
00000170: f8ea bcbd 635f 83be ffac 0abe 6442 8f3e
00000180: ac90 043e 42b1 da3d 14d3 82be fdc9 8bbe
00000190: 5d50 003f 048f e03d ad23 903e b813 08bf
000001a0: ae8b 603e 9247 e63d b1ef 863e 5e74 a3bd
000001b0: 50c9 9b3e 0072 42bd 5729 35bd 853d 723e
000001c0: 6f7c 1c3d 6905 823c 3924 09be 0e48 953e
000001d0: 62f6 3e3e 22c7 bc3e 495c 83be a803 c2be
000001e0: 77cd a53e a935 5fbc 2bbc 13bc f3b1 a8bd
000001f0: c82b 813e 9e57 40be 532d f7be 2caa 433e
00000200: dc21 bdbd a628 f33e faab 97be b1f3 1c3d
00000210: e8b7 413f 3e21 4ebe cc7c 9c3e a2eb 0bbf
00000220: 58e8 2f3d 5f5d 5e3e c617 ab3e 5bf3 c6be
00000230: 2857 4f3e 55dc 033d fbbc 2bbc 7cbf 4c3e
00000240: 42c6 383e 332f c839 d222 adbe 298a 983e
00000250: 769d 133e 3aba 063d 3c09 62be c850 793b
00000260: 315a 8a3e 7655 2cbe 02cd 2fbd f801 ecbd
00000270: ef93 4bbe 0e76 a9be ab34 ce3d 0187 7a3e
00000280: 38cd 573d b391 53be 4984 5f3e 1176 153d
00000290: ad45 4b3e 05ab 3fbd 8745 c4bd f8fe 5fbd
000002a0: e5c7 90bc 7a15 dd3d b06f 103b 0163 b43e
000002b0: af38 343e 770b 453c 78c8 22be 7407 94be
000002c0: b2bf b23e 2f32 8fbb 8d9e 213d fc37 453e
000002d0: 1c08 3d3d 9e5a 98be 0d89 153e 5dc4 0d3e
000002e0: 26e6 c63d 70b8 203e d298 41be ac4b 9f3e
000002f0: 50bc 9bbe cc95 0eba 2b33 afbd 5fa4 033e
00000300: e17c 15bf 6619 f43e 802e c7bd 5b69 d13d
00000310: 4e05 dd3d b045 d2be 3f86 2fbf 4b1b b83d
00000320: 1ad1 e63e 112f 023f 6980 1a3e 91b1 da3e
00000330: ecfc b5bd 0c9a ef3d 4a7c ba3d ec12 52be
00000340: 6bac ac3e ceb8 bf3e 800d 58be f089 14bd
00000350: d0d8 953e 94db e33e 06cc b0be 4cd7 65bb
00000360: 92f0 c83e 2266 963e 8ff6 c5ba c1f9 f8bd
00000370: a53f 05bf 4d57 0c3e e698 4abe ee31 883d
00000380: 5d9d 443e e064 aa3d e26d d7bd 28c5 23bd
00000390: bb90 cbbb 24a0 783e 2918 4a3e 794d 6d3e
000003a0: adb5 5abc bb1c b7bd ba68 3a3e 362c 05bd
000003b0: 91f7 33be 101c 9b3e f899 ba3e 0ccc 67be
000003c0: 0e90 12be 0867 d5bd 5d3d 52bd d7d5 7b3e
000003d0: 3553 7fbd 663a 1ebf 372e 063f 5fc2 e2bc
000003e0: 4810 12bb c590 29bf 2b10 3e3e 82c4 4abe
000003f0: 5eb4 2fbd 6d11 aa3e 5f67 aebc c7d8 57be
0.016976276 -0.15464768 0.20088468 -0.34280753 0.34303808 -0.47609943 0.33516157 0.18394588
0.22196262 0.14774595 0.5606727 0.019296125 -0.12613174 0.36875436 0.25952798 0.12929578
0.08522985 0.14151753 -0.3663002 0.19030695 0.039819185 0.15770787 -0.08983798 -0.33861387
0.17103349 0.040936477 0.11918244 0.5480728 0.35156733 -0.014118269 -0.43146226 -0.2378708
0.19695134 -0.93314195 0.042213563 -0.3575857 0.23979522 -0.43980628 0.0792049 0.014389581
-0.026799362 -0.57576793 0.29250196 -0.19757567 0.051336274 0.2622667 0.085396685 0.07995107
-0.29665297 0.13581407 -0.31723553 0.5884925 0.06627614 -0.2384981 0.10183116 -0.24818335
-0.2160008 -0.104591735 0.15918288 0.471656 0.7268689 0.29205188 -0.55857074 -0.5263538
-0.35284892 0.26273715 -0.0697962 -0.067465335 0.25031677 -0.14826593 0.25586322 -0.012369744
-0.20452176 0.15243788 -0.018540075 0.026833313 0.15563235 -0.20037948 -0.009511035 0.08942889
0.19331867 0.10491017 -0.44312033 0.15698017 -0.076537564 -0.17724206 -0.009735978 -0.08546755
0.25837275 -0.25361425 0.41046098 -0.22207162 -0.09224504 -0.25658712 -0.13542555 0.2798034
0.12945813 0.106783405 -0.25551665 -0.27302542 0.50122625 0.10964778 0.28152218 -0.5315509
0.21928284 0.1124412 0.26354745 -0.0798118 0.30427027 -0.047472 -0.044228878 0.2365628
0.038204607 0.01587172 -0.13392724 0.29156536 0.18648675 0.36870676 -0.25656345 -0.37893414
0.3238332 -0.013623633 -0.009017031 -0.08237066 0.25228715 -0.18783423 -0.48276767 0.19107884
-0.09234974 0.4749195 -0.29623395 0.03831834 0.75671244 -0.20129868 0.30563962 -0.5465642
0.04294619 0.21715306 0.33416575 -0.3885754 0.20248091 0.032192547 -0.010482068 0.1999492
0.1804438 0.0003818214 -0.33815628 0.29792908 0.14415535 0.032892443 -0.22073835 0.0038042534
0.27021936 -0.16829476 -0.04292012 -0.11523813 -0.19880651 -0.3309788 0.10068639 0.24465562
0.052685946 -0.20661049 0.21827807 0.03648955 0.19850798 -0.046793956 -0.09583574 -0.054686517
-0.017673442 0.10795112 0.0022039227 0.35231784 0.17599748 0.012026659 -0.15896785 -0.28911936
0.34911877 -0.004369996 0.039457846 0.19259638 0.04615031 -0.29756635 0.14603062 0.13844438
0.09711866 0.15695357 -0.18905953 0.3111242 -0.3041711 -0.00054391916 -0.085546814 0.12855671
-0.58393675 0.47675627 -0.09725666 0.10225173 0.107920274 -0.41068792 -0.6856422 0.08989581
0.45081407 0.5085307 0.15088047 0.42713597 -0.08886132 0.11699304 0.091057375 -0.2051503
0.33725294 0.37445682 -0.210989 -0.03626436 0.29266977 0.44503462 -0.34530658 -0.0035070954
0.3924604 0.29374796 -0.0015103387 -0.12157012 -0.5205024 0.13705178 -0.19784889 0.06650148
0.19200654 0.08320022 -0.10519005 -0.039982945 -0.0062123216 0.24279839 0.19735779 0.23174085
-0.013348979 -0.08941027 0.18204013 -0.032512866 -0.17574908 0.30294847 0.36445594 -0.22636431
-0.14312765 -0.10420042 -0.05132805 0.24593292 -0.06233521 -0.6180786 0.5241427 -0.027680574
-0.0022287536 -0.66236526 0.18560855 -0.19801524 -0.04289662 0.3321642 -0.021289526 -0.21078788

lstm.bias_ih_l0 f4 [128]
00000000: e9d8 ff3e f74e 9a3e 056d aa3d 970a 693c
00000010: b055 ab3e 847c 6a3d b600 d13e 5d95 ce3d
00000020: 6f0e 203e 7634 ff3e d40a aa3e c234 183e
00000030: 7425 813e 5824 a93e d659 98bc 7783 ae3e
00000040: 9ceb adbd 9eb9 3c3e 962f 9c3d 58cf c53d
00000050: a052 863e e3db c73e d22b 563e 2eee 5d3e
00000060: a2e0 b23e b5a3 0b3e c185 2a3e b7be ac3e
00000070: 81e6 d43e b513 a43c 8a7d b73e 7342 6f3e
00000080: a155 efbd fc93 083d 1fd0 c93d d7fb 7fbd
00000090: 327e 41bd cb93 fcbd 3d63 543d ba68 763e
000000a0: ce39 923d 940f 3d3e 7092 613e d91c 223c
000000b0: 3111 303e 04ac 93bb df68 563e 1908 bebd
000000c0: 1065 b53d db08 a3bd e115 47be f520 fbbd
000000d0: ff92 fd3d 4188 aa3d 6448 18bc 4a06 48bd
000000e0: 1e66 d83d 4769 a43d 36c9 b53c b88a 773d
000000f0: e935 603e ab8c 573e 1128 9cbd c6de 663e
00000100: 139a 8f3d a406 f73d 5774 21be 58dc d6bd
00000110: b9ef ba3d 69fe ddbd 9140 a73c 3451 b0bd
00000120: 0a3a 6b3c 85f4 69bd fb71 5c3d be88 193e
00000130: f99d 0abe 4517 9e3c e569 d23d 77a3 983d
00000140: 482c ed3c 1971 093e e150 3abe edd4 9f3b
00000150: c84f 913d 7512 4c3d 7f45 1ebe 2b54 f9bd
00000160: c443 773e 59aa 303e cd78 c9bb f338 ebbd
00000170: abac aebd c887 0ebe 40fc 23be 73ae 223d
00000180: 7bf2 d93e 3263 ed3e 5368 033e 1833 273e
00000190: fc94 d83e 2327 c13c 5da4 b63e c9fa b13e
000001a0: 3393 923e db6e 063e aa38 843e 346c 923e
000001b0: 20e8 f83d 8f92 963c 2765 903e 342e b43e
000001c0: 5b1d 0a3e c141 883d 7159 413c 238a 813e
000001d0: 8f32 bb3e 23bf f03e c156 873e 8796 213e
000001e0: 69eb 8a3e d26d f63d 65e1 ab3e e685 af3e
000001f0: 675d ae3e 0dd7 a33d c25c 843e 8cf4 5e3e
0.49970177 0.3013837 0.08321575 0.014223716 0.33463812 0.057247654 0.40820855 0.100870825
0.15630506 0.49844712 0.33211386 0.14863876 0.25223887 0.3303554 -0.018597525 0.34084675
-0.084922045 0.18430182 0.07626264 0.09658688 0.26234913 0.39034948 0.20915154 0.2167289
0.34937006 0.13636668 0.16652586 0.33739254 0.4158211 0.020028928 0.35837966 0.23365192
-0.11686254 0.033344254 0.09854149 -0.062496033 -0.04723949 -0.12332877 0.051852454 0.24063388
0.071399316 0.18462974 0.22028518 0.009894573 0.17194058 -0.00450659 0.20938443 -0.09278888
0.08857167 -0.079606734 -0.1944194 -0.122621454 0.12381553 0.083267696 -0.009294603 -0.048834123
0.10566352 0.080278926 0.022190671 0.060435027 0.21895565 0.21049754 -0.076248296 0.22545919
0.07011809 0.120618135 -0.15767036 -0.10491246 0.09127755 -0.108395405 0.02041653 -0.08609238
0.014357099 -0.057117958 0.053819638 0.14993569 -0.13536824 0.019298205 0.10274104 0.074530534
0.028951779 0.1342205 -0.18194915 0.0048776777 0.07095295 0.04982229 -0.15456198 -0.12174257
0.24146944 0.17252482 -0.006148434 -0.114854716 -0.085290276 -0.13918984 -0.16014194 0.03971715
0.4256781 0.46364743 0.12832765 0.16328084 0.42301166 0.023578232 0.35672274 0.34761646
0.2862793 0.13128226 0.2582448 0.28598177 0.12153649 0.018380431 0.28202173 0.351915
0.1348776 0.066531666 0.01180111 0.25300702 0.3656201 0.47020826 0.26433375 0.15780078
0.2713273 0.12032665 0.335704 0.34281844 0.34055635 0.08000002 0.2585202 0.21772975

lstm.bias_hh_l0 f4 [128]
00000000: ca91 893e 2fab 343e 4fa0 513d 7249 f23d
00000010: 8a9f e83e 082e 653e 300d 283e 2b04 b63e
00000020: 571e 0c3e c272 853e 6ae5 853e 6a37 973e
00000030: a5e2 583e c316 8c3e 9949 823e b9d5 873e
00000040: 3885 623d 10da 7c3e 2a0f 3f3e 9a7d a83d
00000050: 3f4c 123e 33d3 1b3f bfe4 ca3e 9b37 d63e
00000060: 5621 d03e 6c1c c83c bbbd fb3e e0fa 0c3e
00000070: c9b1 2d3e fbfe bd3c 0232 a93e c9d0 683e
00000080: 4159 9cb8 8c44 9b3d f3bf df3d d03a 703d
00000090: e02b 353e c2c7 f63c 9c85 323c eca2 2c3d
000000a0: 771f 4cba ddb6 8b3c b282 2c3e 9b74 563e
000000b0: 41cb 7c3c 6987 303d b522 173d fcc2 6d3e
000000c0: fc40 0e3e c138 ce3d 5c17 97ba 522d bfbd
000000d0: 809e aa3d d7cc 4fbd a90c 55bc 4f35 a13d
000000e0: 9e33 b83d 3b36 5b3e 9bca 4b3e cb2b 413e
000000f0: 8910 5b3e b762 6f3e cf9b 20be 28b7 ab3a
00000100: 00a0 84bd 355d d4bd fbe1 8f3d 1492 01be
00000110: 9b59 083d 4ea3 54be 1a5e 403c 5b0d 553c
00000120: 25f1 313d 8bec 133e f9f9 1dbd 12ba 0fbe
00000130: 10b4 ee3c d9b9 133e 3608 0e3e be0a 36be
00000140: 19a1 123e 0957 3c3e eb60 35be 15ed 99bc
00000150: 1966 41be 88aa d1ba 1262 20be 4993 a5bd
00000160: 3cf5 433e c917 20be 8b82 083e 7502 1c3e
00000170: ecc4 fa3c cdd3 bd3b b88c 17be 271b ef3b
00000180: 9bd8 883e ddc4 823e a427 753e ec4b 1d3e
00000190: 282e 583e 70c2 733e 76f4 6a3d 8f8d e53e
000001a0: d3fe 8e3e d23b db3e 5478 203e 756b 5e3e
000001b0: feef ac3c 2a98 923e 5433 ad3d 0867 a83e
000001c0: 90b1 6abc ab79 943e 7a88 753e b027 d23d
000001d0: 08c7 d23e f442 e93e 27c7 803e 2316 e73d
000001e0: eeb8 b13e 7599 c63c eefe 193f b097 ca3e
000001f0: 8610 693e 5cd5 893e 58f2 b53e 2152 a53e
0.2686904 0.17643426 0.051178273 0.11830415 0.4543422 0.22380841 0.1641128 0.35550055
0.13683449 0.26064116 0.26151592 0.29534465 0.21180208 0.27361116 0.25446776 0.26530245
0.05530283 0.24692559 0.18658128 0.082270816 0.14286898 0.6086914 0.39627644 0.418393
0.40650433 0.024427615 0.4916819 0.13767576 0.16962351 0.023192873 0.33045965 0.22735895
-7.4552845e-05 0.07581434 0.10925283 0.058649838 0.17692518 0.030124549 0.010896113 0.042147562
-0.0007786671 0.01705497 0.16846731 0.20942919 0.015429319 0.043097887 0.036898334 0.23218912
0.13891977 0.10069419 -0.0011527347 -0.09334816 0.08331013 -0.05073246 -0.013003507 0.07871496
0.0899422 0.21407406 0.19901507 0.18864362 0.21393026 0.233775 -0.15684436 0.001310085
-0.0647583 -0.1036934 0.07025524 -0.1265338 0.03328858 -0.20765421 0.011741186 0.0130036725
0.043442864 0.14445703 -0.03856847 -0.14035824 0.029138595 0.14426364 0.1387032 -0.17777535
0.14319266 0.18392576 -0.17712753 -0.018789807 -0.18886603 -0.0015996257 -0.15662411 -0.08084733
0.19136518 -0.15634073 0.13331048 0.15235312 0.030611478 0.005793071 -0.14799774 0.007296938
0.26727757 0.2554082 0.23940903 0.15360993 0.21111357 0.23804641 0.057362042 0.44834563
0.2792879 0.42819077 0.15670902 0.21720679 0.021110531 0.28631717 0.08457056 0.32891107
-0.014324561 0.28999075 0.23977843 0.10261476 0.41167474 0.45558894 0.2515194 0.11283519
0.34711403 0.024243096 0.60154617 0.39568853 0.2276021 0.26920593 0.35536456 0.32289222

fc.weight f4 [1, 32]
00000000: da02 823e b3a6 223f ea0b 0d3e 830f 12be
00000010: 01a0 8c3e 9d6e 03be 50cb 99be 0e6d 3ebe
00000020: de6d ccbe a51e bdbe cfef 933e e4f8 dabe
00000030: 1b07 06be e7eb 13be 649e 443e 4fba ddbe
00000040: efb5 193d 4aad be3e 68bb 85be 6ff3 d43e
00000050: 6848 153f c21e 1a3f 95ef babe bd18 8dbe
00000060: e5e0 e7be 7fba 803e d9ff 69be 7cd5 5c3e
00000070: 44f3 943e 0a31 8dbe dcbc 0c3f 052a 5a3e
0.253928 0.6353561 0.13774076 -0.1426373 0.27465823 -0.12835164 -0.30037928 -0.18596289
-0.39927572 -0.36937442 0.28893897 -0.42768013 -0.13088648 -0.14445458 0.19201046 -0.43306205
0.03752702 0.37241584 -0.26119542 0.41591975 0.5831361 0.6020318 -0.36510912 -0.27557936
-0.45288768 0.25142285 -0.22851504 0.21565813 0.29091847 -0.27576476 0.54975677 0.21305092
