fut_opt_lih_features_prepare/best_model_2.pth (torch, 25147 bytes, 6 tensors)

embedding.weight f4 [19, 8]
-0.5413277 -0.20170668 2.4289908 2.210814 -1.2402562 -0.8370676 -0.55469227 0.4648623
0.36617008 -2.3018534 0.9279302 -0.6171192 0.840839 -1.0054113 -0.64350414 0.6642756
-0.26516947 -0.3841862 1.6157812 2.3302116 0.46870202 -0.30759072 -1.0058926 2.1904707
1.4614996 -2.2932005 -2.011301 0.6376961 0.30971196 1.309097 -1.0309656 -0.7328674
1.7184783 0.48834038 -0.5051136 -0.5101181 1.1694695 1.2753345 -2.3088114 -0.14452428
2.531748 1.7280033 2.726775 0.6837165 -0.67248744 -1.7181493 0.35117045 -1.2044078
1.0009114 0.3354865 0.2841667 -0.68504214 -0.121648304 0.5175058 1.3778017 -1.2864443
0.20955935 -0.15016493 1.4427162 -0.5764586 0.5902688 1.5331326 -0.13468368 -0.28993964
1.6242034 0.96351963 0.1628432 1.4378645 0.25588182 -0.2770286 0.021198435 0.4317038
-1.5418619 0.9930846 -0.056051675 1.6480067 2.5662622 -0.5326417 0.94184357 -2.3025582
-1.9248484 0.5604289 1.726118 -1.3372136 -0.5794011 0.7994037 -2.0682356 -0.7033882
-2.37892 2.117043 -0.3292648 -0.10175652 -0.060468458 -0.3949068 0.6839204 0.027917618
2.2268999 0.15103899 -0.6018079 2.3244097 -1.6000581 0.09677711 -0.5335787 0.5674474
0.48416373 -2.2152002 1.2594631 1.5955038 -1.1316634 0.9074919 0.15421446 0.8911356
-0.1349856 -0.21701239 -0.40385196 -1.4023606 -1.4309239 -1.1047344 0.64984405 0.58205056
0.7670303 -0.15443933 0.7992924 -1.129531 2.4536886 -1.7743491 -0.8202143 -2.1596968
0.60679954 0.6871146 -2.0054793 0.22133712 -0.26828372 -1.843357 -0.3941671 -0.898823
1.3091875 1.2505357 -1.706743 0.47833544 0.88586724 0.2756604 0.039865527 0.42388022
-0.28353703 -0.638427 0.2995282 -3.3316092 -1.0609086 -0.95119405 -0.20585544 -1.6365633
00000000: 7494 0abf 328c 4ebe 9674 1b40 fa7d 0d40
00000010: b7c0 9ebf 104a 56bf 5000 0ebf 6e02 ee3e
00000020: a57a bb3e 9151 13c0 d58c 6d3f 86fb 1dbf
00000030: 3a41 573f 51b1 80bf b0bc 24bf f70d 2a3f
00000040: 4bc4 87be 0eb4 c4be ebd1 ce3f 3022 1540
00000050: b6f9 ef3e 887c 9dbe 17c1 80bf ac30 0c40
00000060: 6b12 bb3f ccc3 12c0 28b9 00c0 0d40 233f
00000070: 9192 9e3e 7e90 a73f aef6 83bf 339d 3bbf
00000080: 19f7 db3f c007 fa3e 204f 01bf 1a97 02bf
00000090: 2db1 953f 293e a33f 91c3 13c0 2cfe 13be
000000a0: 2908 2240 362f dd3f 7b83 2e40 0b08 2f3f
000000b0: 2328 2cbf 51ec dbbf 9dcc b33e 092a 9abf
000000c0: dd1d 803f e3c4 ab3e 4c7e 913e ec5e 2fbf
000000d0: bf22 f9bd 437b 043f ce5b b03f 35aa a4bf
000000e0: ba96 563e d6c4 19be edaa b83f ca92 13bf
000000f0: db1b 173f b03d c43f 85ea 09be f872 94be
00000100: e6e5 cf3f 39a9 763f 5ec0 263e f20b b83f
00000110: f102 833e b1d6 8dbe 57a8 ad3c 4808 dd3e
00000120: bb5b c5bf cb3a 7e3f 7196 65bd e2f1 d23f
00000130: a43d 2440 355b 08bf a91c 713f 1d5d 13c0
00000140: 6f61 f6bf 4578 0f3f 6ff1 dc3f d129 abbf
00000150: a153 14bf b9a5 4c3f f95d 04c0 4011 34bf
00000160: 3a40 18c0 a27d 0740 6595 a8be b965 d0bd
00000170: c6ad 77bd 3931 cabe 6815 2f3f 7db3 e43c
00000180: 8785 0e40 f7a9 1a3e 1510 1abf 21c3 1440
00000190: b4ce ccbf 1433 c63d 9d98 08bf 3c44 113f
000001a0: 4fe4 f73e d7c5 0dc0 1636 a13f 7839 cc3f
000001b0: 59da 90bf 6451 683f 65ea 1d3e 7621 643f
000001c0: aa39 0abe 7f38 5ebe afc5 cebe 8d80 b3bf
000001d0: 8428 b7bf f067 8dbf 2e5c 263f 4401 153f
000001e0: 195c 443f 5825 1ebe 6d9e 4c3f 7994 90bf
000001f0: 3c09 1d40 df1d e3bf 90f9 51bf 7938 0ac0
00000200: 3757 1b3f bee6 2f3f c659 00c0 33a6 623e
00000210: 7c5c 89be 1ff3 ebbf 45d0 c9be 4419 66bf
00000220: 7593 a73f 8e11 a03f 8e76 dabf 62e8 f43e
00000230: 32c8 623f 5c23 8d3e 094a 233d d406 d93e
00000240: c42b 91be f46f 23bf c35b 993e 1639 55c0
00000250: dacb 87bf 7481 73bf c5cb 52be e87a d1bf

lstm.weight_ih_l0 f4 [128, 8]
0.27971256 0.058697026 0.2631818 0.24810018 -0.10575025 0.023425391 0.05747092 0.61107314
0.078670405 0.024715217 0.24953833 0.05281763 -0.20290264 -0.24205557 0.0038452242 0.23917437
0.30077943 0.022217365 0.3453019 0.46338594 -0.075586915 -0.35422897 -0.24548203 0.08076515
0.017580835 0.38567924 0.22694181 0.270638 -0.012231583 -0.20504424 0.20012994 0.014533429
-0.13191645 -0.14037496 0.13987692 -0.4511011 -0.25324446 -0.021696238 0.025271619 0.23285507
0.07338772 0.17878827 -0.020206308 -0.012005625 0.07121786 -0.098610036 -0.51111436 0.2309792
0.21808358 0.03739095 0.23258708 0.6752242 0.03465467 -0.02538996 -0.09186789 0.22649802
0.14346747 0.07220759 0.41333988 0.0649037 -0.25717944 0.14053254 -0.018900862 -0.17187469
0.1144577 0.1903806 0.13342407 0.28202802 -0.11098806 0.019818949 0.019908624 0.062295716
0.006825789 0.39778277 0.021261241 0.052809317 0.15295431 -0.13078596 -0.13309479 0.17245957
0.005145402 -0.07528021 -0.0074341036 -0.023818769 0.5025541 0.15398552 -0.31161708 -0.12613723
-0.118792795 0.014420288 0.123992056 0.32024184 -0.2678488 -0.214106 0.017204355 -0.19611955
-0.016065773 0.3398032 -0.053346734 0.29063335 0.018230787 -0.028348532 -0.55806446 0.19848897
0.44505396 0.5040828 -0.61622715 0.10806584 0.063760936 0.015784383 -0.20422529 -0.10795144
-0.06960683 0.25169554 0.37648275 0.1999097 -0.14937882 -0.31609592 -0.36388233 -0.23262973
0.068133414 0.29049566 -0.103512324 0.22007677 -0.03006848 0.16415073 -0.20994043 -0.033344474
-0.065564506 -0.54068416 0.094624184 0.07088147 -0.2702807 0.26848903 -0.57783276 0.3930513
0.31035185 -0.38405228 0.19533914 0.109762795 -0.1763812 0.018030642 0.14789931 -0.09356056
0.38832694 0.41877717 0.37982044 0.37920153 0.21626474 0.07483582 -0.96779996 -0.33497867
0.1522488 0.47891092 -0.40021247 0.3750718 -0.009806197 -0.49689305 0.21379156 0.2698672
-0.28076574 -0.2726333 0.046786632 -0.4429389 0.12474583 -0.0060907425 -0.119687386 -0.4269874
0.42573926 -0.4611817 0.07194626 -0.2793661 0.1982578 -0.039673343 -0.48019037 -0.25209373
0.22123837 0.1197976 -0.097728565 0.06281813 0.17709325 -0.32695913 -0.022187458 0.01001537
0.21261263 -0.17442566 -0.03622835 -0.062229116 0.016898079 -0.57761896 0.19806643 -0.2638782
-0.09860345 0.30233145 -0.6710211 0.2574931 -0.19583553 -0.3226918 0.2735226 -0.4979048
0.06643413 0.12323012 0.32209876 0.054672565 -0.14151527 0.19690947 -0.12022463 0.073785156
0.3676104 0.21658641 0.53521425 0.27536157 -0.072345264 0.47103855 0.24626362 0.30531433
0.63085204 -0.003401179 -0.3605909 0.122462384 -0.0050923773 0.26898593 -0.26025558 -0.2334887
-0.04809125 0.2549511 -0.53728294 -0.046017975 0.2635438 -0.03682243 -0.24796079 -0.044723235
-0.012020285 -0.25222602 0.6765713 0.71694136 -0.052455023 0.045069553 0.22148542 0.10561142
0.45677206 -0.19687432 0.28299832 0.24726582 0.15435396 0.04735066 -0.13923411 0.012317703
0.7227526 0.30896667 0.35666665 -0.08616714 -0.41596147 0.19667412 -0.022287346 0.3126142
00000000: 7c36 8f3e 4b6c 703d c4bf 863e f90d 7e3e
00000010: 9693 d8bd 9be6 bf3c a166 6b3d 4a6f 1c3f
00000020: f31d a13d 9177 ca3c fa86 7f3e 4d57 583d
00000030: b6c5 4fbe 6add 77be 2800 7c3b 20ea 743e
00000040: c3ff 993e 3101 b63c 69cb b03e ec40 ed3e
00000050: 50cd 9abd 805d b5be a45f 7bbe 3368 a53d
00000060: af05 903c c077 c53e 6f63 683e 1091 8a3e
00000070: fa66 48bc 1ef7 51be ddee 4c3e 9f1d 6e3c
00000080: 1b15 07be 74be 0fbe e53b 0f3e b9f6 e6be
00000090: 42a9 81be 4fbc b1bc 6d06 cf3c 8f71 6e3e
000000a0: 4d4c 963d 4614 373e b387 a5bc 3eb3 44bc
000000b0: abda 913d 0ff4 c9bd 64d8 02bf d085 6c3e
000000c0: 4d51 5f3e 4127 193d 4f2b 6e3e 7edb 2c3f
000000d0: 0ef2 0d3d 9bfe cfbc 3b25 bcbd 19ef 673e
000000e0: 23e9 123e 93e1 933d 49a1 d33e 3bec 843d
000000f0: 06ad 83be c3e7 0f3e fbd5 9abc ebff 2fbe
00000100: cc68 ea3d 22f3 423e 52a0 083e fa65 903e
00000110: b54d e3bd 595b a23c 6917 a33c cb29 7f3d
00000120: deaa df3b 2faa cb3e 0e2c ae3c 954e 583d
00000130: 0ea0 1c3e c1ec 05be 004a 08be 3e99 303e
00000140: c39a a83b 832c 9abd c899 f3bb 941f c3bc
00000150: 63a7 003f 61ae 1d3e 468c 9fbe 1e2a 01be
00000160: a349 f3bd 1243 6c3c 8cef fd3d bdf6 a33e
00000170: 7a23 89be 9a3e 5bbe 26f0 8c3c 90d3 48be
00000180: 5e9c 83bc affa ad3e 1b82 5abd e5cd 943e
00000190: bb58 953c 2e3b e8bc 50dd 0ebf b140 4b3e
000001a0: 1dde e33e 920b 013f 10c1 1dbf a051 dd3d
000001b0: 1895 823d 404e 813c 6f20 51be a515 ddbd
000001c0: 078e 8ebd 3dde 803e 59c2 c03e 21b5 4c3e
000001d0: c3f6 18be 53d7 a1be c94e babe 7d36 6ebe
000001e0: 8889 8b3d d9bb 943e 45fe d3bd ce5b 613e
000001f0: 2c52 f6bc 2117 283e a0fa 56be 3794 08bd
00000200: af46 86bd 476a 0abf 53ca c13d 4e2a 913d
00000210: 3b62 8abe 6577 893e d9ec 13bf 053e c93e
00000220: 70e6 9e3e 80a2 c4be fc06 483e 51cb e03d
00000230: 469d 34be ffb4 933c eb72 173e ae9c bfbd
00000240: cad2 c63e f669 d63e d377 c23e b426 c23e
00000250: 8174 5d3e 8643 993d bdc1 77bf 5382 abbe
00000260: 1ce7 1b3e d033 f53e a6e8 ccbe 6909 c03e
00000270: 2caa 20bc c468 febe 2dec 5a3e 092c 8a3e
00000280: 87c0 8fbe 9896 8bbe 57a3 3f3d e3c8 e2be
00000290: be7a ff3d da94 c7bb a91e f5bd 189e dabe
000002a0: 7ffa d93e 0220 ecbe 9058 933d 1309 8fbe
000002b0: 1804 4b3e 8480 22bd 83db f5be 6e12 81be
000002c0: 508c 623e 7258 f53d ea25 c8bd cba6 803d
000002d0: ef57 353e 3067 a7be 79c2 b5bc 8217 243c
000002e0: 20b7 593e a49c 32be 2e64 14bd f5e3 7ebd
000002f0: d76d 8a3c d6de 13bf edd1 4a3e 0b1b 87be
00000300: 9bf0 c9bd 30cb 9a3e 0ac8 2bbf 23d6 833e
00000310: 1c89 48be dc37 a5be 270b 8c3e 61ed febe
00000320: 9e0e 883d 1360 fc3d 21ea a43e 57f0 5f3d
00000330: 61e9 10be a3a2 493e 5538 f6bd ac1c 973d
00000340: 6e37 bc3e d4c8 5d3e cd03 093f 31fc 8c3e
00000350: c129 94bd f72b f13e 882c 7c3e 2952 9c3e
00000360: 857f 213f 51e6 5ebb 5f9f b8be 8fcd fa3d
00000370: f5dd a6bb 86b8 893e 3840 85be a917 6fbe
00000380: 55fb 44bd f388 823e 608b 09bf 587d 3cbd
00000390: 37ef 863e 1ed3 16bd 6fe9 7dbe b62f 37bd
000003a0: bbf0 44bc c523 81be c733 2d3f 7889 373f
000003b0: 14db 56bd da9a 383d 13cd 623e cd4a d83d
000003c0: 07de e93e 6c99 49be 28e5 903e 4033 7d3e
000003d0: f70e 1e3e c4f2 413d 6393 0ebe 31d0 493c
000003e0: 5006 393f e130 9e3e 039d b63e 6678 b0bd
000003f0: e7f8 d4be f164 493e f493 b6bc f80e a03e

lstm.weight_hh_l0 f4 [128, 32]
0.038303494 0.60701257 0.06668201 0.48580348 -0.53034127 -0.3498354 -0.043349367 -0.7297249
0.14510444 -0.109402336 0.22901802 0.5208826 0.1296491 0.44756162 -0.3116697 0.4766025
0.49575946 -0.05234872 0.23682345 0.5869583 0.45342124 -0.4861954 -0.07058522 0.22154835
-0.47241107 -0.28874433 -0.02926447 0.48813346 -0.058894534 -0.37169513 0.15848021 0.6847205
0.36774567 -1.1512294 0.20844528 -0.54775107 -0.53833634 0.04098139 0.82504797 0.65103996
-0.0594849 0.21954699 -0.48290443 -0.43308127 -0.30401567 -0.3032514 -0.63076776 0.14191788
0.24804278 -0.16341256 -0.3632944 0.27560297 -0.10946861 -0.2681649 -0.0034598676 0.16074082
-0.07290667 -0.24067004 0.051623296 0.30109167 -1.2193115 -0.15731914 0.21941996 -0.4921479
-0.41396666 0.09799927 0.49541748 -0.21303585 0.33003396 0.40818408 -0.51094353 0.08245579
-0.19840066 0.38722873 0.3882658 0.29541385 -0.26813668 0.10008418 0.2974449 0.3121415
0.21757153 -0.08987581 0.012775897 0.09909012 -0.20874238 -0.49240902 0.6829316 0.16688284
0.0064115073 0.2897825 0.10415227 0.36168483 0.55677915 -0.2610179 0.17634018 -0.15172987
-0.49381068 0.21701215 0.34234136 -0.18288524 0.33079505 0.7782152 -0.6987164 -0.38649595
-0.17400728 -0.035155118 0.16750506 0.7483322 -0.2612137 0.023901755 -0.09925578 0.33862945
0.29446733 -0.26427338 -0.06620913 0.54932874 -0.48905385 -0.36585662 0.09401941 0.35383996
-0.40434295 -0.20683856 0.4288651 0.3331992 0.38042682 -0.5212029 0.4369669 0.035103194
-0.5329994 0.05748541 -0.07807795 -0.0091077825 0.18417683 0.16033486 0.2924042 0.1863144
0.20371713 0.22438154 -0.29980192 -0.076798916 -0.12860428 -0.20388016 0.58701104 0.042804763
0.1042239 -0.58606654 -0.085393 -0.052385937 -0.42661065 0.044517856 0.12425251 0.25772342
0.44098264 -0.018736048 -0.22805732 0.15924124 1.23951 -0.24897185 0.0078088106 -0.08810263
0.15548702 0.58897614 0.06875814 0.03937324 0.34596962 0.613354 0.1409249 -0.36989805
0.8083441 0.6861978 -0.32825983 0.40380126 0.8137918 -0.43824738 0.58720094 0.43775484
0.30440146 0.059873916 -0.51645935 -0.32432327 0.113194704 0.028487837 0.044001643 0.94817865
0.6040787 -0.16845196 0.009630237 0.16482481 0.0013403747 -0.3051535 -0.09000734 0.17070845
0.46528026 -0.05078088 -0.11118849 0.030417424 -0.51508653 -0.27958488 0.046502598 0.25500023
0.45158753 0.26879814 0.12522328 0.18390411 -0.37528214 0.1702029 -0.15195851 0.47987333
0.39568868 0.04432016 -0.1893183 0.07251789 0.4245187 -0.26846534 -0.49240264 -0.037689522
0.03022303 -0.6268815 -0.15543234 0.7152398 -0.11150857 -0.44499585 0.22586198 0.29656458
-0.20269464 -0.62333244 0.4437455 -0.32819977 0.22069803 0.44247094 -0.347674 -0.32876986
0.15230234 0.6113137 -0.3351452 0.42223227 0.16052288 -0.4601279 -0.16487129 0.042201255
0.46677402 0.033079263 -0.24276891 1.131095 0.280951 0.12659915 0.30382907 0.3608192
-0.5119951 -0.07085826 0.27951017 0.57496566 -0.802019 -1.188506 0.109594025 0.18650837
00000000: 20e4 1c3d 2d65 1b3f 9490 883d 3cbb f83e
00000010: 72c4 07bf a01d b3be 1b8f 31bd 40cf 3abf
00000020: 4296 143e 550e e0bd b383 6a3e 9058 053f
00000030: bcc2 043e cc26 e53e 2c93 9fbe 3e05 f43e
00000040: 2fd4 fd3e 9d6b 56bd d981 723e e642 163f
00000050: d426 e83e 9aee f8be fc8e 90bd 92dd 623e
00000060: dddf f1be 4cd6 93be 0bbc efbc a1ec f93e
00000070: 653b 71bd d34e bebe a348 223e d849 2f3f
00000080: 2949 bc3e 7c5b 93bf ae72 553e 6a39 0cbf
00000090: 69d0 09bf 1adc 273d 5836 533f 8eaa 263f
000000a0: 70a6 73bd edd0 603e 403f f7be d4bc ddbe
000000b0: f1a7 9bbe c443 9bbe ff79 21bf ec52 113e
000000c0: edfe 7d3e 9f55 27be b901 babe d51b 8d3e
000000d0: 1431 e0bd e94c 89be f2be 62bb 3e99 243e
000000e0: 1850 95bd 3572 76be f372 533d b028 9a3e
000000f0: 6612 9cbf 4518 21be a0af 603e cffa fbbe
00000100: 70f3 d3be d7b3 c83d 5ca7 fd3e 1226 5abe
00000110: 36fa a83e 81fd d03e 32cd 02bf 95de a83d
00000120: 8b29 4bbe d842 c63e c6ca c63e 7c40 973e
00000130: 3649 89be eff8 cc3d b34a 983e 03d1 9f3e
00000140: 12cb 5e3e cf10 b8bd ff51 513c c3ef ca3d
00000150: 90c0 55be 091d fcbe 9bd4 2e3f 56e3 2a3e
00000160: 9f17 d23b 5f5e 943e c94d d53d c12e b93e
00000170: 1489 0e3f 23a4 85be 8592 343e 135f 1bbe
00000180: c1d4 fcbe 6f38 5e3e 5e47 af3e 4546 3bbe
00000190: f85d a93e 1d39 473f 14df 32bf cce2 c5be
000001a0: f72e 32be d0fe 0fbd 7286 2b3e b392 3f3f
000001b0: cdbd 85be 9dcd c33c 9d46 cbbd d760 ad3e
000001c0: 6cc4 963e d74e 87be a798 87bd cfa0 0c3f
000001d0: 4465 fabe 8f51 bbbe 408d c03d 832a b53e
000001e0: 0a06 cfbe 7dcd 53be 3594 db3e 1699 aa3e
000001f0: 4ec7 c23e 8e6d 05bf 20ba df3e 5ec8 0f3d
00000200: a672 08bf d275 6b3d 55e7 9fbd cf38 15bc
00000210: da98 3c3e d22e 243e 01b6 953e 34c9 3e3e
00000220: 399b 503e 46c4 653e a37f 99be c048 9dbd
00000230: d7b0 03be f6c5 50be 5b46 163f 0c54 2f3d
00000240: 5773 d53d 7508 16bf 86e2 aebd a392 56bd
00000250: b66c dabe 5b58 363d 1a78 fe3d 53f4 833e
00000260: 7ac8 e13e 577c 99bc dc87 69be 2310 233e
00000270: 44a8 9e3f 7af2 7ebe 0de1 ff3b 276f b4bd
00000280: fd37 1f3e 24c7 163f 11d1 8c3d d645 213d
00000290: ee22 b13e c504 1d3f 9e4e 103e 4763 bdbe
000002a0: a4ef 4e3f a9aa 2f3f ac11 a8be 0abf ce3e
000002b0: a954 503f f661 e0be cd52 163f 6721 e03e
000002c0: 82da 9b3e 5a3e 753d ae36 04bf b30d a6be
000002d0: a0d2 e73d 535f e93c 113b 343d d6bb 723f
000002e0: e7a4 1a3f ac7e 2cbe 24c8 1d3c d6c7 283e
000002f0: 83af af3a 143d 9cbe c555 b8bd 32ce 2e3e
00000300: 3739 ee3e 9dff 4fbd cbb6 e3bd f62d f93c
00000310: b6dc 03bf c025 8fbe 8279 3e3d 648f 823e
00000320: 7b36 e73e e99f 893e 883a 003e 5c51 3c3e
00000330: fb24 c0be ab49 2e3e 039b 1bbe f5b1 f53e
00000340: b597 ca3e 0e89 353d a8dc 41be 4284 943d
00000350: 845a d93e 4a74 89be 331c fcbe 5460 1abd
00000360: 4a96 f73c 4e7b 20bf a829 1fbe f519 373f
00000370: 9b5e e4bd 7fd6 e3be 5d48 673e 50d7 973e
00000380: 2f8f 4fbe b792 1fbf 9c32 e33e cd09 a8be
00000390: aafe 613e 8d8b e23e 5402 b2be 8654 a8be
000003a0: 25f5 1b3e 0e7f 1c3f 2798 abbe d42e d83e
000003b0: 1c60 243e e295 ebbe 05d4 28be 39db 2c3d
000003c0: 01fd ee3e 1f7e 073d 6a98 78be b9c7 903f
000003d0: cfd8 8f3e 35a3 013e 7c8f 9b3e 4bbd b83e
000003e0: 1c12 03bf 231e 91bd f51b 8f3e f330 133f
000003f0: 1e51 4dbf f720 98bf d572 e03d 0dfc 3e3e

lstm.bias_ih_l0 f4 [128]
0.4202268 0.55623925 0.012328737 0.47146252 0.08804721 0.39041975 0.21504185 0.5023289
0.15994558 0.4749398 0.31735638 0.1644445 0.551649 0.33136722 0.43957582 0.45143607
0.27063563 0.0452092 0.061096508 0.22416452 0.03657451 0.32977968 0.20025761 0.31344798
0.27612334 0.2610214 0.30538115 0.33703783 0.30176434 0.31277776 0.4914623 0.48177385
0.005244508 0.29181668 0.07820488 0.051490217 0.098903686 0.14395341 0.23231591 0.40014088
0.011092034 0.3813305 0.02590532 0.19604786 0.17522922 0.08675775 0.2188915 0.25302693
0.27634308 0.2404275 0.27876192 0.07017187 0.25513995 0.4286801 0.06810805 -0.06336923
0.13759217 0.29051715 0.027353201 0.17881884 0.19885243 -0.052880634 0.004836962 0.004119404
0.06361561 0.03779184 -0.19827873 -0.05818534 -0.038066294 -0.038745496 0.1721394 0.07314556
-0.0050647096 -0.048720546 0.031855743 0.022432346 -0.056835327 -0.08121457 -0.13922791 0.16654861
-0.018172463 0.1478485 0.0285575 -0.02530677 -0.13732454 -0.03207292 0.09180448 0.007891909
-0.024421116 -0.060858093 -0.024336431 0.09461053 -0.13994767 -0.13173583 -0.19061781 0.08553222
0.3686335 0.1479046 0.14557523 0.53929937 0.008349412 0.1842113 0.29320034 0.33877608
0.27912337 0.39050782 0.21876393 0.25612512 0.52789605 0.13129306 0.6410111 0.12291628
0.49907026 0.07275962 0.46434122 0.3215335 0.1558932 0.25593418 0.35656285 0.3956462
0.36028117 0.2484632 0.27162272 0.38373846 0.25539947 0.60614854 0.5403141 0.46668693
00000000: f827 d73e b265 0e3f 79fe 493c 8963 f13e
00000010: 1852 b43d 19e5 c73e ee33 5c3e a098 003f
00000020: c6c8 233e 4f2b f33e 897c a23e 2464 283e
00000030: de38 0d3f f7a8 a93e 1510 e13e a122 e73e
00000040: c190 8a3e 482d 393d 5540 7a3d 628b 653e
00000050: 27cf 153d e2d8 a83e 5510 4d3e 417c a03e
00000060: 0a60 8d3e 99a4 853e eb5a 9c3e 3990 ac3e
00000070: db80 9a3e 6824 a03e f2a0 fb3e 10ab f63e
00000080: 1fda ab3b ff68 953e e129 a03d 68e7 523d
00000090: 048e ca3d 8668 133e 39e4 6d3e 44df cc3e
000000a0: 5dbb 353c c03d c33e 6537 d43c c5c0 483e
000000b0: 4a6f 333e 0cae b13d 1825 603e bf8c 813e
000000c0: d77c 8d3e a032 763e e2b9 8e3e 45b6 8f3d
000000d0: b4a1 823e f57b db3e 3c7c 8b3d bac7 81bd
000000e0: f6e4 0c3e aabe 943e d213 e03c 491c 373e
000000f0: f99f 4b3e 5d99 58bd 617f 9e3b 11fc 863b
00000100: e748 823d 9ecb 1a3d 9409 4bbe c053 6ebd
00000110: 67eb 1bbd 99b3 1ebd 5045 303e 57cd 953d
00000120: ddf5 a5bb 328f 47bd 2b7b 023d 0ac4 b73c
00000130: 29cc 68bd d353 a6bd c391 0ebe b88b 2a3e
00000140: 6bde 94bc 9965 173e 6bf1 e93c 2550 cfbc
00000150: ce9e 0cbe e55e 03bd fd03 bc3d 114d 013c
00000160: cb0e c8bc 5646 79bd 325d c7bc 2ac3 c13d
00000170: 714e 0fbe c2e5 06be 5131 43be 842b af3d
00000180: 88bd bc3e 4e74 173e ac11 153e 860f 0a3f
00000190: f9cb 083c e3a1 3c3e 5b1e 963e 0f74 ad3e
000001a0: 42e9 8e3e a4f0 c73e a703 603e d522 833e
000001b0: 3224 073f b071 063e 4e19 243f 88bb fb3d
000001c0: 2386 ff3e ff02 953d 22be ed3e 0aa0 a43e
000001d0: 78a2 1f3e ce09 833e 688f b63e 2492 ca3e
000001e0: c676 b83e 236d 7e3e 2212 8b3e 5e79 c43e
000001f0: b8c3 823e 8d2c 1b3f 0652 0a3f 97f1 ee3e

lstm.bias_hh_l0 f4 [128]
0.19329666 0.6363236 -0.09740787 0.3005597 0.061901513 0.41208437 0.14349374 0.34486726
0.32941926 0.4740531 0.46159533 0.22182246 0.45978346 0.23922643 0.5289205 0.21441057
0.16108385 0.31734693 0.34793255 0.2217935 0.13548519 0.28700465 0.22112317 0.13564885
0.46706545 0.16173714 0.21495478 0.25147465 0.38347444 0.36530274 0.33399433 0.5022262
0.31083888 0.25132912 0.2333106 0.059085786 0.20985645 -0.10504134 0.22316255 0.38812304
0.14958593 0.33514017 -0.11908006 0.26498464 0.18300968 0.2227638 -0.04564968 0.32239783
0.13088308 0.06251832 -0.041776195 0.003281322 -0.04294685 0.30637583 0.19560552 0.20807232
0.23665941 0.18080421 0.19214551 -0.011073475 0.026619062 0.1395742 -0.060727965 -0.053524178
-0.0057365117 -0.1553197 0.07857534 -0.057943493 -0.0052123982 -0.21476224 0.055802774 0.19308265
0.020514522 0.11076878 -0.1403191 0.12616746 -0.12773573 -0.06347513 0.071925655 0.1615355
-0.041163675 -0.14498828 0.29540315 0.268927 -0.034700125 -0.10814929 0.1551183 0.20024495
0.22451802 -0.1408498 -0.028420977 0.09195477 -0.06192239 -0.13644244 0.09885247 0.123649985
0.47010452 0.30021632 0.20036764 0.609128 0.11359245 0.4716042 0.39014056 0.60084736
0.22953795 0.38419217 0.050624687 0.35554805 0.40609583 0.17925382 0.5598601 0.15783529
0.4573156 0.16330005 0.25113198 0.30698767 0.3331994 0.11851705 0.14989738 0.34543085
0.4790883 0.33403304 0.19246598 0.42503023 0.27172303 0.71323466 0.41164243 0.50595504
00000000: 8fef 453e 1ae6 223f c77d c7bd f6e2 993e
00000010: 718c 7d3d b9fc d23e 06f0 123e 7192 b03e
00000020: a4a9 a83e 17b7 f23e 3956 ec3e 6d25 633e
00000030: bd68 eb3e c6f7 743e 5567 073f 728e 5b3e
00000040: 2af3 243e 4c7b a23e 3724 b23e d61d 633e
00000050: a1bc 0a3e 46f2 923e 1d6e 623e 88e7 0a3e
00000060: 3423 ef3e 6c9e 253e 1b1d 5c3e 49c1 803e
00000070: c356 c43e f608 bb3e 4e01 ab3e e591 003f
00000080: 4626 9f3e 36ae 803e f9e8 6e3e f003 723d
00000090: 9ce4 563e ea1f d7bd b984 643e 10b8 c63e
000000a0: 0e2d 193e 7e97 ab3e 3fe0 f3bd 11ac 873e
000000b0: e466 3b3e 321c 643e 29fb 3abd 5411 a53e
000000c0: 3706 063e 9b09 803d 841d 2bbd 730b 573b
000000d0: 09e9 2fbd 4bdd 9c3e d04c 483e e910 553e
000000e0: d856 723e bd24 393e cbc1 443e 856d 35bc
000000f0: 3810 da3c 8aec 0e3e e3bd 78bd 2b3c 5bbd
00000100: 59f9 bbbb 210c 1fbe 1cec a03d 2856 6dbd
00000110: c4cc aabb a2ea 5bbe 7391 643d 75b7 453e
00000120: 120e a83c beda e23d cfaf 0fbe 0b32 013e
00000130: 28cd 02be 40ff 81bd c24d 933d 9069 253e
00000140: 3e9b 28bd cf77 14be 153f 973e cdb0 893e
00000150: b821 0ebd 607d ddbd 55d7 1e3e 030d 4d3e
00000160: 0de8 653e ee3a 10be 1cd3 e8bc c852 bc3d
00000170: 55a2 7dbd 91b7 0bbe 2a73 ca3d 343c fd3d
00000180: 8ab1 f03e f4b5 993e 2d2d 4d3e d0ef 1b3f
00000190: 29a3 e83d 1b76 f13e 81c0 c73e 22d1 193f
000001a0: ff0b 6b3e d6b4 c43e d55b 4f3d 650a b63e
000001b0: cbeb cf3e 508e 373e fe52 0f3f 939f 213e
000001c0: 4525 ea3e 2138 273e 5f94 803e 7d2d 9d3e
000001d0: 1d99 aa3e 11b9 f23d b37e 193e 50dc b03e
000001e0: 104b f53e 6106 ab3e cd15 453e 909d d93e
000001f0: 481f 8b3e 8c96 363f ccc2 d23e 4586 013f

fc.weight f4 [1, 32]
0.8021837 1.3725075 0.4923243 -0.9326862 0.9476026 0.8768565 0.37228277 -0.8667415
1.7869627 1.47322 -0.42438114 -1.0398753 1.3882432 0.48656842 -1.0459214 -0.63018686
-0.8074458 -0.8181133 -0.8149901 0.93834776 0.24553812 0.7778096 -1.7229652 1.1250353
-1.4381537 -0.69501114 -1.3769755 0.49306965 -0.246832 -0.6977842 1.3585495 -1.7374657
00000000: e95b 4d3f 53ae af3f ee11 fc3e 86c4 6ebf
00000010: 1696 723f ab79 603f d99b be3e c5e2 5dbf
00000020: 32bb e43f 7992 bc3f 7c48 d9be a21a 85bf
00000030: f4b1 b13f 7f1f f93e c1e0 85bf ed53 21bf
00000040: c5b4 4ebf e06f 51bf 31a3 50bf 8f37 703f
00000050: 586e 7b3e 881e 473f 208a dcbf 2801 903f
00000060: 6c15 b8bf 40ec 31bf bc40 b0bf a073 fc3e
00000070: 87c1 7cbe fca1 32bf f3e4 ad3f 4765 debf
