fut_opt_lih_features_prepare/best_model_3.pth (torch, 25403 bytes, 7 tensors)

embedding.weight f4 [19, 8]
-1.8080654 1.7373245 -1.1041385 1.1820168 -0.6054886 -0.9985377 0.095580935 1.0463818
-0.22085445 0.092949755 1.50409 -0.8379234 -2.910193 1.4740608 -0.54591167 1.1604683
-0.42011997 0.45229962 0.29150182 3.077398 -1.1868337 1.508911 -0.8703435 -0.21891789
-3.191116 1.5063457 2.2417955 -1.010515 -1.1509924 0.8070376 0.48334658 1.0749054
-1.6022075 -0.2495208 -1.2942741 0.50954634 -1.3756433 -0.24399367 -1.8061659 -1.1587012
-0.79647624 0.6738958 1.776655 0.35058597 0.7121205 0.87499774 -2.0273044 1.105267
0.59700006 1.0833986 -2.0124302 0.5128817 0.48434776 2.2099278 1.092145 -0.00014802805
0.8004104 -2.3557382 -0.48898792 0.515033 -0.3814848 1.0334859 1.089269 0.766871
-0.4800398 0.56572604 -1.1478236 1.2953265 0.720817 -0.42265937 -0.17756453 -0.85842
-0.17976163 0.35662183 1.5437027 -1.2836424 0.80021775 2.119918 0.007704032 0.06845756
0.26103193 0.48966178 1.3129206 0.6697083 -1.3218081 -1.6524682 1.1028368 1.758106
0.28032607 -1.3075742 1.3512999 2.0613723 1.2554199 0.85578394 -0.5641393 1.379913
-0.0820589 -0.56307817 -1.1683958 0.6113644 -1.1616002 0.8879206 -0.12470268 -1.3088564
2.0077474 0.5154857 -0.31052017 -1.4351921 1.1337372 -0.13799448 -1.7892311 -1.6397406
0.3720182 0.3787658 -3.300616 -1.2464817 -0.06967254 -1.2019564 -0.23216136 2.4954317
0.8678278 -1.5453618 1.3033437 0.12960517 -0.7978925 -0.05312202 0.21563525 -1.208653
-0.42593098 1.5432229 0.9963815 -1.0519418 -0.85085005 -0.17660147 1.0394831 -1.577675
2.5113394 -0.76647806 0.82675076 -0.6597644 2.0888715 -0.9594664 -0.5329567 0.34594357
-0.49217603 0.57204014 0.6277187 -0.9018989 -0.28756246 2.2054708 -0.01910668 0.1556593
00000000: b06e e7bf a660 de3f 6954 8dbf 544c 973f
00000010: 4d01 1bbf 2ba0 7fbf f0bf c33d d7ef 853f
00000020: ab27 62be 715c be3d 0586 c03f 2682 56bf
00000030: 9a40 3ac0 06ae bc3f dec0 0bbf 3a8a 943f
00000040: f719 d7be d193 e73e ba3f 953e 17f4 4440
00000050: 2bea 97bf ff23 c13f d5ce 5ebf 032c 60be
00000060: 3f3b 4cc0 f0cf c03f 9479 0f40 8e58 81bf
00000070: b853 93bf 049a 4e3f 3479 f73e 8096 893f
00000080: 2315 cdbf 6182 7fbe c6aa a5bf a171 023f
00000090: 1415 b0bf 7ad9 79be 7230 e7bf 5250 94bf
000000a0: dee5 4bbf 6f84 2c3f 6e69 e33f 0180 b33e
000000b0: 874d 363f daff 5f3f 5bbf 01c0 6479 8d3f
000000c0: ffd4 183f ceac 8a3f a8cb 00c0 374c 033f
000000d0: 6efc f73e 756f 0d40 68cb 8b3f fa37 1bb9
000000e0: b2e7 4c3f 6ac4 16c0 a05c fabe 34d9 033f
000000f0: fa51 c3be 4449 843f 2b6d 8b3f a851 443f
00000100: c7c7 f5be 6cd3 103f e2eb 92bf 42cd a53f
00000110: 7787 383f cf66 d8be 7ad3 35be 6ac1 5bbf
00000120: 6f13 38be 2397 b63e 0d98 c53f 654e a4bf
00000130: 12db 4c3f bdac 0740 1b72 fc3b 7a33 8c3d
00000140: faa5 853e f3b4 fa3e c80d a83f 0172 2b3f
00000150: 0231 a9bf 1484 d3bf c229 8d3f 9e09 e13f
00000160: e686 8f3e 975e a7bf 65f7 ac3f 86ed 0340
00000170: 99b1 a03f a814 5b3f 6f6b 10bf fda0 b03f
00000180: 7f0e a8bd e425 10bf fe8d 95bf 6182 1c3f
00000190: 51af 94bf c44e 633f 1e64 ffbd 9b88 a7bf
000001a0: ef7e 0040 dff6 033f 80fc 9ebe 60b4 b7bf
000001b0: 4d1e 913f 6d4e 0dbe 8605 e5bf 05e3 d1bf
000001c0: 2b79 be3e 97ed c13e 4b3d 53c0 b68c 9fbf
000001d0: 7ab0 8ebd b5d9 99bf b5bb 6dbe 27b5 1f40
000001e0: f629 5e3f 6ace c5bf f7d3 a63f 38b7 043e
000001f0: af42 4cbf 7a96 59bd 7dcf 5c3e 24b5 9abf
00000200: a013 dabe 5488 c53f dc12 7f3f 07a6 86bf
00000210: 4fd1 59bf 04d7 34be c80d 853f 41f1 c9bf
00000220: c9b9 2040 e837 44bf f0a5 533f 52e6 28bf
00000230: 12b0 0540 979f 75bf da6f 08bf 841f b13e
00000240: 7ffe fbbe 3971 123f 2cb2 203f d9e2 66bf
00000250: 633b 93be 6f26 0d40 9d85 9cbc 2765 1f3e

lstm.weight_ih_l0 f4 [128, 8]
0.19745952 -0.10310276 0.24964625 0.42625168 0.14261544 0.10229836 -0.59831744 -0.18755935
-0.35713995 0.3732665 -0.1878756 0.3444476 -0.23890822 1.0000341 -0.8627526 -0.04073642
0.5630335 -0.25132608 -0.33626157 0.22397654 -0.05486788 0.36020744 -0.004622112 -0.41607568
-0.57762796 0.32244778 0.41403314 -0.1970046 -0.32708845 0.582092 0.41280332 -0.36586452
-0.24467553 0.12972218 0.6389172 0.2661278 -0.8258867 -0.42260176 0.06003232 -0.22313976
0.06464982 0.31268224 0.40125528 -0.12639593 -0.3039498 0.0021780422 0.46392962 -0.169383
0.33161685 -0.05126834 -0.5435324 0.23402719 0.1804997 0.043014348 0.38344657 0.32428223
0.30108535 -0.20152593 -0.0041490975 0.14622049 0.37751582 -0.3067081 -0.07184624 0.46802735
0.17818598 -0.020850148 -0.17930701 -0.32322773 0.4402892 0.15316083 0.46664447 0.52697736
-0.067542315 0.04394306 -0.32569492 -0.3426286 0.08332109 -0.022231353 -1.0747815 -0.28013524
0.2817102 0.10328875 0.24956718 0.055162195 0.21540052 0.37465027 -0.09405816 -0.11188043
0.025156278 0.4885999 0.51633936 0.36912706 0.02048025 -0.01660655 0.07941621 -0.20965923
0.70105696 -0.24658045 0.5996464 0.08084021 -0.49402437 -0.15877743 0.3674835 0.2350694
-0.123553954 -0.24974418 0.5532852 0.40087676 -0.12914994 0.3284596 -0.18565091 -0.4612054
0.64775866 -0.3083202 0.12717499 -0.47448987 0.8503999 -0.09336028 0.07233875 0.4573214
0.036676716 0.5345269 0.105414934 -0.1275262 0.04911801 -0.26944575 -0.14343332 -0.6599381
-0.064876474 0.22343956 -0.29247048 -0.22920267 -0.62331605 0.5801716 -0.324302 -0.09301602
0.059988376 0.52478576 0.23604676 -0.5745305 -0.09125175 -0.06994643 0.09248469 -0.4139271
0.18022548 0.28981975 0.015487357 -0.138834 0.10126787 0.0034348988 -0.92151135 -0.29622215
-0.026046999 0.044631895 0.64680344 0.55643195 0.03616164 -0.10220189 0.06674421 0.42108992
0.073941566 0.45146704 0.34277132 -0.021332342 0.57913625 0.88497 -0.70823044 0.022098357
0.1899055 0.104596525 -0.42887673 0.41498023 0.01887584 -0.52311903 0.14989144 0.07994658
-0.19351694 -0.59720355 0.1126298 -0.52894187 -0.16115347 0.25566432 0.25753057 0.71531385
-0.19793452 0.50223494 0.27173248 -0.4171287 -0.74112487 0.06661444 -0.08453539 -0.28482574
-0.6371433 -0.21525605 -0.2282906 0.3184563 -0.16106689 0.019735117 0.43018186 -0.8587598
0.14946753 0.18162912 -0.111418985 0.16356641 0.26000604 -0.6387957 -0.11423809 0.36765495
-0.08889999 0.6514598 0.08169452 0.40234965 0.08254152 -0.14887513 -0.44612208 0.29812875
0.29190126 0.035582155 0.5020743 0.082437225 -0.013778746 0.5726954 0.3086272 0.05475207
-0.28370732 -0.42974463 -0.15269472 0.41469637 -0.17435671 -0.07013081 -0.6742578 -0.14513688
0.9223037 -0.9537269 -0.061097924 0.5118195 0.05536452 0.3801771 -0.7465461 -0.57062614
-0.278483 0.40118974 -0.6513184 -0.20709203 -0.07372141 -0.08397054 0.087932624 0.261366
0.36767524 0.5301801 -0.18258251 -0.67693096 0.1969273 -0.4967739 -0.20099242 -0.010427979
00000000: d432 4a3e 8a27 d3bd 44a3 7f3e a93d da3e
00000010: c809 123e cd81 d13d 552b 19bf 8f0f 40be
00000020: 0cdb b6be c91c bf3e 7662 40be 705b b03e
00000030: 5ba4 74be 1e01 803f 5bdd 5cbf 3bdb 26bd
00000040: f722 103f d0ad 80be 7a2a acbe 1b5a 653e
00000050: 24bd 60bd 1c6d b83e 1675 97bb df07 d5be
00000060: 6ddf 13bf e017 a53e 27fc d33e 93bb 49be
00000070: 2378 a7be fb03 153f f55a d33e 9852 bbbe
00000080: 398c 7abe e4d5 043e 1490 233f e741 883e
00000090: 506d 53bf 425f d8be 73e4 753d c07e 64be
000000a0: 2067 843d e317 a03e 5571 cd3e ef6d 01be
000000b0: 4f9f 9bbe 7cbd 0e3b 2f88 ed3e bd72 2dbe
000000c0: afc9 a93e c0fe 51bd f024 0bbf d3a4 6f3e
000000d0: ead4 383e d02f 303d 1c53 c43e 5208 a63e
000000e0: dc27 9a3e d05c 4ebe 27f5 87bb d3ba 153e
000000f0: c149 c13e d808 9dbe 1f24 93bd 48a1 ef3e
00000100: 6376 363e eecd aabc 429c 37be 1b7e a5be
00000110: 966d e13e 31d6 1c3e 06ec ee3e fde7 063f
00000120: a053 8abd a3fd 333d 7cc1 a6be 046d afbe
00000130: 3fa4 aa3d 871e b6bc 7192 89bf e36d 8fbe
00000140: 523c 903e 0d89 d33d 8a8e 7f3e c1f1 613d
00000150: f491 5c3e 29d2 bf3e 91a1 c0bd 9121 e5bd
00000160: 8a14 ce3c c429 fa3e d12e 043f 39fe bc3e
00000170: 32c6 a73c 760a 88bc f7a4 a23d e9b0 56be
00000180: 7878 333f 967f 7cbe 6d82 193f 8d8f a53d
00000190: c3f0 fcbe 8d96 22be cc26 bc3e 08b6 703e
000001a0: db09 fdbd f0bc 7fbe 19a4 0d3f b83f cd3e
000001b0: e23f 04be db2b a83e 461b 3ebe 1d23 ecbe
000001c0: 83d3 253f 25dc 9dbe 293a 023e 56f0 f2be
000001d0: cfb3 593f ad33 bfbd 5726 943d 0826 ea3e
000001e0: 533a 163d c1d6 083f c9e3 d73d 3a96 02be
000001f0: f72f 493d cbf4 89be 2fe0 12be b4f1 28bf
00000200: f5dd 84bd 57cd 643e b1be 95be 1bb4 6abe
00000210: a491 1fbf 2086 143f e90a a6be 2f7f bebd
00000220: 5fb6 753d 5c58 063f 3eb6 713e 6e14 13bf
00000230: 33e2 babd 1340 8fbd 9d68 bd3d 41ee d3be
00000240: 078d 383e 4163 943e afbe 7d3c 802a 0ebe
00000250: 8765 cf3d 0a1c 613b 2be8 6bbf 6eaa 97be
00000260: 8460 d5bc efcf 363d e994 253f 5372 0e3f
00000270: 3a1e 143d 394f d1bd 30b1 883d 1999 d73e
00000280: ad6e 973d b026 e73e b97f af3e 2ac1 aebc
00000290: 4642 143f 658d 623f 974e 35bf 9d07 b53c
000002a0: 9676 423e b436 d63d bb95 dbbe 4a78 d43e
000002b0: 81a1 9a3c 21eb 05bf 247d 193e 08bb a33d
000002c0: 4e29 46be 55e2 18bf 74aa e63d bc68 07bf
000002d0: 6a05 25be 6fe6 823e 0cdb 833e cf1e 373f
000002e0: 59af 4abe 7892 003f 8520 8b3e e591 d5be
000002f0: 5cba 3dbf 276d 883d e420 adbd aed4 91be
00000300: d31b 23bf 156c 5cbe 03c5 69be b40c a33e
00000310: b8ee 24be 8aab a13c cc40 dc3e afd7 5bbf
00000320: 040e 193e fcfc 393e a32f e4bd f47d 273e
00000330: 831f 853e 1d88 23bf a9f5 e9bd 453d bc3e
00000340: 3311 b6bd 12c6 263f 754f a73d c600 ce3e
00000350: 870b a93d b972 18be 1d6a e4be 55a4 983e
00000360: 1574 953e 98be 113d f187 003f d9d4 a83d
00000370: 40c0 61bc 2a9c 123f 6204 9e3e b543 603d
00000380: 1642 91be 7d07 dcbe 015c 1cbe 1553 d43e
00000390: 918a 32be bea0 8fbd 299c 2cbf c39e 14be
000003a0: 181c 6c3f 7227 74bf d141 7abd 9a06 033f
000003b0: e8c5 623d 93a6 c23e a51d 3fbf 8e14 12bf
000003c0: 5395 8ebe be68 cd3e cdbc 26bf ef0f 54be
000003d0: 40fb 96bd bff8 abbd 0516 b43d c4d1 853e
000003e0: ee3f bc3e e2b9 073f e9f6 3abe 594b 2dbf
000003f0: 4fa7 493e 2659 febe f5d0 4dbe 1dda 2abc

lstm.weight_hh_l0 f4 [128, 32]
-0.014985926 -0.19473669 1.0340681 0.53916323 -0.11471254 0.7482624 -0.3808997 0.3100251
0.713061 -0.02799364 -0.35030478 0.6829965 -0.93909997 -0.08429302 0.30625013 0.5208373
-0.3823207 -0.11733215 -0.01703933 0.5821015 0.399879 0.56353736 0.21604416 0.75847566
0.20229505 0.9184136 -0.2391339 0.5219539 0.5888303 0.44646364 -0.20066571 0.1413418
0.90779895 0.08647202 0.45252228 -0.17404889 0.8219741 -0.28995138 -1.7370007 -0.34680542
-1.4639087 0.71648043 0.32062706 -0.17302047 -0.4349534 0.29089403 -0.16195181 -0.35344523
0.4366245 0.6181753 0.5564349 1.0360153 0.23496702 -0.09405399 -0.83426 0.17115222
0.16136862 0.028646309 -0.8330622 0.93676686 0.6598744 0.0071115177 0.44397816 -0.5308837
0.15605137 0.56799346 1.6525483 -0.24050522 -0.8067795 0.32980776 -0.37160173 -0.7286588
0.56631976 0.34291968 0.16178088 -0.3161916 -0.11481551 -0.29546905 -0.3722576 -0.30524245
-0.37176856 0.38623095 -0.9391918 -0.5494007 0.58278024 0.2069183 -1.5232993 0.22393109
-0.8759252 -1.2147168 -1.0111997 0.4442827 0.07617414 0.43328404 -0.50245184 -0.70488656
0.19860826 -0.56150776 -0.9929991 0.35384202 -0.56177187 0.2573913 -0.03587017 0.064641714
-0.15379529 0.0205781 1.1346172 1.1758856 -1.8567542 0.04625618 0.009376877 0.2986806
-0.73346007 0.3209605 -0.014129474 0.36737186 0.9757484 0.77395713 -0.5175786 1.3511001
0.5953111 -0.34733546 0.0024173304 0.31592515 0.36281326 0.18337788 0.2002534 -0.2690443
0.6860388 0.3044847 1.8040279 -0.3332408 -0.40563378 -0.52030987 -0.52702916 -0.95462257
-0.6528844 -0.79999477 -0.4169344 -0.27133134 -0.63851184 -0.98906094 -0.22860359 0.16030239
0.074090466 0.017519245 -1.5450684 1.1649007 0.1493555 0.68042153 -0.1434797 0.9215699
-0.13412522 -0.2077241 -0.36994177 0.90359 1.5494688 0.17463087 0.24419625 0.2558659
1.5693849 -0.33639455 -0.3781034 0.5630642 -0.17097963 0.0074768234 -0.6375788 -0.15146019
-0.9862527 -0.2613402 0.34812942 0.4425171 -1.1524323 -0.25198543 -0.3138243 -0.27086616
-0.37760162 0.7549775 0.3332687 1.4227632 0.20101672 0.3549654 -0.07804148 0.7112009
0.5218002 0.3520738 -0.21773276 0.8764343 0.4127391 0.033400606 0.7113762 0.68660164
0.46433643 -0.6066791 0.91808605 0.23814823 0.43948597 -0.053825583 -0.6163338 0.052032992
-0.81517446 1.0296524 0.033853244 0.40477866 -0.6968905 0.28280973 -0.33770907 0.14500207
1.1596433 1.0388999 -0.2633962 0.095890984 -0.18908976 -0.25795707 -0.9455651 0.8640712
0.22406016 0.4230454 0.19669726 0.52059215 0.34240997 0.22017539 0.51977855 0.26398242
-0.438652 -0.47966373 -0.68116057 0.5368425 0.62622875 0.2283834 0.9586168 -0.08306935
-0.061320495 -0.78696615 0.4617694 0.90134084 0.1229725 0.25789216 0.24848612 -0.37632748
-0.2499063 -0.5319068 -0.47920445 0.6172487 0.028346106 -0.21715216 0.051258076 1.4107803
0.44719446 0.3038814 -0.029932922 0.6019602 0.20167647 -0.55581266 -0.3079363 0.6312127
00000000: 8887 75bc 0e69 47be 585c 843f 9a06 0a3f
00000010: 68ee eabd 208e 3f3f 4905 c3be 9cbb 9e3e
00000020: 2a8b 363f eb52 e5bc 265b b3be dcd8 2e3f
00000030: db68 70bf d2a1 acbd d1cc 9c3e 9855 053f
00000040: 8abf c3be d74b f0bd 1196 8bbc 9b04 153f
00000050: f1bc cc3e fc43 103f ae3a 5d3e 762b 423f
00000060: 6f26 4f3e 271d 6b3f 84df 74be c59e 053f
00000070: 95bd 163f e296 e43e 507b 4dbe e8bb 103e
00000080: 8365 683f 3e18 b13d 00b1 e73e df39 32be
00000090: e56c 523f 8274 94be 0a56 debf 7b90 b1be
000000a0: 5c61 bbbf 436b 373f 3b29 a43e 472c 31be
000000b0: 36b2 debe 10f0 943e b2d6 25be c6f6 b4be
000000c0: 3f8d df3e bd40 1e3f 8572 0e3f 269c 843f
000000d0: 329b 703e 619f c0bd 1092 55bf 8742 2f3e
000000e0: d13d 253e aaab ea3c 9043 55bf f4cf 6f3f
000000f0: 87ed 283f bc07 e93b 1b51 e33e ffe7 07bf
00000100: eecb 1f3e 0568 113f b486 d33f 0047 76be
00000110: 1a89 4ebf 90dc a83e 9542 bebe 6289 3abf
00000120: 55fa 103f 2b93 af3e e3a9 253e dee3 a1be
00000130: 6524 ebbd b847 97be 8c98 bebe bd48 9cbe
00000140: 7358 bebe 10c0 c53e e06e 70bf 86a5 0cbf
00000150: 1631 153f 64e2 533e 79fb c2bf 314e 653e
00000160: a23c 60bf d77b 9bbf fe6e 81bf 0679 e33e
00000170: 3001 9c3d 68d7 dd3e afa0 00bf 7273 34bf
00000180: f75f 4b3e f9be 0fbf 3035 7ebf c82a b53e
00000190: 48d0 0fbf cbc8 833e 99ec 12bd e062 843d
000001a0: 837c 1dbe 6793 a83c 233b 913f 6b83 963f
000001b0: 1faa edbf 1f77 3d3d 79a1 193c aaec 983e
000001c0: 0ac4 3bbf ef54 a43e 4f7f 67bc 2a18 bc3e
000001d0: a6ca 793f 0e22 463f 0880 04bf d9f0 ac3f
000001e0: 4f66 183f f4d5 b1be 136c 1e3b f1c0 a13e
000001f0: a9c2 b93e 69c7 3b3e 3a0f 4d3e 2dc0 89be
00000200: 3da0 2f3f 6be5 9b3e 63ea e63f 8a9e aabe
00000210: 3baf cfbe 0733 05bf 62eb 06bf 2562 74bf
00000220: 6f23 27bf 75cc 4cbf 6d78 d5be f1eb 8abe
00000230: 8375 23bf 1933 7dbf 0f17 6abe 4f26 243e
00000240: bebc 973d 8584 8f3c cdc4 c5bf 771b 953f
00000250: a6f0 183e 1b30 2e3f 58ec 12be 01ec 6b3f
00000260: 1f58 09be a0b5 54be 0269 bdbe ad51 673f
00000270: fe54 c63f 6fd2 323e 950e 7a3e db00 833e
00000280: 9be1 c83f e83b acbe c596 c1be fa24 103f
00000290: 4915 2fbe 2400 f53b 5d38 23bf 6118 1bbe
000002a0: 0f7b 7cbf 62ce 85be 053e b23e 9a91 e23e
000002b0: e782 93bf 3c04 81be 94ad a0be f8ae 8abe
000002c0: 0055 c1be 3546 413f 32a2 aa3e 1b1d b63f
000002d0: 54d7 4d3e 06be b53e 36d4 9fbd 4311 363f
000002e0: b394 053f 0443 b43e 56f5 5ebe 005e 603f
000002f0: 8a52 d33e 13cf 083d c01c 363f 20c5 2f3f
00000300: 81bd ed3e 524f 1bbf b007 6b3f 21dd 733e
00000310: 4e04 e13e 3778 5cbd 0dc8 1dbf 8c20 553d
00000320: 46af 50bf a6cb 833f b3a9 0a3d 263f cf3e
00000330: 6a67 32bf 70cc 903e 34e8 acbe 6c7b 143e
00000340: 316f 943f acfa 843f dedb 86be 7e62 c43d
00000350: bfa0 41be f312 84be 8e10 72bf c533 5d3f
00000360: 0770 653e 6899 d83e 026b 493e 8745 053f
00000370: 5c50 af3e a875 613e 3510 053f b428 873e
00000380: ff96 e0be 7c96 f5be 8a60 2ebf 836e 093f
00000390: 8750 203f 57dd 693e e967 753f 4320 aabd
000003a0: 332b 7bbd 9d76 49bf 0a6d ec3e 46be 663f
000003b0: 02d9 fb3d 710a 843e 2573 7e3e ffad c0be
000003c0: 70e7 7fbe 0b2b 08bf 495a f5be 0304 1e3f
000003d0: 1836 e83c 235d 5ebe fdf3 513d 7394 b43f
000003e0: acf6 e43e 5896 9b3e e335 f5bc 101a 1a3f
000003f0: 4784 4e3e bd49 0ebf d4a9 9dbe 2897 213f

lstm.bias_ih_l0 f4 [128]
0.45843327 0.33553645 0.29078594 0.27337387 0.49997127 0.14202948 0.59830856 0.07841836
-0.037361067 0.69139606 0.62250316 0.65268654 0.4503344 0.877656 0.45456654 0.24974646
0.22058064 -0.09232006 0.7123726 -0.03936645 0.23395115 0.8361577 0.11892518 -0.11066307
0.30748004 0.07465794 0.10410286 0.042848155 -0.2118637 0.55405855 -0.061877765 0.54191685
0.48085102 0.37334 -0.4628518 0.1357267 -0.04913081 0.40657026 0.07843337 0.13852222
0.03558352 0.29247475 0.36446127 0.29407337 -0.06619522 0.3775244 -0.0646831 0.021871556
0.78006524 0.33153316 0.010971284 0.5394348 0.41817957 0.44999567 0.22848484 -0.0063762236
0.42174074 0.21532196 0.31986108 0.4757604 0.49156332 0.03360784 0.43944722 0.2579449
-0.19503678 -0.043447908 -0.10617539 -0.045123156 0.10262135 -0.08813016 -0.20438321 0.010640256
-0.11310946 -0.0428694 0.1190737 -0.025275365 -0.08606891 -0.2147376 0.07185226 -0.16977693
-0.040767886 -0.066200204 -0.17053765 0.010012961 0.0641164 -0.0981111 -0.155391 -0.013103738
-0.011778665 -0.0123708565 -0.2472444 0.26548848 0.07256925 0.07924707 0.38465244 -0.27100602
0.52750134 0.430136 0.3885237 0.6251812 0.5617137 0.32786852 0.420862 0.35929683
0.07302384 1.0466696 0.36566803 0.6243228 0.15383732 0.28521347 0.62592685 0.45780864
0.3301239 0.19564772 0.4605994 0.51885885 0.29613018 0.19723195 0.31123617 0.80028135
0.1377733 0.57891476 -0.18781906 0.25573152 0.36190474 0.8109109 0.049923807 0.19550619
00000000: c4b7 ea3e 6fcb ab3e e5e1 943e a9f7 8b3e
00000010: 3cfc ff3e 2d70 113e c02a 193f ce99 a03d
00000020: eb07 19bd 55ff 303f 5e5c 1f3f 7716 273f
00000030: 3b92 e63e 10ae 603f f2bc e83e 89bd 7f3e
00000040: e4df 613e 4d12 bdbd 0d5e 363f b73e 21bd
00000050: e490 6f3e 6e0e 563f 0b8f f33d 52a3 e2bd
00000060: 066e 9d3e 43e6 983d e133 d53d 8c81 2f3d
00000070: ccf2 58be c8d6 0d3f 8a73 7dbd 10bb 0a3f
00000080: 1b32 f63e 6c26 bf3e e9fa ecbe f1fb 0a3e
00000090: 633d 49bd fa29 d03e ada1 a03d c5d8 0d3e
000000a0: 06c0 113d 40bf 953e ab9a ba3e c990 963e
000000b0: 5c91 87bd e14a c13e 9378 84bd fa2b b33c
000000c0: 5bb2 473f b7be a93e e6c0 333c 6618 0a3f
000000d0: a21b d63e d565 e63e eef7 693e a4ef d0bb
000000e0: 67ee d73e 5c7d 5c3e d5c4 a33e de96 f33e
000000f0: 30ae fb3e 60a8 093d 3aff e03e 5b11 843e
00000100: b9b7 47be 6ff6 31bd 7c72 d9bd 0fd3 38bd
00000110: 242b d23d 967d b4bd d549 51be 7854 2e3c
00000120: efa5 e7bd d397 2fbd e9dc f33d 480e cfbc
00000130: e644 b0bd 2ce4 5bbe 4727 933d 01da 2dbe
00000140: 3afc 26bd f993 87bd 6ca1 2ebe 670d 243c
00000150: 764f 833d 79ee c8bd d11e 1fbe 10b1 56bc
00000160: 4dfb 40bc 22af 4abc a32d 7dbe 1bee 873e
00000170: 309f 943d 4a4c a23d 2af1 c43e 4dc1 8abe
00000180: 540a 073f c93a dc3e 94ec c63e e00b 203f
00000190: 78cc 0f3f 62de a73e 397b d73e c1f5 b73e
000001a0: 868d 953d 45f9 853f d738 bb3e 9ed3 1f3f
000001b0: 8887 1d3e 8007 923e be3c 203f e565 ea3e
000001c0: 0006 a93e e057 483e afd3 eb3e efd3 043f
000001d0: 609e 973e 2cf7 493e 595a 9f3e 3ddf 4c3f
000001e0: 7214 0d3e c233 143f a453 40be 3eef 823e
000001f0: 944b b93e db97 4f3f e87c 4c3d c632 483e

lstm.bias_hh_l0 f4 [128]
0.5429615 0.41383246 0.2725003 0.030820146 0.65169245 0.04234571 0.34324417 0.05212263
0.0030968923 0.8432781 0.7941303 0.6256948 0.5790469 0.7229774 0.64149266 0.28077734
0.34056795 -0.02368169 0.38308352 -0.022072071 0.23812065 0.91383636 0.0606184 0.0751365
0.30380416 -0.08380113 0.087074645 -0.06455282 -0.00083103916 0.67186296 0.008649102 0.62591314
0.28016108 0.40542322 -0.26568106 0.2508803 -0.072847486 0.45774412 0.106848724 0.04420681
0.01869055 0.29532892 0.34918705 0.34230992 -0.044611346 0.26077783 0.12168253 0.013508525
0.65335244 0.35413477 0.014662217 0.7967335 0.4179731 0.6169309 0.31087834 0.05240072
0.407873 0.020971438 0.40235087 0.5050472 0.6871987 -0.038276367 0.33637744 0.47635856
-0.026063275 0.19676365 0.11002059 0.08827584 -0.058885615 0.03641764 -0.092902444 -0.18456933
0.0954512 -0.07295309 0.11379587 0.20223397 -0.045639936 -0.25795263 0.1681756 -0.06477839
-0.11685218 -0.2111107 -0.25228542 -0.07788113 -0.088991664 -0.07775772 -0.3097088 0.11504649
-0.17905162 0.12389379 0.016968483 0.16231292 0.16120756 -0.14136823 0.14792508 -0.17234664
0.30383837 0.4756821 0.5812732 0.6266383 0.48449585 0.32251984 0.5883452 0.34894946
0.1369979 0.8551583 0.501264 0.8410975 0.39383024 0.29654682 0.7577324 0.35093033
0.41858667 0.43135542 0.40386942 0.5634268 0.3425054 0.31102762 0.52329147 0.57380444
0.3364146 0.5421232 0.12963335 0.42120728 0.4121691 0.70733553 0.072025284 0.20488551
00000000: 86ff 0a3f d9e1 d33e 2985 8b3e 887a fc3c
00000010: 51d5 263f b272 2d3d b3bd af3e 8a7e 553d
00000020: 3bf5 4a3b 13e1 573f 204c 4b3f 892d 203f
00000030: 6b3c 143f 0c15 393f dd38 243f 0cc2 8f3e
00000040: ec5e ae3e 1b00 c2bc 8623 c43e 7dd0 b4bc
00000050: e6d5 733e 2ef1 693f 004b 783d 2ae1 993d
00000060: 388c 9b3e ed9f abbd 3154 b23d 4534 84bd
00000070: 18da 59ba 36ff 2b3f f7b4 0d3c d83b 203f
00000080: 4671 8f3e a293 cf3e 5907 88be 6273 803e
00000090: 1031 95bd 705d ea3e 81d3 da3d 3312 353d
000000a0: ed1c 993c 5a35 973e a5c8 b23e 3f43 af3e
000000b0: 63ba 36bd ac84 853e b134 f93d dc52 5d3c
000000c0: 1b42 273f 2751 b53e cc39 703c baf6 4b3f
000000d0: 9200 d63e 2fef 1d3f 722b 9f3e 23a2 563d
000000e0: bbd4 d03e 4bcc ab3c ef00 ce3e c64a 013f
000000f0: 41ec 2f3f aec7 1cbd aa39 ac3e 45e5 f33e
00000100: a682 d5bc 697c 493e 7a52 e13d f7c9 b43d
00000110: 0b32 71bd aa2a 153d a343 bebd beff 3cbe
00000120: eb7b c33d 6e68 95bd cf0d e93d 6c16 4f3e
00000130: f1f0 3abd 5e12 84be 3936 2c3e 88aa 84bd
00000140: 3250 efbd 672d 58be 8e2b 81be 2480 9fbd
00000150: 4341 b6bd 713f 9fbd 2792 9ebe 7f9d eb3d
00000160: 4f59 37be 07bc fd3d 7d01 8b3c 5c35 263e
00000170: 9813 253e d5c2 10be ac79 173e a37b 30be
00000180: b490 9b3e 9b8c f33e 52ce 143f 5e6b 203f
00000190: d70f f83e 5221 a53e cb9d 163f 81a9 b23e
000001a0: 2d49 0c3e a8eb 5a3f d652 003f 2a52 573f
000001b0: 1ea4 c93e fcd4 973e c0fa 413f 24ad b33e
000001c0: fe50 d63e 9eda dc3e f9c7 ce3e bd3c 103f
000001d0: de5c af3e 033f 9f3e 6ef6 053f d9e4 123f
000001e0: 893e ac3e 96c8 0a3f 9bbe 043e 7ba8 d73e
000001f0: d407 d33e f113 353f fe81 933d 82cd 513e

fc.weight f4 [3, 32]
1.8099074 -1.3204849 1.2651676 -1.8638157 -4.0796146 -2.4493606 -1.0911384 -3.340814
-3.6312575 2.6207361 0.2762809 -2.6966367 2.4787908 -0.7044266 4.3533053 -1.5084965
1.3150342 -2.2970293 4.0760403 2.1297736 -2.4602425 0.17957112 1.2165159 0.0785979
1.9998901 -3.5326757 -3.1303177 -0.44779605 -1.5795816 -5.891546 1.2083956 -1.9756129
-0.20649913 1.1379216 2.1789994 -3.057044 1.6035444 0.30565745 -1.100674 1.4213756
4.337745 0.6044935 -1.7491255 1.6390682 -0.2180483 -1.7981993 1.5470301 -2.4768302
-1.7834334 -1.4597023 3.2909465 -3.387906 -0.45315865 -3.038743 -1.8743538 -6.6454
-3.0571256 -1.2329824 2.7936175 1.5385207 1.5055977 2.529327 -3.3354805 4.146994
-1.4860767 0.31380165 -3.4038477 4.49946 2.3318484 1.6865941 2.0672386 2.0896225
-0.18530434 -2.9132445 0.95307624 1.0001051 -1.8101325 2.033216 -4.7771454 3.274971
0.056740306 3.3112667 -6.2542725 1.0789875 2.5951607 2.3534873 0.7575581 5.2432704
0.48166132 4.3603163 0.09093525 -0.7595553 0.25332195 2.4082654 1.8129547 -1.4747312
00000000: 0cab e73f a605 a9bf 03f1 a13f 8391 eebf
00000010: 348c 82c0 53c2 1cc0 6caa 8bbf e6cf 55c0
00000020: 8666 68c0 24ba 2740 b174 8d3e b295 2cc0
00000030: 82a4 1e40 4d55 34bf 474e 8b40 6a16 c1bf
00000040: 0a53 a83f 8702 13c0 ec6e 8240 364e 0840
00000050: 9d74 1dc0 7ee1 373e cbb6 9b3f f0f7 a03d
00000060: 66fc ff3f 5c17 62c0 2057 48c0 8645 e5be
00000070: bb2f cabf 8b87 bcc0 b5ac 9a3f e2e0 fcbf
00000080: 8274 53be 6aa7 913f ba74 0b40 9ca6 43c0
00000090: f140 cd3f 227f 9c3e e3e2 8cbf a3ef b53f
000000a0: cfce 8a40 16c0 1a3f 58e3 dfbf fdcc d13f
000000b0: 0e48 5fbe 652b e6bf 1505 c63f 6384 1ec0
000000c0: 8c47 e4bf 86d7 babf de9e 5240 74d3 58c0
000000d0: 6904 e8be c47a 42c0 d3ea efbf 1ea7 d4c0
000000e0: f2a7 43c0 5ed2 9dbf a1ca 3240 3fee c43f
000000f0: 6db7 c03f 7ee0 2140 8378 55c0 2db4 8440
00000100: c337 bebf 9caa a03e a4d8 59c0 94fb 8f40
00000110: 013d 1540 51e2 d73f a34d 0440 60bc 0540
00000120: 6cc0 3dbe 9972 3ac0 cefc 733f 7203 803f
00000130: 6cb2 e7bf 3620 0240 60de 98c0 2099 5140
00000140: 8668 683d cbeb 5340 0023 c8c0 431c 8a3f
00000150: 1d17 2640 899f 1640 54ef 413f dfc8 a740
00000160: 509c f63e b687 8b40 433c ba3d 3772 42bf
00000170: 6ab3 813e 0521 1a40 e60e e83f fec3 bcbf

fc.bias f4 [3]
-0.16901153 0.2281953 0.24739914
00000000: 5c11 2dbe 07ac 693e 3356 7d3e
