fut_opt_lih_features_prepare/best_model_3.pth (torch, 25403 bytes, 7 tensors)

embedding.weight f4 [19, 8]
00000000: dfb4 7abf 3163 80bf 878d 3540 a3a7 77bf
00000010: 1a01 e8bf 155d 43bf 92a8 cfbf 349a cabe
00000020: 28a7 4ebf 7d6c 353f f96e cc3f cc13 6f3f
00000030: dab2 32be 4352 363f 5980 fbbf 7413 b5bf
00000040: ea2f 12c0 20e9 3340 f035 a43f 9a9c 71bf
00000050: c721 da3f 23f8 7dbf aa6a cf3e 16c8 2c3f
00000060: e3cf ab3f 45b5 ab3f 6d5a 0fbf 693d 1d40
00000070: 84a1 a5bf c043 7dbf ad87 5c3f 698b 923f
00000080: 491f 43bf f72e 7a3f 8c12 f43e 643e 153f
00000090: fed9 b33f 7275 1a3d 5762 23c0 ebdc 333f
000000a0: bffb ad3f 62aa b73f 700a 643f f392 cebe
000000b0: 9a41 1a40 1c6c 7d3f caa2 933d be52 433f
000000c0: 7f38 ac3f 27d0 1c40 e420 31bf 213b 4f3f
000000d0: 3874 d2bf 8acd fb3f 5c5f a2bf 7fe2 923e
000000e0: 42fb 58bf 992b 2140 b2a4 9b3e 0c62 82bc
000000f0: e11f a1bf a260 e6bd 9daf b43f 3ffd 47bf
00000100: 8417 d1be 4535 5bbf 8596 90be 6197 1cbf
00000110: d238 8bbf d38e e53e 5cc9 4d3e 4531 2e40
00000120: 060b 8abf 63ff 1040 344e d4bf 0ccb c5bf
00000130: 9fb9 383e 9f62 12bf 192e 263f 6b2d 123f
00000140: 6b1f 983f 72f1 d9bf 562c 0fbf c989 89be
00000150: 7c93 83be bc1a 713f defd 2abf 8677 073f
00000160: 4772 34be 8e9e 3fc0 cfe2 0bbf 7d0c a33d
00000170: 4e1e 17bf 5192 5dc0 741d 0e3f 6d1e c6be
00000180: 2d22 bfbf b727 eebf 8efb b33e 01d2 893f
00000190: 1048 7e3d 1e69 893d 6a07 de3e 8eb9 14bf
000001a0: d27e 71bf c83c 723f bf88 333f 5912 a1bd
000001b0: d68b 01be 6087 323f c3b9 623f 9f95 cfbf
000001c0: 2587 9c3f 3b56 e0bd 5b20 413e 8c2c dcbe
000001d0: 3ed8 d9be d97d 2240 f559 c43e 36d0 923f
000001e0: 17b1 ec3e 6850 163f cf7d 95be 2fb9 a6be
000001f0: 6df5 833f 4a90 a7bf 5032 c23f f9eb d1bf
00000200: 12ba 89bd c5bb 1340 6afe 98be f6c1 23bf
00000210: b92e 8a3e 7cbc c7be 049c 3bbe c7cb 0140
00000220: 2643 843f d3ff dcbd e1b6 853f b757 f3bf
00000230: f6f5 d2bc 189c adbf 96cd 7abe f598 593e
00000240: c0c4 34bf f14b 04c0 b6e5 383e 9166 213f
00000250: 6082 993f 7791 5dbf ffe2 b53b 83a6 453f
-0.9793224 -1.0030271 2.8367631 -0.9674017 -1.8125336 -0.76313907 -1.6223319 -0.39570773
-0.8072381 0.70868665 1.5971366 0.9338958 -0.17451039 0.7121927 -1.9648544 -1.4146562
-2.2841744 2.8111038 1.282896 -0.9437958 1.7041558 -0.9920675 0.40511066 0.67492807
1.3422817 1.3414694 -0.55997354 2.4568732 -1.2939916 -0.98931503 0.86144525 1.1448795
-0.7621961 0.9772791 0.476704 0.58298326 1.4050901 0.03770966 -2.5528772 0.7025897
1.3592452 1.4348872 0.89078426 -0.40346488 2.410254 0.98993087 0.07208784 0.7629813
1.3454741 2.4502046 -0.6919081 0.809496 -1.6441717 1.96721 -1.2685351 0.28688428
-0.8475839 2.518286 0.3039909 -0.015915893 -1.2587854 -0.112489 1.4116093 -0.781208
-0.40838253 -0.8562816 -0.28239837 -0.61168486 -1.0876715 0.4483553 0.20096344 2.7217572
-1.0784614 2.2655876 -1.6586366 -1.545259 0.18039559 -0.57181734 0.6491409 0.5710055
1.1884588 -1.7026808 -0.55927026 -0.26862934 -0.2569846 0.9418142 -0.6679362 0.52916753
-0.17621718 -2.9940524 -0.5464296 0.07961366 -0.59030616 -3.4620554 0.5551369 -0.38695088
-1.4932305 -1.860587 0.35152858 1.0767213 0.062080443 0.06709503 0.4336503 -0.58095634
-0.9433414 0.94623995 0.7013053 -0.07864828 -0.12651 0.69737816 0.885647 -1.6217536
1.2228743 -0.10953947 0.18859999 -0.43002737 -0.42547792 2.5389311 0.38349882 1.1469791
0.4622886 0.5871644 -0.29197547 -0.3256316 1.0309273 -1.3090909 1.5171604 -1.6400138
-0.06724943 2.3083355 -0.29881603 -0.63967836 0.26988772 -0.3901099 -0.18321234 2.0280626
1.0332992 -0.10790982 1.0446435 -1.9011143 -0.025752049 -1.3563261 -0.24492487 0.21249755
-0.70612717 -2.067135 0.18056378 0.6304713 1.1992912 -0.86550087 0.0055507417 0.772072

lstm.weight_ih_l0 f4 [128, 8]
00000000: 2604 dfbe 0379 40be 8d9f 8c3e f494 0d3f
00000010: 887f cabe 2c07 5a3d 1fb4 033f 17d4 2bbf
00000020: 4988 0bbe 8d8b 823d 1764 3f3e 8c57 063e
00000030: 7519 163f 1484 e93d 9cd6 a6bd 622f 11be
00000040: 76b8 45be 0c7b 92be ea83 333f db8f c4be
00000050: 02e9 dcbe 052d e6bd 557f b1bd 9986 0e3f
00000060: 47d9 f03e cb66 153d 6263 8bbe 0d04 853e
00000070: 3b19 51be 65e8 833e 173d 34bf 83c5 cb3e
00000080: aaa4 993e 989d 9cbd 27ca 55be 5ca2 6b3e
00000090: 6a1c a23e 0b92 8b3e 1539 7cbe ed70 2bbf
000000a0: 6a41 e2be 82d7 183e 124e 8d3e 9e3e c6be
000000b0: 99bf 873d 4dc7 08bf d2d2 f9be d45a 9b3e
000000c0: e929 933e b44d 98bd 0d62 153f 3b58 2fbe
000000d0: 8c39 66be 877a 37be 8c20 6abc 135d 633e
000000e0: 27a9 c83e c87a 52bf 94e4 833e 573c 2a3e
000000f0: 231f 04bf 5ecb 7ebe 8e38 bcbe bdb4 b13e
00000100: 1b0b 6f3e 1039 53bd bbe4 a93e 626a 55be
00000110: f4cf 033e d8d4 f0be eb9f c1bb 1d63 1cbe
00000120: 5d15 2d3d 5d78 b43e a5c5 da3e 11d0 d63e
00000130: ff80 31bf 7deb b73e c5bb 7ebd ea9b e53c
00000140: e455 9abe 55cd 2cbe d3da 66bc 7446 f2be
00000150: f305 073e 8051 583d dc74 b03d b26e 8d3e
00000160: a280 3dbf 16de 563e 6099 273e 84c9 113e
00000170: 339d 2dbe 1ca1 193f cc49 94be b607 0a3f
00000180: 620a f2be b407 2f3f c5bc 193f 0094 653e
00000190: 0488 d23e ce3e 63be 4709 1e3f 3b81 c23e
000001a0: 0cba 6f3d 2906 013f ce8e 26be 9f4c dfbd
000001b0: a077 063d 4503 bcbd 8363 633e 73d7 0cbe
000001c0: 56e8 39bf 601c 0d3f 33dc 143d 61a2 543e
000001d0: d63e 05bf 5e58 d8be 0c9c 0b3e 85ec 13bf
000001e0: 92a0 043e 75d8 0e3f 71ab a23e 7998 fc3d
000001f0: 0c6c 023c e6b8 e33e b6e6 92be 0dbc 5fbe
00000200: 625d bebe b4d8 543f 46bb 793e 7510 2fbe
00000210: 1e41 07bf c700 1dbf 3745 cb3d 24c8 313e
00000220: ed95 313e 5e39 d0be 0f1a ce3b a7cc a33e
00000230: a0e3 00bf eba1 1abe 7bf8 7c3e 9457 cabe
00000240: eb15 2bbe 1e3e 7fbd 305a a33f d7c3 193f
00000250: a3ed b2be 2e4b 0abf c7e0 d93c c6fe aebe
00000260: efa9 073f 0279 1bbf 83ef 193f 71f6 c8be
00000270: 96ba 0ebf 36b8 1dbd 36ab 0fbe 377e 093e
00000280: aeee 98bf 4fbb 373e c489 f33d e2c2 5dbd
00000290: b57a 5a3e ba51 fdbc e132 3dbd a10a cdbd
000002a0: 8eff eb3e 5d91 d2be 7119 b4bd 9058 83be
000002b0: a815 2e3f af46 383f eb15 b6be 685a 6c3f
000002c0: b157 a5bd 2c0b acbe 4cad 083f 8268 12bf
000002d0: 35ed 40be ef00 b8bd bb17 a1bf 0fe9 3e3f
000002e0: 2bd4 15bf 8cfa 80be 66c2 a4be 00f9 eebd
000002f0: 8a52 34be 4340 0dbf e774 cfbd 63cf d7bd
00000300: 9893 073f ac82 263f 17d5 09bd 17b0 07be
00000310: 8fd0 8dbe e24a 2dbe c547 283e 8186 3b3e
00000320: cae6 cbbe 6d16 883d 7062 2d3f 5dcc 50bf
00000330: 7348 81bd 6ed4 77bf 309d 0e3f c99b 16be
00000340: 2f25 af3e d7d4 c7be a1d3 f4bd 303d 7f3d
00000350: 59e5 383e ee2f 273b ae75 2dba 1298 033f
00000360: 5278 97be 898d f5bd d5b7 91be 5db6 16bf
00000370: 8606 cabd b8e4 273e 0f5d 96be 291e fb3d
00000380: 369d dfbe b56b 043f eac2 a13d 3620 12bf
00000390: e179 65be 6027 1bbf e2a2 803e 2679 0e3e
000003a0: 69f2 83be 87c6 2dbd 15b8 1c3e 5d9d 2abf
000003b0: 4ec8 813e 2311 7bbf 97c5 8fbe f7f3 07be
000003c0: b5c4 063f bae4 113f 0579 cf3d 2927 b3be
000003d0: 6045 afbe 98bd 56be 3768 843f 5631 ab3e
000003e0: d5cf 663e a828 2cbd 43ab 1a3f 09f4 163e
000003f0: 031a 13bf d708 71be 8425 1ebd 96dd 393e
-0.43557853 -0.18796162 0.27465478 0.5530541 -0.39550424 0.053229496 0.5144672 -0.671205
-0.13626207 0.063742734 0.18690525 0.13119334 0.58632594 0.11402145 -0.08146402 -0.14178231
-0.19308648 -0.28609502 0.7012316 -0.38391003 -0.4314652 -0.112390555 -0.08666865 0.5567413
0.4704077 0.036474984 -0.2722426 0.25979653 -0.20419781 0.2576324 -0.70405716 0.39799127
0.3000844 -0.07647246 -0.20877896 0.23011154 0.31662303 0.2725986 -0.2463115 -0.66969186
-0.44190532 0.1492596 0.27598625 -0.38719648 0.06628341 -0.5342911 -0.48793656 0.30342734
0.28742912 -0.07436696 0.5835274 -0.17123501 -0.2248289 -0.17917834 -0.014289986 0.22203474
0.39191553 -0.822186 0.2576033 0.1662458 -0.5161001 -0.24882266 -0.36761898 0.34708205
0.2334408 -0.05156809 0.3318232 -0.20841363 0.12872297 -0.47037387 -0.0059089563 -0.15272184
0.0422567 0.3524808 0.42728916 0.41955617 -0.6933746 0.3592185 -0.06219079 0.028028447
-0.30143654 -0.16875203 -0.014090258 -0.47319376 0.13185863 0.0528121 0.08616039 0.27623516
-0.74024403 0.20983157 0.16367102 0.14237028 -0.16954498 0.6001146 -0.28962553 0.53918016
-0.47273546 0.6837113 0.60053664 0.22419739 0.41119397 -0.22191927 0.61732906 0.3798922
0.058527038 0.50400025 -0.16265413 -0.10903286 0.032828927 -0.09180311 0.2220593 -0.13754062
-0.7262014 0.5512142 0.03634281 0.20765068 -0.52049005 -0.4225492 0.13633746 -0.57782775
0.12951878 0.5579904 0.31771424 0.12333769 0.007960331 0.44477004 -0.28691643 -0.2184908
-0.3718062 0.8314316 0.24387845 -0.17096122 -0.52833736 -0.6132931 0.09925311 0.17361504
0.17342348 -0.40668768 0.0062897275 0.31992075 -0.5034733 -0.1510083 0.24704163 -0.39519942
-0.1670758 -0.0623151 1.2761898 0.6006445 -0.34946927 -0.54020965 0.02659644 -0.34178752
0.52993673 -0.6073152 0.6013109 -0.3925052 -0.5575346 -0.038505755 -0.14030156 0.13427053
-1.1947839 0.17942546 0.11891511 -0.054140933 0.21335872 -0.03092276 -0.0461911 -0.10011793
0.4609341 -0.41126528 -0.08793915 -0.25653505 0.68001795 0.71982855 -0.35563597 0.9232545
-0.080733664 -0.33602273 0.5338943 -0.57190716 -0.18840487 -0.08984553 -1.2585367 0.7457437
-0.5852687 -0.25191152 -0.32179564 -0.11668587 -0.17609611 -0.5517618 -0.10129719 -0.10537603
0.52959585 0.6504314 -0.033650484 -0.13250767 -0.2769818 -0.16923097 0.16433628 0.18313028
-0.39824516 0.066449024 0.6772833 -0.81561834 -0.06312647 -0.96808517 0.557086 -0.14707865
0.34208056 -0.3902957 -0.119544275 0.062314212 0.18056239 0.0025510746 -0.0006616962 0.51403916
-0.29583985 -0.11989886 -0.28460565 -0.58872014 -0.098645255 0.16395843 -0.29367873 0.12261612
-0.4367463 0.5172685 0.07898505 -0.570804 -0.22409774 -0.60606956 0.2512427 0.13913402
-0.25770882 -0.04242566 0.15304597 -0.6664637 0.25348133 -0.98073024 -0.28080437 -0.13276659
0.526439 0.56989634 0.101305045 -0.34990814 -0.34232616 -0.20970762 1.0344304 0.33436078
0.22540219 -0.04203096 0.60417575 0.1474153 -0.57461566 -0.23538528 -0.038609996 0.18150935

lstm.weight_hh_l0 f4 [128, 32]
00000000: a8e3 2fbf 15d4 ba3f 5615 f9be 9c1d c1bd
00000010: 562b 19bf f90e bc3d 8a9c 39bc 2beb 67bd
00000020: 5277 413e 9f67 b7bd dcdf 0c3e 0c88 ef3e
00000030: ad04 6abf 946a c83e c907 ee3e 1516 61ba
00000040: 7521 14be 710b 17bf 6d2f 30be 2857 cebe
00000050: e0f2 043f 3dc6 cbb8 c7b7 0b3e d1ba a6be
00000060: efc8 92be 7aa4 54bf d4ab cdbe ede6 1b3f
00000070: 934d 8b3e 9cd5 aabe ac37 22bf d680 353e
00000080: ac99 143f 950f 143e 3367 35be 75de 603f
00000090: 282e b33e 495b 07bf 47fc 0c3f 06de 9ebd
000000a0: 0ed1 43bf 8fab 3fbe 865e e1bd 25cf d73d
000000b0: 47cd 5bbe 928f 6f3e 1e95 233e c243 943e
000000c0: 507a 87bf 8a28 f6bd 1d6c 34be 688a 8ebf
000000d0: 2ea5 a23e 8c9b 76bf f83d 723f d642 52bf
000000e0: d210 2ebf b6c2 edbd e59e f3be 929c 83bd
000000f0: d823 913e faab 2ebe 2dc0 4d3f 4e5a 04bd
00000100: a33e d83e 91fc 4c3e 637c 493e 3642 623d
00000110: dc2f a93f 9c5e 853a b720 58be 73e6 98be
00000120: b671 5ebe 4cbf 85be e3dc 9c3d db4d 063f
00000130: bbbb eabe 9be8 96bb a3fa 5e3d a00e 3b3f
00000140: bea3 5cbf a859 cd3e 75b1 9b3e 9676 7e3f
00000150: aaf4 de3e becb b2bf cc21 843e 2ede a23f
00000160: e9ea ba3f f047 cb3e c126 a2be 1868 16bf
00000170: f5f8 6b3d fff7 43bf eeef 34bf d52e 113f
00000180: 4de5 50bf 29e3 32be 41e3 183f dcd5 7b3e
00000190: 6655 a5bd 2612 82be 0903 00bf 14c2 34bf
000001a0: d4ba 1e3e 3c82 3f3f 6a2a 0d3e 5ded 353f
000001b0: 5a7a 333e 5715 d33e f798 523f 83d5 a33d
000001c0: 9738 c4be ebde 383e 744b 74be b528 a63e
000001d0: 07a9 483f c173 c0bd ceb1 b5be 36da 0f3f
000001e0: 7081 073f 7c74 8bbe 8316 20bf 4f49 e43e
000001f0: d632 62be f269 b1bc b00b 963d 5ad5 853e
00000200: e183 67bf d128 0a40 d7de 72bd 9ebc c73e
00000210: 5221 173c bfbf 30bf 35d9 19bf 24b7 7abf
00000220: 6036 a73e a552 673e ad89 5f3f 42f0 793f
00000230: 49b9 0ebf 3732 613e da33 123f 4b9e fd3d
00000240: dc69 91be 6ab0 1dbe 165e 813d 1117 8f3e
00000250: f9ff db3f 7945 05bf c2da 5dbf 4241 13bd
00000260: 0e64 5e3f afa1 16bf 5c3a febd 6c28 2c3d
00000270: 4d5a a13e 64c3 2dbe edd2 2a3f 6a8f e33e
00000280: 8c94 51be 3ad3 07be 8c9c 233e b673 9dbe
00000290: 85cf 863f c25e 82be c1ec 15bf 5339 0bbf
000002a0: 1085 d5be f6de c73e 8e97 1abe cd2d c23e
000002b0: 3bac 4a3f 7d73 95be 70be a33d 741f 2b3f
000002c0: 8c8f c0be 5213 413f d189 aebe cc5f af3e
000002d0: 516d 53bd 4fd9 273f f15e 16bf 57db a93e
000002e0: a31e e43e d4b9 60bf 40f2 8e3f 3a18 90be
000002f0: e241 9fbe 5a9a ab3d e75a cebd 71ac c3be
00000300: f098 073e 3880 00bf 6cba 5fbf cb26 333f
00000310: 2d65 173f d18d 42be dd37 e7be 4104 27be
00000320: c102 09bf 9af3 cb3f 3cd9 6b3f 9801 093e
00000330: 788a 3c3e 874b 96be d968 2ebe 5e72 913e
00000340: 10ce 983f 74b9 18be f1fc 1c3e 57c9 dd3e
00000350: b61a f3be 633c ee3e b526 24bf e66c 273f
00000360: 4374 1f3f 7fd3 a43d f797 f5be c829 cfbe
00000370: 024c 8ebf 21fe 423f 4b82 53be 9358 1d3d
00000380: e050 353f 41c4 eabe 06ae 383f 1144 5c3f
00000390: d429 933f e32a 1fbe da8c 3cbd 58e2 1ebd
000003a0: d160 df3e b0c3 05bf e463 7abf 2037 34be
000003b0: c92c 153f bb12 a9bc a1ac b03d 724b 143e
000003c0: 5c71 39bf bd7a cbbe fc6f ce3f d393 b83e
000003d0: 3127 dabd 7a53 c0bc a8d3 f33e 00e6 573e
000003e0: d584 203f 3f98 103f 7774 c43e c9fe cabe
000003f0: abee 74bf 7f83 563f 29dd 583f 2e00 153f
-0.6870675 1.4595972 -0.4864909 -0.09429476 -0.5983175 0.09182543 -0.011328826 -0.056620758
0.18893173 -0.08955311 0.1375727 0.46783483 -0.91413385 0.39143813 0.46490315 -0.00085863593
-0.14465888 -0.59001833 -0.17205591 -0.4030087 0.519331 -9.716719e-05 0.13644324 -0.32564405
-0.28668925 -0.8306347 -0.40170157 0.6089924 0.27207622 -0.33366096 -0.633662 0.17724928
0.58046985 0.14459069 -0.17715149 0.8783944 0.34996152 -0.52873665 0.55072445 -0.07757191
-0.7649087 -0.18717788 -0.11004357 0.105375566 -0.21465026 0.23394611 0.15974852 0.28957945
-1.0584202 -0.12019451 -0.17619367 -1.1135988 0.31766647 -0.96331096 0.94625807 -0.82133234
-0.67994416 -0.11609404 -0.47582164 -0.06426348 0.2834766 -0.17057791 0.8037136 -0.032312684
0.42235288 0.20018221 0.19676356 0.055238925 1.321773 0.001017529 -0.2110623 -0.2986332
-0.21723065 -0.2612251 0.07659318 0.5246255 -0.45846352 -0.0046053655 0.054438245 0.7306919
-0.8618735 0.40107465 0.30408826 0.993997 0.4354604 -1.3968427 0.25807035 1.2724054
1.4602939 0.3970332 -0.31670192 -0.58752584 0.05761047 -0.76550287 -0.70678604 0.56712085
-0.81599885 -0.17469467 0.5972176 0.245933 -0.08072929 -0.2540447 -0.5000463 -0.7060864
0.15500957 0.74808097 0.13785711 0.7106531 0.17527142 0.41227219 0.82264656 0.079997085
-0.38324425 0.18053786 -0.23856908 0.32452932 0.78382915 -0.09397078 -0.35487217 0.5619234
0.5293188 -0.27237308 -0.6253435 0.4458718 -0.22089705 -0.021656964 0.07326448 0.26139337
-0.90435606 2.1587412 -0.059294548 0.3901109 0.009224253 -0.6904258 -0.60097057 -0.979357
0.32658672 0.2259012 0.8731945 0.9763223 -0.5575147 0.21991812 0.5711037 0.123837076
-0.28401077 -0.15399328 0.063167736 0.27947286 1.7187492 -0.5205913 -0.8666192 -0.035950907
0.8687142 -0.5884046 -0.12413475 0.042030737 0.31514207 -0.16969067 0.667281 0.44445354
-0.20466822 -0.1326417 0.15977687 -0.30752343 1.053208 -0.2546292 -0.5856438 -0.54384345
-0.4170308 0.39037293 -0.15096876 0.37925568 0.7916905 -0.29189673 0.079953074 0.6684487
-0.37609518 0.75420105 -0.3408952 0.34252775 -0.051617924 0.6556596 -0.5873862 0.33175156
0.44554624 -0.8778355 1.1167679 -0.28143483 -0.31104952 0.083790496 -0.10075932 -0.382175
0.13241935 -0.50195646 -0.8739383 0.6998107 0.59138757 -0.18999411 -0.45159808 -0.16310216
-0.5351983 1.5933716 0.9212835 0.13379514 0.18412197 -0.29354498 -0.17032184 0.28407568
1.1937885 -0.14914495 0.15330864 0.43317673 -0.47481316 0.46530446 -0.6412156 0.6540054
0.62286776 0.08048152 -0.47967502 -0.40461564 -1.1116946 0.7616902 -0.20655172 0.03841455
0.7082653 -0.45852855 0.7214054 0.8604136 1.149714 -0.15543704 -0.046032764 -0.038790077
0.43628553 -0.5225172 -0.9780867 -0.17599154 0.5827146 -0.020638814 0.08626676 0.14481905
-0.724386 -0.3974208 1.6127925 0.3605028 -0.106520064 -0.023477305 0.47622418 0.21083832
0.62702686 0.5648231 0.38370106 -0.3964751 -0.9567668 0.837944 0.84712464 0.582034

lstm.bias_ih_l0 f4 [128]
00000000: 7761 4f3d 4040 0a3e 292b 903e 367e b03e
00000010: 8a64 983d ae2d 143f 7b77 4d3f 52b1 163f
00000020: b909 3c3f 463c 543e b875 493d 1916 413e
00000030: 75c5 213f f413 d5bd 66a5 883e 0dc5 9b3e
00000040: 1451 053f 6544 d43e c792 ff3e 1b70 463f
00000050: 4f23 bdbe ced0 673e c579 113e 4dfa 653e
00000060: d925 663e 3061 363f 2296 b13e 0b41 0b3f
00000070: e093 523e 03c7 4a3e 9a4f 2d3f 42d2 163f
00000080: d42a 193e cb3d 073f ba07 783e ded7 1c3e
00000090: e709 7d3e dfd7 a23e 3be0 553e 3e18 c03e
000000a0: d473 0f3f 9c5a ff3c ae5f f33e cc14 373e
000000b0: 642e 013f 4b82 72be 966b 50bd cca5 113f
000000c0: 7450 f43d 13e2 aa3e 1e95 e63e c5ed 2c3e
000000d0: b16c a33e a319 c73e 4bff 183e 50b0 a23c
000000e0: dc3c 0f3e 00fe 8a3e 83f3 ebbd 1929 c33b
000000f0: 2143 6f3e 8f79 d43d 81ea 973e 5d1b 343e
00000100: 3097 393e 2cc1 493e 9026 1f3a 8ce1 4e3e
00000110: 4190 183e e5ea a7bd 19e7 f4bd 5cf8 45be
00000120: 4811 9bbd 9a3a c73e d198 3e3d e215 383e
00000130: 04d0 7cbe cfd5 6abc db77 843e dfe3 79bc
00000140: 9e0f 3fbe 13f2 6d3d 66b9 213e ad31 d8bd
00000150: cd43 d13d b558 0bbe 3659 3cbe 8a39 873d
00000160: 3dca 743c b172 bbbd 25f7 8e3e 71f0 0cbc
00000170: 8e5a 993e 5935 543c 5a2e 3f3e b5e8 fd3d
00000180: 3a29 c53e 1752 343e bce0 103f 6454 c63e
00000190: e8e6 953e 1dc6 033f f642 483f 9379 933e
000001a0: 9dcc 833e 064c 2a3f 56b4 2c3e 7cbd 263e
000001b0: dc46 193f 24a8 a13e fdab 393e 2d0f 913e
000001c0: 120a dd3e ade9 fd3e 5190 e83e 908a db3e
000001d0: f48a 693d 3db0 d43e b86b 1b3f a0f2 cd3e
000001e0: 0fef ac3e 9e0e 9c3f f141 9d3d c3bd 003f
000001f0: 16a5 ee3e 8784 933e 693f 133f 5a42 303f
0.05063006 0.13501072 0.2815793 0.3447129 0.07441051 0.578822 0.8026044 0.5886432
0.73452336 0.20726117 0.04918453 0.18856086 0.6319192 -0.104041964 0.2668869 0.30423775
0.5207684 0.4145843 0.4991667 0.7751481 -0.36941 0.22638246 0.14206608 0.22458763
0.22475375 0.71242046 0.34684855 0.5439612 0.20564222 0.1980248 0.6769959 0.5891458
0.14957744 0.52828664 0.24221697 0.15316722 0.24710809 0.31805322 0.20886318 0.37518495
0.56036115 0.031171136 0.47533935 0.17879027 0.5046141 -0.23682515 -0.050883852 0.5689361
0.11929408 0.33375606 0.45035642 0.16887577 0.31918862 0.38886747 0.14941137 0.019859463
0.1398806 0.27146912 -0.115210555 0.005955827 0.23365451 0.10374748 0.296711 0.17588563
0.1812408 0.19702595 0.0006071115 0.20203227 0.14898778 -0.081990995 -0.11958141 -0.19333023
-0.075716555 0.38911897 0.046532456 0.17977098 -0.24688727 -0.0143332025 0.25872692 -0.015252083
-0.18658301 0.058092188 0.1579338 -0.1055635 0.1021801 -0.13608058 -0.18393406 0.066027716
0.0149407955 -0.09152735 0.2792293 -0.008602248 0.299519 0.012952172 0.18670025 0.12397901
0.38508016 0.1760944 0.5659292 0.3873626 0.2927773 0.5147417 0.78227174 0.2880369
0.25742045 0.6652225 0.16865668 0.1628322 0.5987375 0.31573594 0.18132015 0.2833189
0.43171746 0.49592343 0.45422605 0.42879152 0.05701728 0.4154071 0.6071124 0.4022417
0.33776137 1.2191961 0.07678593 0.50289553 0.46610326 0.28812048 0.5751863 0.68851244

lstm.bias_hh_l0 f4 [128]
00000000: 47e9 8c3c 20bf ab3e 1110 ac3e b615 243f
00000010: 2d88 fd3c d6e1 ce3e e904 6b3f 9458 333f
00000020: 977d d93e 832b f53e 1a4e 4d3e 62d6 b83e
00000030: 5bf7 123f aa3f 8bbb cbc5 403e b5ea 123e
00000040: c845 483e 5750 013f 83ef ef3e ff4d 363f
00000050: 4ebd 6cbe 572c cc3c 7327 083e c04b 9e3d
00000060: 720a 723e 1433 263f 820e f03e f189 ea3e
00000070: 15a7 a83e 0cc4 273d be24 263f 04ce e33e
00000080: 11de 853d 8133 2b3f 5b1e 863e 2a8b 103e
00000090: 370d ff3c b507 723e 4267 253d db0a 333e
000000a0: c92a c63e 7214 233e 6c66 8c3e 8e50 443e
000000b0: 7405 fc3e 8479 e7bd b3b3 66bc dbc5 913e
000000c0: 6a8c d33d a9ca 983e 9deb 033f c75c ac3e
000000d0: 8524 223e 9170 ca3e c9dd fa3d b959 8c3e
000000e0: efbd 263e 95eb 703c 97f7 a63d 1fa0 243e
000000f0: 153c 543e ffce d13b fa7e c13c 5511 473e
00000100: e0db d23b 1c84 713e c94b 6d3e 448b 273e
00000110: 3e32 4c3d 34a5 8bbe a9f5 0f3d 0d3b 48bd
00000120: 53b7 633d 566f 553e bd73 34bd c1f4 893e
00000130: 1515 c3be e6f4 61be 2207 a63e 099e 3abd
00000140: b739 a7bc c44e cb3c f43a 1c3e 8151 7d3d
00000150: 8c84 f0bb 793b 3e3d 2a19 aabe d051 a73d
00000160: fc84 f03d 0deb a3bd d34e aa3e 5bc9 8c3e
00000170: 3b88 513e 051f bbbd 1566 c03e 54a0 773e
00000180: 4401 cb3e 9daf 8a3e 6bbd 393f 29dc 203f
00000190: bc1d a03e 5891 2b3f fab0 213f a8ff 073f
000001a0: 972c 3f3e 4f99 fe3e 2691 853e c6ab 613e
000001b0: 8432 313f 846e 493e f134 0ebc 29a3 a53e
000001c0: 6ea1 603e b490 1a3f f4b2 1e3f 5a6c 9c3e
000001d0: 45e5 033e 37c1 213f 0059 403f 1e15 a83e
000001e0: 1c6c 833e d173 753f e7f8 a1bd efa7 f13e
000001f0: 72a6 2c3f 6bc1 b43e 1db2 183f 92ab 0c3f
0.017201079 0.33544254 0.33606008 0.6409563 0.030948723 0.40406674 0.9180437 0.70057034
0.4247863 0.4788476 0.20049325 0.3610106 0.57408684 -0.0042495327 0.18825452 0.14347346
0.1955787 0.50513214 0.4686242 0.7121276 -0.23119089 0.024923487 0.13296299 0.07729292
0.23636797 0.6492169 0.4688607 0.45808366 0.32939973 0.04095845 0.64899814 0.44493115
0.065364964 0.66875464 0.26195034 0.14115587 0.031134231 0.23635752 0.040381677 0.1748461
0.38704517 0.15925768 0.27421892 0.19171354 0.4922291 -0.11302474 -0.01408093 0.28471264
0.10329516 0.29842117 0.5153139 0.33664533 0.15834244 0.39539006 0.122493334 0.27412203
0.16283391 0.014704605 0.08152693 0.16076706 0.20726044 0.0064028497 0.023620117 0.19440205
0.0064349025 0.23585552 0.23173441 0.1636172 0.049852602 -0.27274477 0.03514639 -0.04888444
0.055594753 0.20843253 -0.04405569 0.26944545 -0.38102022 -0.22066078 0.32427317 -0.04556087
-0.020413263 0.024817832 0.15256864 0.061845306 -0.0073400196 0.046443436 -0.33222324 0.08169901
0.11744115 -0.08003817 0.33263263 0.27497372 0.20462124 -0.09136776 0.37577882 0.24182254
0.39649403 0.27087107 0.72554654 0.6283594 0.31272686 0.6701865 0.6316067 0.53124475
0.18669353 0.4972634 0.26087302 0.22038183 0.69217706 0.19671065 -0.008679614 0.32351044
0.2193658 0.6037705 0.6199181 0.30551416 0.12880428 0.6318545 0.75135803 0.3282861
0.25668418 0.95879847 -0.079088025 0.47198436 0.67441475 0.35303816 0.5964678 0.54949296

fc.weight f4 [3, 32]
00000000: e162 0a40 a1d0 f03e a00a d8bf b5fa 53bf
00000010: bc90 2dc0 8ee8 84be 7cad 82c0 e132 3bbf
00000020: 97c9 e9bf 5b71 0d40 9c9e 583f 91ef b1bf
00000030: 7b01 8440 e997 f03f f261 fabf a605 523f
00000040: 8bb3 4940 089e 0e3e 0781 1740 2cbe 2540
00000050: c488 11c0 3ed5 15bf a5e2 87c0 0836 10c0
00000060: 5d61 28c0 3e6d f63f b9c2 2440 cc27 48c0
00000070: 415f 19c0 f6da bfbd d9d2 34bf 5acf a1be
00000080: 26c2 85bf ecb9 e13f 94c1 b840 1f65 22c0
00000090: 0422 3440 522e bbbf d1e8 0440 0ce0 9c40
000000a0: 045d 7c40 39ca a9c0 a209 87bf 3380 96bf
000000b0: baf6 81bf c903 9ebf 19a0 563f d37d debf
000000c0: 305e 713f 8053 39c0 fd0c e63f 4545 1ec0
000000d0: ccb4 8e3f ca4b 2d40 aab9 3640 b5ea 913f
000000e0: b7e9 0440 e448 3d40 c7b3 d03f 79f4 8a3f
000000f0: 46f2 95bf 0ac2 1040 d9fc 9540 0513 4dc0
00000100: 8606 c6bf ea54 07c0 6f34 34c0 7a4a 3040
00000110: 7ad6 943e 5e44 a03f 6014 1e40 9a53 3dc0
00000120: 6cc8 afbf 7ee7 c23f cc4b d4bd abdc 1940
00000130: 7976 3ac0 2a84 49bf 9084 523f 87bc 223e
00000140: 4d03 67c0 166f d13f 76e8 86c0 40b5 7bbf
00000150: cab5 963f 31ee f5bf a8b0 f93f c334 8f3f
00000160: 6c9b 7b3f 61c5 93c0 e968 7fc0 e479 0440
00000170: e0bd 5340 49fd d7bf ed39 59c0 742b 3b40
2.162285 0.4703417 -1.6878242 -0.82804424 -2.711959 -0.25958675 -4.0836773 -0.7312451
-1.8264645 2.2100437 0.8461702 -1.3901235 4.1251807 1.8796359 -1.956114 0.8203987
3.1515834 0.13927472 2.3672502 2.5897322 -2.2739725 -0.58528507 -4.2464166 -2.2532978
-2.6309426 1.9252088 2.574385 -3.127429 -2.3964388 -0.09367935 -0.7063423 -0.3160351
-1.0449874 1.7634864 5.77363 -2.537422 2.8145761 -1.4623511 2.07671 4.9023495
3.9431772 -5.3059354 -1.0549815 -1.1757873 -1.015342 -1.2344905 0.8383804 -1.7382149
0.94284344 -2.8957214 1.7972714 -2.4729779 1.1148925 2.7077508 2.855082 1.1399752
2.0767648 2.957574 1.6304864 1.0855857 -1.1714561 2.2618432 4.687115 -3.2042859
-1.5470741 -2.1145577 -2.8157003 2.7545457 0.29069883 1.2520864 2.4699936 -2.9582276
-1.3733039 1.5226896 -0.103660196 2.4040935 -2.913481 -0.7871729 0.82233524 0.1589223
-3.6095765 1.6362026 -4.2158766 -0.9832344 1.1774228 -1.9213315 1.9507036 1.1187977
0.9828403 -4.617844 -3.9907782 2.0699396 3.308464 -1.6874171 -3.3941605 2.9245272

fc.bias f4 [3]
00000000: c834 593f 4c54 84bf c624 ce3e
0.8484616 -1.0338225 0.4026243
