fut_opt_lih_features_prepare/best_model_2.pth (torch, 25147 bytes, 6 tensors)

embedding.weight f4 [19, 8]
0	0xbe806bb1	-0.25082162
1	0xbe7936aa	-0.24337259
2	0x3d7c023d	0.061525572
3	0xbec9f065	-0.3944122
4	0xbfeee108	-1.8662424
5	0xbe8f5082	-0.2799111
6	0x3f4ee50d	0.80818254
7	0xbfa6ee26	-1.3041427
8	0xbf83e0a3	-1.0302929
9	0xbf2494c1	-0.6428948
10	0xbf48bd4f	-0.7841386
11	0xbf97e1cd	-1.1865784
12	0x3fc22a71	1.5169202
13	0x3f61a09b	0.8813569
14	0x3ee64a85	0.4497873
15	0xbe0de3af	-0.13856386
16	0xbf89db17	-1.0769986
17	0xbf7f26fb	-0.99668854
18	0x3f2f60ab	0.6850688
19	0xc0133961	-2.3003771
20	0xbeb3b709	-0.35100582
21	0x3f57ca7b	0.84293336
22	0xbe19a70b	-0.15005128
23	0xbed09a12	-0.40742546
24	0x3f47ac8c	0.7799766
25	0x3ff1d4ec	1.8893104
26	0xbf4ca02d	-0.7993191
27	0xbf35c604	-0.7100527
28	0x3f188564	0.5957854
29	0xbfd73593	-1.6813225
30	0xbec84321	-0.39113715
31	0xc002acb5	-2.0417912
32	0xbe21c24c	-0.15796775
33	0xbdcc4ecb	-0.09975966
34	0xbf6c1f2b	-0.9223506
35	0xbf6b76e0	-0.91978264
36	0xbf330eed	-0.6994465
37	0x3f935f58	1.1513472
38	0x3f2e33ee	0.6804799
39	0xc006fd7d	-2.1092217
40	0x3ec0c469	0.3764985
41	0x3e99ceb6	0.3004052
42	0xbf62fdd9	-0.8866859
43	0xbeb0fe91	-0.3456922
44	0xbf27556b	-0.6536471
45	0x3f25bc69	0.64740616
46	0x3f9e03b1	1.2344877
47	0xbee7e4f6	-0.4529187
48	0x3fbaaca1	1.4583932
49	0x3f0d5eca	0.5522276
50	0xbffc0096	-1.9687679
51	0x4023d8f9	2.560118
52	0xbe5ccbbd	-0.21562095
53	0x3f6ee8f9	0.9332424
54	0xbef2f137	-0.47449657
55	0x3cfd0cc7	0.030889882
56	0x3f07201a	0.5278336
57	0xbedab8ba	-0.4271906
58	0xbfe39411	-1.7779561
59	0x3fd97071	1.6987439
60	0x3e6bc7f6	0.23025498
61	0xbfe2ef58	-1.7729292
62	0xbe98349b	-0.29727635
63	0x3f67088d	0.9024742
64	0x3d0133fd	0.03154372
65	0x3f5929d8	0.84829473
66	0x3f7be0cb	0.9838988
67	0xbf56684a	-0.8375288
68	0xbee32d63	-0.44370565
69	0xbfbc3c32	-1.470587
70	0x40244855	2.5669148
71	0xbec9de5b	-0.39427456
72	0x3f0a19f7	0.5394587
73	0xbe226393	-0.15858297
74	0x3f45c2a6	0.77250135
75	0xbf44dbce	-0.76897895
76	0xbc8d2e6e	-0.017234053
77	0x3e0edd82	0.13951686
78	0xbe3ebba4	-0.18626267
79	0xbbf0aadd	-0.0073445872
80	0x3f7ca977	0.9869608
81	0x3ebe3b1f	0.3715448
82	0xbf1cc7b6	-0.61242235
83	0xbfac5740	-1.3464127
84	0xbf00c056	-0.5029348
85	0x3e27dea1	0.1639352
86	0x3dcfcf20	0.10146928
87	0xbe346177	-0.17615305
88	0xbf58f3cb	-0.84747
89	0x3f7b9d74	0.9828713
90	0xbe7d4e8f	-0.24736999
91	0x3fe15a68	1.7605715
92	0xbfb2e5b7	-1.3976353
93	0xbf960093	-1.1718925
94	0xbf869f3c	-1.0517344
95	0xbfa1ebf9	-1.2650138
96	0x3f49f72d	0.78892785
97	0x3ea5d3da	0.32388192
98	0xbf133b3a	-0.5751225
99	0xbf22b52e	-0.6355771
100	0xbf2cb0ba	-0.67457163
101	0xbf1fdb39	-0.6244388
102	0x3f938802	1.1525881
103	0xbd53f9b6	-0.051751815
104	0x3eba5dba	0.36399633
105	0x3fcf6d75	1.6205279
106	0xbe6402d2	-0.22266701
107	0x3f5ad7ca	0.8548552
108	0x3f0b2310	0.54350376
109	0x3f0e0763	0.5548002
110	0x3f734d52	0.95039856
111	0xbf33dd1f	-0.7025928
112	0xbea1563c	-0.31511104
113	0x3fbd020f	1.4766253
114	0x3fd3b542	1.653969
115	0x3fc79ea6	1.5595291
116	0x3efa0df8	0.48838782
117	0xbed1d895	-0.4098555
118	0x3f965fb7	1.174796
119	0x4001fbb1	2.030987
120	0xbf23c53a	-0.6397282
121	0xbf90a6aa	-1.1300862
122	0x3f554d73	0.83321303
123	0x3e9b91a6	0.30384558
124	0xbe9526a9	-0.29131058
125	0x3e81850e	0.25296825
126	0x3feeed6c	1.8666205
127	0xbeab479b	-0.33453068
128	0xc00f2a2b	-2.2369487
129	0xbf4af527	-0.7928032
130	0x3ec03c5b	0.37546048
131	0x3c8dde57	0.017317934
132	0x3fcad90b	1.5847486
133	0x3f823991	1.0173818
134	0xbfabb2f8	-1.3413992
135	0xb9d46a19	-0.0004051484
136	0x3f83cae1	1.0296289
137	0xbee4dc14	-0.44699156
138	0x3e8c4d17	0.27402565
139	0x3e8f0e04	0.2794038
140	0x3dbf7c7f	0.093499176
141	0x3fcd49e8	1.6038179
142	0xbf237582	-0.6385118
143	0xbeeb2b6f	-0.45931575
144	0x3e6b3266	0.22968444
145	0xbf26d44a	-0.6516768
146	0xbeebd589	-0.46061352
147	0x3efb1726	0.49041098
148	0xbf900e02	-1.1254275
149	0x3fa74e76	1.3070819
150	0xbf770ad1	-0.9650088
151	0xbe9ac213	-0.30226192

lstm.weight_ih_l0 f4 [128, 8]
0	0x3f0368bd	0.5133169
1	0x3e7ffc93	0.24998693
2	0xbe1e48f7	-0.15457521
3	0xbe9e06c3	-0.30864534
4	0x3e3f2ca7	0.18669377
5	0xbe91d0e2	-0.28479677
6	0x3e28c674	0.16481954
7	0x3deecd50	0.11660254
8	0x3d6cb5ef	0.057790693
9	0x3dd184a8	0.1023038
10	0xbe6bea83	-0.23038678
11	0x3dd21a5b	0.10258933
12	0x3e18c752	0.14919785
13	0xbd9f2e75	-0.07772533
14	0x3e599f16	0.21252093
15	0xbe1d06ee	-0.15334675
16	0x3c7e11bf	0.015507161
17	0x3ef47600	0.47746277
18	0x3d64f2b1	0.05589551
19	0xbdd887ba	-0.10572763
20	0xbd2fe47e	-0.042942517
21	0x3c9c1e9c	0.019057564
22	0x3e102bfa	0.14079276
23	0xbe64003f	-0.22265719
24	0x3ea38593	0.31937847
25	0xbe4d00b7	-0.20019804
26	0xbe36dd98	-0.17857969
27	0xbe82d11b	-0.2555016
28	0x3e12792d	0.14304037
29	0x3db0080b	0.08595284
30	0xbe9d4e7f	-0.3072395
31	0xbe142685	-0.14467819
32	0x3e4da055	0.20080693
33	0x3e055a18	0.1302265
34	0x3e1e573e	0.15462968
35	0x3dee21e3	0.11627557
36	0x3cda448f	0.02664402
37	0xbb957afa	-0.004561779
38	0x3b70efad	0.0036763952
39	0x3d90b069	0.070648976
40	0x3e85a8e0	0.26105404
41	0x3daf466a	0.08558352
42	0xbe309315	-0.17243607
43	0x3eb13d2a	0.34616977
44	0xbe1c9409	-0.15290846
45	0x3e499e14	0.19689208
46	0x3cdafe3c	0.026732557
47	0xbe01e2fb	-0.12684242
48	0x3e17c403	0.14820866
49	0x3e5ff5ca	0.21871105
50	0xbe6c7ec8	-0.23095238
51	0xbed7fda0	-0.42185688
52	0xbe54efcb	-0.20794599
53	0xbdbf7640	-0.09348726
54	0x3e8c96ea	0.27458888
55	0xbe8ab855	-0.2709376
56	0xbe590bb8	-0.21195877
57	0x3bcf73a8	0.006330926
58	0x3e05c030	0.13061595
59	0x3d1b2f75	0.037887055
60	0xbcd3b81d	-0.025844628
61	0x3da74f6e	0.08169447
62	0x3dce7e53	0.10082688
63	0x3a777f62	0.0009441284
64	0x3d84e2ed	0.06488595
65	0x3f15217e	0.5825423
66	0xbb78081e	-0.0037846635
67	0xbd72dcd1	-0.05929262
68	0x3e49fb3d	0.19724746
69	0xbe83713d	-0.2567233
70	0xbc84106a	-0.016121108
71	0xbd77bb88	-0.060481578
72	0x3def1b6d	0.11675153
73	0x3e405b1c	0.18784755
74	0xbe48876f	-0.19582914
75	0x3cc7deee	0.024398293
76	0xbe24336a	-0.16035238
77	0xbe1df663	-0.1542602
78	0xbd55e4aa	-0.052220024
79	0xbee02787	-0.43780157
80	0x3e96a6c3	0.29424104
81	0xbc0c7db0	-0.008574888
82	0x3dc06b5e	0.09395479
83	0x3dc8ec03	0.09810641
84	0xbe0816a0	-0.13289881
85	0xbdbaf6c3	-0.09129097
86	0x3cbf15c3	0.023325806
87	0xbe0d2753	-0.13784532
88	0x3e68b3e3	0.22724871
89	0xbcc42b94	-0.02394656
90	0xbd838325	-0.06421498
91	0x3e5b7c73	0.21434192
92	0xbc9de34e	-0.019273426
93	0x3e88d67a	0.26726133
94	0xbe1a8815	-0.15090974
95	0x3d72a0d6	0.059235416
96	0x3d7d17df	0.061790343
97	0x3e2f27fd	0.17105098
98	0x3e89d09c	0.2691697
99	0x3e8dbd6c	0.2768358
100	0xbdb2ca50	-0.08729994
101	0x3e3b39c2	0.18283752
102	0x3e90192c	0.28144205
103	0xbe24f3f8	-0.16108692
104	0x3e0665b6	0.13124737
105	0xbdabfab8	-0.0839743
106	0xbd7e0815	-0.062019426
107	0xbe321e45	-0.1739436
108	0xbc8104f3	-0.01574943
109	0xbcf81427	-0.030283047
110	0xbdb7f6c1	-0.089826114
111	0x3cafb889	0.021450298
112	0xbd5e1009	-0.05421451
113	0xbdceae55	-0.10091845
114	0x3ec65271	0.38734773
115	0xba5a1639	-0.00083193515
116	0xbe1d7a17	-0.15378605
117	0x3e8db2cb	0.2767547
118	0x3dbc9e4d	0.09209881
119	0xbe0479ec	-0.12937135
120	0x3e31e14c	0.173711
121	0x3de94d5b	0.113917075
122	0xbdd06f61	-0.10177494
123	0x3da26f8e	0.079314336
124	0x3e30fc7b	0.17283814
125	0xbdf156c1	-0.11784125
126	0x3daae5d1	0.08344615
127	0xbd9bd580	-0.07609081
128	0xbc445af9	-0.01198458
129	0x3ba1398f	0.0049201916
130	0xbe758065	-0.2397476
131	0x3cb4c921	0.022068562
132	0x3d1eeb57	0.038798656
133	0xbe3bbf68	-0.18334734
134	0x3eb18b2e	0.34676498
135	0xbd06f6e2	-0.03295029
136	0x3e00db3b	0.1258363
137	0xbd045eac	-0.03231685
138	0xbeb54953	-0.35407504
139	0x3e34c1a4	0.17651993
140	0xbe3017d6	-0.17196593
141	0x3e94a70b	0.29033694
142	0xbe6eec7d	-0.233324
143	0xbe8bbfaa	-0.27294666
144	0x3e33a2de	0.17542598
145	0xbe1a0469	-0.15040745
146	0xbe1439d8	-0.1447519
147	0xbe7d4f9c	-0.247374
148	0xbe70d81b	-0.23519938
149	0x3ea07339	0.31337908
150	0xbe1c0c51	-0.15239073
151	0xbecd5b04	-0.40108502
152	0xbbe29b36	-0.0069154752
153	0x3f2c5802	0.6732179
154	0x3d25215f	0.04031503
155	0x3e0beed6	0.13665327
156	0x3eb350ae	0.3502249
157	0xbead0601	-0.33793643
158	0x3e686013	0.226929
159	0x3db9dad6	0.09074943
160	0x3e407db8	0.18797958
161	0xbe77077b	-0.24123947
162	0xbe6c2f80	-0.23064995
163	0xbdf1f7b4	-0.11814824
164	0xbe6daf0b	-0.23211305
165	0x3e4e1d11	0.20128275
166	0xbdfd2038	-0.12359661
167	0xbed0c399	-0.4077423
168	0x3df82ca6	0.12117891
169	0x3eb1a4f9	0.34696177
170	0xbe2ff3bc	-0.17182821
171	0xbdc85245	-0.09781317
172	0x3ebbeb7c	0.36703098
173	0xbe3689dd	-0.17826028
174	0xbdc1a516	-0.09455316
175	0xbe8fb06f	-0.28064296
176	0x3db735f6	0.08945839
177	0x3e5f3662	0.21798089
178	0x3d37f0e4	0.044907466
179	0xbdf7a78a	-0.120925024
180	0xbcfb673c	-0.030688874
181	0xbcf85b7f	-0.030317066
182	0x3e00c1ea	0.12573972
183	0xbe23e7bb	-0.16006367
184	0x3e5bd982	0.21469691
185	0xbdf8d158	-0.12149304
186	0xbe97f075	-0.29675642
187	0xbde54ee4	-0.11196688
188	0xbe2ce612	-0.1688464
189	0x3da05647	0.07828956
190	0xbdbf6009	-0.09344489
191	0xbe9084c7	-0.282263
192	0xba40aaba	-0.0007349659
193	0x3e836ed7	0.25670502
194	0xbe384e6c	-0.17998666
195	0x3cda86c2	0.026675586
196	0x3de58655	0.112072624
197	0xbdb57939	-0.08861012
198	0xbdb5ab75	-0.088705935
199	0x3e8be8de	0.273261
200	0x3e1db390	0.15400529
201	0x3db52265	0.08844451
202	0xbe307d3e	-0.17235276
203	0x3c9c2ff2	0.01906583
204	0x3e7bfcc2	0.24608138
205	0xbe0d546a	-0.13801733
206	0x3e8682d4	0.2627169
207	0xbe0ba278	-0.13636196
208	0x3e25e902	0.16202167
209	0xbe0f7c68	-0.14012301
210	0xbd02bfa5	-0.031921048
211	0xbdcc85e3	-0.09986474
212	0x3e4284b9	0.18995942
213	0x3d27f68a	0.041006602
214	0x3e6d0afb	0.2314872
215	0x3ecdd7d4	0.40203726
216	0x3f1ee060	0.6206112
217	0x3e64097c	0.22269243
218	0xbf2762d0	-0.6538515
219	0xbe570770	-0.20998931
220	0xbe85931e	-0.26088804
221	0x3e051761	0.129972
222	0xbdc68cb6	-0.09694807
223	0xbf3d5d7d	-0.73970777
224	0xbd971720	-0.073774576
225	0x3df02d5b	0.11727401
226	0x3dd0001e	0.10156272
227	0xbe875fdc	-0.26440322
228	0x3d412a36	0.047159396
229	0x3e819230	0.25306845
230	0x3e86ec48	0.26352143
231	0xbec5195b	-0.38495907
232	0xbd7713ee	-0.06032174
233	0xbd8147a5	-0.06312493
234	0xbdd96c57	-0.10616367
235	0xbd213151	-0.039353672
236	0xbe36831b	-0.1782345
237	0x3e395431	0.18098523
238	0x3eea2933	0.45734558
239	0xbdf1daef	-0.118093364
240	0x3db28b68	0.08717996
241	0x3d7e5d85	0.062100906
242	0xbea1ed0a	-0.3162616
243	0xbd24f609	-0.0402737
244	0x3e07fb20	0.1327939
245	0xbdc1dc76	-0.09465878
246	0x3d6a5cfc	0.057217583
247	0xbe4fd538	-0.2029618
248	0x3dcb490d	0.09926043
249	0x3e88a8ca	0.26691276
250	0xbe0995fb	-0.1343612
251	0x3d5c2d9c	0.053754434
252	0x3eb9783a	0.36224538
253	0xbea7e91a	-0.3279503
254	0x3d3df251	0.04637367
255	0xbe96c4b3	-0.29446945

lstm.weight_hh_l0 f4 [128, 32]
0	0x3eaa777d	0.33294287
1	0xbea002a1	-0.31252006
2	0xbd9eafdc	-0.07748386
3	0xbe8d40d9	-0.27588537
4	0xbe96ed74	-0.29478037
5	0x3ee89f10	0.45433855
6	0xbea6583b	-0.3248919
7	0xbe5c0f52	-0.21490219
8	0xbd84002b	-0.064453445
9	0xbefcfcd6	-0.4941165
10	0xbd327c8a	-0.0435758
11	0xbdefe616	-0.11713807
12	0x3ee6f7c6	0.4511091
13	0x3dad2507	0.08454328
14	0xbdaaa412	-0.08332075
15	0xbe7fea7b	-0.24991791
16	0x3e21ffff	0.15820311
17	0xbf002cb8	-0.50068235
18	0xbe171351	-0.14753462
19	0xbbb85f4a	-0.0056265937
20	0x3cb03f64	0.021514602
21	0x3cdf6aba	0.02727257
22	0x3e83976b	0.2570146
23	0xbe8e8d71	-0.27842286
24	0x3dca28c0	0.09871054
25	0x3e82f852	0.25580078
26	0xbd16352c	-0.036671802
27	0xbe0cafde	-0.13738963
28	0x3eea4b33	0.45760497
29	0xbe9f0169	-0.31055763
30	0x3d2d22dd	0.042269576
31	0x3baa34a7	0.005194265
32	0xbec0c655	-0.37651315
33	0xbe4c9cd4	-0.199817
34	0xbe60760b	-0.2192003
35	0x3e7378ae	0.23776504
36	0xbe9ce7e3	-0.30645666
37	0x3e6f9898	0.23398054
38	0x3e67fea3	0.2265573
39	0x3b3d93fb	0.0028927315
40	0x3d6e139e	0.058124177
41	0xbd8fcacb	-0.070211016
42	0x3e9d5ea1	0.3073626
43	0x3ea449d0	0.32087564
44	0xbe969ead	-0.29417935
45	0xbe862b3b	-0.26204857
46	0xbd439f2f	-0.04775923
47	0xbca05d10	-0.019575626
48	0xbe891c7e	-0.2677955
49	0xbd2a1773	-0.04152627
50	0x3aa04df7	0.0012230267
51	0x3d72798d	0.05919795
52	0x3ea7ddf5	0.32786527
53	0x3e373a38	0.17893302
54	0xbe8f8a62	-0.28035265
55	0xbe721016	-0.23638949
56	0x3dadd744	0.08488324
57	0x3e8e31f3	0.27772483
58	0x3e246c86	0.16057023
59	0xbe91fbc2	-0.28512388
60	0x3df07a73	0.11742105
61	0x3c6b04db	0.014344419
62	0xbe28f85f	-0.16500996
63	0xbe1abbb0	-0.1511066
64	0xbeb8debf	-0.36107442
65	0xbd6dc796	-0.058051668
66	0xbdc6617c	-0.096865624
67	0x3ec39118	0.38196635
68	0xbe8f641a	-0.2800606
69	0xbe7fa73d	-0.2496614
70	0x3e9d58b4	0.30731738
71	0x3ee3bb0a	0.44478637
72	0x3ee76b52	0.45199066
73	0x3e776c15	0.24162324
74	0x3e6f3c94	0.23362952
75	0xbe9f8091	-0.31152776
76	0xbeb980a6	-0.36230963
77	0xbeb7c505	-0.358925
78	0x3e691806	0.2276307
79	0x3de49b79	0.111624666
80	0x3e15211c	0.14563411
81	0xbd476840	-0.048683405
82	0x3f0cdbd7	0.5502295
83	0x3eca8e8c	0.3956188
84	0xbdbabb93	-0.09117808
85	0xbe213b21	-0.15745212
86	0xbed11c30	-0.40841818
87	0x3eb6895b	0.3565167
88	0x3e1762ff	0.14783858
89	0x3f08b767	0.5340485
90	0x3eb00e50	0.3438592
91	0xbf093ca3	-0.5360815
92	0xbe9d038e	-0.30666775
93	0x391b7136	0.00014824126
94	0xbe4570a1	-0.19281246
95	0x3d4e94b2	0.050434776
96	0xbe7b5965	-0.2454582
97	0x3e8afe3d	0.27147093
98	0x3d97323f	0.073826306
99	0x3ee81387	0.45327398
100	0xbea32e59	-0.31871298
101	0xbe032380	-0.12806511
102	0xbdd81bff	-0.10552215
103	0x3dc4bf59	0.09606809
104	0x3dbcd128	0.09219581
105	0x3eb84b8d	0.3599514
106	0x3eb98e13	0.36241207
107	0xbe50b3f6	-0.2038115
108	0xbeacd6ec	-0.33757722
109	0xbe1c2b79	-0.15250959
110	0x3ea070c1	0.31336024
111	0x3e82677d	0.2546958
112	0xbedcc310	-0.4311757
113	0xbde448df	-0.111467116
114	0xbe10000d	-0.1406252
115	0x3e016e57	0.12639748
116	0xbea5c415	-0.3237616
117	0xbe9db004	-0.30798352
118	0xbec495af	-0.3839545
119	0x3d9a604f	0.07537901
120	0x3dea1d47	0.114313655
121	0x3ebb7454	0.3661219
122	0x3e292b89	0.16520514
123	0xbeaa8cc7	-0.3331053
124	0xbe2bc919	-0.16775931
125	0x3d761960	0.060082793
126	0xbf16aef2	-0.58860695
127	0xbdced3c7	-0.10098987
128	0x3e230faf	0.15923952
129	0x3eaae1da	0.33375436
130	0xbc90fc4b	-0.017698428
131	0x3eb4c21e	0.3530435
132	0xbd15c0c5	-0.036560792
133	0xbeb20d09	-0.3477557
134	0x3e1afe15	0.15135987
135	0x3e61fde3	0.22069506
136	0x3ee046bf	0.43803975
137	0x3f008942	0.5020944
138	0x3ee5b9e2	0.4486838
139	0xbf75ad0b	-0.9596717
140	0x3d8ff3a3	0.07028892
141	0xbf190211	-0.5976878
142	0x3f0b379b	0.5438172
143	0x3d9688e9	0.07350332
144	0x3e418b7c	0.18900865
145	0xbe50c778	-0.20388591
146	0x3e8dd4b0	0.2770133
147	0xbd690731	-0.056891624
148	0x3d6014f3	0.05470748
149	0xbe1a9e48	-0.15099442
150	0x3d224faf	0.039626773
151	0x3f1b741b	0.6072404
152	0x3dcc2ce3	0.09969499
153	0x3ea1f9b9	0.31635836
154	0xbdf4039b	-0.1191475
155	0xbef9898f	-0.4873776
156	0xbe2c77de	-0.168426
157	0xbe1b1d3a	-0.15147868
158	0xbe8da79e	-0.27666944
159	0x3dcf0f74	0.10110369
160	0x3e96e696	0.29472798
161	0xbea197d5	-0.3156115
162	0x3e6af120	0.22943544
163	0xbe141880	-0.14462471
164	0x3cc1e8b5	0.023670534
165	0x3dfe485d	0.12416146
166	0xbd16fe13	-0.036863398
167	0x3db04c17	0.08608263
168	0xbd56250a	-0.052281417
169	0xbe8cf3dc	-0.275298
170	0x3da76864	0.08174208
171	0x3df3cc56	0.11904208
172	0x3f06b653	0.52621955
173	0xbd2059bc	-0.039148077
174	0x3e407baf	0.18797182
175	0x3d8a210c	0.067445844
176	0xbe6ba51a	-0.230122
177	0xbe6c27d6	-0.23062071
178	0x3e35589b	0.17709582
179	0xbecc8a3c	-0.39949214
180	0x3e880105	0.26563278
181	0x3ea130f4	0.3148266
182	0xbeb2951f	-0.34879395
183	0x3d9312c3	0.07181313
184	0x3eb62cf6	0.35581177
185	0x3d8b2ff9	0.067962594
186	0xbdc04db1	-0.093898185
187	0x3eac3c2a	0.33639652
188	0xbdc6718e	-0.096896276
189	0xbe8a6d28	-0.27036405
190	0x3dc6503c	0.09683272
191	0xbda793c2	-0.081824794
192	0x3ebaaa13	0.3645788
193	0xbe255c6b	-0.16148536
194	0x3d99016e	0.07470976
195	0x3d17000e	0.036865287
196	0xbcc98ba1	-0.024602713
197	0xbde5e71f	-0.112257235
198	0x3e2d6f42	0.16936973
199	0x39219110	0.00015408196
200	0x3e0ffa85	0.1406041
201	0xbd2551bd	-0.040361155
202	0x3dfc09e4	0.12306574
203	0x3cb0da40	0.021588445
204	0x3d09d094	0.03364618
205	0xbe9f745c	-0.31143463
206	0x3ec7fe1b	0.39061055
207	0xbd965e07	-0.07342153
208	0xbe50a2f2	-0.20374659
209	0xbf14d8c8	-0.5814328
210	0x3eb0647f	0.34451672
211	0xbe809f6a	-0.25121623
212	0xbec893e6	-0.39175338
213	0x3f1e8744	0.6192515
214	0xbd5bba77	-0.053644624
215	0xbca3b698	-0.019984528
216	0x3e29460c	0.16530627
217	0xbdab9832	-0.08378638
218	0xbda9afbf	-0.08285474
219	0xbea1caa3	-0.31599912
220	0xbe1fae0e	-0.1559374
221	0xbe5ae790	-0.21377397
222	0xbdfd76a2	-0.12376143
223	0xbe022812	-0.12710598
224	0x3e95d321	0.2926264
225	0xbdb9f33d	-0.09079597
226	0xbe728f65	-0.23687513
227	0xbcc3781d	-0.023860985
228	0xbd84f3f2	-0.064918414
229	0x3dfdce26	0.12392835
230	0x3d99a853	0.075028084
231	0x3ded3517	0.11582392
232	0x3de6208f	0.11236679
233	0x3e5c1f8e	0.21496412
234	0xbdb7246f	-0.08942496
235	0xbe207adf	-0.15671872
236	0x3df1c5c6	0.118053004
237	0xbdf06910	-0.11738789
238	0x3e28416a	0.16431203
239	0x3b0a8592	0.0021136743
240	0x3e956969	0.29181984
241	0xbe3e9c7a	-0.18614379
242	0x3dcb1840	0.09916735
243	0xbeb9b8f6	-0.36273926
244	0x3d16165b	0.036642414
245	0x3defde1f	0.11712288
246	0xbdf74eb7	-0.120755605
247	0x3dd69c34	0.10479012
248	0x3e84e029	0.2595227
249	0xbc29b792	-0.010358708
250	0x3e86717e	0.26258463
251	0x3e5fb00c	0.218445
252	0x3e01a714	0.12661391
253	0xbe0dbf59	-0.13842525
254	0x3d002289	0.031282935
255	0xbe23a0be	-0.15979287

lstm.bias_ih_l0 f4 [128]
0	0xbc19cc31	-0.009387062
1	0x3e052eca	0.1300613
2	0x3e3e1106	0.18561181
3	0x3e37fdb1	0.1796787
4	0x3e8267c5	0.25469795
5	0x3e1656cd	0.1468155
6	0x3c83268b	0.01600959
7	0x3d42828a	0.047487773
8	0x3e1f742a	0.15571657
9	0x3e09aa76	0.13443932
10	0x3df44834	0.11927834
11	0x3e36398d	0.17795391
12	0x3ecfead8	0.4060886
13	0x3c0b7886	0.008512622
14	0x3dbe3ef8	0.09289354
15	0x3da558a0	0.080735445
16	0x3edfbbaa	0.43697864
17	0x3e83a1ab	0.2570928
18	0x3d9d3c94	0.0767757
19	0x3e923b13	0.28560695
20	0x3ebc1ecc	0.36742246
21	0x3e299fb9	0.16564836
22	0x3e56a7d8	0.20962465
23	0x3e8673e9	0.26260307
24	0x3e2e7263	0.17035823
25	0x3ea8abe5	0.32943645
26	0x3d3a7a56	0.045526825
27	0x3e9f775e	0.31145757
28	0xbbc7b275	-0.006094272
29	0x3df0be58	0.11755055
30	0xbc3d4034	-0.011550952
31	0x3c907f43	0.017638808
32	0xbccf2d68	-0.025290206
33	0x3e923ddc	0.2856282
34	0x3e702932	0.23453215
35	0x3e559cc7	0.20860587
36	0xbd373c70	-0.044735372
37	0x3ae2aff4	0.001729487
38	0x3e2bbdb3	0.16771583
39	0xbc89c282	-0.016816381
40	0xbcb0af6b	-0.02156802
41	0x3dbc55fc	0.09196088
42	0x3e877c4a	0.26462013
43	0x3ee3867a	0.44438535
44	0x3d90f6d4	0.07078329
45	0xbe1531db	-0.145698
46	0x3d87dae8	0.0663355
47	0x3e214c47	0.15751754
48	0x3deacd71	0.11464966
49	0xbc2bc272	-0.010483371
50	0x3e491eda	0.19640675
51	0xbdb8458d	-0.08997641
52	0x3c867ca4	0.016416855
53	0x3e286901	0.16446306
54	0x3d1d303d	0.03837608
55	0x3de8e5e5	0.11371974
56	0x3cc06826	0.023487162
57	0x3dd74e6d	0.105130054
58	0x3ba47960	0.005019352
59	0x3e864bdf	0.2622976
60	0xbd073244	-0.03300692
61	0x3d6ba847	0.05753353
62	0xbdc51388	-0.09622866
63	0x3e1691b7	0.14704023
64	0xbd9099d8	-0.07060593
65	0xbd90a759	-0.07063169
66	0xbe7f677b	-0.24941818
67	0xbd43fa36	-0.04784604
68	0xbda11f9e	-0.078673586
69	0x3cc32bc0	0.023824573
70	0xbd0ef423	-0.034900796
71	0x3e038ec7	0.12847434
72	0x39e6f1d2	0.0004404919
73	0xbe6e3a32	-0.23264387
74	0x3dd2d94f	0.102953546
75	0x3e08ed0e	0.13371679
76	0xbd0a23d7	-0.033725586
77	0x3d52a4cb	0.05142669
78	0x3d0dd5a9	0.03462759
79	0x3dd98629	0.10621292
80	0x3ca3bb7d	0.019986862
81	0x3e2b39ca	0.16721264
82	0x3de0b56c	0.109721035
83	0xbd66d703	-0.056357395
84	0xbd039ccf	-0.032131966
85	0x3db3d58f	0.087809674
86	0xbdcda8e4	-0.10041979
87	0x3c3c1391	0.011479274
88	0x3e1f6b75	0.15568335
89	0x3e328b76	0.17436013
90	0xbcf61110	-0.030037433
91	0xbe330c24	-0.174851
92	0xbc87e49b	-0.0165885
93	0xbdd28f2c	-0.10281214
94	0xbd181da5	-0.037137646
95	0xbe4123f9	-0.18861379
96	0x3e08d87c	0.13363832
97	0x3dbab831	0.09117163
98	0x3e0b51d1	0.13605429
99	0x3e9c12ca	0.30483085
100	0x3e45ce5d	0.19317003
101	0x3e5ae2d1	0.21375586
102	0x3e98b7d8	0.29827762
103	0xbd43dee9	-0.047820006
104	0x3dcd9b6c	0.1003941
105	0x3e706f5c	0.2347998
106	0x3d46e059	0.0485538
107	0x3ebba898	0.36652064
108	0x3e2fa346	0.17152128
109	0xbd0b2090	-0.0339666
110	0x3edbdecf	0.42943427
111	0xbd8229d8	-0.06355637
112	0x3e02068f	0.12697814
113	0x3eb5ed88	0.35532784
114	0x3e800e8b	0.25011095
115	0x3e603374	0.21894628
116	0x3e608745	0.21926601
117	0xbd91c7f9	-0.0711822
118	0x3dba11ed	0.0908545
119	0x3e263d28	0.16234267
120	0xbd6a7a0c	-0.0572453
121	0x3e2d8cf6	0.16948304
122	0x3db5a391	0.088690884
123	0x3e58f819	0.21188392
124	0x3da22b7e	0.07918452
125	0x3eba4bb2	0.36385876
126	0x3e11dcfe	0.14244458
127	0x3e824452	0.2544275

lstm.bias_hh_l0 f4 [128]
0	0x3dace124	0.0844138
1	0x3e5e63fe	0.21717831
2	0x3e9c4e87	0.30528662
3	0xbdb4670a	-0.08808716
4	0x3e88da9f	0.26729295
5	0x3db5ce15	0.08877198
6	0x3e3c6c75	0.18400748
7	0x392ca8ea	0.00016466124
8	0x3e309464	0.17244107
9	0x3e2c3c30	0.16819835
10	0x3daaded6	0.08343284
11	0x3e8d27c2	0.27569395
12	0x3ec79749	0.3898261
13	0x3df7857f	0.12086009
14	0x3dc6e2b4	0.09711209
15	0xbd8fe4a4	-0.070260316
16	0x3ea21de3	0.31663427
17	0x3e5281c6	0.20557317
18	0x3d01f439	0.03172705
19	0x3e20b95d	0.1569571
20	0x3eae251a	0.3401268
21	0x3c826cd8	0.015921041
22	0x3e161dce	0.14659807
23	0x3ed9498e	0.4243893
24	0xbe0d0603	-0.13771825
25	0x3e43c3fb	0.1911773
26	0x3e7678f2	0.24069574
27	0x3e2caafe	0.16862103
28	0xbc633a39	-0.013868862
29	0x3e3c3d82	0.18382838
30	0x3ca1dca8	0.019758537
31	0x3d66dc0c	0.056362197
32	0x3b3ee636	0.0029128916
33	0x3e676c9e	0.22600028
34	0x3ddf0c21	0.10890985
35	0x3ca88930	0.020573229
36	0x3e2a36f3	0.16622524
37	0x3c5ad86e	0.013357265
38	0x3e233a76	0.1594027
39	0x3e3aa92e	0.182286
40	0xbe1e66ee	-0.15468952
41	0xbd779e26	-0.060453556
42	0x3e8f52cc	0.27992857
43	0x3ed44db2	0.41465527
44	0xbe3c4fa4	-0.18389755
45	0x3e07135a	0.13190976
46	0xbd9a8c0d	-0.07546244
47	0x3d43160e	0.047628455
48	0x3d5f7e6f	0.054563936
49	0x3e435e7c	0.19079012
50	0xbc5c2822	-0.013437303
51	0xbda7f13b	-0.08200308
52	0xbe08529f	-0.13312767
53	0x3d4a4a79	0.04938743
54	0x3e1cd9ef	0.1531751
55	0xbc7427ec	-0.014902096
56	0x3df4bce4	0.119500905
57	0x3e4493ee	0.19197056
58	0x3e1779f7	0.1479262
59	0x3d9da2cb	0.07697066
60	0x3dd8d725	0.105879106
61	0xbd881edd	-0.06646512
62	0x3e02462e	0.12722084
63	0xbc09977e	-0.008397935
64	0x3d952656	0.072827026
65	0xbe00077b	-0.12502854
66	0xbe6a9e88	-0.22912037
67	0xbe301e44	-0.17199045
68	0xbd92f016	-0.07174699
69	0xbd423fbc	-0.047424063
70	0x3daa12d5	0.08304373
71	0x3e038b0f	0.12846015
72	0xbd053811	-0.032524172
73	0xbd1f54c6	-0.038899206
74	0xbd977c05	-0.07396702
75	0x3dab26d7	0.083570175
76	0x3e0e85d6	0.13918242
77	0x3d3bf6bf	0.045889612
78	0xbde93b7f	-0.11388301
79	0x3c0cf403	0.008603099
80	0x3d418b5f	0.047252055
81	0xbe07420e	-0.13208792
82	0xbd6c86e5	-0.057745833
83	0xbe061ada	-0.1309618
84	0x3e2c734d	0.16840859
85	0x3cfcf489	0.030878322
86	0x3c0248c8	0.007951923
87	0x3b1ce80f	0.0023942029
88	0x3df30181	0.11865521
89	0x3de1feaf	0.11034905
90	0x3df3a707	0.11897092
91	0x3ce88136	0.028381925
92	0x3cc1c737	0.023654563
93	0xbe012c08	-0.12614453
94	0x3e3f19b3	0.18662147
95	0xbe402415	-0.18763764
96	0x3ea2168a	0.3165782
97	0x3df18aa9	0.117940255
98	0x3dc23d4f	0.0948435
99	0x3db316ee	0.08744608
100	0x3cda84b1	0.0266746
101	0x3e377351	0.17915083
102	0x3e2e99f8	0.17050922
103	0xbdc588bd	-0.096452214
104	0x3e4d6f31	0.20061947
105	0x3e5f9e64	0.21837765
106	0x3e1665a7	0.14687215
107	0x3e00841c	0.12550396
108	0x3e78ec6c	0.24308938
109	0x3e27bee2	0.1638141
110	0x3e45dfea	0.19323698
111	0x3e02aeba	0.12761965
112	0x3e53d900	0.20688248
113	0x3ec25085	0.37952057
114	0x3e5b8ee8	0.21441233
115	0x3c5846a8	0.0132004395
116	0x3e26c86d	0.16287394
117	0x3e395325	0.18098123
118	0x3e0b3d30	0.1359756
119	0x3e864cde	0.2623052
120	0x3d59768f	0.053091582
121	0x3e939fc9	0.28832844
122	0x3dc2bd13	0.09508719
123	0x3ecd451b	0.40091786
124	0x3e366fda	0.17816105
125	0x3ebd19d9	0.36933783
126	0x3c793a7f	0.0152117
127	0x3e31bbef	0.17356847

fc.weight f4 [1, 32]
0	0x3e9fab70	0.31185484
1	0xbe61699c	-0.22012943
2	0x3f041d9f	0.516077
3	0x3df3a823	0.11897304
4	0x3ecf5788	0.4049647
5	0xbe1253f9	-0.14289846
6	0x3eb8abb8	0.3606851
7	0x3e29e98e	0.16593
8	0xbe2a5149	-0.1663257
9	0x3f0a3e9b	0.5400178
10	0x3ded53bc	0.11588237
11	0xbe89ca82	-0.26912314
12	0xbe4ef2e2	-0.2020984
13	0xbcb3d690	-0.021952897
14	0x3eb8d952	0.36103302
15	0x3d6d252d	0.05789678
16	0xbed6813a	-0.41895467
17	0xbf035d2c	-0.51314044
18	0x3e878b91	0.26473668
19	0x3bf6ed8d	0.0075356425
20	0xbf057fae	-0.5214795
21	0x3da6585f	0.08122324
22	0xbec5adae	-0.3860907
23	0x3eb5e875	0.35528913
24	0x3e0bbc32	0.1364601
25	0xbe359490	-0.17732453
26	0xbebb26e8	-0.3655312
27	0xbef516f6	-0.4786908
28	0xbe6f8718	-0.23391378
29	0xbea8c66c	-0.32963884
30	0x3df6f388	0.12058169
31	0xbe330533	-0.17482452
