fut_opt_lih_features_prepare/bm_fut_lih_02.pth (torch, 25158 bytes, 6 tensors)

embedding.weight f4 [19, 8]
1.8059149 -1.8052963 0.992582 2.1800954 0.118758745 1.2066679 0.19614969 0.0521012
-0.5348679 0.77789015 1.3497925 -0.3834681 -1.47871 0.9271766 -0.47356945 0.34460452
0.577703 -1.1342752 0.61278254 -0.18788953 1.1289976 -1.542103 -1.316542 1.825417
1.250497 0.98163295 -1.017292 -1.6522688 0.42827642 -0.37594566 -0.33384082 -0.8193775
-0.50533235 1.4141674 1.8292507 0.6982486 0.025043562 -0.41568005 0.6231464 2.7246535
1.6657764 -1.3406688 0.46998292 1.7452103 0.9944013 0.00089604117 -0.35992137 -1.2172557
-1.4177604 2.45442 -1.062925 1.2094901 -2.120342 0.52952105 -1.7523243 -1.5905961
-1.1014827 0.31146407 -1.1152085 1.3592703 2.0033379 0.32146442 0.46040928 0.10038989
2.38139 -1.3060411 0.2685351 -0.3695637 1.0492063 1.7326941 1.2210653 -0.24132298
-2.222378 0.88756925 0.5344013 1.6166589 0.1396922 -0.46857566 -0.48129773 1.1890744
-2.1998913 1.6267668 -0.38564074 1.0779897 -0.3190642 0.64848524 2.1811135 0.07280419
-1.4544876 0.9154997 -0.363285 1.760538 1.1673205 -0.9540861 -0.9143309 1.1256958
-0.90544593 0.5147401 0.19219548 0.4684234 -2.088465 1.0852472 -1.689401 -0.9169874
-1.7756073 -0.7391224 -0.9491718 -0.6927315 -1.747961 0.51422095 -1.1207973 0.2590223
1.1119099 0.99328184 2.2892976 2.2774215 -0.67622966 -1.6795723 0.038542353 0.4974307
-0.97369313 0.08847591 -1.1947739 -0.50300974 2.2861285 -1.3272814 -0.241471 0.48957294
0.7744205 -1.2158083 2.199987 -0.54096115 0.22377045 -0.7966232 0.03305987 0.6697612
-0.13652737 1.5058261 2.8390825 -0.33374235 1.2384112 1.7990375 -1.1321827 0.4546525
0.31865245 0.040717453 -0.9373886 0.97874236 0.6967117 0.3794401 -0.47583294 -1.4695352
00000000: 3828 e73f f313 e7bf db19 7e3f af86 0b40
00000010: c937 f33d 1874 9a3f 77db 483e 1168 553d
00000020: 1aed 08bf cf23 473f 00c6 ac3f ee55 c4be
00000030: 5f46 bdbf 725b 6d3f b277 f2be 0170 b03e
00000040: 58e4 133f ee2f 91bf 51df 1c3f 1d66 40be
00000050: fe82 903f a263 c5bf 7384 a8bf 44a7 e93f
00000060: 4910 a03f 4c4c 7b3f a036 82bf 8b7d d3bf
00000070: 0c47 db3e f37b c0be 2fed aabe b9c2 51bf
00000080: 765d 01bf 7003 b53f e324 ea3f 6cc0 323f
00000090: 2828 cd3c 04d4 d4be 8686 1f3f b960 2e40
000000a0: 2938 d53f 099b abbf 9aa1 f03e 0d63 df3f
000000b0: 1591 7e3f 4ee4 6a3a 9d47 b8be 09cf 9bbf
000000c0: 2c79 b5bf 3815 1d40 ed0d 88bf 92d0 9a3f
000000d0: afb3 07c0 b18e 073f 2a4c e0bf a798 cbbf
000000e0: 63fd 8cbf 3878 9f3e 27bf 8ebf 92fc ad3f
000000f0: b036 0040 fc96 a43e c4ba eb3e 3799 cd3d
00000100: b268 1840 5b2c a7bf 6f7d 893e 7437 bdbe
00000110: 644c 863f ecc8 dd3f de4b 9c3f 5f1d 77be
00000120: 713b 0ec0 bd37 633f 86ce 083f aeee ce3f
00000130: 790b 0f3e 26e9 efbe a86c f6be 9733 983f
00000140: 05cb 0cc0 e539 d03f b472 c5be 91fb 893f
00000150: 625c a3be 2103 263f 5d97 0b40 5d1a 953d
00000160: a62c babf 305e 6a3f 7e00 babe 4f59 e13f
00000170: c26a 953f fd3e 74bf 9711 6abf cd16 903f
00000180: 4ecb 67bf 02c6 033f e4ce 443e 31d5 ef3e
00000190: 69a9 05c0 61e9 8a3f 4b3e d8bf b0bf 6abf
000001a0: 1a47 e3bf 2037 3dbf ecfc 72bf da56 31bf
000001b0: 30bd dfbf fca3 033f 4976 8fbf 929e 843e
000001c0: 1053 8e3f b847 7e3f da83 1240 46c1 1140
000001d0: 631d 2dbf 3afc d6bf 96de 1d3d 3daf fe3e
000001e0: f443 79bf dc32 b53d 5aee 98bf 3fc5 00bf
000001f0: ee4f 1240 5be4 a9bf 2c44 77be 4ea9 fa3e
00000200: 6c40 463f 9b9f 9bbf 96cc 0c40 6e7c 0abf
00000210: 1524 653e 7fef 4bbf c969 073d 7875 2b3f
00000220: d5cd 0bbe e9be c03f 87b3 3540 47e0 aabe
00000230: 4284 9e3f dc46 e63f 5deb 90bf 36c8 e83e
00000240: 6a26 a33e 58c7 263d b3f8 6fbf dc8e 7a3f
00000250: b35b 323f f945 c23e 60a0 f3be bb19 bcbf

lstm.weight_ih_l0 f4 [128, 8]
0.098660044 -0.17066978 0.2695015 0.0076578497 0.18050033 0.2559657 -0.14737098 0.114198856
0.18057184 0.12914677 0.39068285 0.45003024 0.1536069 -0.057350013 0.38475007 0.14793582
-0.106170595 0.15335979 0.41728246 -0.1472649 -0.19211842 0.047200102 0.08366983 -0.16889486
-0.16348264 0.42237094 0.32648832 -0.30890974 -0.19019616 -0.27761188 -0.44640025 0.07445114
0.22503851 0.25301483 0.12001525 0.18271121 -0.1865621 0.15733078 -0.26213565 -0.15245791
0.2787585 0.02013965 0.29028666 0.12986298 0.039158687 -0.2240369 0.03572291 0.4977378
-0.29256517 -0.088397644 0.095768824 0.051862366 0.9518634 0.5575497 -0.3127273 0.048846703
0.050500397 0.19081567 0.05234158 -0.08132823 -0.6554061 -0.04235016 0.13287732 -0.0977053
-0.27612013 -0.029093396 -0.4509978 -0.2882521 0.065021865 -0.07626127 0.02290967 -0.050560646
-0.08524494 -0.047058344 0.08829921 0.3202045 -0.15745208 0.22515893 -0.04218222 -0.17459014
-0.23339364 0.3223672 0.44243896 0.4971363 -0.077053726 0.03757141 -0.79928786 -0.047213957
-0.22858788 0.35161525 0.023117153 -0.17264964 -0.3099648 -0.09606155 -0.47352254 0.040764395
0.26894936 -0.08029201 0.35089105 0.04787777 0.06824586 0.1343626 0.08921257 0.104267955
-0.18334478 -0.12229122 0.05038342 -0.16331285 -0.19162649 0.21977657 -0.07678928 -0.20058692
0.07334324 0.059211493 0.016014107 0.14975305 0.28081185 0.19023477 -0.18831034 0.11486407
-0.29687595 0.119526334 0.4080599 0.0053416975 -0.26838738 0.4029264 -0.13695219 0.20394605
0.052662734 0.21138093 0.21766277 -0.2770834 -0.07850301 -0.051278856 0.3136277 0.43725723
-0.2219767 0.15646172 0.120566845 -0.313036 -0.15551762 0.4578564 -0.2528546 0.055478197
0.2632509 -0.029436348 0.40833363 -0.27091938 -0.1741678 0.6212701 0.062292237 0.28193235
-0.22217745 0.0019447955 -0.10355845 0.041104324 0.16604938 0.3823974 -0.09089907 -0.13196972
-0.18022193 0.2921805 0.2565766 -0.07167162 -0.1473527 -0.0779598 -0.04020787 -0.12206327
0.037006192 0.15748294 0.31757206 0.31596905 -0.26589304 0.063993864 0.123617224 -0.08867946
0.28224033 -0.1900561 -0.0931972 1.0882642 0.09294718 -0.011191311 0.27052101 -0.16006137
0.17855896 -0.35647777 0.20089307 0.19229576 -0.013556699 0.3468356 -0.13346845 -0.11864552
-0.12822448 -0.03911909 0.07566919 0.45030907 -0.08647153 0.37561458 0.09958891 0.05023355
0.06511781 0.05671266 0.0028977667 -0.45612505 -0.16796057 0.35782665 -0.34811917 -0.048621286
0.3109048 -0.14120488 0.12633805 -0.14443302 -0.10234101 0.026104102 -0.29522112 -0.14945523
-0.022033423 -0.42301288 0.5131367 0.121519834 -0.09360124 0.040889524 -0.5212808 0.36345562
0.11765661 -0.0031901675 0.30458388 0.92057604 0.21851812 0.4911342 0.03179419 -0.08702328
0.1543446 0.05569799 0.06682516 0.07174335 -0.353343 -0.28846443 -0.22947288 0.08691553
-0.06709932 -0.640986 -0.08955899 -0.09144484 0.48100585 0.2846216 0.13780896 0.48701343
0.01717818 0.004703626 -0.024743006 -0.08774342 -0.5507234 0.6656502 0.1747927 -0.31684056
00000000: 470e ca3d 0fc4 2ebe 1afc 893e b3ee fa3b
00000010: 14d5 383e f00d 833e 6be8 16be 17e1 e93d
00000020: d3e7 383e 0d3f 043e 9507 c83e 5d6a e63e
00000030: 214b 1d3e d9e7 6abd f6fd c43e 7d7c 173e
00000040: f86f d9bd 590a 1d3e 0ca6 d53e 9ccc 16be
00000050: b1ba 44be e554 413d 165b ab3d c6f2 2cbe
00000060: fe67 27be 0141 d83e 7a29 a73e 6b29 9ebe
00000070: c8c2 42be 2523 8ebe 938e e4be d779 983d
00000080: 7f70 663e 298b 813e 8eca f53d a618 3b3e
00000090: 230a 3fbe 521b 213e a536 86be ed1d 1cbe
000000a0: 6fb9 8e3e e8fb a43c 74a0 943e cdfa 043e
000000b0: dc64 203d ee69 65be 3052 123d 7dd7 fe3e
000000c0: 1acb 95be d309 b5bd 7222 c43d a26d 543d
000000d0: 52ad 733f 94bb 0e3f cb1d a0be 7b13 483d
000000e0: 81d9 4e3d 2f65 433e 2064 563d 6a8f a6bd
000000f0: b2c8 27bf 5d77 2dbd fe10 083e b719 c8bd
00000100: 9e5f 8dbe 4655 eebc 2fe9 e6be c795 93be
00000110: 2f2a 853d de2e 9cbd 0fad bb3c ae18 4fbd
00000120: e694 aebd 40c0 40bd 37d6 b43d d8f1 a33e
00000130: 1e3b 21be 1090 663e 43c7 2cbd c2c7 32be
00000140: befe 6ebe 500d a53e 5c87 e23e a688 fe3e
00000150: 58ce 9dbd 7be4 193d 219e 4cbf 6c63 41bd
00000160: f112 6abe ea06 b43e 2f60 bd3c 11cb 30be
00000170: b5b3 9ebe ebbb c4bd 8c71 f2be 91f8 263d
00000180: bbb3 893e 2370 a4bd fea7 b33e 7b1b 443d
00000190: 7cc4 8b3d 5996 093e 14b5 b63d 708a d53d
000001a0: bcbe 3bbe d273 fabd d85e 4e3d 7c3b 27be
000001b0: bc39 44be 1c0d 613e b343 9dbd a866 4dbe
000001c0: fb34 963d c087 723d 0430 833c dd58 193e
000001d0: 92c6 8f3e e7cc 423e 6dd4 40be db3d eb3d
000001e0: 2000 98be 39ca f43d 3aed d03e 6809 af3b
000001f0: 126a 89be 5e4c ce3e 323d 0cbe 3cd7 503e
00000200: e1b4 573d 3e74 583e fde2 5e3e e0dd 8dbe
00000210: 30c6 a0bd c709 52bd cf93 a03e 2ee0 df3e
00000220: dc4d 63be 8037 203e c0eb f63d 4146 a0be
00000230: 0340 1fbe 276c ea3e 2876 81be 1b3d 633d
00000240: d2c8 863e 7f24 f1bc 1b11 d13e f2b5 8abe
00000250: 0b59 32be 8f0b 1f3f 2526 7f3d 7059 903e
00000260: 7c82 63be 82e8 fe3a 7416 d4bd 025d 283d
00000270: d908 2a3e 98c9 c33e 4b29 babd 1223 07be
00000280: 198c 38be af98 953e 025e 833e 92c8 92bd
00000290: a0e3 16be 63a9 9fbd 02b1 24bd 4ffc f9bd
000002a0: ce93 173d 3543 213e ce98 a23e b2c6 a13e
000002b0: 2223 88be 370f 833d 072b fd3d 949d b5bd
000002c0: ce81 903e 119e 42be 2cde bebd 3e4c 8b3f
000002d0: 175b be3d c35b 37bc bb81 8a3e 21e7 23be
000002e0: 29d8 363e 4184 b6be eab6 4d3e 2ee9 443e
000002f0: eb1c 5ebc 7094 b13e f4ab 08be 6cfc f2bd
00000300: 474d 03be 573b 20bd 73f8 9a3d e98e e63e
00000310: fc17 b1bd 8e50 c03e 45f5 cb3d b2c1 4d3d
00000320: 7d5c 853d 894b 683d 75e8 3d3b 3989 e9be
00000330: dbfd 2bbe 0e35 b73e ad3c b2be 1d27 47bd
00000340: ea2e 9f3e 0398 10be c35e 013e 40e6 13be
00000350: 2a98 d1bd 45d8 d53c 3927 97be cb0a 19be
00000360: 707f b4bc 2595 d8be ed5c 033f 64df f83d
00000370: 02b2 bfbd c67b 273d a972 05bf db16 ba3e
00000380: f3f5 f03d 2112 51bb 6bf2 9b3e dfaa 6b3f
00000390: 37c3 5f3e f175 fb3e a03a 023d 4339 b2bd
000003a0: 830c 1e3e 9323 643d a1db 883d 2dee 923d
000003b0: 60e9 b4be 9cb1 93be f0fa 6abe c500 b23d
000003c0: 5e6b 89bd a917 24bf b46a b7bd 6f47 bbbd
000003d0: 6646 f63e ecb9 913e cb1d 0d3e d359 f93e
000003e0: 41b9 8c3c e020 9a3b d8b1 cabc d2b2 b3bd
000003f0: 35fc 0cbf 0d68 2a3f dcfc 323e ed38 a2be

lstm.weight_hh_l0 f4 [128, 32]
0.4088596 -0.4268458 0.053041995 0.27121618 -0.33675697 -0.05856085 -0.39106783 -0.67707837
0.31434864 -0.8185043 0.5312669 -0.3445931 -0.29308686 -0.18040615 0.19135207 0.3476424
-0.11246887 -0.6350273 0.67053443 0.183363 -0.7322233 0.46433124 -0.22186516 -0.5329068
-0.38937244 -1.0002195 -0.39309788 -0.32554826 0.1466812 -0.5090471 -0.3892036 -0.20787792
0.11349158 0.8941873 0.45579213 -0.062529646 -0.2568642 0.46086976 0.18938406 0.19748445
0.19801745 -0.027506776 -0.23348185 -0.45019916 0.09708549 0.6045477 0.0195943 0.4041359
0.5314021 0.36997157 -0.1384756 0.105414 -0.574937 0.3844316 -0.6292649 0.42921653
0.23542581 -0.46595374 -0.7834326 0.83016723 -0.03607385 0.30590764 0.8465422 0.14356263
0.8827337 0.43963337 -0.46440384 -0.51562774 0.073274806 0.032977603 -0.021003556 -0.79847735
-0.015064386 0.61721855 -0.26653904 -0.44131088 0.16999984 -0.1119066 0.10266301 -0.08459328
0.25328797 -0.1650838 0.28503853 -0.25897202 0.6523986 -0.08646319 -0.053342935 -0.61747015
-0.42708704 -0.3660133 0.1357469 -0.12538332 0.24375184 0.30847305 -0.37489977 -0.7628508
-0.07520917 0.21137315 -0.41346636 0.06428172 0.088362426 -0.3306245 -0.5314609 0.19891351
0.5831912 0.63557917 0.6377074 -0.3932578 0.5757019 -0.36535498 0.049613792 0.045790505
-0.3762464 -0.9547126 0.38374707 0.35831702 0.36379874 0.034801826 0.642482 -0.36401898
-0.84721774 0.21777564 -0.6357893 0.5198229 -0.17747219 -0.0653934 -0.60792637 0.46696672
0.35659844 0.58152056 -0.08537554 -0.07050893 0.15371099 -0.34160745 -0.27108008 -0.49087033
0.60936064 -0.0472119 0.03163921 -0.16214891 0.79443544 0.12069198 0.6421163 -0.029897967
0.023431256 0.07875389 0.19377685 0.59119874 -0.25850752 -0.18066835 -0.39536634 -0.29639435
-0.57932144 0.36000925 -0.67341036 0.11615379 0.54638606 -0.1808458 -0.19703986 -0.2229715
0.025353413 0.21260332 -0.33615646 0.1943158 -0.21589985 -0.3293106 -0.20821105 -0.04681822
-0.12626891 0.2275689 0.29012582 -0.22131933 0.06389098 -0.26443413 0.2432584 0.35904196
-0.05704597 -0.33761582 0.35990438 0.43179673 0.033573423 -0.3640011 0.32362795 -1.0692226
-0.25377572 0.48697048 0.08962034 0.43916756 0.39732927 -0.03536491 -0.19050737 -0.23678339
-0.3257223 0.5693676 -0.33703548 0.0784203 0.5655251 -0.4686677 0.24697815 0.09051384
0.10693302 -0.09740388 0.3692039 -0.40120035 0.007262844 -0.90221447 -0.092866644 -0.24870963
-0.6440715 -1.0398657 -1.0623037 0.061154857 -0.64635515 -0.39020243 -0.5261939 -0.7071567
0.10171622 0.3737285 -0.5201846 -0.19132344 -0.023272535 -0.11155322 -0.20847441 -0.55766475
0.85298985 0.3006134 -0.24475212 -0.53446484 -0.49820197 0.26399404 -0.1367095 0.25796443
0.12639673 -0.03591755 0.25378567 -0.77397317 0.30257288 0.6020243 0.06898539 0.1447421
0.28234705 -0.003574047 -0.17434391 0.16034745 0.65145165 -0.05390092 0.08922497 -0.7428046
-0.20539242 0.49174345 -0.417555 0.45227468 0.26834595 0.6062524 -0.46404305 -0.16063759
00000000: 0c56 d13e 888b dabe 9042 593d d9dc 8a3e
00000010: 696b acbe 80dd 6fbd 0b3a c8be 0255 2dbf
00000020: 4ef2 a03e 7f89 51bf 1c01 083f 826e b0be
00000030: 7b0f 96be 64bc 38be ccf1 433e 2ffe b13e
00000040: 1456 e6bd 2691 22bf 25a8 2b3f 83c3 3b3e
00000050: fc72 3bbf d3bc ed3e 9f30 63be 946c 08bf
00000060: d35b c7be 3107 80bf 2044 c9be 43ae a6be
00000070: 9933 163e e950 02bf b245 c7be f3dd 54be
00000080: 466e e83d 75e9 643f 965d e93e 8b0f 80bd
00000090: b483 83be 1ff7 eb3e e5ed 413e 5d39 4a3e
000000a0: 16c5 4a3e e455 e1bc de15 6fbe 8180 e6be
000000b0: c2d4 c63d a3c3 1a3f 3a84 a03c e7ea ce3e
000000c0: f809 083f ea6c bd3e 8ccc 0dbe 4ce3 d73d
000000d0: 122f 13bf 38d4 c43e 8117 21bf 45c2 db3e
000000e0: 7713 713e 7d91 eebe 0a8f 48bf d785 543f
000000f0: 2cc2 13bd ed9f 9c3e fdb6 583f 1502 133e
00000100: d6fa 613f a017 e13e 57c6 edbe 2e00 04bf
00000110: 1a11 963d 8613 073d a60f acbc 0369 4cbf
00000120: 9dd0 76bc 0902 1e3f ce77 88be 80f3 e1be
00000130: 7014 2e3e 4a2f e5bd fc40 d23d 3e3f adbd
00000140: f6ae 813e ba0b 29be 92f0 913e fb97 84be
00000150: 9803 273f 9d13 b1bd 1f7e 5abd 8612 1ebf
00000160: 27ab dabe 1866 bbbe 3c01 0b3e 7c64 00be
00000170: 159a 793e 2ef0 9d3e ddf2 bfbe 314a 43bf
00000180: 4407 9abd 3472 583e ddb1 d3be 22a6 833d
00000190: 5cf7 b43d 9d47 a9be d20d 08bf fcaf 4b3e
000001a0: 054c 153f 51b5 223f cb40 233f 1659 c9be
000001b0: 3361 133f cf0f bbbe d537 4b3d d38e 3b3d
000001c0: 5ea3 c0be 0c68 74bf 7f7a c43e 5475 b73e
000001d0: d443 ba3e 5c8c 0e3d b379 243f b260 babe
000001e0: 43e3 58bf 9400 5f3e 16c3 22bf 1d13 053f
000001f0: 45bb 35be faec 85bd 10a1 1bbf 4316 ef3e
00000200: 1294 b63e 88de 143f 5fd9 aebd fc66 90bd
00000210: 6a66 1d3e 2ce7 aebe 02cb 8abe 5b53 fbbe
00000220: 0fff 1b3f 4461 41bd 1e98 013d 5d0a 26be
00000230: 1f60 4b3f 5b2d f73d bc61 243f 95ec f4bc
00000240: e8f2 bf3c b849 a13d 706d 463e cd58 173f
00000250: 195b 84be 2001 39be 756d cabe 00c1 97be
00000260: 694e 14bf 2253 b83e 9f64 2cbf 0ae2 ed3d
00000270: f5df 0b3f a42f 39be d1c4 49be a452 64be
00000280: f6b1 cf3c afb4 593e b31c acbe b9fa 463e
00000290: da14 5dbe 669b a8be 4735 55be 76c4 3fbd
000002a0: a34c 01be d207 693e 5f8b 943e 89a1 62be
000002b0: 46d9 823d e963 87be bb18 793e 59d4 b73e
000002c0: 09a9 69bd fbdb acbe 6345 b83e 7614 dd3e
000002d0: 4984 093d 5a5e babe 90b2 a53e 49dc 88bf
000002e0: e4ee 81be 3254 f93e de8a b73d 92da e03e
000002f0: be6e cb3e ccda 10bd 5d14 43be 5877 72be
00000300: 13c5 a6be 13c2 113f ea8f acbe d29a a03d
00000310: 41c6 103f 36f5 efbe d7e7 7c3e 525f b93d
00000320: b3ff da3d af7b c7bd 4b08 bd3e 226a cdbe
00000330: 27fd ed3b 87f7 66bf de30 bebd bdad 7ebe
00000340: dfe1 24bf 521a 85bf 91f9 87bf 847d 7a3d
00000350: 8877 25bf 9dc8 c7be a5b4 06bf 3908 35bf
00000360: 9850 d03d 5859 bf3e d12a 05bf 4bea 43be
00000370: 0ba6 bebc 0476 e4bd 517a 55be 1ec3 0ebf
00000380: 8b5d 5a3f 00ea 993e 4da0 7abe b0d2 08bf
00000390: 5414 ffbe 3a2a 873e 93fd 0bbe ea13 843e
000003a0: 256e 013e 481e 13bd 32f0 813e 1b23 46bf
000003b0: d5ea 9a3e 441e 1a3f 3648 8d3d 4637 143e
000003c0: cb8f 903e 8f3a 6abb 3687 32be 1f32 243e
000003d0: 89c5 263f 36c7 5cbd 95bb b63d 7128 3ebf
000003e0: 6452 52be ccc5 fb3e c5c9 d5be 8c90 e73e
000003f0: a464 893e 5b33 1b3f 0d97 edbe 2e7e 24be

lstm.bias_ih_l0 f4 [128]
0.6734706 0.38080394 0.07904954 0.5649384 0.41484037 0.27718225 0.31697175 0.332849
0.105645515 0.19925761 0.30974337 0.10835053 0.14646678 0.38492495 0.33402172 0.4390952
0.2567145 0.41730645 0.36256972 0.42505273 -0.0694731 0.3808365 0.22987743 0.15530261
0.47365442 0.32125977 0.33790186 0.28375545 0.30577993 0.3075893 0.03527506 0.3511046
0.33172598 0.06281736 0.068212666 -0.050845914 0.01978263 0.021244938 0.45063826 0.06454578
0.2946017 0.022753365 0.21185008 0.16524021 -0.1726418 0.30049837 0.01095348 0.3302098
0.03564666 0.14541543 0.016917448 0.1107257 0.38710198 -0.009554646 0.35776928 0.17376828
0.21629107 -0.11369518 0.11510322 -0.060408764 0.3830795 0.033421706 0.17825708 0.2412377
-0.07958297 -0.013404947 -0.004821149 0.09612015 -0.1877061 -0.09444836 0.07802638 -0.20511556
-0.10887321 -0.1284575 -0.18899094 -0.18519664 0.12665786 -0.06807173 0.14558545 -0.0913887
0.03102038 -0.16150625 -0.051301472 -0.038833167 0.042206027 -0.13334693 0.07982746 -0.09975802
-0.26113912 0.19618562 0.06919429 -0.095259264 0.09206861 0.07579975 0.17680357 -9.9772624e-05
0.26859874 0.30588174 0.38320848 0.6163438 0.6691201 0.4907715 -0.017394789 0.45170355
0.45922017 0.314147 0.39714608 0.122314565 0.22977763 0.5871128 0.22094221 0.39855418
0.40913656 0.34171313 0.29637396 0.2914347 0.34363395 0.19872986 0.614794 0.32437736
0.27727616 0.3462154 0.3158257 0.1659833 0.33434585 0.31296468 0.22696382 0.33533797
00000000: 9268 2c3f bcf8 c23e bae4 a13d ce9f 103f
00000010: f565 d43e d5ea 8d3e 1f4a a23e 2f6b aa3e
00000020: ad5c d83d 300a 4c3e af96 9e3e e2e6 dd3d
00000030: 63fb 153e e214 c53e e504 ab3e 16d1 e03e
00000040: 1570 833e 31a9 d53e bda2 b93e 83a0 d93e
00000050: ea47 8ebd 00fd c23e fd64 6b3e a607 1f3e
00000060: d582 f23e 297c a43e 7901 ad3e 6548 913e
00000070: 308f 9c3e 587c 9d3e 957c 103d fbc3 b33e
00000080: fdd7 a93e 63a6 803d 15b3 8b3d ce43 50bd
00000090: 2f0f a23c dd09 ae3c 0fba e63e 9430 843d
000000a0: 09d6 963e 4465 ba3c 3aef 583e bb34 293e
000000b0: 03c9 30be ecda 993e 3a76 333c 4211 a93e
000000c0: 3b02 123d c8e7 143e 7696 8a3c 28c4 e23d
000000d0: 3b32 c63e 178b 1cbc 892d b73e 50f0 313e
000000e0: 687b 5d3e 05d9 e8bd 3dbb eb3d 2e6f 77bd
000000f0: ff22 c43e 33e5 083d 0689 363e 0407 773e
00000100: 65fc a2bd 6ca0 5bbc bbfa 9dbb a4da c43d
00000110: 0736 40be 246e c1bd 4bcc 9f3d d009 52be
00000120: ebf8 debd 5d8a 03be d786 41be 30a4 3dbe
00000130: 99b2 013e 3169 8bbd 5a14 153e 002a bbbd
00000140: 741e fe3c e561 25be 7e21 52bd 870f 1fbd
00000150: 3ae0 2c3d 198c 08be 947c a33d ef4d ccbd
00000160: 07b4 85be e2e4 483e bcb5 8d3d 4a17 c3bd
00000170: 788e bc3d e63c 9b3d ff0b 353e 053d d1b8
00000180: c685 893e 889c 9c3e e733 c43e b5c8 1d3f
00000190: 744b 2b3f 6746 fb3e 847f 8ebc b045 e73e
000001a0: e81e eb3e e0d7 a03e bb56 cb3e 0f80 fa3d
000001b0: d44a 6b3e 064d 163f ad3e 623e 4b0f cc3e
000001c0: 597a d13e 06f5 ae3e 54be 973e ee36 953e
000001d0: caf0 af3e d77f 4b3e 2463 1d3f ca14 a63e
000001e0: 24f7 8d3e 2543 b13e e8b3 a13e 87f7 293e
000001f0: 612f ab3e e83c a03e 3469 683e 6bb1 ab3e

lstm.bias_hh_l0 f4 [128]
0.46742204 0.121315 0.26025972 0.5509869 0.56604975 0.50532126 0.34930918 0.40516952
0.12855098 0.19244719 0.35157248 0.093667805 0.23411527 0.35989672 0.19668289 0.55094075
0.15537584 0.42773518 0.35465464 0.35930374 -0.15501685 0.3280335 0.3183671 0.035022385
0.38630602 0.50081545 0.24248171 0.14086396 0.32354718 0.3180719 0.25890464 0.11879396
0.25502813 0.0065914765 0.23123015 0.05601914 0.038517866 -0.038836606 0.26399842 0.05866149
0.47327587 0.017903276 0.06689851 0.2759316 -0.12152152 0.2530559 0.19654071 0.37305588
0.25693312 0.11949352 -0.018804729 0.07023963 0.15565564 0.11085467 0.10243902 -0.0024300513
0.07934244 -0.097002424 0.28265142 0.12825449 0.1212466 0.15976602 0.21886167 0.19238156
-0.091494955 0.10795967 0.017727097 0.04746534 -0.15857787 -0.07254851 -0.19770302 -0.19743764
0.23007242 -0.05126838 0.019505795 -0.15077278 0.19728418 0.23647982 0.15221846 0.0868032
-0.03957505 0.05040814 0.13128872 0.1954035 0.017567154 0.024621846 -0.12534265 -0.031026352
-0.20040333 0.021790853 -0.075187296 0.024973413 0.030011756 -0.03718626 -0.12323568 -0.13886295
0.40368152 0.42017305 0.46667662 0.6083507 0.4862104 0.22169429 0.10354563 0.59635997
0.21579863 0.44788265 0.53917426 0.12981139 0.14127713 0.3245391 0.3142233 0.30758116
0.3105922 0.22758007 0.15178756 0.20799014 0.23722142 0.351691 0.4798634 0.32724857
0.46701196 0.6573645 0.20823327 0.18839918 0.50493896 0.33127278 0.05784304 0.24643695
00000000: f151 ef3e 0074 f83d c340 853e 7a0d 0d3f
00000010: a3e8 103f bc5c 013f a7d8 b23e 6172 cf3e
00000020: dea2 033e e010 453e 4f01 b43e e8d4 bf3d
00000030: eabb 6f3e 6244 b83e 3d67 493e 740a 0d3f
00000040: d81a 1f3e 1b00 db3e 4b95 b53e a9f6 b73e
00000050: bdbc 1ebe 02f4 a73e 0301 a33e a273 0f3d
00000060: e7c9 c53e 7135 003f 204d 783e a43e 103e
00000070: faa7 a53e 52da a23e 268f 843e 3f4a f33d
00000080: 0c93 823e 50fd d73b 99c7 6c3e 5374 653d
00000090: e9c4 1d3d 2213 1fbd cd2a 873e 0847 703d
000000a0: 3751 f23e e4a9 923c 1602 893d e846 8d3e
000000b0: 46e0 f8bd 8b90 813e f841 493e 2e01 bf3e
000000c0: bd8c 833e 05b9 f43d 600c 9abc ccd9 8f3d
000000d0: 3164 1f3e c607 e33d 8dcb d13d 7f41 1fbb
000000e0: 4a7e a23d 35a9 c6bd b0b7 903e 2555 033e
000000f0: 2350 f83d b499 233e 461d 603e acff 443e
00000100: b561 bbbd f619 dd3d 6b38 913c 046b 423d
00000110: 3d62 22be 5094 94bd a972 4abe 182d 4abe
00000120: 1b98 6b3e cbfe 51bd 9eca 9f3c 2e64 1abe
00000130: dd04 4a3e c427 723e 28df 1b3e e0c5 b13d
00000140: 7319 22bd c478 4e3d 8d70 063e db17 483e
00000150: fee8 8f3c c1b3 c93c d359 00be fa2a febc
00000160: 8836 4dbe bb82 b23c ccfb 99bd 0b95 cc3c
00000170: 37db f53c 9f50 18bd fd62 fcbd 1732 0ebe
00000180: 58af ce3e ec20 d73e 3df0 ee3e dfbc 1b3f
00000190: 92f0 f83e d403 633e bb0f d43d 0cab 183f
000001a0: 51fa 5c3e e050 e53e 5307 0a3f 47ed 043e
000001b0: f4aa 103e fd29 a63e e0e1 a03e 477b 9d3e
000001c0: f105 9f3e c00a 693e 336e 1b3e 5efb 543e
000001d0: 2cea 723e d810 b43e a8b0 f53e 208d a73e
000001e0: 311c ef3e 0a49 283f 1a3b 553e b7eb 403e
000001f0: ae43 013f 969c a93e d3ec 6c3d f859 7c3e

fc.weight f4 [1, 32]
2.2168252 1.7222393 -0.53100955 1.760934 1.1776067 -0.117463514 1.8454851 -0.569121
1.1871654 -0.38284895 -2.17035 -0.8200311 1.6182182 0.2387565 -0.53353107 -1.8252267
0.80835605 1.7284529 -1.1554672 -1.0904198 -1.3319381 -1.9002852 2.6094837 -1.5452467
0.7458129 -1.1496462 -1.5637566 -1.4752544 -1.5348918 3.058721 -2.3424118 -1.2308893
00000000: 77e0 0d40 5672 dc3f 3ef0 07bf 4966 e13f
00000010: d1bb 963f b690 f0bd db38 ec3f eab1 11bf
00000020: 09f5 973f c704 c4be 04e7 0ac0 8fed 51bf
00000030: c621 cf3f 957c 743e 7e95 08bf 07a1 e9bf
00000040: 6cf0 4e3f f23d dd3f 59e6 93bf e092 8bbf
00000050: f37c aabf 8c3c f3bf c801 2740 a5ca c5bf
00000060: 98ed 3e3f 9b27 93bf 2d29 c8bf 23d5 bcbf
00000070: 5677 c4bf 16c2 4340 13ea 15c0 c88d 9dbf
