fut_opt_lih_features_prepare/bm_fut_lih_02.pth (torch, 25158 bytes, 6 tensors)

embedding.weight f4 [19, 8]
0	0x3f04689e	0.51722133
1	0x3e777f0a	0.24169555
2	0x3fbe8557	1.4884442
3	0xbe84384c	-0.258242
4	0xbf4c9fbb	-0.7993123
5	0x3e6cb89d	0.231173
6	0x3fb7062e	1.4298761
7	0x3fe3e006	1.7802742
8	0x3fd01445	1.6256186
9	0x3fcbd393	1.5923942
10	0xbfba65ed	-1.4562355
11	0x3f7a9954	0.9789021
12	0xbf1a4838	-0.6026645
13	0xbd95d76a	-0.073164776
14	0x3e671ca7	0.22569524
15	0xbf9e5d0d	-1.2372147
16	0x3ff995ab	1.94988
17	0x3ee79451	0.45230344
18	0xbfc3ca9d	-1.5296208
19	0x3feca1c7	1.848687
20	0xbf594255	-0.8486684
21	0xbff13a36	-1.884589
22	0xbfa62d22	-1.2982523
23	0x3f4398c5	0.7640498
24	0x3e66a7e8	0.22524989
25	0xbf8c4161	-1.0957452
26	0xc00ffcf4	-2.249814
27	0xbfd95b6c	-1.6981025
28	0x3fd9b38a	1.7007916
29	0xbfdb348b	-1.712541
30	0x3dbc7b2a	0.09203179
31	0x3f2e3bde	0.680601
32	0xbfafeebe	-1.3744733
33	0xbdb450e1	-0.08804489
34	0x3f530f61	0.8244534
35	0xbfae7648	-1.3629847
36	0xbfaae011	-1.334963
37	0x3fa9be06	1.3261116
38	0xbeb19145	-0.34681144
39	0x3f4fc801	0.81164557
40	0xbf6f551a	-0.9348923
41	0xbde86c8f	-0.11348831
42	0x3da749f9	0.08168406
43	0x3fedb92b	1.8572134
44	0x3f8fa1fd	1.122131
45	0x3f6f77df	0.93542284
46	0x3ef19fdb	0.47192273
47	0xbf0cd54a	-0.55012953
48	0xbef870be	-0.48523515
49	0xc006bdd6	-2.1053367
50	0xbf1de6e1	-0.6168042
51	0x3f4d0195	0.8008054
52	0x3e59c52e	0.21266624
53	0xc032b32c	-2.7921858
54	0xbf146245	-0.5796245
55	0x3fe1b000	1.7631836
56	0xbf99dc8b	-1.2020429
57	0xbfd2127f	-1.6411895
58	0xbea44b39	-0.3208864
59	0xbfa11956	-1.2585857
60	0x3f580be0	0.8439312
61	0xbfa32dc9	-1.2748348
62	0xbf7bccf7	-0.98359627
63	0xbf51ab41	-0.8190194
64	0xc0314d5b	-2.7703464
65	0xbfc6c81a	-1.5529816
66	0x3d925fa3	0.071471475
67	0x3f2252f0	0.634078
68	0xbfeba853	-1.8410743
69	0x3ff77f6c	1.9335761
70	0x3ebbc482	0.3667336
71	0xbfa9337b	-1.3218836
72	0xbed77bdf	-0.42086694
73	0xbdef809a	-0.11694451
74	0x3f038729	0.51378113
75	0x3e1fb5dd	0.15596719
76	0x3f322bb2	0.69597924
77	0x3f4b55b9	0.7942768
78	0x3f797b5f	0.97453874
79	0x3eb0ecca	0.34555656
80	0xbdbb4c43	-0.09145405
81	0xbf86636d	-1.0499092
82	0x3ff1ade5	1.8881193
83	0xbf01378a	-0.5047537
84	0xbdb8324d	-0.08993969
85	0xbf8f03e2	-1.117306
86	0x3f540378	0.8281779
87	0xbf58f32f	-0.8474607
88	0x3ed24d04	0.41074383
89	0xbdf67516	-0.12034051
90	0x3f54b3ce	0.8308686
91	0x3e21133d	0.15729995
92	0x3fc28d28	1.5199327
93	0xbeb15cf0	-0.34641218
94	0x3f106b03	0.56413287
95	0xbf2ac8dd	-0.66712743
96	0xbf87ca55	-1.0608622
97	0x3fc119ef	1.5086039
98	0xbfc90e13	-1.570742
99	0xbef6f447	-0.48233244
100	0x3e57092c	0.20999593
101	0x3ff620e9	1.9228793
102	0xbda41ae0	-0.080129385
103	0x3ea666fd	0.3250045
104	0x3eeb836d	0.45998707
105	0x3f1986b3	0.5997116
106	0x40409133	3.0088623
107	0x3f88fec0	1.0702744
108	0x3faf1770	1.3679028
109	0xbeaf83b9	-0.34280184
110	0xbeb25aa9	-0.34834793
111	0x400930e3	2.1436088
112	0xbf1a88a6	-0.6036476
113	0x3fb45649	1.4088832
114	0xbf2548d9	-0.6456428
115	0xbe7e54a7	-0.2483698
116	0xbe912b7f	-0.28353497
117	0xbf63586e	-0.8880681
118	0xbf866e29	-1.0502368
119	0x3f2b9302	0.6702119
120	0xbf1ddf47	-0.6166882
121	0x3f32ef30	0.6989622
122	0xbf026f15	-0.5095075
123	0xbd61599b	-0.055017095
124	0x3f18e9e2	0.59731877
125	0xbea3501b	-0.31897053
126	0x3e34a5be	0.1764135
127	0x3fb8b3e3	1.4429897
128	0xbf82d4b7	-1.0221165
129	0x3eaf835d	0.3427991
130	0xbf277e8f	-0.6542749
131	0x3f0d2b4a	0.5514418
132	0xbcc4a367	-0.024003698
133	0xc001a80c	-2.0258818
134	0x3f7d7a2f	0.9901456
135	0xbfbf6a15	-1.4954249
136	0x3e583c2b	0.21116702
137	0xbdf9c136	-0.12195055
138	0xbe8a1dd3	-0.2697588
139	0x3ff01ea2	1.8759348
140	0x3ec4eeda	0.3846348
141	0x3fcd9a4b	1.6062711
142	0xbdf06132	-0.117372885
143	0xbf74832f	-0.9551267
144	0x3f0a9364	0.5413115
145	0xbfdf385b	-1.7439073
146	0x3eb95dad	0.3620428
147	0x3eedd282	0.46449667
148	0x3f9d5cac	1.2293906
149	0xbdd97e9e	-0.106198534
150	0x3f734a3a	0.95035136
151	0xbe8625eb	-0.26200804

lstm.weight_ih_l0 f4 [128, 8]
0	0xbd2c7428	-0.042102963
1	0x3d86d834	0.06584206
2	0xbe296cd4	-0.16545421
3	0xbe212749	-0.15737642
4	0x3df5f7ef	0.1201018
5	0x3d901e66	0.07037048
6	0x3ddb4488	0.10706431
7	0xbd5169d0	-0.0511263
8	0x3d38dca3	0.04513229
9	0xbd93c8f8	-0.07216066
10	0x3dcfa985	0.10139755
11	0xbe351381	-0.17683221
12	0xbe013470	-0.1261766
13	0x3d948f78	0.07253927
14	0xbd788401	-0.060672764
15	0xbd667f1c	-0.056273565
16	0x3e4acb33	0.19804077
17	0x3ea53d84	0.32273495
18	0xbdcf032b	-0.10108026
19	0x3dddba8e	0.10826598
20	0x3c4e2664	0.012582395
21	0x3e1223f9	0.14271535
22	0x3dcd0fd1	0.10012782
23	0xbda62864	-0.08113173
24	0xbe52bf2e	-0.20580742
25	0xbd1607a0	-0.036628366
26	0xbd0dd7b3	-0.034629535
27	0xbe044d93	-0.12920217
28	0xbd9ceea8	-0.076627076
29	0x3e7ee552	0.24892166
30	0xbd2ed486	-0.042683147
31	0xbe0e7b65	-0.13914259
32	0xbddd12c1	-0.10794593
33	0xbe65f7e0	-0.22457838
34	0x3ca8d692	0.020610128
35	0x3e19fc00	0.15037537
36	0xbddd00e2	-0.10791184
37	0x3dbfeae0	0.09370971
38	0x3dd7ef54	0.10543695
39	0xbd2f7546	-0.04283645
40	0x3c6c378d	0.014417541
41	0xbd68ac16	-0.05680474
42	0xbe48b2f7	-0.1959952
43	0xbdd04f50	-0.10171378
44	0x3da4364c	0.08018169
45	0x3e03df12	0.12878063
46	0xbe0b152a	-0.13582292
47	0xbd858116	-0.06518762
48	0xbe9eeeab	-0.31041464
49	0xbcbc3b56	-0.022977512
50	0x3db30750	0.08741629
51	0xbe95815a	-0.2920025
52	0xbe5bf3bf	-0.214797
53	0x3d7660e6	0.060151003
54	0x3e185c7d	0.14879031
55	0x3e536707	0.2064477
56	0xbe0a8154	-0.13525897
57	0x3db498dc	0.08818218
58	0xbe194a37	-0.14969717
59	0x3dc40338	0.095709264
60	0xbe5ad188	-0.21368992
61	0x3dd91740	0.10600138
62	0xbd3b5588	-0.045735866
63	0xbb32909d	-0.002724684
64	0xbe7ae127	-0.24499951
65	0xbe005354	-0.12531787
66	0x3d757c5e	0.05993306
67	0xbe7f4110	-0.24927163
68	0x3d805f0a	0.06268127
69	0x3e94a35c	0.29030883
70	0x3ccdbb7e	0.025113817
71	0xbe33e2c5	-0.17566974
72	0x3db7f58b	0.089823805
73	0xbd546004	-0.05184938
74	0xbda89d7c	-0.08233163
75	0xbe28f04c	-0.16497916
76	0x3db6a371	0.08917893
77	0x3c80e522	0.015734259
78	0xbd4fd63e	-0.050741427
79	0x3d840501	0.06446267
80	0xbdef61fb	-0.1168861
81	0xbe53b714	-0.20675308
82	0xbdcaa9fe	-0.09895705
83	0x3d8d8b78	0.06911367
84	0x3dbcaf9b	0.092131816
85	0xbdb80c22	-0.08986689
86	0xbd23fbcd	-0.040035058
87	0x3e09475a	0.13406125
88	0x3dcc3811	0.09971631
89	0xbe861667	-0.26188967
90	0x3e86b5d8	0.2631061
91	0x3c6a206a	0.014289955
92	0x3e18a60c	0.14907092
93	0xbe349b74	-0.17637426
94	0x3c187935	0.009306242
95	0xbc46e69d	-0.012139943
96	0x3db2b305	0.087255515
97	0x3e5df2a9	0.21674599
98	0xbe1cb161	-0.1530204
99	0x3e092244	0.13391978
100	0x3cf8f48a	0.030390043
101	0xbe50b755	-0.20382436
102	0xbe696f2c	-0.22796315
103	0x3db21ec0	0.08697271
104	0xbe235e32	-0.15953901
105	0x3dd10885	0.10206703
106	0x3e114169	0.14185108
107	0x3e9c7f90	0.30566072
108	0x3e07d17f	0.1326351
109	0x3e550a58	0.20804727
110	0x3ea955ba	0.33073217
111	0xbe31337b	-0.17304794
112	0xbe2e51dc	-0.17023414
113	0x3ec08ffc	0.3760985
114	0xbeb78e55	-0.35850778
115	0xbddab3e1	-0.106788404
116	0xbd358fd9	-0.044326637
117	0x3db073d6	0.08615844
118	0xbe45abe1	-0.19303848
119	0x3e380985	0.17972381
120	0x3c789d82	0.015174272
121	0x3e60ddac	0.21959561
122	0xbee68989	-0.45026806
123	0x3df7df25	0.12103108
124	0x3e9207a0	0.28521442
125	0x3c68a509	0.014199504
126	0x3dc34379	0.09534354
127	0x3e1b0450	0.15138364
128	0x3e369a0f	0.17832206
129	0x3e24454c	0.1604206
130	0xbc82c0c7	-0.015961064
131	0x3d84200d	0.06451426
132	0xbd33e939	-0.04392359
133	0x3d98938c	0.07450017
134	0xbdb61bee	-0.08892046
135	0xbdf6b0d4	-0.12045446
136	0xbd805f37	-0.06268161
137	0x3b0dd33f	0.0021640805
138	0xbe4753ce	-0.19465563
139	0xbd807662	-0.0627258
140	0xbeaa9cea	-0.3332284
141	0xbbc60dbe	-0.0060441187
142	0x3e77907c	0.2417621
143	0xbd4a8a99	-0.049448583
144	0x3d3557c8	0.044273168
145	0x3c1dc343	0.009629074
146	0xbe8797d1	-0.26483014
147	0xbd1b5fde	-0.037933223
148	0x3dc257e9	0.09489424
149	0x3b29c3d9	0.0025904088
150	0xbd763d08	-0.060116798
151	0x3d1e35d4	0.038625553
152	0xbd8fb83c	-0.07017562
153	0xbd3dc809	-0.046333347
154	0x3e3790dc	0.17926353
155	0x3d0ae85d	0.033913005
156	0x3da5b38f	0.08090889
157	0x3ba7aa17	0.005116712
158	0x3d8bc34b	0.068243586
159	0x3e276c76	0.16349968
160	0xbe0d967b	-0.13826935
161	0x3e7937c4	0.24337679
162	0xbdeb5e9b	-0.11492654
163	0xbdd8c332	-0.105841056
164	0xbdcba26b	-0.09943088
165	0xbe03b191	-0.12860705
166	0x3e103d94	0.1408599
167	0x3e186dbc	0.1488561
168	0xbd8a8626	-0.06763868
169	0x3dfd929e	0.12381481
170	0x3d48a740	0.048987627
171	0x3d8e4def	0.069484584
172	0xbe4f2149	-0.20227541
173	0xb9e32169	-0.00043321706
174	0xbebf0df6	-0.3731534
175	0x3d1d56b8	0.03841278
176	0xbdec1a6c	-0.11528477
177	0x3e245019	0.1604618
178	0xbec225b5	-0.37919393
179	0x3b0ac5dc	0.0021175062
180	0xbe3bc8f2	-0.18338373
181	0xbe197795	-0.14987023
182	0x3e0ac476	0.13551506
183	0xbb66f404	-0.003524066
184	0xbe024421	-0.12721302
185	0x3da3a887	0.079911284
186	0xbe1b3865	-0.15158232
187	0x3e2c2026	0.16809139
188	0x3e2ef511	0.17085673
189	0x3d55693c	0.052102312
190	0x3cd376eb	0.02581354
191	0xbe314f72	-0.17315462
192	0xbcdec7a2	-0.027194802
193	0xbe01049d	-0.12599416
194	0xbdd667a5	-0.104689874
195	0xbda01bad	-0.07817779
196	0xbe2166d6	-0.15761885
197	0x3e670e0a	0.22563949
198	0xbcccb850	-0.02499023
199	0xbe8e88d5	-0.2783877
200	0x3c0ff747	0.008786983
201	0xbd12d8f3	-0.03585143
202	0x3e1d4132	0.15356901
203	0x3e47691e	0.19473693
204	0x3dc82ec4	0.09774545
205	0xbd6ee97a	-0.05832813
206	0xbe4e402e	-0.2014167
207	0xbd9a9b8c	-0.075491995
208	0xbe696972	-0.2279413
209	0xbd9f5cbe	-0.07781361
210	0x3c3eda37	0.011648706
211	0x3e0ad10d	0.13556309
212	0x3e458b9d	0.1929154
213	0x3d38914a	0.045060433
214	0x3dae9ac9	0.08525617
215	0x3dd1862a	0.10230668
216	0xbbbf232a	-0.0058330493
217	0xbeaab9cc	-0.33344877
218	0xbde224fa	-0.11042209
219	0xbbb67b6d	-0.0055689127
220	0xbe233f0b	-0.15942018
221	0x3eb9b643	0.36271867
222	0x3e9855fe	0.29753107
223	0xbddd2a83	-0.10799124
224	0xbd7d60af	-0.061859783
225	0xbd6f5187	-0.05842736
226	0xbe144843	-0.1448069
227	0xbe68cc24	-0.22734123
228	0x3e0153c2	0.12629607
229	0xbd48cd65	-0.049024004
230	0xbb2b55ea	-0.0026143738
231	0xbe22d19a	-0.15900269
232	0xbb850f10	-0.0040606335
233	0x3db3ce7c	0.08779618
234	0x3dc874fe	0.097879395
235	0xbd7adf8f	-0.06124836
236	0x3e891686	0.26774997
237	0x3e6beb74	0.23039037
238	0x3d736299	0.059420202
239	0x3ce320cb	0.027725598
240	0x3e1dbf0a	0.15404907
241	0xbdf20913	-0.11818137
242	0xbea38ce5	-0.31943431
243	0x3e28a344	0.16468531
244	0x3cd25439	0.025674926
245	0xbe20f522	-0.15718511
246	0xbde97102	-0.11398508
247	0x3eb17ed6	0.3466708
248	0xbd7c5e86	-0.061613582
249	0x3dc5942b	0.096474014
250	0x3c32d950	0.010916069
251	0x3c82815e	0.015930828
252	0x3d959a56	0.07304828
253	0x3e4d4ac0	0.20048046
254	0xbc4fe0a5	-0.012687837
255	0x3ea181e2	0.31544405

lstm.weight_hh_l0 f4 [128, 32]
0	0xb98eab97	-0.00027212195
1	0xbeb8f5b4	-0.36124957
2	0x3e272426	0.16322383
3	0xbeb53a94	-0.35396254
4	0xbea8a743	-0.3294011
5	0xbe05586c	-0.13022012
6	0xbd458f67	-0.048232462
7	0x3e8f5906	0.27997607
8	0x3f42d08a	0.76099455
9	0x3b5eedde	0.0034016292
10	0x3e01d566	0.12679061
11	0x3ed15b19	0.40889814
12	0xbd9d8df9	-0.07693095
13	0x3dfc81ac	0.123294204
14	0x3de9a09c	0.11407587
15	0xbdb55f3e	-0.08856057
16	0xbebea514	-0.3723532
17	0x3e13d09b	0.14435045
18	0xbe9bcc08	-0.304291
19	0x3e0e8561	0.13918068
20	0x3e2cb456	0.16865668
21	0x3ea5c1b2	0.3237434
22	0xbe71fe56	-0.23632178
23	0x3dc17d3c	0.09447715
24	0xbd55bacb	-0.052180093
25	0x3f014d63	0.5050871
26	0xbdb56d0b	-0.08858689
27	0xbdf13ac4	-0.11778787
28	0x3e6a6d6d	0.22893305
29	0xbd86a4a0	-0.065743685
30	0xbe2e7722	-0.17037633
31	0xbe078ad1	-0.13236548
32	0x3d768d0b	0.060193103
33	0x3d4ce68d	0.050024558
34	0xbd88cb58	-0.0667941
35	0xbe35ed11	-0.17766215
36	0x3dade107	0.08490186
37	0xbca6b6ee	-0.0203509
38	0x3e30f81b	0.17282145
39	0xbdf7a74c	-0.12092456
40	0xbe2de2aa	-0.16980997
41	0x3c99b7bb	0.018764367
42	0xbdaad159	-0.08340711
43	0xbec52a2d	-0.3850874
44	0x3df610d7	0.12014931
45	0xbb6bae31	-0.003596198
46	0x3d6e2da4	0.058148995
47	0x3e8e7f33	0.2783142
48	0x3d60d842	0.05489374
49	0xbe9fbd5f	-0.31199166
50	0xbe5e4870	-0.2170732
51	0x3e205880	0.1565876
52	0x3e96b9be	0.29438585
53	0xbe8fd7c7	-0.28094313
54	0xbe2aaa76	-0.16666588
55	0x3dcbf532	0.09958877
56	0xbe1e9428	-0.15486205
57	0xbe0431b6	-0.12909588
58	0xbd289d40	-0.04116559
59	0xbe5d8c84	-0.21635634
60	0x3ecadee6	0.39623183
61	0x3e0115bd	0.12605949
62	0xbd6742ba	-0.05646012
63	0x3de0740c	0.10959634
64	0xbe354cfc	-0.17705148
65	0xbba2505e	-0.004953428
66	0x3e58214d	0.21106453
67	0xbe57f0e0	-0.2108798
68	0x3ed4d909	0.41571835
69	0xbe08c8dd	-0.13357873
70	0x3deba60c	0.1150628
71	0xbe3282e1	-0.17432739
72	0x3ea452de	0.32094473
73	0xbdec5537	-0.11539691
74	0x3d9a4a58	0.07533711
75	0xbdd8d2af	-0.1058706
76	0x3e11749e	0.14204642
77	0xbe778c21	-0.24174549
78	0x3cd4059b	0.02588158
79	0x3e1be954	0.15225726
80	0xbf0677f3	-0.5252678
81	0x3e425030	0.18975902
82	0x3cec916a	0.028877933
83	0x3d81ca22	0.06337382
84	0xbe36aad9	-0.1783861
85	0xbe5c9cdc	-0.21544212
86	0xbd6ba7d7	-0.05753311
87	0x3d226507	0.03964713
88	0xbefe00be	-0.4960994
89	0xbd8b5fc8	-0.06805378
90	0x3e9349ec	0.28767335
91	0x3e3c86a8	0.18410742
92	0x3e86a71f	0.26299378
93	0x3c2dca82	0.010607364
94	0xbec0af13	-0.3763357
95	0x3d1a564c	0.037679955
96	0xbe8a4626	-0.27006644
97	0xbed4668d	-0.4148449
98	0xbd09abd4	-0.033611134
99	0xbeb4f86b	-0.35345778
100	0xbda01ae7	-0.07817631
101	0xbea736cd	-0.32658997
102	0x3da2da79	0.079518266
103	0xbe0b7b60	-0.13621283
104	0x3d60df73	0.054900598
105	0x3e28b0d4	0.16473705
106	0xbd03735e	-0.032092445
107	0x3ea19afc	0.31563556
108	0xbde21b33	-0.11040344
109	0xbd8690ba	-0.06570573
110	0x3e12a636	0.14321217
111	0x3d9c07d3	0.0761868
112	0xbd60e123	-0.054902207
113	0xbe935f40	-0.28783607
114	0xbc8f4e33	-0.017493343
115	0x3e34f193	0.17670278
116	0x3e190c80	0.14946175
117	0x3e8fa50a	0.28055602
118	0xbe2a32a0	-0.16620874
119	0xbe6e0a0b	-0.23246019
120	0xbe9a8b04	-0.30184186
121	0x3de652ec	0.11246285
122	0x3e23efcc	0.16009444
123	0x3d8c6219	0.06854648
124	0x3e47a7f5	0.19497664
125	0x3de7cc78	0.11318296
126	0x3f1330c6	0.574963
127	0x3e6a0bba	0.22856036
128	0xbe0577aa	-0.1303393
129	0xbf052171	-0.5200415
130	0xbe8f5054	-0.27990973
131	0x3bbdc770	0.005791597
132	0x3e91f609	0.28508022
133	0xbb06ef95	-0.002058958
134	0x3df79eb5	0.12090818
135	0xbcd33cc4	-0.025785811
136	0x3e208e7c	0.15679353
137	0xbdf7e750	-0.12104666
138	0x3c8a3616	0.016871493
139	0x3e57eee8	0.21087229
140	0xbe22cd4b	-0.15898626
141	0x3d76d230	0.060259044
142	0xbd462073	-0.04837079
143	0xbe5c4a57	-0.21512733
144	0x3e9db82e	0.3080458
145	0x3b845136	0.0040380014
146	0xbda2f9ed	-0.07957826
147	0xbde3285a	-0.11091681
148	0x3d97e4ce	0.07416688
149	0x3efd1d17	0.49436256
150	0xbe6f2e9a	-0.23357621
151	0xbe12d7f1	-0.14340188
152	0xbdc818ac	-0.09770331
153	0x3ea5e6be	0.32402605
154	0xbc0e7bf5	-0.008696546
155	0x3e1a67d6	0.15078673
156	0x3eb5db4b	0.3551887
157	0xbd7c48c6	-0.06159284
158	0xbe4565ca	-0.1927711
159	0x3d6755d6	0.056478344
160	0xbde607b5	-0.11231939
161	0xbe9c2c7a	-0.30502683
162	0x3e611c6b	0.21983497
163	0xbeeb8244	-0.45997822
164	0x3df9ba2e	0.12193714
165	0x3d191c70	0.037380636
166	0x3ce39172	0.027779315
167	0x3b5f6152	0.0034085107
168	0x3e51fea3	0.20507292
169	0xbe1cc20d	-0.153084
170	0xbda78564	-0.08179739
171	0x3e7a4aa4	0.24442536
172	0x389ed9c0	7.574586e-05
173	0x3d8d8a55	0.0691115
174	0x3e92671b	0.28594288
175	0x3e08527e	0.13312718
176	0xbeb2672e	-0.34844345
177	0xbde6a327	-0.112615876
178	0x3d821758	0.06352109
179	0x3ea6f853	0.3261133
180	0xbe6a52c5	-0.22883137
181	0xbd135b2b	-0.035975616
182	0xbd47441b	-0.048648935
183	0x3ce1ad87	0.027548565
184	0x3d5ef193	0.054429602
185	0xbc18a03b	-0.009315546
186	0x3ca85d8f	0.020552425
187	0xbe0731a0	-0.13202524
188	0x3e47b40f	0.1950228
189	0xbdca0559	-0.09864301
190	0xbe6f7605	-0.23384865
191	0xbd7b2228	-0.06131187
192	0xbe534edc	-0.20635551
193	0x3cb7670f	0.02238801
194	0x3e0b3d1d	0.13597532
195	0x3da50635	0.080578245
196	0x3e0f5c46	0.14000043
197	0xbe6b7f59	-0.22997798
198	0x3dbcd2c8	0.09219891
199	0xbeb1cb1f	-0.34725282
200	0xbe2c85b9	-0.16847886
201	0xbdaa3c9e	-0.08312343
202	0x3e0514bd	0.12996192
203	0xbe8f8a1d	-0.2803506
204	0xbeafba37	-0.34321758
205	0xbe9cb3f8	-0.30606055
206	0x3e21bea0	0.15795374
207	0xbe195951	-0.14975478
208	0x3e8dd452	0.2770105
209	0xbeb58fea	-0.3546136
210	0xbe49b318	-0.19697225
211	0x3eb78395	0.35842577
212	0xbdeec680	-0.116589546
213	0xbe763213	-0.2404254
214	0x3efeba14	0.4975134
215	0xbf1321bd	-0.57473356
216	0xbeeab982	-0.45844656
217	0x3e427736	0.18990788
218	0x3ef7e489	0.48416546
219	0x3de1c54a	0.11023958
220	0x3edbd156	0.42933148
221	0x3df18dec	0.117946476
222	0x3d822d57	0.06356304
223	0xbe55a6fe	-0.20864484
224	0x3dddc4f3	0.10828581
225	0x3d402260	0.046907783
226	0xbe53705b	-0.20648329
227	0xbec0d056	-0.37658948
228	0x3d65a515	0.056065638
229	0xbe27df48	-0.16393769
230	0x3dd51c28	0.10405761
231	0x3e25a307	0.16175471
232	0x3ea83533	0.32853088
233	0xbd44a258	-0.048006386
234	0xbe1422e7	-0.14466439
235	0xbe830c1b	-0.25595173
236	0x3ccd0bbf	0.025030015
237	0x3df6b425	0.120460786
238	0xbb47a92e	-0.003046583
239	0x3dbe9d59	0.093073554
240	0x3e3e470c	0.1858179
241	0xbe535be0	-0.20640516
242	0x3d8e3437	0.06943553
243	0x3d6df402	0.058094032
244	0x3e44a397	0.1920303
245	0x3b58e03e	0.0033092643
246	0x3d468967	0.04847088
247	0xbe484c04	-0.19560248
248	0x3e1b8f76	0.15191445
249	0x3e0dc152	0.13843277
250	0xbe1647c7	-0.14675818
251	0xbe816f86	-0.25280398
252	0xbe7de7ac	-0.24795407
253	0x3e00b668	0.12569582
254	0x3e8180f2	0.2529369
255	0x3df4e38e	0.11957465

lstm.bias_ih_l0 f4 [128]
0	0x3d00491c	0.031319723
1	0xbb5a856a	-0.003334368
2	0x3e96208a	0.293217
3	0x3ec10d42	0.37705427
4	0x3e16dd80	0.14732933
5	0x3d0fd28d	0.035112906
6	0x3df330cc	0.11874542
7	0x3e1f0894	0.15530616
8	0x3e91e007	0.28491232
9	0x3db3f522	0.0878699
10	0x3d9c93e3	0.07645395
11	0x3ba8afa5	0.0051478916
12	0x3e4a8127	0.1977583
13	0x3e046a5c	0.12931198
14	0x3e6371b0	0.22211337
15	0x3e36e30a	0.17860046
16	0x3c998d47	0.018744124
17	0x3e8cc3b7	0.2749307
18	0x3e11f740	0.14254475
19	0x3e443c89	0.19163717
20	0xbd5fe8a0	-0.054665208
21	0x3e9f43d7	0.31106445
22	0x3e744560	0.2385459
23	0xbc9822d4	-0.018571295
24	0xbd20c755	-0.039252598
25	0x3db62152	0.08893074
26	0x3caf0fe1	0.021369876
27	0x3e2c256a	0.16811147
28	0xbc5d6e32	-0.013515042
29	0x3e2ed957	0.17075096
30	0x3e90c770	0.2827716
31	0x3e7f9a82	0.24961284
32	0x3e821463	0.2540618
33	0x3e11bb66	0.14231643
34	0x3cdf1fee	0.027236905
35	0xbd5f7c0e	-0.054561667
36	0x3e016459	0.12635936
37	0x3b1dba53	0.0024067357
38	0x3cd6d8eb	0.026226481
39	0xbe246f5c	-0.16058105
40	0xbb7debb8	-0.0038745236
41	0x3de7bc59	0.11315221
42	0xbd91cc62	-0.07119061
43	0x3e306c47	0.17228805
44	0x3d1d5096	0.03840693
45	0xbd53f87d	-0.05175065
46	0x3e277653	0.16353731
47	0x3ddb25b9	0.107005544
48	0x3d369069	0.044571314
49	0xbe1703fa	-0.1474761
50	0x3d0c5184	0.034257427
51	0x3e14af55	0.14520009
52	0xbe254c03	-0.16142277
53	0xbdd30ca8	-0.10305148
54	0x3d90ebec	0.070762485
55	0x3e3e74c6	0.18599233
56	0x3e374775	0.17898352
57	0x3ca7ef68	0.0204999
58	0xbdb2d795	-0.08732525
59	0xbdddcfe0	-0.10830665
60	0x3d3ade83	0.04562236
61	0x3e13af65	0.14422376
62	0xbe14b146	-0.1452075
63	0x3e08aaa3	0.13346343
64	0x3e10ec28	0.14152586
65	0xbe315b26	-0.17319927
66	0xbdc0b825	-0.09410123
67	0xbd8be6c3	-0.06831124
68	0xbe20bfbc	-0.15698141
69	0xbd6b667a	-0.057470776
70	0x3e186dc2	0.1488562
71	0xbe2c8a68	-0.16849673
72	0x3d935548	0.071940005
73	0x3c6d89f9	0.014498227
74	0x3e3a8340	0.1821413
75	0x3bf604dc	0.0075079035
76	0xbdac2f9c	-0.08407518
77	0x3e1e75cb	0.15474622
78	0x3dc17b15	0.09447304
79	0x3dc14fa4	0.09439018
80	0xbd5f22f0	-0.05447668
81	0xbd9f3245	-0.0777326
82	0x3d317442	0.043323763
83	0x3e250674	0.16115743
84	0x3da48e96	0.080350086
85	0x3d46422c	0.04840295
86	0x3c37c4af	0.011216327
87	0xbe401d20	-0.1876111
88	0x3defb982	0.11705305
89	0x3deeeae9	0.11665899
90	0x3d8c34af	0.06845986
91	0xbdfb96f5	-0.12284652
92	0x3d66107c	0.056168064
93	0xbd9d6c9d	-0.07686732
94	0xbbf8c59f	-0.0075919176
95	0xbdedc43f	-0.116096966
96	0x3da240f8	0.07922548
97	0x3e508ad6	0.20365462
98	0x3e9cfbe5	0.3066093
99	0x3e8a1da2	0.26975733
100	0x3d855c07	0.065116934
101	0x3e245a72	0.16050127
102	0x3e292ac7	0.16520225
103	0x3ceeb3df	0.029138504
104	0x3e1660b3	0.14685325
105	0x3d0ed8b3	0.03487463
106	0x3de2cf2d	0.11074672
107	0x3e718bc5	0.23588474
108	0x3d494074	0.049133733
109	0x3e45d707	0.19320308
110	0x3e059dd1	0.13048483
111	0x3d673d39	0.05645487
112	0x3c8879f1	0.016659709
113	0x3b80fa80	0.003936112
114	0x3dea5eac	0.114438385
115	0x3c0718e5	0.008245681
116	0xbd2d05f1	-0.042241994
117	0x3b848476	0.004044111
118	0x3dabb24f	0.08383619
119	0x3da7bd61	0.08190418
120	0xbb74bd4f	-0.0037344282
121	0x3dde40b2	0.108521834
122	0x3d74120d	0.059587527
123	0x3e3f7339	0.18696298
124	0x3c20b887	0.00980962
125	0x3d83e5e5	0.06440333
126	0x3eba4847	0.36383268
127	0xbd872c3c	-0.06600234

lstm.bias_hh_l0 f4 [128]
0	0x3e4d64a0	0.20057917
1	0x3e0584b5	0.13038905
2	0xbce0eb99	-0.027456092
3	0x3e6b9269	0.2300507
4	0x3df49249	0.11941964
5	0x3dafcdd4	0.085841805
6	0x3d4d0fa8	0.05006376
7	0x3df48f49	0.11941392
8	0x3ef85e7f	0.48509595
9	0x3e972294	0.2951857
10	0x3d62371d	0.05522834
11	0x3d35dc64	0.044399634
12	0x3e6b1bd9	0.22959842
13	0x3d92c5ff	0.07166671
14	0xbc39af0f	-0.011333241
15	0x3dd5ae37	0.104336195
16	0x3e8a8f4a	0.27062446
17	0x3ea3f154	0.32020056
18	0x3dcab44a	0.09897669
19	0x3e48ac0b	0.19596879
20	0x3e55c444	0.2087565
21	0x3e9f0924	0.3106166
22	0x3e83fa2b	0.257768
23	0x3dbb30e0	0.091401815
24	0x3e007679	0.12545194
25	0x3e3790f0	0.17926383
26	0x3dc0eee3	0.09420564
27	0x3def8500	0.116952896
28	0x3d9a2098	0.07525748
29	0x3dcf1e1e	0.10113166
30	0x3ebdb54b	0.37052378
31	0xbca2e4c8	-0.019884482
32	0x3e37f8bd	0.1796598
33	0xbd6183d4	-0.05505736
34	0xbccea17f	-0.025223492
35	0x3d4158c0	0.04720378
36	0xbdd13356	-0.1021487
37	0x3d5512d9	0.052019928
38	0x3e6d97a1	0.23202373
39	0xbdd4c514	-0.10389152
40	0xbb45b080	-0.0030165017
41	0x3e053d8e	0.13011762
42	0x3d0b514d	0.03401308
43	0x3e0d5191	0.13800646
44	0x3c7113f2	0.014714228
45	0x3e4416ae	0.19149277
46	0x3d100892	0.035164423
47	0x3d894cd9	0.06704111
48	0xbd884599	-0.066539
49	0x3e0b2265	0.13587339
50	0xbd824f99	-0.06362838
51	0x3d687dc7	0.056760576
52	0x3dfebe85	0.124386825
53	0x3d5ed02f	0.054397758
54	0x3dc4bfa1	0.09606863
55	0xbd87c111	-0.06628621
56	0xbca6b341	-0.020349147
57	0x3c867143	0.01641143
58	0x3e6acac2	0.22928908
59	0x3e564fdf	0.20928906
60	0xbd985976	-0.07438938
61	0x3e1c4ead	0.15264387
62	0xbd64cb96	-0.055858217
63	0x3db53b11	0.08849157
64	0xbd7d3323	-0.061816346
65	0xbe3b62d2	-0.18299416
66	0x3cf956bc	0.030436866
67	0xbe807243	-0.25087175
68	0xbd6c8aad	-0.05774944
69	0x3de971ef	0.11398684
70	0x3dfed158	0.12442273
71	0xbd936d08	-0.071985304
72	0x3e93b521	0.28849128
73	0xbe034390	-0.12818742
74	0xbd89f0ca	-0.0673538
75	0x3e03c084	0.12866408
76	0xbd06bee0	-0.032896876
77	0x3dbda8d6	0.092607185
78	0x3e2e23d0	0.17005849
79	0x3da7e63a	0.08198209
80	0xbce4b807	-0.027919782
81	0x3d8b9a08	0.068164885
82	0xbd03d39c	-0.03218423
83	0x3e1697bc	0.1470632
84	0x3d645f75	0.055755097
85	0xbb6f6eda	-0.0036534579
86	0xbd2ae01e	-0.04171764
87	0x3dd66257	0.104679756
88	0xbe343f4d	-0.17602272
89	0x3daaee99	0.0834629
90	0x3e0d0c40	0.13774204
91	0xbdc4a59f	-0.09601902
92	0x3c325830	0.010885283
93	0x3de23131	0.11044539
94	0x3cfd7bf6	0.030942898
95	0x3d676fa2	0.056502946
96	0x3da85b7a	0.08220573
97	0x3c81373f	0.015773414
98	0x3df554a7	0.11979037
99	0x3ec127c6	0.37725657
100	0x3dc6a803	0.097000144
101	0x3e73f9aa	0.23825708
102	0x3e4d8b7e	0.20072743
103	0x3e1a5867	0.15072785
104	0x3ec32abf	0.3811855
105	0x3e82ed5d	0.2557172
106	0x3ce2e9b4	0.027699329
107	0x3e9e509f	0.30920884
108	0x3c8008b8	0.015629157
109	0x3ea01b90	0.3127103
110	0x3d1761f4	0.03695865
111	0x3e6e5699	0.23275222
112	0x3e93504f	0.28772208
113	0x3e98d5c7	0.298506
114	0x3e4dbf84	0.20092589
115	0x3d69d0d2	0.057083912
116	0x3e306088	0.17224324
117	0x3d945dd8	0.07244462
118	0x3db6954f	0.08915197
119	0xbca39d34	-0.019972421
120	0x3e75837f	0.23975943
121	0x3c7587ac	0.01498596
122	0x3e340df3	0.17583446
123	0x3e1f00cd	0.15527649
124	0x3e463500	0.19356155
125	0x3e0d1822	0.13778737
126	0x3e9c5e27	0.30540583
127	0xbd9f2262	-0.0777023

fc.weight f4 [1, 32]
0	0x3cf0daf9	0.02940129
1	0xbe61e8d0	-0.22061467
2	0x3e8f3d99	0.27976683
3	0xbb8feef0	-0.0043924972
4	0x3d8a24d8	0.06745309
5	0x3dd22aff	0.10262107
6	0x3e0463ee	0.12928745
7	0xbde2c965	-0.11073569
8	0x3de28843	0.11061146
9	0xbdf6731e	-0.120336756
10	0x3e316b76	0.1732615
11	0x3d505fc4	0.05087258
12	0x3dfff3e9	0.12497694
13	0xbe524e0a	-0.20537582
14	0x3e1cc16e	0.15308163
15	0xbec051a4	-0.37562287
16	0xbe4644d0	-0.19362187
17	0x3e660509	0.22462858
18	0xbdf2f3ad	-0.11862884
19	0x3d28ab85	0.0411792
20	0xbe36405b	-0.17797987
21	0x3eba1ca3	0.36349973
22	0x3e56cfb5	0.20977671
23	0xbe148160	-0.14502478
24	0xbe051c69	-0.12999119
25	0x3e7d88a3	0.24759154
26	0x3e82ac5a	0.2552212
27	0x3e422a58	0.18961465
28	0x3e6f52f0	0.23371482
29	0x3e60bde2	0.21947435
30	0xbe6b8d10	-0.2300303
31	0xbe254342	-0.16138938
