fut_opt_lih_features_prepare/bm_fut_lih_vol_02.pth (torch, 26418 bytes, 6 tensors)

embedding.weight f4 [57, 8]
0	0xbfce4620	-1.611515
1	0x3d66e29e	0.056368463
2	0xbcc95f07	-0.024581445
3	0xbf032863	-0.512335
4	0x3f9f0e3c	1.2426219
5	0x3fbe8e9c	1.4887271
6	0x4006e26d	2.10757
7	0xbe5ff5ff	-0.21871184
8	0xbeea93d5	-0.45815912
9	0x3fbdc609	1.482606
10	0xbe107a87	-0.1410924
11	0xbf73366d	-0.9500492
12	0x3fb61c90	1.4227467
13	0x3eb74c49	0.35800388
14	0x3fd14d1b	1.6351656
15	0xc00450a5	-2.0674222
16	0xbf0419d6	-0.5160192
17	0xbfcbb757	-1.5915326
18	0xbeff6375	-0.49880567
19	0xbe989b3d	-0.29805937
20	0xbfc3587a	-1.5261376
21	0xbfd59536	-1.668616
22	0xbf81b474	-1.0133195
23	0xc0155fce	-2.3339725
24	0x3fb70114	1.4297204
25	0x3f678e06	0.90451086
26	0x3ed248f9	0.410713
27	0xbf1086c1	-0.5645562
28	0xbfbb01e8	-1.4609957
29	0xbfee3585	-1.8610083
30	0xbfe2dc59	-1.7723495
31	0xbf8c727d	-1.0972439
32	0x40092736	2.1430182
33	0xc02be4ac	-2.685832
34	0xbfb165c6	-1.3859184
35	0xc002d493	-2.0442245
36	0xbebc60b2	-0.36792523
37	0xbf916fe9	-1.1362277
38	0xbd554845	-0.052070875
39	0xbcfdccb7	-0.030981405
40	0xbfa08051	-1.2539159
41	0xbfd4ad14	-1.6615319
42	0x3f1562d4	0.58353925
43	0xbfa774a6	-1.3082473
44	0x4007913d	2.1182396
45	0xbf2da547	-0.6783032
46	0x3fa098a2	1.254658
47	0x3fb530de	1.4155538
48	0x3e9e2c1d	0.3089303
49	0xbfe714ab	-1.8053182
50	0x3f652b83	0.8951952
51	0x3edb990a	0.42890197
52	0xc0287ce8	-2.6326237
53	0x3eabaa7c	0.33528507
54	0xbe7ef273	-0.24897175
55	0xbdfb242e	-0.1226276
56	0x3f4a3c9a	0.7899872
57	0x3d3d7614	0.046255186
58	0x3ff33462	1.9000361
59	0xbefd40a2	-0.49463373
60	0xbfaf229f	-1.368244
61	0xbe9388c5	-0.28815284
62	0x4027a7bc	2.6196127
63	0x3feab6ba	1.8337014
64	0xbe500d59	-0.20317592
65	0xbf1ecdb2	-0.62032616
66	0x3f143978	0.5790019
67	0xbff8cd90	-1.9437733
68	0x3f646882	0.89221966
69	0x3fd5394c	1.6658111
70	0xbfc4d7fa	-1.5378411
71	0x3e8d6ec3	0.27623567
72	0x3ea927e7	0.33038256
73	0x3fcf2c58	1.6185408
74	0xbf0ae5d7	-0.5425696
75	0xc02989c1	-2.6490328
76	0xbf3f22da	-0.74662554
77	0x3e923bbe	0.28561205
78	0x3fa3224c	1.2744842
79	0xbf653b77	-0.8954386
80	0xbfae61e0	-1.3623619
81	0x3fba129c	1.4536929
82	0x3f705a5f	0.93887895
83	0xbfbc697c	-1.4719691
84	0x3f8aeef1	1.0854169
85	0xbec4bf8b	-0.38427386
86	0xc05edd91	-3.4822733
87	0xbfdbbe5f	-1.7167472
88	0x3fb49e6b	1.4110845
89	0x3fa57d85	1.292893
90	0x3f6e146a	0.929999
91	0xc01bb3c9	-2.4328482
92	0xbcb464bc	-0.02202069
93	0x3dcde0e3	0.10052659
94	0xbfac4abe	-1.346031
95	0x3ee08ac1	0.4385586
96	0xbfba5d24	-1.4559674
97	0xbf6451ff	-0.89187616
98	0x3e21462f	0.15749429
99	0xbf8c8261	-1.0977288
100	0xc0089bf7	-2.1345193
101	0xbebed6e0	-0.37273312
102	0x3e2a70a6	0.16644534
103	0x3ffc0ae1	1.969082
104	0x4032f244	2.7960367
105	0xbe8ae61e	-0.2712869
106	0x3fc3b1b5	1.5288607
107	0xbe3776de	-0.17916438
108	0x3f74d8d7	0.9564337
109	0xbf77dcdb	-0.96821374
110	0x3e01bf80	0.12670708
111	0xbf55f328	-0.8357415
112	0x3dfe0e47	0.12405067
113	0x3fb968ab	1.4485067
114	0xbf8681b8	-1.0508337
115	0x3f75eb8c	0.9606254
116	0xbf5539ff	-0.8329162
117	0xbe7b40bc	-0.24536413
118	0xbf9a19f1	-1.2039167
119	0x3f01fd9a	0.5077759
120	0x3e16e162	0.14734414
121	0x3f8f6280	1.1201935
122	0xc01658de	-2.349174
123	0xbec0aaf4	-0.37630427
124	0x3ed30cf7	0.4122083
125	0x3fef989e	1.871845
126	0xc0047f0f	-2.070255
127	0xbd929e07	-0.071590476
128	0xbec5d891	-0.3864179
129	0xbf6be2f3	-0.9214317
130	0x3de2d3a6	0.11075525
131	0x3f04aa50	0.51822376
132	0x3df09cb7	0.11748641
133	0xbf90db4a	-1.1316922
134	0x3fbbed35	1.4681765
135	0x3ed5a1c7	0.4172499
136	0xbf96a05f	-1.1767691
137	0xbab453f7	-0.0013757934
138	0x3e5933bd	0.21211143
139	0x3f2650de	0.64967144
140	0xbe555474	-0.20832998
141	0xbf6263e1	-0.88433653
142	0xbf81ef5e	-1.0151174
143	0xbfaf8a24	-1.3714032
144	0xbfa88cc5	-1.316796
145	0xbea33547	-0.31876585
146	0xbfe8b42a	-1.8179982
147	0xbf120811	-0.5704356
148	0x3fbfa048	1.4970789
149	0x3ed0b874	0.40765727
150	0x400ddcaf	2.2165945
151	0x3fb12a2c	1.3840995
152	0xbf233da6	-0.63765943
153	0x3fc9295a	1.5715744
154	0x3f3d47ed	0.73937875
155	0x3edaced6	0.42735928
156	0x3eb35efc	0.35033405
157	0xbea2da06	-0.31806964
158	0xbff33ff6	-1.9003894
159	0x3ef2b1d7	0.47401306
160	0x3f9f450a	1.2442944
161	0x3dfabf1f	0.12243485
162	0xbf17d4ef	-0.59309286
163	0x3f2697c6	0.6507534
164	0xbed4aed4	-0.41539633
165	0xc00caeef	-2.198177
166	0xc008aa35	-2.1353886
167	0xbeb75448	-0.3580649
168	0x3f4bb13b	0.7956731
169	0x3f281bbe	0.6566733
170	0x4012093e	2.281814
171	0x3faf9027	1.3715867
172	0xbf53311b	-0.82496804
173	0x3e5cade9	0.21550716
174	0xbf670742	-0.9024545
175	0x3f5bd3f6	0.858703
176	0x4009dba5	2.154031
177	0xbff21a24	-1.8914227
178	0x3f7a3f82	0.97753155
179	0xc01a5b74	-2.4118319
180	0x3eee383f	0.46527287
181	0xbf264de3	-0.64962596
182	0x4007992a	2.1187234
183	0xbe083eb2	-0.13305166
184	0xbfbed5af	-1.4908961
185	0xbf1adb59	-0.6049095
186	0x3f2a2dd7	0.66476196
187	0xbea0d5fe	-0.31413263
188	0xbdb689be	-0.08912991
189	0xbe9df2c6	-0.30849284
190	0xbd1a975a	-0.037741996
191	0x3ecbd082	0.39807516
192	0x3efa283d	0.48858824
193	0x3f8f3798	1.1188841
194	0xbf69eeb3	-0.9137985
195	0xbed0fdf5	-0.40818754
196	0xbf274221	-0.6533528
197	0x3fc1d8fe	1.5144346
198	0x3fdbff6a	1.7187321
199	0xbff455e6	-1.9088714
200	0x3f8d4a5c	1.1038318
201	0xbf23826a	-0.6387087
202	0xbda83797	-0.08213728
203	0x3f832d48	1.0248194
204	0xbe443205	-0.19159706
205	0x3ddf6071	0.109070666
206	0xbd65c275	-0.05609365
207	0xbfcc44e5	-1.5958525
208	0xbfb39b47	-1.4031762
209	0x3f387e99	0.7206817
210	0x4018282e	2.3774524
211	0x3f1c5a79	0.6107555
212	0xc002e2a3	-2.0450828
213	0x3fbde7f8	1.4836416
214	0xbeb83486	-0.35977572
215	0x3d4dc0b9	0.050232623
216	0xbf371ceb	-0.715285
217	0x402a6726	2.6625457
218	0xbf39c915	-0.7257245
219	0xbeecddc8	-0.46262956
220	0xbeb5d656	-0.35515088
221	0xbf829c1a	-1.0203888
222	0x3d7fd5d0	0.062459767
223	0x3e119396	0.14216456
224	0x3fa26899	1.2688171
225	0x3f0bd9da	0.5462929
226	0xbe9d9d6b	-0.30784163
227	0xbfe52421	-1.7901651
228	0x3e9a6ce0	0.3016119
229	0xbf7794d1	-0.9671145
230	0xbf5c9630	-0.8616667
231	0x3f95946a	1.1685917
232	0x3e936146	0.2878515
233	0xbe7f6bf7	-0.24943529
234	0x3fa183ea	1.2618382
235	0xbf7403c4	-0.95318246
236	0xbfaaa48a	-1.3331463
237	0x3fb9784e	1.4489839
238	0x3fa3d3ee	1.2799051
239	0x3fe2ece6	1.7728546
240	0x3f2d9df8	0.67819166
241	0x3ee2daa3	0.44307432
242	0x3f655b4f	0.8959245
243	0xc02a349d	-2.6594613
244	0x40189d18	2.3845882
245	0xbd2e4e23	-0.042554986
246	0x3f25b447	0.64728206
247	0x3fdd4cec	1.72891
248	0xc00dcf3c	-2.2157736
249	0x3ebf2a53	0.37336978
250	0xbf7e7584	-0.99398065
251	0x3d487ccc	0.04894714
252	0xbed1c87a	-0.40973264
253	0x3f295818	0.66150045
254	0x3e95f112	0.29285485
255	0xbe69e32a	-0.22840562

lstm.weight_ih_l0 f4 [128, 8]
0	0xbf191553	-0.59798163
1	0xbd38624b	-0.045015614
2	0xbf0fa5b5	-0.56112224
3	0xbe3862ee	-0.18006489
4	0xbe79fc30	-0.24412608
5	0xbd85fc9d	-0.06542323
6	0x3df65dc6	0.120296046
7	0xbe47a2a1	-0.19495632
8	0x3e2856a8	0.16439307
9	0x3d84ed2f	0.06490552
10	0xbe6a455d	-0.22878022
11	0x3e8f3c73	0.27975807
12	0x3e27af73	0.16375522
13	0xbe63b098	-0.22235334
14	0xbf1077e2	-0.56432927
15	0x3ec3e89c	0.38263404
16	0x3e979e21	0.2961283
17	0xbc910d21	-0.017706456
18	0xbf04dee9	-0.51902634
19	0xbcedbdf4	-0.02902124
20	0xbe07815b	-0.13232939
21	0xbf079f67	-0.52977604
22	0x3da2f0b8	0.0795607
23	0xbe088bae	-0.13334534
24	0x3da66567	0.0812481
25	0xbe924e3b	-0.2857531
26	0xbe9ca8df	-0.30597588
27	0xbbdf17cd	-0.006808257
28	0xbebefd61	-0.37302688
29	0x3f19e75b	0.60118645
30	0x3ee2b7d2	0.4428087
31	0x3e9608ac	0.2930349
32	0xbdcb6ac3	-0.099324726
33	0x3ecbcd70	0.39805174
34	0xbd5b033d	-0.053469885
35	0x3f03c786	0.51476324
36	0xbf1677a2	-0.58776295
37	0x3f1565ed	0.5835865
38	0xbedbc13b	-0.4292086
39	0xbef0900f	-0.46984908
40	0xbd21e32c	-0.03952329
41	0xbc7ab0ce	-0.015300943
42	0x3dc9db7a	0.09856315
43	0xbed54df9	-0.4166105
44	0xbea6248c	-0.32449758
45	0xbf1169b0	-0.5680189
46	0x3e41ce05	0.18926246
47	0x3e607813	0.21920805
48	0x3e1752b1	0.14777638
49	0xbe22ee9c	-0.15911335
50	0xbf16bb12	-0.58879197
51	0x3f0a5497	0.54035324
52	0xbcd70fb6	-0.026252609
53	0x3e46844e	0.19386408
54	0xbd8c9e4e	-0.06866132
55	0xbef4571e	-0.47722715
56	0xbead507b	-0.33850464
57	0xbc8ea418	-0.01741223
58	0x3e808988	0.25104928
59	0x3e954ce8	0.29160237
60	0xbec9d580	-0.394207
61	0x3edd480e	0.43219036
62	0xbecb6e53	-0.39732608
63	0xbd17ab64	-0.037028685
64	0x3ddc9ddc	0.10772297
65	0x3cdc5717	0.026896996
66	0x3e861665	0.2618896
67	0xbe3c7334	-0.18403322
68	0xbcc1af0d	-0.023643041
69	0xbf12b6ec	-0.57310367
70	0x3c9dc115	0.019257108
71	0x3f16b4df	0.5886974
72	0x3e8506df	0.25981805
73	0xbe581df1	-0.21105172
74	0xbc0a6e68	-0.008449174
75	0xbc8f7fb0	-0.01751694
76	0xbd9be7c6	-0.07612567
77	0x3db40143	0.08789303
78	0x3e6008ba	0.21878329
79	0xbf1b7208	-0.6072087
80	0x3ec145a3	0.3774844
81	0x3ee281f4	0.4423977
82	0x3d1d28b3	0.038368892
83	0xbf022ffe	-0.5085448
84	0x3df9f301	0.122045524
85	0x3cab0fc0	0.020881534
86	0x3dd761cb	0.105166994
87	0x3f02d5ec	0.5110767
88	0x3ea188d9	0.3154972
89	0xbc02beb1	-0.007980035
90	0xbee0fe58	-0.4394405
91	0xbca126fb	-0.019671908
92	0xbbd9167e	-0.0066249957
93	0x3ee2dc1e	0.4430856
94	0x3dcf1c20	0.10112786
95	0xbe15caa0	-0.14628077
96	0x3e9f120a	0.3106845
97	0xbf3813c1	-0.7190514
98	0x3da01f13	0.07818427
99	0x3dcf7313	0.101293705
100	0xbe5e5232	-0.21711043
101	0xbe952a00	-0.29133606
102	0x3ecf374c	0.40471876
103	0xbe743937	-0.2384995
104	0x3e525b17	0.2054256
105	0xbe247072	-0.1605852
106	0x3dd575c3	0.10422852
107	0x3e2ab83f	0.16671847
108	0x3df6481c	0.120254725
109	0xbf334428	-0.70025873
110	0xbe152ae4	-0.14567143
111	0x3e7cfcdb	0.24705832
112	0x3e5a0905	0.21292503
113	0xbf0c87ac	-0.5489452
114	0xbec51495	-0.38492265
115	0xbe2b3cbd	-0.16722389
116	0x3ef72146	0.48267573
117	0x3ce0a747	0.027423514
118	0x3e992243	0.29908952
119	0xbf11dead	-0.569804
120	0xbf228514	-0.6348431
121	0x3e5be1e1	0.21472885
122	0xbde6dbd4	-0.11272398
123	0x3e90467c	0.28178775
124	0xbf04da48	-0.5189557
125	0x3e4eaf27	0.20184003
126	0xbd1bceeb	-0.03803913
127	0xbe7d25b5	-0.24721415
128	0x3ec5c1ca	0.38624412
129	0xbde7a46c	-0.11310658
130	0xbdb6068a	-0.08887966
131	0xbd9d27a9	-0.0767358
132	0x3ead64b8	0.33865905
133	0xbeee1b9b	-0.46505436
134	0xbf9be76b	-1.2179998
135	0xbf32e707	-0.6988377
136	0xbe4bf1cf	-0.19916461
137	0x3e293d93	0.16527395
138	0x3ea7c939	0.32770708
139	0xbf2b3131	-0.66871935
140	0x3dcf8869	0.1013344
141	0xbf6ff4cb	-0.937329
142	0xbe9c82c2	-0.3056851
143	0xbddb9ba0	-0.107230425
144	0x3e1499fd	0.14511867
145	0x3eb0b3b4	0.34512103
146	0xbe3adb11	-0.1824763
147	0x3d736428	0.05942169
148	0x3e60bbed	0.21946688
149	0xbe67e67e	-0.2264652
150	0xbe957438	-0.2919023
151	0xbf271e3b	-0.65280503
152	0x3df97625	0.121807374
153	0xbd89d3d4	-0.06729856
154	0xbe7f02fa	-0.24903479
155	0x3e2edde1	0.17076828
156	0xbf35d1c6	-0.71023214
157	0xbe5ce41d	-0.21571393
158	0x3e5806e1	0.21096374
159	0xbe72ca1b	-0.2370991
160	0xbe906a44	-0.28206074
161	0xbe7f4d8e	-0.24931929
162	0x3c83f5f7	0.016108496
163	0x3cd9b878	0.02657722
164	0x3ebcf2ab	0.3690389
165	0x3d452c26	0.048137806
166	0x3d800c99	0.06252403
167	0xbdb8fafd	-0.09032247
168	0x3e067762	0.13131478
169	0xbe268e0b	-0.16265123
170	0x3eb9f630	0.3632064
171	0x3f43b58c	0.76448894
172	0x3ee1f8da	0.4413517
173	0x3f77f9cf	0.9686555
174	0x3e200723	0.15627722
175	0x3e99d20f	0.30043074
176	0xbe10f198	-0.1415466
177	0x3eed369b	0.46330723
178	0xbebc5a6d	-0.3678774
179	0xbe81a460	-0.2532072
180	0xbe33a5e3	-0.1754375
181	0x3d989c9d	0.074517466
182	0xbe01ec8b	-0.1268789
183	0x3e6f5848	0.2337352
184	0xbd90c499	-0.07068748
185	0xbdac881d	-0.08424399
186	0xbf264131	-0.64943224
187	0xbf1767f1	-0.59142977
188	0x3ea5635c	0.32302368
189	0x3e8d3d1a	0.2758568
190	0x3e98dc65	0.29855648
191	0xbe86deeb	-0.26341948
192	0x3f385b60	0.7201443
193	0x3f064281	0.52445227
194	0xbdc010b6	-0.09378187
195	0x3e2af557	0.16695152
196	0xbda48689	-0.08033473
197	0x3e9affd9	0.3027332
198	0x3d4cb890	0.0499807
199	0x3e8892b2	0.2667442
200	0x3ef3d35f	0.476222
201	0xbd9f447a	-0.07776733
202	0x3d82f7c1	0.063949116
203	0xbe86d704	-0.2633592
204	0xbf151ed3	-0.5825016
205	0xbd86d630	-0.06583822
206	0x3dba062a	0.09083207
207	0xbea7d0d3	-0.32776508
208	0xbbc9388f	-0.0061407755
209	0x3f1a1053	0.6018116
210	0x3e5930e4	0.21210057
211	0xbea8e01e	-0.32983488
212	0xbf1f1495	-0.6214078
213	0xbe734b4f	-0.23759197
214	0xbc266337	-0.010155491
215	0xbd7be7c8	-0.06150034
216	0x3d712770	0.0588755
217	0x3d44037c	0.047854885
218	0xbabff11d	-0.0014644001
219	0xbbc84eb4	-0.006112898
220	0xbe644523	-0.22291999
221	0xbe98b136	-0.298227
222	0x3db69330	0.089147925
223	0xbf26a7a3	-0.65099543
224	0xbe8044c0	-0.25052452
225	0xbe8b99b5	-0.27265707
226	0x3db1c650	0.08680403
227	0xbf678b17	-0.9044661
228	0xbe98b01c	-0.2982186
229	0xbf26312f	-0.649188
230	0xbd32167a	-0.043478467
231	0x3d5b6db8	0.053571433
232	0x3bffcecf	0.007806636
233	0x3e17cb7d	0.14823718
234	0x3ae59608	0.0017516026
235	0xbe1cc3e3	-0.153091
236	0x3e072da5	0.13201006
237	0x3ddfb986	0.10924058
238	0xbea95cf3	-0.33078727
239	0xbedd9ba6	-0.43282813
240	0x3eb663d4	0.35623038
241	0x3f18bcfe	0.5966338
242	0xbe5487a9	-0.20754875
243	0xbf1b2d0d	-0.6061562
244	0x3d9a412a	0.0753196
245	0xbe99d63e	-0.30046266
246	0xbe8b835e	-0.27248663
247	0xbe86057c	-0.2617606
248	0xbf3ef567	-0.74593204
249	0xbf2e562c	-0.6810024
250	0x3db43a45	0.088001765
251	0xbe5dd81c	-0.2166447
252	0x3e58741a	0.21138039
253	0x3ed5d26d	0.41762105
254	0x3f1fde3a	0.62448466
255	0xbe5d150c	-0.2159006

lstm.weight_hh_l0 f4 [128, 32]
0	0x3f464a7a	0.7745739
1	0xbd20feab	-0.03930537
2	0xbf01bda1	-0.50679976
3	0x3e9d71e0	0.30750942
4	0x3f1bda60	0.6088009
5	0x3e5c59e2	0.21518663
6	0x3d0b5e8b	0.03402571
7	0xbf0cb53c	-0.5496404
8	0x3f5f3836	0.87195146
9	0x3e4c2b58	0.1993841
10	0xbe00780b	-0.12545793
11	0x3eb5babe	0.35494035
12	0x3ef54ca2	0.4791003
13	0x3e1967c7	0.14980994
14	0xbf08e5db	-0.5347573
15	0xbd6cf9ff	-0.057855602
16	0x3e39aeea	0.1813313
17	0x3ddd8b8e	0.108176336
18	0xbd2ef17d	-0.04271077
19	0xbf221d99	-0.6332641
20	0xbe85cf1b	-0.2613457
21	0x3dc33151	0.09530891
22	0x3e9016b6	0.28142327
23	0xbe4ae0be	-0.19812295
24	0x3efda0ff	0.49536893
25	0xbf066cb1	-0.525096
26	0xbea3233c	-0.3186282
27	0xbd84fe23	-0.06493785
28	0xbd882258	-0.066471756
29	0xbe32ed79	-0.17473401
30	0x3e5a3c07	0.21311961
31	0x3e337962	0.17526773
32	0xbe1435bb	-0.14473622
33	0xbefc3487	-0.49258825
34	0x3e95d59b	0.2926453
35	0x3e2e0ea7	0.16997777
36	0x3e92a882	0.28644186
37	0xbf3494c6	-0.7053951
38	0x3e1fc11c	0.15601009
39	0xbf883a45	-1.0642782
40	0xbf111b95	-0.5668271
41	0xbe46a719	-0.1939968
42	0x3e81f188	0.25379586
43	0x3daa2dc2	0.08309509
44	0x3f03238a	0.51226103
45	0x3e500df6	0.20317826
46	0x3e3c3039	0.1837777
47	0x3f4e9adc	0.80705047
48	0x3f4672c4	0.7751887
49	0x3f0a3ee1	0.54002196
50	0x3f21d2e4	0.6321242
51	0xbe40891f	-0.18802308
52	0x3eb67897	0.35638878
53	0x3e74b478	0.23896968
54	0x3dd9f33f	0.10642099
55	0xbee373a3	-0.4442416
56	0x3d75060c	0.05982022
57	0xbee914c4	-0.45523655
58	0xbd4a7252	-0.04942543
59	0xbf1014a3	-0.5628149
60	0x3dea5b25	0.11443166
61	0x3f9478d0	1.1599369
62	0x3f3c39eb	0.73525876
63	0x3e75b3c9	0.23994364
64	0x3d8631f7	0.06552499
65	0x3df78156	0.12085216
66	0xbdbeb25b	-0.09311362
67	0xbe717bee	-0.23582432
68	0x3d415b65	0.0472063
69	0x3e07b0cf	0.13251041
70	0xbd5cf998	-0.05394897
71	0xbeb50ca4	-0.35361207
72	0x3e8d4056	0.27588147
73	0xbd31aae2	-0.043375857
74	0xbe905e3f	-0.28196904
75	0x3e43eb9a	0.19132844
76	0xbdf79bb9	-0.120902486
77	0xbe71e7cd	-0.23623581
78	0xbed0766f	-0.40715358
79	0xbd85a452	-0.06525482
80	0x3f100243	0.5625345
81	0x3eefd336	0.4684083
82	0xbd2851a4	-0.041093484
83	0x3c994439	0.018709289
84	0xbf1cc9b4	-0.61245275
85	0x3f262a14	0.64907956
86	0x3ec3313d	0.38123503
87	0xbe940f59	-0.2891796
88	0xbe525874	-0.20541555
89	0xbf320c2e	-0.69549835
90	0x3ea5c21d	0.3237466
91	0xbe6ae9a6	-0.22940692
92	0x3e723fca	0.23657146
93	0x3cf89ddd	0.030348713
94	0xbf50ac43	-0.8151285
95	0x3e823db6	0.25437707
96	0x3e672b99	0.22575225
97	0x3ea806c5	0.32817665
98	0x3eb9047e	0.3613624
99	0x3e8d0ed7	0.27550384
100	0x3eaece74	0.34141886
101	0x3f390518	0.722734
102	0x3e50aee2	0.20379212
103	0xbd615229	-0.055009995
104	0xbeb910b9	-0.3614557
105	0xbe49ea73	-0.19718342
106	0xbea3b1ef	-0.3197169
107	0x3f85de8d	1.0458542
108	0x3f778345	0.96684676
109	0x3d3c131c	0.04591666
110	0x3d22e93b	0.039773207
111	0x3f4939ae	0.7860364
112	0x3f14e149	0.5815626
113	0x3e00a68a	0.1256353
114	0x3eb89ebd	0.36058608
115	0x3e78005b	0.24218886
116	0xbed905b9	-0.4238718
117	0xbccdb4e4	-0.02511067
118	0xbeb66500	-0.35623932
119	0x3da4ca03	0.08046343
120	0xbea20728	-0.31646085
121	0x3e8fc34b	0.28078684
122	0xbf0017e7	-0.5003647
123	0xbea2cd09	-0.31797054
124	0xbecc7bf2	-0.39938313
125	0x3c0a46bb	0.008439715
126	0xbe07d53e	-0.13264939
127	0x3ef6814d	0.48145524
128	0x3ed36e49	0.41295078
129	0x3dda1b40	0.10649729
130	0xbf56ad6c	-0.8385837
131	0xbe46d97f	-0.19418906
132	0xbea515a9	-0.32243088
133	0x3d64ce22	0.055860646
134	0x3f9e611d	1.2373387
135	0xbf021ed8	-0.50828314
136	0x3e86a652	0.26298767
137	0x3e210434	0.1572426
138	0xbf3f851e	-0.74812496
139	0x3d1396f2	0.036032625
140	0xbe268768	-0.16262591
141	0xbf9145e0	-1.1349449
142	0xbe47eb3f	-0.19523333
143	0x3f33dbe7	0.7025742
144	0x3f83bd23	1.0292095
145	0x3e9355b1	0.28776315
146	0x3ee86290	0.45387697
147	0x3f9eb7a3	1.2399791
148	0xbd75083a	-0.0598223
149	0x3f3b4ee9	0.7316728
150	0x3fb1ddbd	1.3895794
151	0xbf106011	-0.56396586
152	0xbf4915df	-0.78549
153	0xbed8ca73	-0.42341956
154	0x3e82851a	0.25492173
155	0xbf8b8711	-1.0900594
156	0xbfaaebf9	-1.3353263
157	0xbf28e2ac	-0.65970874
158	0x3f3d65f1	0.73983675
159	0x3e311dbd	0.172965
160	0x3ec7f732	0.39055783
161	0xbe86e26e	-0.26344627
162	0xbe92df69	-0.28686073
163	0xbd946e77	-0.07247632
164	0x3f14a388	0.5806203
165	0x3eb49e49	0.35277012
166	0x3f813c92	1.009661
167	0xbf240fab	-0.6408641
168	0x3e991b10	0.2990346
169	0x3eba7a85	0.364216
170	0x3e0ab4e1	0.13545562
171	0xbf3752e7	-0.71610874
172	0xbee7c402	-0.4526673
173	0x3eaaf8ad	0.3339285
174	0xbe83fbf8	-0.25778174
175	0xbec69de4	-0.38792336
176	0x3e8928db	0.26788983
177	0xbd9cb825	-0.0765231
178	0x3f5a3a75	0.8524545
179	0x3efde265	0.49586788
180	0xbf49b339	-0.787891
181	0xbe571455	-0.2100385
182	0x3ede2b2c	0.43392313
183	0xbf0d263b	-0.5513646
184	0x3d91a7ad	0.0711206
185	0xbf9311cd	-1.1489807
186	0xbc2abb26	-0.010420596
187	0x3ee8a4df	0.45438287
188	0xbed77f1a	-0.42089158
189	0x3f38a0d1	0.72120386
190	0x3f195c28	0.59906244
191	0x3e28a9a3	0.16470961
192	0x3f0523e8	0.52007914
193	0xbe81284c	-0.25226057
194	0xbf63c631	-0.8897429
195	0xbd436962	-0.047707923
196	0x3e0a24a7	0.13490544
197	0x3f08386f	0.5321111
198	0x3e827fdd	0.25488177
199	0xbdc8453a	-0.09778829
200	0x3edcf40f	0.43154952
201	0x3d8463f8	0.0646438
202	0x3f16b042	0.588627
203	0xbf009f97	-0.50243515
204	0xbe9c98d4	-0.3058535
205	0xbea9a360	-0.33132458
206	0xbf0dc40c	-0.5537727
207	0xbe38ecab	-0.18059032
208	0xbf5d1b65	-0.86369926
209	0xbe5785d8	-0.21047151
210	0xbf0a0ed3	-0.5392887
211	0x3f352749	0.7076307
212	0xbf18c97d	-0.59682447
213	0x3f04a26b	0.5181033
214	0x3edbca1f	0.42927644
215	0x3ecb49d3	0.3970476
216	0xbf0c01cd	-0.5469025
217	0xbf0c1393	-0.5471737
218	0x3e64b30e	0.22333929
219	0x3efbc2d5	0.49172083
220	0xbecce367	-0.40017244
221	0xbee1398d	-0.4398922
222	0x3f1e0283	0.6172258
223	0x3e98f451	0.298739
224	0x3f1a272b	0.60216016
225	0xbf30dc67	-0.6908631
226	0xbf2cbeda	-0.67478716
227	0xbd36ad89	-0.04459909
228	0x3bd921f6	0.006626363
229	0xbecf8a66	-0.40535277
230	0x3bc12123	0.005893843
231	0xbecd5031	-0.40100244
232	0xbdd720f8	-0.10504335
233	0x3e59315f	0.2121024
234	0xbefc2711	-0.49248555
235	0x3f30a059	0.6899467
236	0xbd669295	-0.056292135
237	0xbefea690	-0.49736452
238	0x3ee115aa	0.4396184
239	0xbd0f5460	-0.034992576
240	0x3f2760f6	0.65382326
241	0xbf2c7dfb	-0.6737973
242	0x3de92466	0.113838956
243	0xbe88f82a	-0.26751834
244	0x3dbaf81f	0.091293566
245	0x3f0bb0fd	0.5456694
246	0x3f83746c	1.0269904
247	0xbea6861e	-0.32524198
248	0xbe7864dd	-0.24257226
249	0x3eb83509	0.35977963
250	0x3e8f69c1	0.2801037
251	0xbed72c64	-0.42026055
252	0x3ee6a4a0	0.45047474
253	0xbea93397	-0.33047172
254	0x3f52d0f8	0.8235011
255	0xbeb3879b	-0.35064396

lstm.bias_ih_l0 f4 [128]
0	0x3ee66669	0.45000008
1	0x3e95fc83	0.29294214
2	0x3f21b444	0.6316569
3	0x3e4fb17a	0.20282546
4	0x3ef24416	0.4731757
5	0x3f1938c8	0.59852266
6	0x3df7b955	0.12095896
7	0x3f0bc2dd	0.5459421
8	0x3ebeee2e	0.37291092
9	0x3e8fcb1e	0.28084654
10	0x3eaa7946	0.3329565
11	0x3eaa068d	0.33208123
12	0x3ea1b04f	0.31579825
13	0x3f38064e	0.7188462
14	0x3e4ef1a2	0.20209363
15	0x3e77c531	0.24196316
16	0x3e8d48af	0.27594516
17	0x3edb5a51	0.42842343
18	0x3f11efd9	0.57006603
19	0x3dd41a5a	0.10356589
20	0x3f1f4838	0.6221957
21	0x3ec2508d	0.3795208
22	0xbdbb3af3	-0.09142103
23	0x3e887f8c	0.2665981
24	0x3ec88bb8	0.39169097
25	0x3f0ec021	0.55761915
26	0x3f087b3e	0.5331305
27	0x3f08b8d0	0.53407
28	0x3efc43f0	0.49270582
29	0x3f4ec692	0.80771744
30	0x3e284b27	0.16434918
31	0x3e5bc839	0.21463098
32	0x3eca32c4	0.39491856
33	0x3e8ef7dd	0.2792348
34	0x3eb20393	0.34768352
35	0x3ef133e7	0.4710991
36	0xbdf08fa1	-0.11746145
37	0x3d8c9e6b	0.06866153
38	0x3ed466c1	0.41484645
39	0xbd0678f9	-0.032830212
40	0x3e64c327	0.2234007
41	0x3f11287e	0.5670241
42	0x3e5a0540	0.21291065
43	0x3eccf607	0.40031454
44	0x3e891de8	0.2678063
45	0x3e45c811	0.193146
46	0x3e9ee3ea	0.3103326
47	0x3ee08fa6	0.43859595
48	0x3e5cc828	0.21560729
49	0x3cd8ae6f	0.026450364
50	0xbc6fddae	-0.014640255
51	0x3ec17f24	0.37792313
52	0x3e083930	0.13303065
53	0x3e10ea11	0.14151789
54	0x3eedb792	0.46429116
55	0x3ec462e3	0.38356695
56	0x3f02a395	0.51030856
57	0x3e370b6e	0.17875454
58	0x3df1d901	0.11808968
59	0x3ddf9066	0.10916214
60	0x3d285664	0.041098014
61	0x3eb506d8	0.35356784
62	0x3ea7e74d	0.32793656
63	0x3e8af9cc	0.27143705
64	0x3de9d49d	0.11417506
65	0x3ddcfb78	0.10790151
66	0xbe004b0b	-0.12528627
67	0x3e338868	0.17532504
68	0xbe0402d2	-0.12891701
69	0xbe05955c	-0.13045257
70	0x3ced5294	0.02897004
71	0xbe6295d7	-0.22127472
72	0xbd3a1eb6	-0.045439444
73	0x3dcb21c0	0.09918547
74	0xbdd74e32	-0.105129614
75	0xbdaa4caa	-0.08315404
76	0x3dc8fa0f	0.0981332
77	0xbe81241e	-0.25222868
78	0x3e819e95	0.253163
79	0x3e1cabc8	0.15299904
80	0xbe67f5f3	-0.22652416
81	0xbea7ffa1	-0.32812217
82	0x3e4c1b87	0.19932376
83	0x3d4e30be	0.050339453
84	0xbc2cd1b7	-0.010548047
85	0x3e26fb89	0.1630689
86	0x3dee5dca	0.116389826
87	0x3de8cc5d	0.11367104
88	0xbda82a18	-0.08211154
89	0xbe4e9618	-0.20174444
90	0x3dac54b8	0.08414596
91	0x3c870119	0.016480016
92	0x3df03768	0.11729318
93	0x3c692ee3	0.01423237
94	0x3e1ea654	0.15493137
95	0x3e83ca34	0.25740206
96	0x3f423471	0.7586127
97	0x3f17f947	0.5936474
98	0x3ea998c3	0.3312436
99	0x3ea3f6ec	0.32024324
100	0x3f412b24	0.7545645
101	0x3e9527ea	0.29132015
102	0x3ef91ea0	0.48656178
103	0x3ebebe99	0.3725479
104	0x3f1a47f8	0.60266066
105	0x3eac7d16	0.33689183
106	0x3eca28d5	0.39484277
107	0x3f318a12	0.69351304
108	0x3e8d8e8c	0.27647817
109	0x3f353f19	0.70799404
110	0x3e4ca5d4	0.19985133
111	0x3e94acf8	0.29038215
112	0x3ee0e746	0.43926448
113	0x3ee8c7b4	0.4546486
114	0x3eb943e3	0.36184606
115	0x3de28aa4	0.110616
116	0x3f3042bb	0.6885182
117	0x3df5bf5a	0.11999388
118	0x3eefcd9e	0.4683656
119	0x3f61b959	0.88173443
120	0x3ee503c5	0.44729438
121	0x3f28c4d3	0.6592533
122	0x3eb0c747	0.34527037
123	0x3f1211e5	0.57058555
124	0x3e863908	0.26215386
125	0x3f019020	0.5061054
126	0x3f170d09	0.59004265
127	0x3ebf3d9b	0.3735169

lstm.bias_hh_l0 f4 [128]
0	0x3edb8e71	0.42882112
1	0x3f11b2e1	0.5691357
2	0x3f233f66	0.63768613
3	0x3e5cd888	0.21566975
4	0x3efc4356	0.49270123
5	0x3f0e9932	0.5570251
6	0x3e8fc8dd	0.28082934
7	0x3edd5d4d	0.43235245
8	0x3ec322f4	0.38112605
9	0x3e41764d	0.18892784
10	0x3e61f65e	0.22066638
11	0x3ed4ead9	0.41585425
12	0x3f106bd0	0.5641451
13	0x3f039e61	0.5141354
14	0x3ebc7ba4	0.3681308
15	0x3e6bf1a7	0.23041402
16	0x3e7c5a07	0.24643718
17	0x3e95cba5	0.2925693
18	0x3ec47710	0.38372087
19	0xbd3d6330	-0.04623717
20	0x3ea8220f	0.32838485
21	0x3e54533a	0.20734873
22	0x3e74f079	0.23919858
23	0x3ed499a4	0.41523468
24	0x3ef1d626	0.47233695
25	0x3f0b5821	0.5443135
26	0x3ee8ed81	0.454937
27	0x3f13defe	0.57762134
28	0x3ef1e928	0.47248197
29	0x3f565f02	0.8373872
30	0x3e4e459d	0.20143743
31	0x3e91ed69	0.28501442
32	0x3e869e80	0.262928
33	0x3edb3d14	0.42820036
34	0x3e57f83d	0.21090789
35	0x3f08499e	0.5323733
36	0xbe8a36c0	-0.26994896
37	0xbda0bae6	-0.07848148
38	0x3edaf6c7	0.427664
39	0x3c7c62d6	0.015404424
40	0x3ebd02be	0.36916155
41	0x3ea966c9	0.3308623
42	0x3ed09429	0.40738037
43	0x3eeb8165	0.45997158
44	0x3ecaaa7c	0.39583194
45	0x3e091b13	0.13389234
46	0x3d8cb8e4	0.068712026
47	0x3dde4bb0	0.1085428
48	0x3dc151a2	0.09439398
49	0x3cc1df0d	0.02366593
50	0x3e1b46fd	0.15163799
51	0x3e92914b	0.28626475
52	0x3db5f9dc	0.088855475
53	0x3e0ddbfd	0.1385345
54	0x3eadb772	0.3392902
55	0x3ea69703	0.32537088
56	0x3eb79e3c	0.3586291
57	0x3e9949c9	0.29939106
58	0x3d227111	0.03965861
59	0x3dbe4e84	0.092923194
60	0x3e5f4b3f	0.21806048
61	0x3e34bf45	0.17651089
62	0x3ebc9b0f	0.3683705
63	0x3e81de4f	0.2536492
64	0xbd780782	-0.060554035
65	0xbe014081	-0.12622263
66	0xbd9bc147	-0.07605224
67	0x3e2006b6	0.1562756
68	0xbd1a14d1	-0.03761751
69	0xbdfbe47a	-0.12299438
70	0xbdc9df03	-0.09856989
71	0xbe38b1b5	-0.1803654
72	0xbe71ddcf	-0.2361977
73	0x3e8038f7	0.2504346
74	0xbe462de8	-0.1935345
75	0x3da268fc	0.079301804
76	0xbe6f61e6	-0.23377189
77	0xbe00c63d	-0.12575622
78	0x3eb6cf19	0.35704878
79	0xbe2493c0	-0.16071987
80	0xbdda5338	-0.10660404
81	0xbe858ee3	-0.26085576
82	0x3d054cf1	0.03254408
83	0x3dc7801f	0.09741234
84	0x3e02b727	0.1276518
85	0xbddf53e0	-0.1090467
86	0x3e48b5ba	0.19600573
87	0x3e617a40	0.22019291
88	0x3da6613a	0.08124013
89	0xbd343f34	-0.044005588
90	0x3d2a4e46	0.041578554
91	0xbe1076c0	-0.141078
92	0x3e15c1b0	0.14624667
93	0x3dc530d2	0.09628452
94	0x3ce4188b	0.027843734
95	0xbb96f6a3	-0.004607038
96	0x3f094a99	0.5362945
97	0x3eb6a05f	0.35669228
98	0x3f075386	0.5286182
99	0x3ebe3052	0.3714624
100	0x3f482324	0.7817862
101	0x3ea2c800	0.31793213
102	0x3e9ec526	0.31009787
103	0x3e3df92f	0.18552087
104	0x3f23b3a0	0.6394596
105	0x3d3fc2d3	0.04681666
106	0x3db0b630	0.086284995
107	0x3f2493ae	0.6428784
108	0x3eda2f2e	0.4261412
109	0x3f110637	0.5665011
110	0x3e7ee25b	0.24891035
111	0x3eee0db7	0.4649484
112	0x3f02335d	0.50859624
113	0x3ed23b04	0.4106065
114	0x3f17a709	0.5923925
115	0x3e35739f	0.17719887
116	0x3eebcac2	0.4605313
117	0xbe386b46	-0.18009672
118	0x3e3ce89e	0.18448111
119	0x3f5c4b57	0.8605246
120	0x3e9bbc65	0.3041717
121	0x3f3dd169	0.7414766
122	0x3ed0838d	0.40725365
123	0x3ed5cd07	0.41757986
124	0x3ed17eba	0.40916997
125	0x3f175a90	0.5912256
126	0x3eb5d0e9	0.35510948
127	0x3ecf17a5	0.40447727

fc.weight f4 [1, 32]
0	0x403c45bd	2.9417565
1	0x3fdca41e	1.7237585
2	0xc00bf623	-2.186898
3	0xbff556bc	-1.9167094
4	0x40d7de1f	6.7458644
5	0x4048e112	3.1387372
6	0x3fd02f54	1.6264443
7	0xbfdc10a5	-1.719258
8	0x403c660a	2.943728
9	0x3f8d409d	1.1035343
10	0xc022b2eb	-2.5421703
11	0x3f9dd9f8	1.2332144
12	0xc09938b9	-4.788174
13	0x40b132f8	5.537472
14	0x3f9744a8	1.1817827
15	0xbf3b53c8	-0.73174715
16	0xc0a9c082	-5.3047495
17	0x40956792	4.668893
18	0x3f0996f8	0.53745985
19	0x3feac09b	1.8340029
20	0xc0935d0b	-4.605108
21	0xc028379e	-2.6283946
22	0xbe9f59cd	-0.311232
23	0xc0c49210	-6.14283
24	0xc0557cb6	-3.3357368
25	0x40c742c7	6.2269015
26	0xc0179c42	-2.3689122
27	0x406b14bd	3.6731408
28	0xc09e1213	-4.9397063
29	0x401a86de	2.4144816
30	0x40463d53	3.097493
31	0x40b43583	5.631532
