fut_opt_lih_features_prepare/bm_fut_lih_vol_02.pth (torch, 26418 bytes, 6 tensors)

embedding.weight f4 [57, 8]
0	0xbfc419d2	-1.532038
1	0xbf0fffba	-0.5624958
2	0xbf0ec2ec	-0.5576618
3	0xbfcb2071	-1.5869275
4	0x3d119982	0.035546787
5	0xbf046e9d	-0.5173128
6	0xbf8809e8	-1.0628023
7	0xbfdf23f3	-1.7432846
8	0xbf2b0a32	-0.6681243
9	0x3ef6437e	0.48098367
10	0xbf4bda15	-0.7962964
11	0xbe7e1152	-0.24811295
12	0xbe8b55d3	-0.27213916
13	0x3fdecc2e	1.7406061
14	0x3e7c9781	0.24667169
15	0x3ec62467	0.38699648
16	0xbeed47f1	-0.4634395
17	0xbf937e89	-1.152299
18	0x3ee3a0ce	0.44458622
19	0x3db05617	0.0861017
20	0x3f3642dc	0.7119577
21	0x3e0cec65	0.13762052
22	0xbed290e1	-0.4112616
23	0x3f0465d6	0.5171789
24	0x3f823dcb	1.0175108
25	0xbec8cdfa	-0.39219648
26	0xc00fe608	-2.248415
27	0xbfc452e1	-1.5337793
28	0x3de41327	0.111364655
29	0xbf2f2ce6	-0.68427885
30	0xbf65746e	-0.8963078
31	0x3ce010aa	0.027351696
32	0x40021c4e	2.0329776
33	0x3c9ac9f2	0.018895123
34	0x3c9155a9	0.017741041
35	0xbf31361c	-0.6922319
36	0xbd7eef1f	-0.062239762
37	0xbdac3231	-0.08408011
38	0x3ec8990a	0.3917926
39	0xbf22b62e	-0.63559234
40	0xbe57e65e	-0.21083972
41	0x3e5e5560	0.21712255
42	0xbe462279	-0.19349088
43	0x3c66736d	0.014065606
44	0x4019763a	2.397841
45	0xbf95be5e	-1.169872
46	0x3fd80327	1.6875962
47	0xbf415c1f	-0.7553119
48	0xbf3abe21	-0.72946364
49	0x3ecc0532	0.39847714
50	0xbe53255a	-0.20619717
51	0xbef439e7	-0.47700426
52	0x3eedb234	0.4642502
53	0x3e0e7421	0.13911487
54	0x3fc50946	1.5393455
55	0x3fdb8cc9	1.7152339
56	0x3c2147c9	0.009843775
57	0x3f6495fd	0.89291364
58	0xbde5c58f	-0.11219322
59	0xbf4e62d1	-0.8061953
60	0x3fc9d665	1.5768553
61	0xbf6b0fd8	-0.9182105
62	0xc05b286d	-3.4243424
63	0xbf099390	-0.5374079
64	0xbaed5930	-0.0018108245
65	0xbf6ad988	-0.91738176
66	0xbf3c0eef	-0.73460287
67	0xbf989d69	-1.1923038
68	0xbe66312f	-0.224797
69	0x3e05da91	0.13071658
70	0x3fd28c68	1.6449099
71	0xbd4af48b	-0.04954962
72	0xbf6edaaa	-0.93302405
73	0xbe6dbc84	-0.23216444
74	0xbf82723f	-1.0191115
75	0xbf9de812	-1.2336447
76	0xbe6eeb7b	-0.23332016
77	0xbea3d0e5	-0.3199531
78	0x3d298c16	0.041393362
79	0xbf38eac2	-0.7223321
80	0xbf21a5a2	-0.6314336
81	0xbdcfe25e	-0.10150598
82	0xbf1c182d	-0.6097439
83	0x3f64bca6	0.89350355
84	0xbfac2c22	-1.3450968
85	0xbf00484f	-0.50110334
86	0x3dbdf819	0.092758365
87	0xbc62a898	-0.013834141
88	0x3e09aee5	0.13445623
89	0xbf092f48	-0.5358777
90	0xbf54a329	-0.8306146
91	0x3f5dd32e	0.8665036
92	0xbf5b6c29	-0.85711914
93	0xbe70ce25	-0.23516138
94	0x3c2774c1	0.010220707
95	0x40105005	2.254884
96	0x3f422516	0.7583784
97	0x3fb0c858	1.381114
98	0x3f5d58fb	0.864639
99	0xbf73cfb3	-0.952388
100	0x3fb6d484	1.4283605
101	0xbf2f7309	-0.68534905
102	0xbf8172ab	-1.0113119
103	0x3f896eb9	1.0736915
104	0x3fb87030	1.4409237
105	0x3f1c3e37	0.6103243
106	0xbe4273e8	-0.18989527
107	0xbe29a2a6	-0.16565952
108	0xc00fb99e	-2.2457042
109	0xbf26bc4c	-0.6513107
110	0xbfabb2cc	-1.341394
111	0xbfa08978	-1.2541952
112	0x3f638d75	0.8888772
113	0xbf1cec95	-0.61298496
114	0x3faffe5b	1.3749498
115	0x3f5ecb92	0.87029374
116	0x3e8e9e4d	0.2785515
117	0x3eb90708	0.36138177
118	0x3eef8d4d	0.4678749
119	0xbec02940	-0.3753147
120	0x4021416c	2.519618
121	0xbe833698	-0.2562759
122	0xbcad796a	-0.021176059
123	0x3ff35b32	1.9012206
124	0xc0016a74	-2.0221224
125	0x3fdfbe18	1.7479887
126	0x3e29fe1a	0.16600838
127	0x3ead6f0e	0.3387379
128	0x3f604138	0.87599516
129	0xbfccdca0	-1.600483
130	0x3e9f5e8b	0.31126818
131	0x3f988e83	1.1918491
132	0xbf01dffa	-0.50732386
133	0xbff14fd7	-1.885249
134	0x3f400234	0.7500336
135	0xbf6ab8c2	-0.9168817
136	0xbfd1b32b	-1.6382803
137	0xbfe699ba	-1.8015664
138	0x3f25d595	0.64779025
139	0x3f4f118e	0.8088616
140	0x401bf681	2.4369204
141	0x3f4a79b4	0.79091954
142	0x3fcaf0b3	1.5854706
143	0xbfee8bde	-1.8636434
144	0xbfd3ed5a	-1.6556809
145	0xbfae78df	-1.3630637
146	0x3fdef7b2	1.7419341
147	0x3f32a2fe	0.69779956
148	0x3f24ad17	0.64326614
149	0xbf27d046	-0.65552175
150	0x3f15e486	0.58551824
151	0xbfaa523a	-1.3306344
152	0x3ebfd7e7	0.37469408
153	0x3e37964e	0.1792843
154	0x3e348ff5	0.1763304
155	0x3fa74648	1.3068323
156	0x3fdec372	1.7403395
157	0x3ff49d31	1.9110471
158	0xbf3a03d7	-0.7266211
159	0x402b3576	2.675138
160	0x3f1a7b8b	0.6034476
161	0x3e0eeac3	0.13956742
162	0xbf5aaf09	-0.8542333
163	0xbf19ff95	-0.6015561
164	0xbf2a4cdd	-0.66523534
165	0xbf3c02be	-0.73441684
166	0x3f4b4e43	0.7941629
167	0x3f4f6915	0.8101972
168	0x3e637592	0.22212818
169	0x3fbe3c88	1.4862223
170	0x3f9626ae	1.1730554
171	0xc000a62a	-2.0101418
172	0xbe93c837	-0.2886369
173	0xbf7d35b2	-0.9891006
174	0xbd2f8872	-0.042854734
175	0xbd03effa	-0.03221128
176	0x3f50b2b7	0.815227
177	0x3f94b39c	1.1617312
178	0x3f2cf969	0.6756807
179	0x3fe73929	1.8064319
180	0xbf617640	-0.8807106
181	0x3e941529	0.28922394
182	0xbe9ad77b	-0.30242524
183	0xbe746e9c	-0.23870319
184	0x3fd9a315	1.7002894
185	0xbec470ab	-0.3836721
186	0x3e945181	0.28968433
187	0x3fa876bc	1.3161235
188	0x3e0e7f5c	0.13915771
189	0x3f8b61df	1.0889243
190	0xbeb1d898	-0.3473556
191	0x3f79bfec	0.97558475
192	0xbefd6fa9	-0.49499252
193	0x3f4772b4	0.779094
194	0x3fe3cb6b	1.7796453
195	0xbe2baa6a	-0.16764227
196	0x3eeadbad	0.45870724
197	0xbfe6740c	-1.8004165
198	0xc03b89b4	-2.9302797
199	0xbf106870	-0.5640936
200	0xbec12641	-0.37724498
201	0x3f7515c9	0.95736367
202	0xbf8ab413	-1.0836204
203	0x3ee044ab	0.4380239
204	0xbfdfe48d	-1.7491623
205	0xbe412c4c	-0.18864554
206	0x3f638713	0.8887798
207	0xbe1f1c53	-0.15538149
208	0x3f66cb8f	0.90154356
209	0x3f8a3f51	1.0800573
210	0xbf0a712f	-0.54078954
211	0x3fb13ded	1.3847023
212	0x3e595c4a	0.21226612
213	0x3ff43b27	1.9080552
214	0x3fea065e	1.8283193
215	0x3fae013c	1.3594127
216	0xbf8acab9	-1.0843116
217	0x3f9f1900	1.2429504
218	0x3fafd7f4	1.3737779
219	0xbed1c082	-0.40967184
220	0x3ec9a980	0.3938713
221	0xbf146f7a	-0.579826
222	0x3fad7a72	1.3552992
223	0x3ff56336	1.9170902
224	0x3fd33ba4	1.6502576
225	0xbf0724ee	-0.52790725
226	0xbe708c56	-0.23491034
227	0xbfc3bdff	-1.5292357
228	0x3f9d49f8	1.2288198
229	0x3f9db90d	1.2322098
230	0x3edc8232	0.4306808
231	0x3ec35bf1	0.38156083
232	0xbde75765	-0.11295966
233	0x3ec4ea23	0.38459882
234	0x3f724441	0.946354
235	0xbfb2e58b	-1.3976301
236	0x3ff372ee	1.9019449
237	0xc00d3503	-2.2063606
238	0xbf8549c0	-1.0413132
239	0x3ebed886	0.3727457
240	0x3c6f5da8	0.014609732
241	0x3f579a42	0.84219754
242	0x3fbfa056	1.4970806
243	0xbeee6347	-0.46560118
244	0xbf2ce09c	-0.67530227
245	0xbe865a21	-0.26240638
246	0xbe8d37fa	-0.2758177
247	0x3e19bf93	0.15014486
248	0x3f079f2c	0.5297725
249	0xbf1af698	-0.6053252
250	0xbf53dac5	-0.8275569
251	0x3f5c7b6b	0.8612582
252	0xbe95c9d7	-0.29255554
253	0xbfa77ce3	-1.3084987
254	0x3e1c9c1f	0.1529393
255	0x3ea5a474	0.3235203

lstm.weight_ih_l0 f4 [128, 8]
0	0x3e343f60	0.176023
1	0x3dd8a921	0.10579134
2	0x3e427fca	0.1899406
3	0x3e48caa5	0.19608553
4	0xbe437c87	-0.19090472
5	0x3dcfec71	0.101525195
6	0x3e05bae7	0.13059579
7	0xbdb1a71f	-0.08674454
8	0x3d31ee02	0.043439873
9	0xbe5b8b31	-0.21439816
10	0x3e4d9fe2	0.20080522
11	0x3dcb548a	0.09928234
12	0x3e296a03	0.16544347
13	0xbe0cb76d	-0.13741846
14	0xbdd919b9	-0.10600609
15	0x3e03d1af	0.12872957
16	0xbc20c47c	-0.0098124705
17	0x3d2e9eb3	0.042631816
18	0x3d85ea09	0.06538779
19	0xbe2409fa	-0.16019431
20	0x3e12ed48	0.14348328
21	0xbe02185c	-0.12704605
22	0x3db8b16a	0.09018214
23	0x3c9e3a55	0.019314924
24	0x3e44da4e	0.19223902
25	0x3cf271e1	0.029595317
26	0xbce4213c	-0.027847879
27	0x3e2f85e1	0.17140914
28	0xbe7c189d	-0.24618764
29	0xbdaaa585	-0.083323516
30	0xbd8b49e2	-0.068012014
31	0xbe67942b	-0.22615115
32	0x3dbadb6d	0.091238834
33	0xbbdd7926	-0.006758827
34	0xbdb3c619	-0.087780185
35	0xbdf345db	-0.11878558
36	0xbc241689	-0.010015138
37	0xbdf2764d	-0.1183897
38	0xbcbb0f93	-0.022834575
39	0xbd525829	-0.051353607
40	0xbe64784f	-0.22311519
41	0x3da76f2d	0.08175502
42	0x3e785425	0.24250849
43	0xbe3ae7e9	-0.18252529
44	0xbd258a38	-0.04041502
45	0xbdd157d7	-0.10221832
46	0xbd902ff6	-0.07040398
47	0x3d67ce47	0.056593206
48	0xbe54ac6c	-0.20768899
49	0xbe34b094	-0.17645484
50	0x3e156c03	0.14591984
51	0xbd6af3f7	-0.05736157
52	0xbdac39b4	-0.084094435
53	0xbe707355	-0.23481496
54	0x3dd45ea6	0.10369615
55	0xbd03354d	-0.032033253
56	0xbe210c76	-0.1572741
57	0xbce0397e	-0.027371164
58	0xbc26547c	-0.010151979
59	0x399e8926	0.00030238292
60	0x3dd1a979	0.102374025
61	0x3d9ac97c	0.07557961
62	0x3b85e815	0.004086504
63	0xbe4070b6	-0.18792996
64	0x3e21c3bc	0.15797323
65	0x3cef5882	0.029217009
66	0xbcd3a645	-0.02583612
67	0x3e30b466	0.17256317
68	0x3e02f149	0.12787355
69	0xbe0cf017	-0.13763462
70	0x3d174301	0.036929134
71	0xbdc00426	-0.09375791
72	0xbe6c92b2	-0.23102835
73	0x3e15bc65	0.14622648
74	0xbdc0a6fe	-0.09406851
75	0x3e425497	0.18977581
76	0xbe1e218f	-0.15442489
77	0x3de06dab	0.109584175
78	0x3da6139f	0.08109211
79	0xbe83455e	-0.2563886
80	0x3d708369	0.058719072
81	0xbec62f6a	-0.3870805
82	0x3e025526	0.12727794
83	0x3e2d46eb	0.16921584
84	0x3e47bdaf	0.19505952
85	0x3d752466	0.059849165
86	0xbd9e9481	-0.077431686
87	0xbd431610	-0.047628462
88	0x3cf8e89c	0.030384354
89	0xbe6942a1	-0.22779323
90	0xbe36d7db	-0.1785578
91	0xbe51d48d	-0.20491238
92	0xbb7e9e76	-0.0038851774
93	0xbdf370c1	-0.118867405
94	0xbdab3077	-0.08358853
95	0xbe560451	-0.20900084
96	0x3d1ba4c4	0.03799893
97	0xbe083861	-0.13302757
98	0x3dea978c	0.114546865
99	0xbc431ccf	-0.011908724
100	0xbddaf5cc	-0.10691413
101	0xbd9bc42f	-0.076057784
102	0xbc915900	-0.017742634
103	0xbcc76e67	-0.024344636
104	0xbdd2a00e	-0.10284434
105	0xbe2f150e	-0.17097875
106	0xbdc9f1fa	-0.098606065
107	0xbe10715a	-0.1410574
108	0x3e5c5cb3	0.21519737
109	0x3d1cba40	0.03826356
110	0x3e0a888c	0.13528651
111	0x3e16f397	0.1474136
112	0x3be297d6	0.006915073
113	0xbe501fd4	-0.20324641
114	0xbcf5216d	-0.029923165
115	0x3d45a65b	0.048254352
116	0xbd272fb9	-0.040816996
117	0xbcb96723	-0.022632187
118	0x3e23bb1f	0.1598935
119	0x3de2549a	0.11051293
120	0x3e81c4f6	0.25345582
121	0x3e0938f8	0.13400638
122	0x3d4ef131	0.050522987
123	0x3eb4213d	0.3518161
124	0x3cdca1e6	0.026932668
125	0xbd7014c4	-0.058613554
126	0x3c91e4e5	0.01780934
127	0x3de19aae	0.11015831
128	0x3d6ba309	0.05752853
129	0xbd03f247	-0.032213476
130	0x3dd1f0e4	0.10251024
131	0x3d958889	0.07301433
132	0xbe0a6a8a	-0.13517204
133	0xbe3f0baf	-0.186568
134	0x3e10b7b7	0.14132582
135	0x3da09ff6	0.0784301
136	0xbd8f3ac1	-0.06993628
137	0x3e4582f9	0.19288243
138	0x3e073d84	0.1320706
139	0x3e06c030	0.13159251
140	0x3d9032ca	0.07040937
141	0x3d6be8df	0.05759513
142	0x3d5edd3a	0.054410197
143	0x3e6723ef	0.22572301
144	0x3e41b270	0.18915725
145	0x3d47dc76	0.048794232
146	0x3ea40ad4	0.3203951
147	0x3dfe0100	0.124025345
148	0x3d9395f7	0.07206338
149	0xbdac625c	-0.08417198
150	0x3e6e860a	0.2329332
151	0x3d9eaa14	0.077472836
152	0x3d98de4c	0.07464275
153	0x3ea4fae7	0.32222673
154	0xbde261fb	-0.110538445
155	0x3e1465b0	0.14491916
156	0xbe2d3ea2	-0.16918424
157	0x3dbfb511	0.093607076
158	0x3e5c52db	0.21515982
159	0xbe168c8a	-0.14702049
160	0xbc7ba6d2	-0.015359597
161	0xbc41b0c0	-0.011821926
162	0xbe8eed51	-0.27915433
163	0xbd990ce1	-0.074731596
164	0xbd8c72ce	-0.06857835
165	0xbdae11e4	-0.08499506
166	0xbe31d236	-0.17365345
167	0xbe08290b	-0.13296907
168	0x3ceeedf2	0.029166196
169	0x3d53add3	0.051679444
170	0x3d58431e	0.052798383
171	0x3de1530d	0.11002169
172	0x3c998d02	0.018743996
173	0x3d247945	0.040154714
174	0xbdf3c69a	-0.119031146
175	0x3df8cba7	0.121482186
176	0xbdd2d674	-0.1029481
177	0xbd192e39	-0.037397597
178	0xbdc64b88	-0.09682375
179	0x3d66212c	0.05618398
180	0xbdccdf2a	-0.10003503
181	0xbe33422d	-0.17505713
182	0xbd80e1b6	-0.06293051
183	0xbdebe400	-0.11518097
184	0xbe01e966	-0.1268669
185	0x3dee8343	0.1164613
186	0x3dcd29ae	0.100177154
187	0x3e5c81bc	0.21533865
188	0xbd322ec5	-0.043501634
189	0x3e5887f1	0.21145608
190	0x3e05089f	0.1299157
191	0xbe3b6662	-0.18300775
192	0x3d0d7042	0.034530886
193	0xbd26ab2a	-0.04069058
194	0x3e304d75	0.17217048
195	0xbd820d4e	-0.06350194
196	0xbde2fafd	-0.110830285
197	0xbe655a3b	-0.22397701
198	0x3e348b31	0.17631222
199	0xbd9d25f0	-0.07673252
200	0xbe6dc056	-0.23217902
201	0xb9f8e242	-0.0004747082
202	0xbe104ac5	-0.14091022
203	0xbcf3fdda	-0.029784132
204	0xbd3d0898	-0.046150774
205	0xbe07c177	-0.13257395
206	0x3e5ecfed	0.21759005
207	0xbd5ecc05	-0.054393787
208	0xbdda572b	-0.10661157
209	0xbca241ce	-0.019806769
210	0xbd1d4cc4	-0.038403288
211	0xbd90cefb	-0.070707284
212	0x3dd3686c	0.10322651
213	0xbe8dfdbe	-0.27732652
214	0x3e7a4a6e	0.24442455
215	0xbc68d877	-0.0142117655
216	0x3b802c37	0.003911521
217	0xbe6cde67	-0.23131715
218	0xbcd7ff87	-0.026366962
219	0xbe0bdcdb	-0.13658468
220	0xbe6961ff	-0.22791289
221	0xbd85f402	-0.065406814
222	0xbd513da2	-0.05108417
223	0xbe527e87	-0.20556079
224	0x3dc870a6	0.09787111
225	0xbe08c145	-0.13354976
226	0x3e5fc78f	0.2185347
227	0x3d14aa41	0.03629518
228	0xbd989931	-0.07451094
229	0xbe2d8c86	-0.16948137
230	0xbcf9a668	-0.030474856
231	0x3e9e996f	0.30976436
232	0x3bd49895	0.0064879158
233	0xbe2ca465	-0.16859587
234	0x3e14bcf9	0.14525212
235	0x3e686d38	0.22697914
236	0x3e010c1b	0.12602274
237	0xbe0f5429	-0.13996948
238	0x3c9449a3	0.018101519
239	0xbdbcbe40	-0.09215975
240	0x3d7b7bfd	0.06139754
241	0xbdc9a83d	-0.09846542
242	0xbe333d44	-0.1750384
243	0x3c8d3d75	0.017241219
244	0xbdc600dc	-0.09668133
245	0x3e18ca1f	0.14920853
246	0x3cd892e7	0.026437236
247	0xbde12f53	-0.109953545
248	0x3e42f821	0.19039966
249	0x3d901e15	0.07036988
250	0x3bbe7269	0.0058119786
251	0xbe1d4c1b	-0.15361063
252	0x3c956d03	0.018240457
253	0x3d874d87	0.06606584
254	0x3d23dbb9	0.040004466
255	0xbda4e7fa	-0.080520585

lstm.weight_hh_l0 f4 [128, 32]
0	0xbde8057b	-0.1132917
1	0xbebca9c2	-0.36848265
2	0x3c976a5b	0.018483331
3	0x3dfe289a	0.12410088
4	0xbe03c962	-0.1286979
5	0xbdaf64da	-0.08564158
6	0xbe57cea4	-0.21074921
7	0x3e1a93c5	0.15095432
8	0x3e506daa	0.20354334
9	0x3e7787d6	0.24172911
10	0xbec709ee	-0.38874763
11	0x3e0497ff	0.12948607
12	0x3e5be2a1	0.21473171
13	0xbe006b38	-0.125409
14	0x3e1910d5	0.14947827
15	0x3d2c6da9	0.042096768
16	0xbddb4b3c	-0.10707709
17	0xbb4973be	-0.0030739154
18	0x3e809e0e	0.25120586
19	0x3cb91e19	0.02259736
20	0xbd9763f5	-0.07392112
21	0x3e03d10d	0.12872715
22	0xbe1e7cc0	-0.15477276
23	0x3c943efd	0.018096441
24	0xbe07d598	-0.13265073
25	0x3e41494e	0.1887562
26	0x3df9400c	0.12170419
27	0xbdd97ca1	-0.10619474
28	0x3d8b139b	0.06790849
29	0x3db770f6	0.089570925
30	0xbdff0149	-0.12451417
31	0x3e37dae8	0.179546
32	0x3d256c45	0.040386457
33	0xbd104e99	-0.035231207
34	0x3b270312	0.0025484008
35	0xbd75c993	-0.06000669
36	0x3dbcab7d	0.09212396
37	0x3b9e56ad	0.00483211
38	0x3dbf9974	0.09355441
39	0x3c828beb	0.015935859
40	0xbcede735	-0.029040912
41	0x3c5f80eb	0.013641576
42	0x3d005ff0	0.031341493
43	0x3ce4faa2	0.027951542
44	0x3e625c34	0.22105485
45	0x3dae023d	0.08496521
46	0xbdf66244	-0.120304614
47	0xbccceb98	-0.025014684
48	0xbdbecff0	-0.09317005
49	0x3e8db0f9	0.27674082
50	0xbdcd6d71	-0.1003064
51	0xbe5cad26	-0.21550426
52	0x3e181b94	0.1485427
53	0x3e210987	0.1572629
54	0xbe533c90	-0.20628572
55	0x3e22109e	0.15826651
56	0xbc2af962	-0.010435434
57	0xbd1a4244	-0.037660852
58	0xbe57ed8f	-0.21086715
59	0x3d286dc0	0.04112029
60	0xbd9a2a4a	-0.07527597
61	0x3e3cfb5a	0.18455258
62	0xbd2312af	-0.03981274
63	0xbc383fc5	-0.011245673
64	0xbe9850aa	-0.29749042
65	0xbe55660d	-0.2083971
66	0x3cd2f20f	0.025750188
67	0x3d8caca7	0.06868868
68	0xbe125bb1	-0.1429279
69	0x3d0b7700	0.034049034
70	0xbd4360ac	-0.047699615
71	0x3d3567c6	0.04428842
72	0x3eb6898d	0.35651818
73	0xbd7603ed	-0.060062338
74	0xbe6478de	-0.22311732
75	0xbd809998	-0.06279296
76	0x3bef6c51	0.0073066135
77	0xbe58fae0	-0.21189451
78	0x3df1fea5	0.11816148
79	0x3d9ee05d	0.07757638
80	0x3c9557ad	0.018230284
81	0xbe807f27	-0.2509701
82	0x3d936389	0.07196719
83	0x3da8bf80	0.08239651
84	0x3d898572	0.06714906
85	0x3c72dce9	0.014823177
86	0xbd7790f6	-0.06044098
87	0xbd8cdc9d	-0.06878016
88	0xbc7ae439	-0.015313202
89	0x3e923e15	0.2856299
90	0x3dae5d60	0.085139036
91	0xbe27ebb5	-0.16398509
92	0x3e26783a	0.162568
93	0x3e5723c8	0.21009743
94	0x3e1cc682	0.153101
95	0x3d2bc358	0.04193434
96	0x3ed0da9c	0.40791786
97	0xbb1c9557	-0.0023892724
98	0xbdf9e8fa	-0.1220264
99	0x3e0f6baf	0.14005922
100	0x3dc5762e	0.096416816
101	0x3d759e2a	0.05996529
102	0x3e1f4424	0.15553337
103	0xbd830940	-0.06398249
104	0xbe691a4c	-0.22763938
105	0x3e7a5e2d	0.24449988
106	0x3d3fef7c	0.04685925
107	0x3bed9bcd	0.007251239
108	0x3d5b5483	0.053547394
109	0x3d1e1188	0.038590938
110	0x3e6fe182	0.23425868
111	0x3decc71e	0.11561416
112	0x3defe974	0.117144495
113	0x3d3d6abf	0.04624438
114	0x3edd16ce	0.4318146
115	0xbd05ee95	-0.032698233
116	0xbe1a8ac5	-0.15091999
117	0xbe7ca540	-0.24672413
118	0x3d22542e	0.03963106
119	0xbd4fb371	-0.050708238
120	0xbe19d8ab	-0.15024059
121	0x3e8bcfec	0.2730707
122	0x3e8e64fd	0.27811423
123	0xbe2c6ee3	-0.16839175
124	0x3e975c85	0.29562774
125	0x3da0d26d	0.078526355
126	0x3dda7335	0.10666505
127	0x3e289ae2	0.16465333
128	0x3daf1bec	0.085502476
129	0xbe15d233	-0.14630966
130	0x3e0f766f	0.14010023
131	0xbe480ee9	-0.19536938
132	0x3e4c3d58	0.19945276
133	0x3e5a97ee	0.21347019
134	0x3d8d879b	0.0691063
135	0xbd83ae60	-0.06429744
136	0xbd814c73	-0.0631341
137	0xbc84a24d	-0.016190672
138	0xbe150ca5	-0.14555605
139	0xbdd4c3d3	-0.10388913
140	0x3c0e5b53	0.008688766
141	0x3ea20219	0.31642225
142	0xbd76ea48	-0.06028202
143	0x3d5f73a8	0.054553658
144	0x3dc12d98	0.094325244
145	0x3e32ce88	0.17461598
146	0x3e6c0683	0.23049359
147	0x3c087aea	0.008330086
148	0xbe785356	-0.2425054
149	0xbc3c5733	-0.011495399
150	0xbe456165	-0.19275434
151	0x3e7a5d71	0.24449708
152	0xbddf884f	-0.10914671
153	0x3d604969	0.05475751
154	0x3d566ff2	0.052352853
155	0x3e5a9a54	0.21347934
156	0x3ea24415	0.31692567
157	0xbc969ce4	-0.018385358
158	0xbdc53a8b	-0.09630307
159	0x3db95444	0.090492755
160	0xbce9719d	-0.028496558
161	0xbe1aa7fe	-0.15103146
162	0xbe78e5c0	-0.24306393
163	0x3dde8699	0.10865516
164	0xbdc3eaa0	-0.095662355
165	0x3df87494	0.121316105
166	0x3e62b56d	0.22139521
167	0xbd2ea78a	-0.042640246
168	0x3d423de6	0.047422312
169	0x3d810b02	0.06300928
170	0xbe77c851	-0.24197508
171	0xbdecc24a	-0.11560495
172	0x3e608cd6	0.21928725
173	0x3ded4d02	0.11586954
174	0xbdd58588	-0.1042586
175	0x3db9a714	0.09065071
176	0xbe064ebe	-0.13115975
177	0x3df3dfbd	0.11907909
178	0x3d0f455e	0.034978263
179	0xbe1e6bae	-0.15470764
180	0x3dfd8c35	0.12380258
181	0x3e38f9a8	0.18063986
182	0xbe23d4cc	-0.15999144
183	0xbd16fdf3	-0.03686328
184	0xbdcb888f	-0.09938156
185	0xbc21a8d5	-0.009866913
186	0x3d65c68e	0.05609756
187	0x3e7c5e08	0.24645245
188	0xbe521380	-0.20515251
189	0x3e3a648f	0.18202423
190	0xbe29f091	-0.16595675
191	0xbd5d11d6	-0.053972088
192	0xbd426565	-0.04745998
193	0xbe3d6410	-0.18495202
194	0xbdb8e92a	-0.090288475
195	0xbd2b8d88	-0.04188302
196	0x3d280648	0.041021615
197	0xbdbaa238	-0.09112972
198	0xbe1e3587	-0.15450107
199	0x3d2f6dc3	0.042829286
200	0x3e085a69	0.13315739
201	0xbdedf6f5	-0.11619369
202	0xbeab22ad	-0.33424893
203	0x3d6de911	0.058083598
204	0xbdf599b1	-0.11992205
205	0xbd0a8c8d	-0.033825446
206	0x3e85d825	0.26141468
207	0xbe35e043	-0.1776133
208	0xbd8d5683	-0.069012664
209	0xbdb2fae1	-0.087392576
210	0x3e13718f	0.14398788
211	0xbd57e8c9	-0.052712236
212	0xbe025094	-0.1272605
213	0x3e0870ef	0.13324331
214	0xbd3c1d73	-0.045926522
215	0x3e7a0861	0.24417259
216	0xbad13fbe	-0.0015964431
217	0x3df1c7de	0.118057
218	0x3b8ef3f6	0.0043625785
219	0xbd13d04f	-0.03608733
220	0x3e162393	0.14662008
221	0x3d15b15c	0.036546096
222	0xbdc8e86f	-0.09809958
223	0x3e6c3201	0.2306595
224	0x3e610317	0.21973835
225	0x3c08fac2	0.008360567
226	0x3e57097e	0.20999715
227	0xbe05acfc	-0.1305427
228	0x3c11b55d	0.008893338
229	0x3d93a632	0.072094336
230	0xbd3212c3	-0.043474924
231	0xbd85cbbb	-0.06532999
232	0xbbc270bb	-0.0059338487
233	0xbd4111e5	-0.047136206
234	0x3e041588	0.12898839
235	0x3de18fc3	0.110137485
236	0xbe66eca5	-0.2255121
237	0xbd1e077f	-0.038581368
238	0x3e205879	0.1565875
239	0xbe3b5efc	-0.18297952
240	0x3d5af00f	0.053451594
241	0xbe9ae83c	-0.30255306
242	0x3dfcb151	0.12338508
243	0xbdea27df	-0.11433386
244	0xbd86c60f	-0.065807454
245	0xbe54059d	-0.20705266
246	0xbdacf20f	-0.084446065
247	0x3e4143e8	0.1887356
248	0xbe151daa	-0.14562097
249	0x3d85ef27	0.06539755
250	0x3e04c0a8	0.12964118
251	0x3e17a965	0.14810713
252	0x3e5d5f8f	0.21618484
253	0x3e21a5aa	0.15785852
254	0x3ba43434	0.005011106
255	0xbd904e79	-0.070462175

lstm.bias_ih_l0 f4 [128]
0	0x3e64a825	0.22329767
1	0xbe007e0f	-0.12548088
2	0x3df0a8fa	0.1175098
3	0x3e88dc85	0.26730743
4	0x3e46818e	0.19385359
5	0xbd5b5196	-0.053544603
6	0x3e0e00e8	0.13867533
7	0x3d7500f5	0.059815366
8	0x3d6b0b05	0.057383556
9	0xbd5df6e9	-0.05419055
10	0x3d97534e	0.07388936
11	0xbdaf9d9f	-0.08574986
12	0x3d581a1e	0.052759282
13	0x3dee840a	0.11646278
14	0x3d653d1c	0.05596648
15	0xb8851bc0	-6.347103e-05
16	0xbd344761	-0.044013385
17	0x3e21cebc	0.15801519
18	0xbd970112	-0.07373251
19	0x3e95e37e	0.29275125
20	0x3e6e740b	0.23286454
21	0x3e80cb50	0.25155115
22	0x3e214c99	0.15751876
23	0x3dd6e983	0.104937576
24	0x3d41a33a	0.047274806
25	0x3e40f195	0.18842156
26	0xbdd94daf	-0.1061052
27	0xbde295c9	-0.110637255
28	0x3e5b0572	0.21388796
29	0xbd962fd5	-0.07333342
30	0x3e3c1a37	0.18369375
31	0xbdc77f82	-0.09741117
32	0xbd86f709	-0.06590087
33	0xbe140ab6	-0.14457211
34	0xbd1b4b1a	-0.03791342
35	0x3dc03f87	0.09387117
36	0xbd41a9f5	-0.047281224
37	0x3d8a62f5	0.06757156
38	0x3d5a537c	0.053302273
39	0xbd86d531	-0.06583632
40	0x3e3f49be	0.18680474
41	0xbccc6ffd	-0.024955744
42	0x3db24541	0.087046154
43	0x3ccb27aa	0.024799187
44	0xbd5db09b	-0.054123502
45	0x3e9f028d	0.31056634
46	0xbdf3f8cc	-0.119126886
47	0x3dfc0380	0.12305355
48	0xbe04d81f	-0.12973069
49	0x3e349946	0.17636594
50	0x3e2bde44	0.16784006
51	0xbe1969ff	-0.1498184
52	0xbd670fe9	-0.056411657
53	0xbe1682d1	-0.1469834
54	0x3d950fce	0.07278405
55	0xbe0f58fe	-0.13998792
56	0xbc853f5a	-0.01626556
57	0x3e423c96	0.18968424
58	0xbd06f78a	-0.032950915
59	0x3e115f59	0.14196528
60	0xbd0fac9f	-0.035076734
61	0x3dab0503	0.08350565
62	0x3c8c302e	0.017112818
63	0x3dcfa359	0.10138578
64	0x3e2da0f5	0.16955931
65	0xbe1280fd	-0.14307018
66	0xbce07e9f	-0.027404128
67	0xbdd9bf10	-0.106321454
68	0x3d976156	0.07391612
69	0x3e027968	0.12741625
70	0xbcf6954a	-0.030100483
71	0x3e1ec54d	0.15504952
72	0x3dda9b44	0.10674146
73	0x3c45ae38	0.012065463
74	0x3d977c26	0.07396726
75	0x3e1a69be	0.150794
76	0x3d02c8d8	0.03192982
77	0xbe1b8774	-0.1518839
78	0x3d748cb4	0.059704497
79	0xbe3423fd	-0.17591853
80	0x3c69aafa	0.014261955
81	0xbe1617bd	-0.14657493
82	0x3e1483d7	0.14503418
83	0xbdcf18c7	-0.10112148
84	0xbdc7b509	-0.097513266
85	0x3de35a97	0.11101263
86	0xbdee8179	-0.11645789
87	0x3e3eaee3	0.18621401
88	0x3d30f25d	0.043199886
89	0x3da1fa39	0.07909054
90	0xbdc36bda	-0.095420554
91	0xbc7a31e2	-0.015270682
92	0x3d8c0fb9	0.06838936
93	0x3daadde7	0.08343106
94	0xbcc2358f	-0.02370718
95	0x3e322c67	0.1739975
96	0x3e4e3da5	0.20140703
97	0xbd8bea5e	-0.06831811
98	0xbdf6a203	-0.1204262
99	0x3e6d039b	0.23145907
100	0x3e38d642	0.18050483
101	0xbd966e13	-0.07345214
102	0x3dbc6fdd	0.09201024
103	0x3ddf6f39	0.10909886
104	0x3e8b0af9	0.2715681
105	0x3cd274e2	0.0256905
106	0x3e8e7862	0.2782622
107	0xbd20ecc7	-0.03928831
108	0x3d997974	0.074938685
109	0x3dbe772c	0.09300074
110	0x3e08753c	0.13325971
111	0x3e462932	0.19351652
112	0x3b80ac10	0.0039267614
113	0x3e68a2d5	0.22718365
114	0x3ca17948	0.019711152
115	0xbc66529f	-0.014057784
116	0x3e4655a7	0.19368611
117	0x3d708597	0.05872115
118	0xbd13307d	-0.035934914
119	0x3e070b3d	0.13187881
120	0x3e198509	0.14992155
121	0x3cd806f9	0.026370512
122	0xbd415ea8	-0.04720941
123	0xbd3b4627	-0.0457212
124	0x3d635726	0.055503033
125	0x3d0166da	0.031592228
126	0xbd9a2c8f	-0.0752803
127	0x3e0f8ed5	0.1401933

lstm.bias_hh_l0 f4 [128]
0	0x3e01704d	0.12640496
1	0x3cd39b6c	0.025830947
2	0x3de1f3e6	0.11032848
3	0x3e082993	0.1329711
4	0x3e0c6948	0.13712037
5	0x3d67a22b	0.05655114
6	0x3d2d49cb	0.042306703
7	0xbdc74fe9	-0.097320385
8	0x3e807df6	0.250961
9	0x3e86f04e	0.26355213
10	0x3e93ba00	0.28852844
11	0xbde8cac7	-0.11366802
12	0x3e6c8251	0.23096587
13	0x3e22021f	0.15821122
14	0xbc6f3ad1	-0.014601425
15	0x3e58bd54	0.21165973
16	0x3e22fb0c	0.1591608
17	0x3e711404	0.23542792
18	0xbdb6a567	-0.08918267
19	0x3d93fc3d	0.07225845
20	0x3d96f5c1	0.073710926
21	0x3b99aab2	0.004689538
22	0x3c81ea83	0.015858894
23	0x3dbaa399	0.09113235
24	0x3e4581b4	0.19287759
25	0xbdc1b12a	-0.094576195
26	0x3d3ce858	0.046120018
27	0x3e535eea	0.20641676
28	0x3e3e32f2	0.18574122
29	0x3d13695b	0.035989147
30	0xbcdfe311	-0.027329953
31	0xbdcc58fc	-0.0997791
32	0x3e5784c0	0.21046734
33	0x3a95249e	0.0011378711
34	0xbd39ce76	-0.045362912
35	0xbd4da3b1	-0.050204936
36	0xbd28b987	-0.041192558
37	0xbe0da015	-0.13830598
38	0x3ceef701	0.029170515
39	0x3d0cca8a	0.034372844
40	0x3d4dc233	0.05023403
41	0x3dca4bed	0.09877763
42	0x3d847879	0.06468291
43	0x3df8a9f8	0.12141794
44	0x3e334e88	0.17510426
45	0x3d2de3f6	0.04245373
46	0xbc991e77	-0.018691285
47	0x3e6bf881	0.23044015
48	0x3cc1365f	0.023585496
49	0x3db2bb48	0.08727127
50	0x3e23a1f2	0.15979746
51	0x3d0b27d0	0.033973515
52	0x3d3f12b3	0.046648692
53	0x3df182f2	0.11792554
54	0x3dba6ef4	0.09103194
55	0xbe1a0d70	-0.15044188
56	0xbc9a8aed	-0.018865073
57	0xbc4136ab	-0.011792819
58	0x3c9c2a6e	0.0190632
59	0x3d88b128	0.06674415
60	0x3e63c035	0.2224129
61	0xbe00c9a5	-0.12576921
62	0x3de5287e	0.11189364
63	0x3dbd665d	0.0924804
64	0xbe0bf5cc	-0.13667983
65	0xbd0b40cf	-0.033997353
66	0x3dbbdf6f	0.09173476
67	0x3ce51f5f	0.02796906
68	0x3df333ab	0.11875089
69	0x3de3c2b0	0.11121118
70	0x3e185172	0.14874819
71	0x3e2f360d	0.17110462
72	0x3e1f157a	0.15535536
73	0x3c288520	0.010285646
74	0xbd790769	-0.060798083
75	0xbe00bec6	-0.12572774
76	0xbc9e4b91	-0.019323142
77	0x3d40c6d1	0.047064606
78	0x3dd2fd7d	0.10302255
79	0xbb9868ad	-0.00465115
80	0x3de6f34f	0.11276876
81	0x3e02fcda	0.12791768
82	0x3dc71862	0.097214475
83	0x3d216630	0.039404094
84	0xbcbf8a0b	-0.023381254
85	0xbdfa046f	-0.12207877
86	0x3dce706b	0.10080036
87	0xbd8103c7	-0.062995486
88	0x3c3a9c2b	0.011389772
89	0x3dfd077f	0.123549454
90	0x3e3df4ea	0.18550459
91	0xbce8bd29	-0.028410511
92	0x3de6977f	0.11259364
93	0x3e0ce7f1	0.13760354
94	0xbdf88e97	-0.12136572
95	0xbbcea381	-0.0063061123
96	0x3e3d8c38	0.1851052
97	0x3dc5e46c	0.09662709
98	0xbda41deb	-0.08013519
99	0x3cbae594	0.02281455
100	0x3e363daa	0.1779696
101	0x3e233099	0.15936507
102	0x3bfc8c37	0.0077071446
103	0x3e06e7c8	0.13174355
104	0x3e1c98b9	0.15292634
105	0x3c85890d	0.016300702
106	0x3e8f9618	0.280442
107	0x3e4b2877	0.19839655
108	0xbd8d8af5	-0.069112696
109	0x3c47b6c0	0.012189567
110	0x3e6c1796	0.23055872
111	0x3dd24e4e	0.10268842
112	0x3dcdd30d	0.1005002
113	0xbd4fdeb4	-0.050749496
114	0xbd51acc2	-0.051190145
115	0x3e59eac7	0.21280967
116	0x3d55ab34	0.052165225
117	0x3d860299	0.06543464
118	0xbd6e2a1f	-0.05814564
119	0x3e454f61	0.19268562
120	0x3e19695b	0.14981596
121	0xbdf012c4	-0.11722329
122	0x3e084cd3	0.13310556
123	0x3d862950	0.065508485
124	0x3c96da84	0.018414743
125	0x3e0e21ab	0.13880031
126	0x3e1e5dc6	0.15465459
127	0x3d9cce1a	0.07656498

fc.weight f4 [1, 32]
0	0xbe827b87	-0.2548487
1	0x3de5d9ca	0.112231806
2	0xbe495f08	-0.19665158
3	0xbe6ff783	-0.23434262
4	0x3e009073	0.12555103
5	0xbe02004f	-0.1269543
6	0x3df2fc02	0.11864473
7	0x3e02dc70	0.12779403
8	0x3e0f754e	0.14009592
9	0x3e79eecd	0.24407502
10	0xbd8166f6	-0.06318466
11	0xbdf70a99	-0.12062568
12	0x3e4c0c06	0.19926462
13	0xbc4bec4c	-0.012446474
14	0xbe3d0d37	-0.18462072
15	0xbe304a13	-0.17215757
16	0x3d718f62	0.05897463
17	0xbd8eafb3	-0.06967106
18	0xbdf5b3fc	-0.1199722
19	0x3e2c6c17	0.16838108
20	0xbe7992ef	-0.24372457
21	0xbe046e79	-0.12932767
22	0xbe35462c	-0.1770255
23	0x3cc324e0	0.023821294
24	0x3de802a3	0.11328628
25	0x3d9c7e3f	0.07641267
26	0xbd3e09b3	-0.04639597
27	0x3db8f025	0.09030179
28	0x3dd7ed59	0.10543317
29	0x3d6e36a6	0.058157586
30	0xbdf1e8b3	-0.11811962
31	0x3e1c4434	0.15260392
