fut_opt_lih_features_prepare/bm_fut_lih_02.pth (torch, 25158 bytes, 6 tensors)

embedding.weight f4 [19, 8]
000000 bd 4d a7 bf 84 ed 58 3f ff 09 29 bf ca 55 40 be
       -1.3070599 0.8473742 -0.6603088 -0.18782726
000010 88 b9 c1 be 74 8c 8a 3f ab f9 15 40 e2 84 86 3d
       -0.37836862 1.0824113 2.3433635 0.06568314
000020 2a 9c 16 3f f2 f4 8b be 53 50 aa 3e 33 ea 80 3f
       0.5883204 -0.27335316 0.33264408 1.0071472
000030 13 65 cf 3e 88 b6 86 3f 99 8c 85 3e d3 7d 19 c0
       0.405068 1.0524454 0.2608383 -2.3983047
000040 20 3c 76 3f 46 84 18 3f 84 6b 70 3d bb 19 d0 3e
       0.96185493 0.59576833 0.058696285 0.4064463
000050 35 cf f2 be de df eb 3f 34 6d 2b be 3f 8c 93 3e
       -0.4742371 1.8427694 -0.16740876 0.28817937
000060 2e 90 05 bf 8b d3 ae bf be bf 76 bf eb d6 2c 40
       -0.52173126 -1.3658308 -0.96386325 2.7006176
000070 75 7f c9 bf 32 2d 4c bf a8 37 05 40 95 f0 67 be
       -1.5742022 -0.7975646 2.081522 -0.22650369
000080 fd 69 3d 3d 87 69 cf 3e c9 ff 9e 3f 4c dc 34 3f
       0.046243656 0.40510198 1.242181 0.70648646
000090 9d 45 95 bf 5d 3f ce be 09 e6 a0 bf d9 49 23 3f
       -1.1661869 -0.40282717 -1.2570201 0.6378456
0000a0 6e 95 2f bf 33 f3 bc 3e fe b6 de 3e ab eb 5a be
       -0.68587387 0.36904296 0.43498987 -0.21378963
0000b0 8b bb b4 3f 75 3e fb be a6 6a e8 3e 6b eb dc be
       1.4119734 -0.49071088 0.45393866 -0.4314836
0000c0 f1 6e 4b bf 60 97 f4 3f fe 73 b0 bf b5 70 b8 3e
       -0.7946616 1.9108696 -1.3785398 0.3602349
0000d0 f6 9a ba 3e 1c b0 39 bf 58 13 51 bf 11 54 26 bf
       0.3644635 -0.72534347 -0.8167014 -0.64972025
0000e0 e5 ac 27 bf c6 26 0d 3f ec d7 d2 bd a5 19 e0 bf
       -0.6549819 0.5513729 -0.1029509 -1.7507826
0000f0 4b fa d0 3f 17 03 d3 3f 22 d2 ca 3e 7d dc ea bf
       1.6326383 1.6485318 0.39613444 -1.8348538
000100 05 0f fd 3e 6a 15 fb be 21 ee 43 3f bc 09 ef bf
       0.49425521 -0.49039775 0.7653523 -1.8674846
000110 6a bc 92 bd b6 4e 4c be e5 a9 68 3f 19 ae 92 bf
       -0.071648434 -0.19951901 0.9088424 -1.145938
000120 fa 10 82 bf 88 76 ed 3d b2 17 0f 3f 32 3e 07 40
       -1.0161431 0.11594874 0.5589553 2.113171
000130 9c 88 d7 3e db 4a ce 3d e2 93 75 be c0 4a 47 be
       0.42096412 0.10072871 -0.23982194 -0.19462109
000140 5d 3a 21 3f f6 d3 54 bf 31 4d 21 c0 d4 40 09 3f
       0.6297968 -0.83135927 -2.5203364 0.53614545
000150 6d 9b da bd 43 0b 99 3d 02 83 25 bf f6 67 96 3e
       -0.10674176 0.07472851 -0.6465303 0.2937619
000160 fd 88 74 3d 0b 93 94 bf 63 85 1d bf 72 13 16 bf
       0.059700955 -1.1607374 -0.61531657 -0.5862342
000170 72 77 23 3f e2 41 69 bf 31 74 cf 3e bc 5d 08 be
       0.63854134 -0.91116154 0.40518335 -0.13317007
000180 bd 96 0b c0 4f f9 99 3f 3a bd 9d be 43 7b 4b bf
       -2.1810753 1.2029208 -0.3080843 -0.7948496
000190 55 40 40 bf 18 ba f2 3d 87 46 7d bf df dd 3a c0
       -0.7509816 0.11851901 -0.9893574 -2.919792
0001a0 13 c7 0a c0 10 3f 20 c0 6f 98 28 3f 17 75 36 c0
       -2.1684005 -2.503849 0.65857595 -2.8508966
0001b0 96 42 a0 3e d1 3a 51 bf 94 59 aa bf 01 1a 3d 3f
       0.313008 -0.8173037 -1.3308587 0.73867804
0001c0 92 09 1d bf 8d 02 c6 bf 2a 16 0c c0 b0 07 e1 be
       -0.6134273 -1.5469528 -2.1888528 -0.43951178
0001d0 b1 7c 8a be 18 98 a1 3f 9b 60 17 3e ee 20 b9 bf
       -0.27048257 1.262454 0.14782946 -1.4463174
0001e0 0a 39 96 3f 4f 8e f9 bf 33 a4 7c bd 62 ce 8a be
       1.1736157 -1.9496554 -0.06168003 -0.27110583
0001f0 38 88 90 be c4 95 8a bf 81 25 06 3f e3 67 4b bf
       -0.28228927 -1.0826955 0.52400976 -0.79455394
000200 7e 17 d0 be b7 b5 53 3d 33 19 fb 3e 31 33 c3 3f
       -0.40642923 0.05168697 0.49042663 1.5249997
000210 12 e3 e8 3f a7 7f 97 3e f5 cc f5 bd 8f 6c c8 3f
       1.8194296 0.29589579 -0.12001983 1.565813
000220 5c 1d 60 bf e2 9f d5 bf fe 97 ee 3f e6 24 66 bf
       -0.875448 -1.6689417 1.8640134 -0.8990005
000230 fa 48 4a 3d 45 be 03 bf 06 b8 ab be 23 8f a5 3e
       0.049386002 -0.51462203 -0.33538836 0.32335767
000240 cf d9 1c 3e 2d 6e 49 3f d1 12 00 bf 08 83 28 3f
       0.15317462 0.7868374 -0.5002871 0.6582494
000250 0f 85 09 3e c1 1d 70 3e 9e a9 68 3f 27 95 99 3e
       0.13429664 0.2344885 0.90883815 0.29996607

lstm.weight_ih_l0 f4 [128, 8]
000000 31 80 23 be f4 54 ee 3d 5b f8 ef 3d 3d da 74 3e
       -0.1596687 0.11637297 0.11717292 0.23911376
000010 d6 ad b0 be 92 5b 00 bf 40 2e fd be 94 78 90 3e
       -0.34507626 -0.50139725 -0.49449348 0.28216994
000020 5a 47 fb 3e 4e 68 68 be 0c 59 b8 3d 97 20 d7 3e
       0.49077874 -0.22696039 0.09001359 0.42017052
000030 e1 10 93 be 6a 63 95 be c0 e4 f8 3d ea 48 36 3e
       -0.28723815 -0.2917741 0.121530056 0.17801252
000040 46 a5 75 be ae 91 8c 3e 30 ab 32 be d1 c0 20 3d
       -0.23988828 0.27454895 -0.17448115 0.039246384
000050 64 cb 72 be 2b 96 c3 bd 23 fe 65 3e 61 81 1f 3e
       -0.237104 -0.09550127 0.22460227 0.15576698
000060 51 59 aa 3e 98 2d 80 bd af a1 e2 3d c7 22 04 3d
       0.33271268 -0.06258696 0.11065995 0.03225973
000070 d8 c7 88 3e 5d d5 9e 3e 0e 02 0a be 36 77 e1 3d
       0.2671497 0.31022158 -0.13477346 0.11009066
000080 83 9d 76 3e 35 7c 33 be c8 03 a4 bd 0c 18 57 3e
       0.24083523 -0.1752785 -0.08008534 0.21005267
000090 00 d1 a5 3d 79 e8 d7 bc 7a 74 06 be 90 26 1a be
       0.08096504 -0.026355969 -0.1313037 -0.15053773
0000a0 18 c7 21 3e 85 d7 e2 3d bd a4 d5 bd 7c 19 c9 3c
       0.15798604 0.11076263 -0.10431812 0.024548285
0000b0 ff 07 97 bc 20 d6 9e 3e 91 48 5e 3e 67 5f 5f be
       -0.01843643 0.3102274 0.2170737 -0.21813737
0000c0 0f ae 56 be 7a d8 a4 be 66 e6 82 be 2a 83 9b be
       -0.20964836 -0.3219641 -0.25566405 -0.30373508
0000d0 ae 6b 70 3d 9a c4 ad 3d 03 e5 be 3e 94 d6 cc be
       0.05869644 0.084847644 0.37284097 -0.4000746
0000e0 70 43 c6 3d a9 d3 5a 3e 2d 79 c8 3c 5e 94 10 3d
       0.096808314 0.21369804 0.024471844 0.035297744
0000f0 53 af b0 3d 54 03 61 3e 6d 92 0e 3e ac bd 27 bf
       0.086271904 0.21973926 0.13923045 -0.6552379
000100 e1 57 86 3a dc 27 3a be 4e 66 fa 3d 75 f3 1f bc
       0.0010249579 -0.18179268 0.12226544 -0.0097626345
000110 b0 1a 95 be 12 bc 02 bf e4 0f ce 3e 3a c3 1d be
       -0.29121923 -0.5106822 0.402465 -0.15406504
000120 2a 1e 4d bd 65 ed 69 bd c6 3d 04 3e 7f 3a b1 be
       -0.050077595 -0.057111163 0.1291419 -0.3461494
000130 69 75 5c 3d b2 93 ad 3d 9b 27 7d be 2a 6b 00 bf
       0.05382291 0.08475436 -0.2472214 -0.5016352
000140 68 07 c1 3e c2 5d c3 3c 00 91 09 be bd da 5c 3e
       0.37700963 0.023848418 -0.1343422 0.21567817
000150 99 b5 8e be 6d 01 8e 3e a6 ef f1 bc bd aa f8 3d
       -0.27872923 0.27735463 -0.029533219 0.12141941
000160 d1 94 ba bc c4 d1 4a 3c 00 ec 9e 3d 90 af af 3e
       -0.02277604 0.012379114 0.07759857 0.3431363
000170 8b 3f 4f 3d 5b a9 8e 3d 47 76 e9 3e 58 66 23 3e
       0.05059771 0.06965896 0.4559805 0.1595701
000180 56 87 37 3d ad 13 3b 3e 26 f2 a1 3e 67 9f 05 3e
       0.0448068 0.18269224 0.31630057 0.13049088
000190 75 e8 b5 3e 04 b0 df 3e 50 bd b6 be 49 2e 00 3e
       0.35528913 0.43688977 -0.3569131 0.12517656
0001a0 1e c3 4c 3e ed a6 ca 3d 7a 87 3a 3e 9f 0b b0 3e
       0.19996306 0.0989512 0.18215743 0.34383866
0001b0 01 eb ba be d4 35 9b 3e 12 78 77 3d d6 7d b8 3d
       -0.3650742 0.30314505 0.060417242 0.09008376
0001c0 db 79 89 be 40 1f bd be fb 0a 08 be 5e fe 8d bd
       -0.2685078 -0.36937904 -0.13285439 -0.06933282
0001d0 56 b8 3a be ef b6 c6 bd a1 1b 66 be 2e 38 5c 3d
       -0.18234381 -0.097028606 -0.22471477 0.053764515
0001e0 85 68 83 bd ad c8 47 be 11 c5 e0 bb 67 dc cf be
       -0.0641642 -0.19510145 -0.0068594296 -0.4059784
0001f0 e7 9e d6 3e f2 d5 76 3e 25 93 10 3e 74 60 2a be
       0.41918108 0.24105051 0.14118631 -0.16638356
000200 7e f1 91 3e db 14 c8 be 3c 6c c0 3e 51 89 bd be
       0.28504556 -0.3907841 0.37582576 -0.37018827
000210 b4 bc 5f 3d 46 43 27 be 6a ff c2 3c a1 f8 d8 3d
       0.05462332 -0.16334257 0.023803432 0.10594297
000220 5c e8 9a 3d 97 bc a8 bd 6d 29 04 3d cb 0d 2a 3e
       0.0756385 -0.08239096 0.03226607 0.16606824
000230 4c b8 db be 64 b2 79 3e ef dc f9 bd f1 ed 82 bc
       -0.42914045 0.24384457 -0.12200343 -0.0159826
000240 48 98 13 bd ff db 85 be 05 49 9b 3e bf e3 1a 3e
       -0.0360339 -0.26144406 0.30329147 0.1512594
000250 92 55 0b 3e fa 47 d5 3c ad 2d ee be fe 24 8c 3e
       0.13606861 0.026035298 -0.46519223 0.27371973
000260 80 72 47 be 20 20 92 bd e2 dc 1e bd 40 41 f6 3e
       -0.19477272 -0.071350336 -0.03878487 0.48096657
000270 11 9f a8 be 2f 4b 3f be 60 55 fa 3e 24 ff 10 3e
       -0.32933858 -0.18681024 0.4889326 0.14159828
000280 93 7a 05 3d ea fd b3 bd cb f4 71 3c 62 c6 98 3d
       0.0325876 -0.08788665 0.014767836 0.074597135
000290 eb e9 91 be a6 4c 00 3e 26 ca b8 be cc ce 78 3d
       -0.28498778 0.12529239 -0.36091727 0.060744092
0002a0 b2 dc 80 be 60 62 13 be c4 2b 8b 3e d1 b6 a5 bd
       -0.25168377 -0.14392996 0.27181828 -0.0809151
0002b0 81 b1 c7 3e b9 94 cf be b1 ae 07 be 40 29 2c 3d
       0.39002612 -0.40543154 -0.13250233 0.042031527
0002c0 f8 c5 5c 3e 09 42 11 bf 57 aa 3b 3e d4 af d1 3d
       0.21559894 -0.56741387 0.18326698 0.10238615
0002d0 16 53 e5 bc 16 ef bc 3d bc ce 45 3e 30 26 f4 3d
       -0.02799372 0.092252895 0.19317144 0.11921346
0002e0 24 bb ca be 05 a4 89 be 82 15 f8 bd 61 ae 03 be
       -0.39595902 -0.2688295 -0.12113477 -0.12859489
0002f0 5b cd 87 3e 24 fd 8a 3c 4d 55 9d 3d 38 f2 10 bf
       0.2652386 0.01696641 0.076822855 -0.56619596
000300 1c 9e c1 be 27 28 a4 be 28 8d aa bd 06 6e dd 3e
       -0.3781594 -0.32061884 -0.08327705 0.43248004
000310 4d d6 37 bd f3 4f 8d be 43 ed c7 bd 8a fa 6f bd
       -0.044882108 -0.2760006 -0.09762051 -0.058588542
000320 91 2a 37 bf c9 58 2f 3e 49 88 96 be f6 99 9a 3e
       -0.71549326 0.17123713 -0.29400852 0.30195588
000330 b9 fd cb 3d 64 e2 ac 3d ee be 52 3e 7c bd f9 bd
       0.09960503 0.08441618 0.20580646 -0.121943444
000340 47 6b ba 3e ad a9 f1 bd 44 c0 a5 be 27 f9 8c 3e
       0.3640997 -0.11799941 -0.3237325 0.27533838
000350 9a f9 a4 be 6a 4e 20 3e 4d 79 0b bf 1e b4 f5 bd
       -0.3222168 0.15654913 -0.54481965 -0.11997245
000360 e5 a3 1d bf 01 d6 83 3d 9b cb f5 be c8 33 f3 be
       -0.6157821 0.064373024 -0.480069 -0.47500443
000370 cd 48 e5 be 47 be b2 3d 5f 6e 73 be 38 4a ec ba
       -0.44782105 0.08727699 -0.23772572 -0.001802749
000380 5c ee ec bb da d4 40 be 7d 83 bf 3d 10 76 5d be
       -0.007230563 -0.18831196 0.09351251 -0.21627069
000390 12 88 09 be b2 ec 78 be 15 af 31 be 2a 86 0f be
       -0.13430813 -0.24309042 -0.17351945 -0.14016023
0003a0 f6 c3 b8 be cf dd 41 bf 2b f3 5b 3c b0 23 a6 be
       -0.36087006 -0.7572908 0.013424675 -0.32449102
0003b0 38 89 4e 3d c1 c3 ee bd 7d d8 0d 3e cb 86 aa 3e
       0.05042383 -0.11658431 0.13852115 0.33305964
0003c0 98 e1 42 3d 28 3a b8 3e 26 79 82 bc b7 fc 66 3e
       0.047578424 0.3598187 -0.015926909 0.2255734
0003d0 a5 28 7e 3d 0f 18 06 be e2 d7 1a 3e 0d da 96 be
       0.06205048 -0.13095115 0.15121415 -0.29463235
0003e0 76 cc 81 be 32 97 fb bd 91 4c 4e bd ac 82 65 3d
       -0.25351304 -0.122846976 -0.05036599 0.05603282
0003f0 1e a8 74 3e 20 9c 1b be 49 cb 9c be 8b 0d 7d 3e
       0.23892257 -0.15196276 -0.30623844 0.24712197

lstm.weight_hh_l0 f4 [128, 32]
000000 e8 64 64 3e 93 e4 8e 3e db 47 1a 3d 2d 5a 2c 3e
       0.22304118 0.27908763 0.037666183 0.16831274
000010 0c 4c 2a be 18 48 80 be d6 7e b7 be 93 87 69 be
       -0.16630572 -0.25055003 -0.35838956 -0.22805624
000020 c3 1f 18 be dd ab a2 3e 40 7f f5 bc 6c 11 99 bf
       -0.14855866 0.31771746 -0.029967904 -1.1958442
000030 e2 26 21 bf 40 34 30 bf 8e 6e 3f 3f 5a e2 a3 3e
       -0.62949955 -0.6882973 0.7477807 0.3200863
000040 91 d7 cb be d6 e0 09 bf fb 69 bd 3d 7c f3 91 be
       -0.39812902 -0.538587 0.0924873 -0.28506076
000050 c4 9d 60 3d a4 2f 23 3f 56 d8 24 bf a5 b9 79 3e
       0.054837957 0.6374457 -0.643926 0.24387224
000060 9b 09 4f 3e ac d6 04 bf 11 e4 4e be e4 8b 3f 3e
       0.20218508 -0.51890063 -0.20204188 0.18705708
000070 11 1e cd bc eb e0 d4 3e bf 3e 36 3e 73 74 20 3f
       -0.02503875 0.4157785 0.17797373 0.6267769
000080 f3 18 c7 bd ea 3d fe 3d 59 cf 73 be 75 8a aa 3d
       -0.097215556 0.12414153 -0.23809566 0.0832719
000090 20 7a 93 3d d4 d0 53 be 53 e1 75 be c2 84 26 be
       0.07201028 -0.2068513 -0.24011736 -0.1626158
0000a0 ab c0 4a 3e 0e a6 eb 3d db b0 61 3e 8a de 23 bf
       0.1980006 0.11506282 0.22040121 -0.6401144
0000b0 48 1d af be a0 fc 7e be 19 6f 23 3e b3 41 c1 be
       -0.34202027 -0.24901056 0.15960349 -0.37745437
0000c0 a2 65 86 3e cb 3d a7 3e 97 14 12 bb cf 34 fd 3e
       0.26249415 0.32664332 -0.0022290105 0.49454352
0000d0 4e 6e 92 be 8e 4c 98 3e 1a 68 21 be f6 98 50 3d
       -0.2859978 0.29745907 -0.15762368 0.050927125
0000e0 39 b9 03 3f bd 91 ff be cd 54 4a bc 83 be a1 3e
       0.514545 -0.49915877 -0.01234932 0.3159066
0000f0 ba 88 01 3f 8e e3 ff be cb 10 c9 3e fb 08 31 3e
       0.50599253 -0.49978298 0.39270625 0.17288582
000100 88 62 87 3c b9 19 22 3e 8f 9f 04 bf 32 ef 92 3d
       0.016526476 0.15830125 -0.5180597 0.07174529
000110 c0 15 2b 3e ec c2 da be 29 b3 a8 3e a1 c9 f0 be
       0.16707516 -0.4272684 0.32949188 -0.4702883
000120 21 8c d8 be 73 f0 28 be d4 0e a8 3e 1e 10 4a be
       -0.4229441 -0.16497974 0.32823813 -0.1973271
000130 20 c8 5f be c1 20 c6 be d7 f0 61 bd e0 54 eb bd
       -0.21853685 -0.38696864 -0.055161323 -0.11490798
000140 39 b7 82 3c 93 7a 12 3d 56 14 a6 bd d0 0e c6 be
       0.015956508 0.035761427 -0.081093475 -0.38683176
000150 a5 5e 42 bd 9a ba 28 3f e7 9f b2 be 90 d7 45 be
       -0.04745354 0.6590973 -0.3488762 -0.19320512
000160 59 bd 59 3e 31 5a a3 3e 4b 1c 42 be fb c8 94 3e
       0.21263637 0.31904748 -0.18956105 0.29059586
000170 af 58 d8 3d 81 a0 0d be e4 4d 6b 3b 4e 66 25 3e
       0.1056379 -0.13830759 0.003590458 0.16152307
000180 fc 2f 1d bf f8 f0 75 3d 1a f7 07 3e ab 9b 1a bf
       -0.61401343 0.06004426 0.13277856 -0.6039378
000190 06 1e 06 3f e2 4b 1d 3e 31 bd 19 bd f9 d5 3e bd
       0.5238956 0.15360978 -0.037533943 -0.04659078
0001a0 76 7a ca 3e a3 cd b8 be cf c8 c9 3e f9 d6 16 3e
       0.39546555 -0.36094388 0.39411017 0.14730443
0001b0 09 0a 48 3d 79 78 49 be c5 b6 82 be cf 21 1c 3e
       0.048837695 -0.19674863 -0.25530067 0.15247272
0001c0 19 ea ed 3e 57 09 0c bd 2f e0 3d bf 2a 94 91 3e
       0.46467665 -0.034188595 -0.741702 0.28433353
0001d0 07 27 53 bc 2b ae fc 3e 92 69 bf 3e 7c c1 a8 be
       -0.012887723 0.4935163 0.3738523 -0.32960117
0001e0 00 ae 94 3e df f1 dd 3e ea 6d b3 3e 26 e4 9b 3e
       0.29039 0.43348595 0.35044795 0.304475
0001f0 72 cd 04 bf 01 74 ae be dd 2a 26 3f 54 e3 18 bc
       -0.51875985 -0.3407288 0.64909154 -0.009331543
000200 26 3b 24 bf 20 89 21 bd b8 48 1c 3e 0e 3d 8b bd
       -0.64152753 -0.039437413 0.15262115 -0.06798755
000210 c0 25 90 3e b6 63 2a 3e 4b b7 63 3e 6a a6 c1 3e
       0.281538 0.16639599 0.2223789 0.37822276
000220 ae fa 80 3e 08 66 f2 be bf 9c 58 3f f4 9d 9e be
       0.25191253 -0.4734347 0.84614176 -0.30979884
000230 f3 fa 88 3e 06 ab b6 3d ab b8 31 3e 52 d3 1d be
       0.2675396 0.08919339 0.17355601 -0.15412644
000240 76 78 ce 3e fe 66 63 3e 20 f4 38 bf 0e fd af bd
       0.4032628 0.22207257 -0.72247505 -0.08593188
000250 ff 6f a8 3b 56 66 91 3e da 9f b7 be 53 ae 24 be
       0.005140304 0.2839839 -0.35864145 -0.16082124
000260 a0 01 13 3e ed de ae be 72 83 12 3e bc 3e 1f 3e
       0.14356089 -0.34154454 0.14307955 0.15551275
000270 b8 01 f2 be e3 6d 01 bf b2 0e 13 3f c3 69 02 3e
       -0.47266936 -0.505583 0.574443 0.12735657
000280 62 b3 1d be b5 a2 2c 3e bb f5 00 bf c9 28 0b 3f
       -0.1540046 0.16858943 -0.50374955 0.5435911
000290 eb 22 bc bd 59 03 2b 3f e8 ea 84 bc fc f5 b1 3d
       -0.091863476 0.66801983 -0.016225293 0.08689496
0002a0 a1 7c 5e be 69 b2 ea 3e d2 99 32 3e 22 74 ab be
       -0.2172723 0.4583924 0.1744149 -0.3348704
0002b0 09 6d 05 bd 2e 31 71 be 08 10 25 be c6 5d 15 bf
       -0.032574687 -0.23553917 -0.16119397 -0.5834621
0002c0 03 29 93 be f2 1a 11 be de 71 2a 3d 47 66 49 3d
       -0.28742227 -0.14170435 0.0416125 0.049169805
0002d0 fa 42 85 be 9c f9 07 be f6 27 31 bf 13 f2 2d 3d
       -0.26027662 -0.13278812 -0.692016 0.042467188
0002e0 c3 e4 35 3e 8b aa a0 bc 0b db 1c be cf 04 6e bd
       0.17763047 -0.019612571 -0.15317933 -0.058110055
0002f0 3d 38 0e 3f bd 12 96 be 4a 5b e3 3e 89 2d e3 3d
       0.5555456 -0.2931117 0.44405586 0.110926695
000300 e2 3b f3 3d c0 a3 b8 be a2 08 e6 be 8c 45 63 bd
       0.11876656 -0.3606243 -0.4492846 -0.055486247
000310 8f a2 ca 3d e8 7c 97 be bb 79 30 bf 05 85 08 bf
       0.09894287 -0.29587483 -0.68935746 -0.5332797
000320 c9 f2 67 3d 1d f2 92 bd 35 8b 84 be cb 63 61 be
       0.056628022 -0.07175086 -0.25887457 -0.22010724
000330 a7 3e da bd 7d c9 77 3e 3d 18 9c bd eb b0 3a bf
       -0.10656481 0.24197955 -0.076218106 -0.72926205
000340 67 72 92 3e db 86 a2 3e be 92 99 be 2d b8 92 3e
       0.28602907 0.31743512 -0.29994768 0.2865614
000350 8e ec bb be 1a c8 dc be aa 67 03 3e 5d d2 c2 3e
       -0.36703914 -0.43121415 0.12832513 0.3805112
000360 37 42 93 be c7 e0 64 be e4 97 80 3e 73 b4 df bd
       -0.28761455 -0.22351371 0.25115883 -0.1092309
000370 c7 00 e5 3e 28 96 40 bf 47 14 75 3e 0c 2f 4a be
       0.44727156 -0.7522912 0.23933516 -0.1974451
000380 cc 2c 81 3e 2b d0 dd be 0e 72 1a 3b 6e dd eb bd
       0.2522949 -0.43322882 0.0023566517 -0.11516844
000390 e2 b6 36 be a6 28 5f 3e 42 aa d2 3d 76 62 2f bf
       -0.17843202 0.2179285 0.1028638 -0.68509614
0003a0 3e 2a 0b bf 47 f1 2f 3f 71 0e ad bc 7d a6 6c 3f
       -0.5436133 0.68727535 -0.02112505 0.9244154
0003b0 86 cb 2b 3e ca 54 7d bf bf c4 da be 00 e2 80 bf
       0.16776857 -0.989575 -0.4272823 -1.006897
0003c0 0b e8 9f bb 0e 76 46 3f fe c4 38 3e 57 64 0a bf
       -0.0048799566 0.7752389 0.18043897 -0.54059356
0003d0 f8 9c a3 be 27 8f 06 3f b6 d3 bd be 2d 8a bc be
       -0.31955695 0.52562183 -0.37075585 -0.3682417
0003e0 79 a7 7e 3d 3c 4e 91 3d ed 26 42 bf 98 89 cb 3e
       0.062171433 0.07095 -0.75840646 0.39753413
0003f0 96 ac cd 3e d5 ea 69 bf 73 98 b7 3d 89 9f 82 bf
       0.40170735 -0.9137395 0.08964624 -1.0204936

lstm.bias_ih_l0 f4 [128]
000000 43 f1 83 3e 07 34 b4 3e ae 48 27 3e 00 39 85 3e
       0.25770006 0.35195944 0.16336319 0.2602005
000010 71 3f 66 3e 16 44 93 3e 99 52 04 3f d1 05 e4 3e
       0.22485138 0.28762883 0.51688534 0.44535688
000020 b0 76 8d 3d 43 6a c6 3e 5f 52 5d 3e e6 d2 de 3e
       0.069074035 0.38752946 0.21613453 0.43520278
000030 64 9f a0 3e 20 49 97 3e 10 55 09 3f 16 2a dc 3e
       0.31371605 0.29547977 0.5364542 0.4300086
000040 cc 1b 86 3e ea eb 96 3e 2b 6c cd 3e 72 5d 19 3e
       0.26193082 0.29476863 0.40121588 0.14977053
000050 72 3a a2 3d 5e 0c 43 3f c0 f3 db 3e f2 3f f6 3e
       0.07921304 0.76190746 0.42959404 0.4809566
000060 cc c9 ee 3e ac 55 d3 3e ad 66 4a 3d 8e ab da 3e
       0.46638334 0.412763 0.049414326 0.4270901
000070 23 50 aa 3e 30 a6 a5 3e 0c b2 0b 3f 40 58 6f 3e
       0.33264264 0.32353354 0.5456855 0.23373508
000080 cf 79 87 3e a7 64 3d 3e 97 8c 1c 3e 96 5c a0 3e
       0.2646012 0.18495427 0.15288006 0.31320637
000090 aa 79 d9 3d fe 6a 40 3e 4d 88 18 3e 6b 1d 3c 3e
       0.10618909 0.18790814 0.14895745 0.18370597
0000a0 f3 6b e7 bd 7e 0c 88 bd 24 f5 95 3e 08 b8 9b bc
       -0.112998866 -0.06643008 0.2928859 -0.019008651
0000b0 a2 df c4 3d b6 26 d1 3c a2 41 b3 3d 7b d5 1a 3e
       0.09612967 0.025531154 0.08752753 0.15120499
0000c0 46 44 db bd f8 7d a0 3d 77 27 eb 3d 4c 6c c1 3c
       -0.107063815 0.07836527 0.11482137 0.02361121
0000d0 95 eb 34 3e 6a 99 84 3b 9d b1 1e 3d 1c 21 44 3e
       0.17667992 0.0040466087 0.038743604 0.19153255
0000e0 72 50 58 3e 4a 1d 14 bd aa 42 e6 3d ba 52 c6 3e
       0.21124437 -0.036160745 0.11243184 0.3873499
0000f0 d8 33 ac 3d 07 ff 7a 3e 09 c5 53 3e 50 03 ca 3e
       0.08408326 0.24511348 0.20680632 0.39455652
000100 bf 94 68 3d a5 41 e1 bd d3 74 77 3d 75 b7 e1 bd
       0.05678248 -0.10998849 0.060414147 -0.1102132
000110 94 e8 bc bd 36 c9 8b 3b 78 59 6a 3c 59 d6 37 bd
       -0.09224048 0.0042659296 0.014303558 -0.044882152
000120 88 2c 2d bd b2 7c 04 3e c8 67 6a 3e 70 5d 44 be
       -0.042278796 0.12938192 0.22891152 -0.19176269
000130 d2 bc 7a bc 4b a6 9e bd b8 5d 29 3e 16 61 fb bd
       -0.015303807 -0.077465616 0.16539657 -0.12274377
000140 d9 e3 a7 3d 48 26 ae bd b0 51 a0 be 82 e8 46 3e
       0.08197755 -0.08503395 -0.31312323 0.19424632
000150 ba 65 6e bd ba a8 97 bb d6 e5 0f be c5 07 6a bb
       -0.058202483 -0.004628268 -0.14052519 -0.0035710197
000160 78 3e 17 be 15 5c 1d be 42 1a 35 be a8 ec 92 bd
       -0.14769924 -0.15367158 -0.17685798 -0.07174045
000170 1d f8 0a be e9 ee 1e 3d 08 66 1d 3e 9b 84 07 3e
       -0.1357121 0.03880206 0.15370953 0.13234179
000180 0e 89 15 3e b2 a7 b1 3e 77 b4 57 3e 21 21 6c 3e
       0.14603063 0.34698254 0.21064936 0.23059513
000190 fa 83 f1 3e 19 46 c8 3d 6c 53 19 3f 1a 74 b4 3e
       0.47171003 0.09778995 0.59892917 0.35244828
0001a0 92 c1 6f 3e 8d 85 ee 3e a0 81 f8 3e 7e b9 dd 3e
       0.23413685 0.46586266 0.48536396 0.43305582
0001b0 85 72 1e 3e c6 79 95 3e 4a 0c 0e 3f aa d9 fd 3e
       0.15473373 0.29194468 0.554875 0.49580127
0001c0 e5 c8 d4 3e 4d cb 85 3e 93 11 2f 3e 1d bf f5 3e
       0.4155952 0.2613167 0.17096548 0.4799737
0001d0 69 10 f0 3e cc 9c c6 3e 25 06 ad 3e 48 b7 ad 3e
       0.4688752 0.38791502 0.3379375 0.33928895
0001e0 c0 29 f8 3e 76 8b 96 3e 09 ec 53 3e 58 be 1e 3f
       0.48469353 0.29403275 0.20695509 0.6200919
0001f0 71 f7 a4 3e bd 66 2d 3e 66 9f ed 3e 45 43 d4 3e
       0.32220033 0.16933723 0.46410674 0.41457573

lstm.bias_hh_l0 f4 [128]
000000 f3 5c ed 3d f7 ce 91 3e 66 93 22 3d 30 7a ca 3e
       0.11589994 0.28478214 0.03969135 0.39546347
000010 d7 20 3a 3e 24 64 cb b9 7b 16 04 3f 38 7f 04 3f
       0.1817659 -0.00038793788 0.515968 0.5175662
000020 43 18 f5 3d d1 91 16 3f 31 ba 39 3e 58 ed 85 3e
       0.11967518 0.5881625 0.18137433 0.2615764
000030 5f a0 8b 3e 4c 44 b3 3e 8e d7 3a 3f 5c 0d ca 3e
       0.2727079 0.35013044 0.7298516 0.39463317
000040 84 ba 89 3e e2 4e 39 3e 59 f1 a6 3e 2e b2 05 3e
       0.26900113 0.18096498 0.3260601 0.13056251
000050 b4 70 98 3e c6 65 1f 3f cd 02 15 3f e4 ae ef 3e
       0.29773486 0.6226467 0.582074 0.46813118
000060 f2 bc d9 3e a0 d1 e3 3e 5f 4e 2b 3d 8f ab 06 3f
       0.42526966 0.4449587 0.041822787 0.5260553
000070 3c 49 02 3f 2e cd f1 3e cb cf df 3e f2 ca cd 3e
       0.50892997 0.47226852 0.4371322 0.40193897
000080 f7 97 b5 3d e3 88 03 be 7a 9a a6 3e 1b b9 60 3e
       0.088668756 -0.12845187 0.3253973 0.21945612
000090 d7 cc 54 3d 04 d1 52 bd 78 7d 04 3e 67 10 12 be
       0.051953163 -0.051468864 0.12938488 -0.1426407
0000a0 29 96 d5 bd 20 71 30 3e 83 14 d9 3d c6 70 19 3e
       -0.104290314 0.17230654 0.105996154 0.14984426
0000b0 1e ed 92 3e 8f b2 84 3e f0 61 c7 bd bb 3c 42 3e
       0.2869653 0.2591748 -0.09735477 0.1896848
0000c0 0a f3 dd 3d cf bb 00 3d 1e da 9b 3e f9 ba 99 3d
       0.10837372 0.03142911 0.30439848 0.07506365
0000d0 08 ae b0 3d d9 f8 84 bc 7b 43 3e bd ed ef 19 3d
       0.08626944 -0.016231941 -0.046451073 0.037582327
0000e0 2f 66 a5 3d 37 83 81 3e 8d 36 ca 3c 3a 08 73 3e
       0.080761306 0.2529542 0.024684215 0.23733607
0000f0 63 ff 43 3e be f8 35 3e 31 38 39 3e c8 f1 cb 3e
       0.19140391 0.17770669 0.18087842 0.39832902
000100 a8 9e a3 bd 47 ba 91 bb 9b ed 73 3c 6e bb d6 bc
       -0.07989246 -0.004447255 0.0148881925 -0.02621242
000110 6e 04 b5 bc 3c 34 f2 3c 9f 0a 19 be 77 b7 45 bd
       -0.022096839 0.029565923 -0.14945458 -0.04827067
000120 a6 2c a9 3b b8 ab c3 bd e2 6a 24 3e cb 19 01 bd
       0.005162793 -0.09554237 0.16056398 -0.03151874
000130 7e 93 09 bd 8d 2f ab 3d b4 35 25 3e 52 ba d5 bd
       -0.033587925 0.08358679 0.16133767 -0.104359284
000140 c5 02 a9 bd e7 dd ec 3d e9 3f 9b be 16 44 0e 3e
       -0.08252481 0.11565762 -0.30322197 0.1389316
000150 06 89 94 bc 83 c2 30 be d0 e4 3b bc 4c 85 b6 3d
       -0.018131744 -0.172617 -0.011468127 0.08912143
000160 4b 2f 27 3d 00 e2 de 3d b0 e0 1c 3e 16 f9 a0 3d
       0.040816586 0.1088295 0.15320086 0.07860009
000170 b2 4c a2 bd e1 7f 11 3e c0 32 12 3e 51 83 b9 3d
       -0.07924785 0.14208938 0.14277172 0.0905825
000180 f2 73 9f 3e 62 fc 8e 3e 8a ea 06 3e 85 63 57 3e
       0.31143147 0.27926928 0.13175407 0.21034057
000190 fc b8 d0 3e a4 38 d8 3e 5f 86 eb 3e 28 b6 d4 3e
       0.40766132 0.42230713 0.46000955 0.41545224
0001a0 a6 7e 6a 3e 1a d3 e1 3e 80 c3 93 3e 1f ec 04 3f
       0.22899875 0.4410637 0.28860092 0.5192279
0001b0 1d ab 12 3e 0a 8c 94 3e 9a 5d 1c 3f 64 3f c8 3e
       0.14323087 0.2901309 0.61080325 0.39110863
0001c0 2b 8b 90 3e 71 51 19 3e 42 2c 81 3e 7e 85 97 3e
       0.28231177 0.14972474 0.2522908 0.29594034
0001d0 b5 1d 9c 3e b0 70 e4 3e 34 88 2d 3e 88 94 23 3e
       0.30491415 0.44617224 0.16946489 0.15974629
0001e0 59 63 04 3f 46 d4 b9 3e 61 a3 c1 3e 10 47 d1 3e
       0.5171409 0.36294764 0.3781996 0.4087453
0001f0 19 4e 53 3e 77 7f 4f 3e 00 8e c2 3e e1 9a d3 3e
       0.2063526 0.20263468 0.37998962 0.413291

fc.weight f4 [1, 32]
000000 2c 42 f7 be c9 b8 51 bf 2f 0c 08 bf c7 38 3b 3f
       -0.48292673 -0.81922585 -0.5314359 0.7313351
000010 d3 4d 83 bf 12 dc 4e 3f c0 18 b9 bf cb e7 e7 3f
       -1.0258125 0.8080455 -1.4460678 1.8117613
000020 ac 04 57 bf d0 19 1e 3f ee 71 6b 3e c2 68 1e bf
       -0.83991504 0.61758137 0.2299268 -0.618786
000030 cd e2 3b bf b7 2c 99 3f 30 01 8b bf 03 cb 29 3f
       -0.73392946 1.1966771 -1.0859737 0.66325396
000040 68 48 0b bf 44 7d 2f 3f 2a 10 fd 3c c3 32 47 bf
       -0.5440736 0.68550515 0.030891497 -0.7781183
000050 36 78 11 3e 58 70 87 3f 71 26 d8 bf 0a 9c 77 bf
       0.14206013 1.058116 -1.6886731 -0.9672247
000060 cf 95 25 bf a7 e5 8b bf a7 50 36 bf d9 3a e8 3e
       -0.64681715 -1.0929459 -0.71216816 0.45357397
000070 fa 7f 72 3f 1b c9 62 3f 19 92 f7 3e a3 67 8a 3f
       0.94726527 0.8858811 0.4835365 1.0812877
