fut_opt_lih_features_prepare/bm_fut_lih_vol_02.pth (torch, 26418 bytes, 6 tensors)

embedding.weight f4 [57, 8]
0	0xbeaf0b35	-0.34188238
1	0x3ee7116c	0.4513048
2	0xbf741527	-0.95344776
3	0x3f6174f3	0.88069075
4	0xbf669ffc	-0.90087867
5	0x3eab5a74	0.33467448
6	0x3fa1eac7	1.2649773
7	0xbfcdb9d5	-1.6072336
8	0xbf087067	-0.5329651
9	0x3fcb347c	1.5875392
10	0xbe249590	-0.16072679
11	0xbf8e3896	-1.1111019
12	0xbdabee6a	-0.08395083
13	0xbf373c53	-0.7157642
14	0x3d8657ad	0.065596916
15	0x3fbe3fa7	1.4863175
16	0x3f0f97e7	0.5609116
17	0xbf372243	-0.71536654
18	0x3fa89de1	1.3173181
19	0x3e20a184	0.15686613
20	0x3dbe4afc	0.09291646
21	0x3def7c05	0.11693577
22	0xbf8f8420	-1.1212196
23	0xbf0171fc	-0.5056455
24	0x3f3d9a62	0.74063694
25	0xbeeec3ef	-0.4663386
26	0x3f32ba08	0.6981511
27	0x3f6671e9	0.90017563
28	0xbf853eef	-1.0409831
29	0x3f629636	0.88510454
30	0x3ed4e03d	0.4157733
31	0x3e33ca74	0.17557698
32	0xbf73bed7	-0.95213073
33	0xbe6c8004	-0.23095709
34	0xbfe6ad2d	-1.8021599
35	0x3e0f0e77	0.13970362
36	0xbda7ec9c	-0.081994265
37	0xbe694ad0	-0.22782445
38	0xbebe1594	-0.37125838
39	0xbf9d658b	-1.2296613
40	0x3e97221f	0.2951822
41	0x3fffcdef	1.9984721
42	0xbf35baea	-0.70988333
43	0xbec2f331	-0.38076165
44	0x3b50097a	0.003174393
45	0x3fa31f63	1.2743953
46	0xbf897c2d	-1.074102
47	0x3f948168	1.1601992
48	0xbfdecda7	-1.740651
49	0xbfdb9dfb	-1.7157587
50	0x3e85f7aa	0.26165515
51	0xbf36e14f	-0.71437544
52	0xbe885851	-0.2662988
53	0x3eabd392	0.33559853
54	0xc0084c0c	-2.1296415
55	0xbfd7a277	-1.6846455
56	0x3e8872ba	0.2665003
57	0xc01e32e2	-2.4718556
58	0xbe53f57a	-0.2069911
59	0x3ec5a2df	0.38600823
60	0xbeca45ab	-0.39506277
61	0x3e8d95d0	0.2765336
62	0xbefef868	-0.49798894
63	0x3f1010bd	0.5627554
64	0x3e913be8	0.28366017
65	0xbf0f5531	-0.55989367
66	0x3f43e325	0.7651847
67	0xbdee3a7b	-0.11632248
68	0xbf13167b	-0.5745618
69	0x3f76776e	0.96275985
70	0x3fd4cf3f	1.6625746
71	0x3b0da4d8	0.0021613147
72	0x3f8ae75e	1.0851858
73	0xbf94e961	-1.1633722
74	0xbf8ddc94	-1.108294
75	0xbfca78da	-1.5818131
76	0xbfe14ea0	-1.760212
77	0x3d8e058e	0.06934653
78	0x3e37311d	0.17889829
79	0x3f616abe	0.880535
80	0x3f0f099b	0.5587403
81	0xbe8a2e0c	-0.26988256
82	0x3f1992df	0.5998973
83	0x3f3bed9e	0.7340945
84	0xbfb252ed	-1.3931557
85	0xbf8f4203	-1.119202
86	0xbf7b06a0	-0.98056984
87	0x3f8f73b0	1.120718
88	0x3d64f284	0.055895343
89	0x3f592476	0.8482126
90	0xbf44c4e7	-0.7686295
91	0x3f142054	0.5786183
92	0x3d543cf2	0.051815934
93	0x3f8630d5	1.0483652
94	0x3f99ef11	1.2026082
95	0xbd64479a	-0.055732347
96	0x3fb182cb	1.386804
97	0x3fa24a35	1.2678896
98	0x3f1bae00	0.6081238
99	0x3d4bdd36	0.04977151
100	0xbe1255e9	-0.14290585
101	0x3e4947f8	0.1965636
102	0xbeb9081a	-0.36138994
103	0x401acf6c	2.41891
104	0xbfe6dad9	-1.8035537
105	0x3f1bda4e	0.6087998
106	0x3e3ae4b2	0.18251303
107	0xbf5df741	-0.86705405
108	0xbe265fb7	-0.1624745
109	0x3f84892b	1.035436
110	0xbf96ce91	-1.1781789
111	0xbf0319c2	-0.5121118
112	0x3f8edf06	1.1161811
113	0x403bc374	2.9338045
114	0x3f09e295	0.5386136
115	0xbffc99ee	-1.9734476
116	0x3f959648	1.1686487
117	0x3deeac27	0.11653929
118	0xbf6640e8	-0.8994279
119	0xbf72b1aa	-0.94802344
120	0xbf5e6f7f	-0.8688888
121	0xbf06fba1	-0.52727705
122	0xbf818531	-1.0118772
123	0x3eea299d	0.45734873
124	0xbf4da686	-0.8033222
125	0x3f4e04b7	0.80475944
126	0xbe1370cc	-0.14398497
127	0xbecb6edc	-0.39733016
128	0x3f87652a	1.0577748
129	0xbf803e86	-1.0019081
130	0x3f9f9907	1.2468575
131	0x3f52b7be	0.8231162
132	0xbf3c63f0	-0.7358999
133	0x3fd95e25	1.6981856
134	0x3fa9a8ca	1.3254635
135	0xbf8b2495	-1.0870539
136	0x3f961128	1.1723986
137	0xbf53438d	-0.8252495
138	0xbf0b8a37	-0.54507774
139	0xbf3d0cdb	-0.7384774
140	0x4013efb3	2.311505
141	0xbe8ae6e9	-0.27129295
142	0x3f668f19	0.900621
143	0x3e407cc3	0.18797593
144	0xbfd29eb6	-1.6454685
145	0xbf97141b	-1.1803011
146	0x3d683d20	0.05669892
147	0x3fa47fcf	1.2851504
148	0xbfc5528e	-1.5415819
149	0x3fa02535	1.2511355
150	0x400f0963	2.234948
151	0xbe795f91	-0.24352862
152	0x3ebca83a	0.36847097
153	0x3f70d0a8	0.94068384
154	0x3f6ac373	0.9170448
155	0xbeed0266	-0.46290892
156	0x3ef29afd	0.47383872
157	0xbf2bf89f	-0.6717624
158	0xbea3103d	-0.31848326
159	0x3f053e63	0.5204832
160	0xbdae202e	-0.085022315
161	0x3f582fca	0.8444792
162	0xbf8a7c99	-1.0819274
163	0x3e6622ca	0.22474208
164	0xc00a2690	-2.1586037
165	0xbf67d0ea	-0.9055315
166	0x3f38ede2	0.7223798
167	0x3ecf8aae	0.40535492
168	0xbeb94bf1	-0.3619075
169	0x3d4a2309	0.04934982
170	0x3c2e09d8	0.010622464
171	0x3fd8af40	1.6928482
172	0xbf508675	-0.81455165
173	0x3fde315e	1.7358816
174	0x3f5467ab	0.82970685
175	0x3e86f209	0.26356533
176	0xbea0ed28	-0.31430936
177	0x3e8a15b0	0.2696967
178	0xbf24ee7e	-0.6442641
179	0xbfdc1db0	-1.719656
180	0x3ceaded3	0.028670704
181	0xbfc2d889	-1.5222331
182	0xbfb0f7f8	-1.3825674
183	0x3f0e279e	0.555292
184	0xbee2ee87	-0.44322607
185	0xbde79371	-0.11307419
186	0x3f8204ae	1.0157678
187	0x3ebf548d	0.37369195
188	0xbe90dde1	-0.2829428
189	0x3c3a1473	0.011357415
190	0x3e659fe4	0.22424275
191	0x3c8cf9fb	0.017209044
192	0xbe8c8262	-0.27443224
193	0xbfd33e1b	-1.6503328
194	0xbf902d0f	-1.1263751
195	0xbf590e75	-0.84787685
196	0x3f6f79de	0.9354533
197	0xbf03e31a	-0.51518404
198	0xbf09f77d	-0.5389326
199	0xbf84673a	-1.0344002
200	0x3f62fdd9	0.8866859
201	0xbf56ce35	-0.83908397
202	0xbee745b5	-0.4517037
203	0x3ee0bcd8	0.43894076
204	0x3efa86e4	0.48931038
205	0x3edf01c3	0.43556032
206	0xbfa06528	-1.253087
207	0xbc01ee3f	-0.007930337
208	0x3fa119cc	1.2585998
209	0x3ea62be7	0.3245537
210	0x3f40f805	0.7537845
211	0xbe8f95ca	-0.28043967
212	0x400f66e9	2.2406561
213	0xbf106692	-0.5640651
214	0xbf25369e	-0.64536464
215	0x3f8873e4	1.0660367
216	0xbf0878c1	-0.53309256
217	0xbf990c59	-1.1956893
218	0xbe83ac24	-0.2571727
219	0x3ea7485c	0.32672393
220	0x3f749551	0.9554034
221	0xbfbaf706	-1.4606636
222	0xbf2314a3	-0.63703364
223	0x3f62ac4a	0.8854414
224	0xbf250e44	-0.6447489
225	0xbf6b5cc8	-0.9193845
226	0x3dc398a5	0.09550599
227	0xbd58256f	-0.052770074
228	0x3edc513f	0.43030736
229	0xbf9b7e68	-1.2147951
230	0xbf208409	-0.6270147
231	0x3f4e7584	0.80648065
232	0x3e968c8a	0.29404098
233	0x3dea34ca	0.1143585
234	0xbcd83365	-0.026391694
235	0xbe9921fb	-0.29908738
236	0x3fdd509e	1.7290227
237	0xbf538399	-0.8262268
238	0xbc090a3b	-0.008364256
239	0x3e54486f	0.20730756
240	0x3ec30cbb	0.3809565
241	0x3f7fca1d	0.99917775
242	0x3e749524	0.23885018
243	0xbe3e659d	-0.1859345
244	0xbeaf10e5	-0.34192577
245	0x3db66312	0.08905615
246	0x3ec0fa23	0.3769084
247	0xbf00f526	-0.50374067
248	0xbaca4973	-0.0015433267
249	0xbdfe53da	-0.12418337
250	0x3d25978b	0.040427726
251	0xbff5fef6	-1.9218433
252	0xbe04bb83	-0.12962155
253	0x3fbd8a11	1.480776
254	0xbfb9f3ee	-1.4527566
255	0x3ed330a2	0.4124804

lstm.weight_ih_l0 f4 [128, 8]
0	0x3d0fb726	0.035086773
1	0xbda437e4	-0.08018473
2	0xbe3c3b96	-0.18382105
3	0x3da02ee2	0.07821442
4	0xbcea6603	-0.028613096
5	0x3e8b6036	0.2722184
6	0xbe0ebb94	-0.13938743
7	0xbe14f24c	-0.14545554
8	0x3d3cda49	0.04610661
9	0x3e0a3180	0.13495445
10	0x3d1cb4cb	0.038258355
11	0xbd6aa74d	-0.057288457
12	0xbe149f69	-0.14513935
13	0xbdcda61e	-0.1004145
14	0x3e13459f	0.14382027
15	0xbe00b001	-0.1256714
16	0x3d265010	0.040603697
17	0x3dc6d222	0.097080484
18	0xbd5647d0	-0.05231458
19	0x3e3dd290	0.18537354
20	0xbe35e3e9	-0.17762722
21	0x3d79805d	0.060913432
22	0x3c2c8d7a	0.0105317775
23	0x3e599740	0.21249104
24	0x3c0b64ca	0.008507917
25	0xbe61c4bf	-0.22047709
26	0xbd82cb49	-0.0638643
27	0xbdb0dbf6	-0.08635704
28	0xbda23bf1	-0.07921589
29	0x3cca97e8	0.024730638
30	0x3e03aa92	0.12858036
31	0x3d608996	0.054818712
32	0xbd94bd7c	-0.07262704
33	0x3db54c52	0.088524476
34	0x3badda62	0.0053055743
35	0xbe3fb897	-0.18722759
36	0xbd448da2	-0.047986634
37	0x3e35f5ab	0.17769496
38	0xbe020884	-0.12698561
39	0xbdea1f4a	-0.11431749
40	0x3da94b6b	0.08266338
41	0x3dc34e58	0.09536427
42	0x3d9766d3	0.07392659
43	0x3d9ade9c	0.075619906
44	0xbdce71a6	-0.100802705
45	0x3ccef1e3	0.025261825
46	0x3e384cc1	0.1799803
47	0xbdd8633c	-0.105658025
48	0xbe0ac6e3	-0.13552432
49	0xbdf496cd	-0.119428255
50	0x3dd3f041	0.10348559
51	0xbbb531f5	-0.005529637
52	0xbd5438ed	-0.0518121
53	0xbc2df7ae	-0.0106181335
54	0x3cf3139d	0.029672438
55	0x3dee0921	0.11622835
56	0xbe28e5a7	-0.16493855
57	0x3d601d0b	0.054715198
58	0xbe0009a6	-0.1250368
59	0x3dd919d9	0.10600633
60	0x3e4481f9	0.19190206
61	0x3e039b2b	0.1285216
62	0xbbea3772	-0.007147723
63	0xbe35a6c4	-0.17739397
64	0xbc6f9bf6	-0.014624586
65	0x3e4bdb11	0.19907786
66	0xbe005afc	-0.12534708
67	0x3db4d5de	0.088298544
68	0x3cd92abf	0.02650964
69	0xbdb575f8	-0.088603914
70	0xbd0b9255	-0.0340751
71	0x3c9e5c63	0.019331163
72	0x3e1fa0b2	0.15588644
73	0x3df28fc9	0.11843831
74	0x3e3fbec3	0.18725114
75	0x3d9bff93	0.07617106
76	0x3e334657	0.17507301
77	0xbca32aab	-0.019917807
78	0x3dfd4b16	0.12367837
79	0x3e0f5827	0.13998471
80	0xbe211474	-0.15730458
81	0xbe059b49	-0.13047518
82	0x3e901dfe	0.28147882
83	0xbd28d9dd	-0.041223396
84	0x3e2c5441	0.16829015
85	0xbd88b029	-0.06674225
86	0x3d9c433d	0.07630012
87	0xbcde516b	-0.027138432
88	0x3e1a48f2	0.15066889
89	0x3c885dd8	0.01664631
90	0xbc9e45d9	-0.019320415
91	0xbcfec6e1	-0.031100692
92	0xbc8e06dd	-0.017337257
93	0x3e3959c1	0.18100645
94	0x3d327e3b	0.043577414
95	0x3e1f84f9	0.15578069
96	0x3ccfb499	0.02535467
97	0xbdc02e7a	-0.09383865
98	0xbe207582	-0.15669826
99	0xbdc9ca1e	-0.09853004
100	0x3dca8a07	0.09889608
101	0x3d17f747	0.037101056
102	0xbe1eb58e	-0.15498945
103	0xbddac8da	-0.10682841
104	0x3c66f275	0.014095892
105	0xbe5fab6f	-0.2184274
106	0xbdd34bbd	-0.1031718
107	0xbe0daabb	-0.1383466
108	0xbd950ab8	-0.07277435
109	0x3dbb8900	0.0915699
110	0x3d9748cd	0.073869325
111	0xbe0b8650	-0.13625455
112	0xbe2c2443	-0.16810708
113	0x3df7ff5f	0.12109255
114	0xbd5cf9a4	-0.053949013
115	0x3db08344	0.08618787
116	0xbd88ea61	-0.06685329
117	0xbce9c2cd	-0.028535271
118	0x3e4e6910	0.20157266
119	0x3da9a6e4	0.08283785
120	0xbd573457	-0.05254015
121	0xbe10cbec	-0.1414029
122	0x3ddf6b4b	0.109091364
123	0xbbb9c9a0	-0.0056697875
124	0xbe02a963	-0.12759928
125	0x3d5df2f7	0.054186787
126	0x3e2d0093	0.1689475
127	0x3e6e1775	0.23251136
128	0xbe3849b4	-0.17996866
129	0x3e1db25f	0.15400074
130	0x3e09c869	0.13455357
131	0xbdf5d90d	-0.1200429
132	0xbd4fa860	-0.050697684
133	0x3ca4fa5d	0.020138914
134	0xbe4aad7a	-0.19792739
135	0xbe781b1b	-0.2422909
136	0xbd526fd1	-0.051376168
137	0x3d800349	0.062506266
138	0xbe20dbae	-0.15708801
139	0x3cc6bf1f	0.024261056
140	0xbcbb5bec	-0.02287098
141	0xbdff864b	-0.12476786
142	0xbde7ec3a	-0.113243535
143	0x3e2cb252	0.16864899
144	0xbd638223	-0.05554403
145	0xbdb54a30	-0.08852041
146	0x3c7d8d8a	0.01547564
147	0x3c22b606	0.009931093
148	0xbdf6a74c	-0.12043628
149	0x3e203744	0.15646082
150	0xb9555496	-0.00020344774
151	0x3d73291d	0.05936538
152	0x3d0d8c02	0.03455735
153	0xbe196261	-0.14978935
154	0x3c5502e4	0.013001177
155	0x3a46f0df	0.0007588993
156	0xbb3b6920	-0.0028596595
157	0xbe8f577d	-0.27996436
158	0xbcef71ac	-0.029229008
159	0x3d1b0f7d	0.037856568
160	0x3d95713e	0.0729699
161	0x3dc73258	0.09726399
162	0xbe12d3a1	-0.14338543
163	0x3ce2f6ff	0.027705668
164	0xbc413615	-0.011792679
165	0x3dc82e3d	0.09774444
166	0x3d1e88bc	0.03870462
167	0xbe5ba055	-0.2144788
168	0x3e1c95c3	0.15291505
169	0x3d836e94	0.064175755
170	0xbd2ebdc8	-0.04266146
171	0x3e01cb7c	0.1267528
172	0x3be091ea	0.006853332
173	0x3e1937eb	0.14962737
174	0xbc0a5bf7	-0.008444778
175	0xbe3307c3	-0.1748343
176	0x3dac0f31	0.08401335
177	0xbd2e26c9	-0.042517457
178	0xbd4776e0	-0.048697352
179	0x3dbab663	0.09116819
180	0x3c128325	0.0089424
181	0xbca2a02d	-0.019851768
182	0x3d512a5c	0.051065788
183	0x3e2d09d7	0.16898285
184	0xbd1dde40	-0.038542032
185	0xbe33f987	-0.17575656
186	0xbe79d940	-0.2439928
187	0xbdcde6f6	-0.10053818
188	0xbe30e215	-0.17273743
189	0xbc19eb0f	-0.009394421
190	0xbd87c2a5	-0.066289224
191	0x3e008c73	0.12553577
192	0xbc4072b1	-0.011746095
193	0xbc3e4697	-0.01161351
194	0x3e432752	0.19057968
195	0xbe88ff80	-0.2675743
196	0xbe07e0fa	-0.13269415
197	0x3e965d98	0.2936828
198	0xbd97fd59	-0.07421369
199	0x3b2d5256	0.002644678
200	0xbe5e4305	-0.21705253
201	0xbdab70a8	-0.08371097
202	0xbd991e26	-0.074764535
203	0x3de4f337	0.11179202
204	0x3db07ace	0.08617173
205	0x3e2fa415	0.17152436
206	0xbd31a48b	-0.04336981
207	0xbd4f5401	-0.05061722
208	0x3c622cd6	0.013804635
209	0xbd81eb78	-0.0634374
210	0x3df5c441	0.12000323
211	0xbe3bbb56	-0.18333182
212	0x3cfd9a5b	0.030957391
213	0xbd0ce34b	-0.03439645
214	0xbe332dad	-0.17497893
215	0xbd287b85	-0.041133422
216	0xbd0dcfb9	-0.034621928
217	0xbe298658	-0.16555154
218	0x3b12c52a	0.002239535
219	0x3d9095cb	0.07059821
220	0xbd97c399	-0.07410354
221	0x3e1922b6	0.14954647
222	0xbe3d87d7	-0.1850885
223	0x3ddf9180	0.10916424
224	0xbd3c4e3a	-0.04597304
225	0x3bcb6d31	0.006208085
226	0x3e1cbd0c	0.1530649
227	0xbd71a180	-0.05899191
228	0x3d85eeab	0.06539663
229	0x3c95ef6c	0.018302642
230	0xbe3b67ce	-0.18301317
231	0xbe8e7f48	-0.27831483
232	0xbdc96719	-0.098341174
233	0xbd818b61	-0.063254125
234	0xbd3ed23b	-0.04658721
235	0xbe964b9a	-0.29354554
236	0xbe24e482	-0.16102794
237	0x3d8856b5	0.06657163
238	0xbe921710	-0.2853322
239	0xbd20d097	-0.039261427
240	0x3e18e9f5	0.14932998
241	0x3c7f4480	0.0155802965
242	0xbd273a6d	-0.040827204
243	0x3e528d79	0.2056178
244	0xbb4b5eeb	-0.0031031917
245	0xbdc797e2	-0.09745766
246	0x3da13a6c	0.07872471
247	0xbcee3db2	-0.029082153
248	0x3de22415	0.11042038
249	0x3da382c1	0.07983924
250	0x3de51f38	0.11187595
251	0xbdd553c4	-0.10416368
252	0x3dafb694	0.08579746
253	0x3e051546	0.12996396
254	0x3e2eb933	0.17062835
255	0x3e358907	0.17728053

lstm.weight_hh_l0 f4 [128, 32]
0	0xbe29b4b4	-0.16572839
1	0x3cd98c5f	0.026556192
2	0x3dc3b3a7	0.0955575
3	0x3e901e4d	0.28148118
4	0xbdcca17c	-0.09991738
5	0x3e5735e8	0.21016657
6	0xbdb22c25	-0.08699826
7	0xbdd471e7	-0.10373288
8	0x3e1a8f80	0.15093803
9	0xbc93902c	-0.018013082
10	0xbcdd8566	-0.027041148
11	0x3d460034	0.048340037
12	0x3e07f677	0.13277613
13	0x3ce30ed2	0.027717028
14	0xbdce7e49	-0.10082681
15	0x3b114ae7	0.002216989
16	0xbd552af5	-0.05204292
17	0xbe686c8f	-0.22697662
18	0x3e1eb0dd	0.15497155
19	0x3e2bd3c9	0.16780008
20	0xbd156e32	-0.036482044
21	0xbc37a6d9	-0.011209213
22	0xbdd43b93	-0.103629254
23	0xbdcf2082	-0.10113622
24	0xbca0a108	-0.019608036
25	0x3cff761e	0.031184252
26	0x3e6b909d	0.23004384
27	0xbe8ec436	-0.27884072
28	0x3dfda1d0	0.12384379
29	0xbd4bbf23	-0.04974283
30	0xbcd85d51	-0.026411684
31	0xbdc48890	-0.0959636
32	0xbdb9e53f	-0.09076928
33	0xbdc01d9c	-0.093806475
34	0xbdc98196	-0.0983917
35	0xbe6a96f1	-0.22909142
36	0xbd3e0bdc	-0.04639803
37	0xbe219749	-0.15780367
38	0xbd8241cd	-0.06360207
39	0x3df52e06	0.11971669
40	0xbdb65e85	-0.08904747
41	0xbc79ee8b	-0.015254627
42	0x3b6aae7c	0.0035809567
43	0x3e1f5422	0.15559438
44	0xbd4f55d5	-0.050618965
45	0x3c5464da	0.012963498
46	0xbc460396	-0.012085816
47	0x3d657c6f	0.056026872
48	0x3e18ebd1	0.14933707
49	0x3df24bae	0.11830841
50	0x3c7cf141	0.015438379
51	0xbdbec219	-0.09314365
52	0x3c1d1e4a	0.009589741
53	0x3e33731b	0.17524378
54	0xbe5bfb35	-0.21482547
55	0x3e5d7f0f	0.216305
56	0xbdd0e487	-0.10199838
57	0xbd08dedc	-0.03341566
58	0xbe310700	-0.17287827
59	0xbe1ced7b	-0.15324967
60	0x3c9ad09b	0.018898299
61	0x3e04ddac	0.12975186
62	0xbe05e010	-0.13073754
63	0xbc062613	-0.008187789
64	0xbe988ef1	-0.29796556
65	0xbd8ba484	-0.06818488
66	0x3d89c0d3	0.067262314
67	0x3e488bef	0.1958463
68	0xbc3b87ae	-0.011445923
69	0xbe309d9e	-0.17247626
70	0xbd4555ec	-0.048177645
71	0xbe52e8f8	-0.20596683
72	0xbeaaa911	-0.33332112
73	0x3cdfa392	0.027299676
74	0xbe0570e0	-0.1303134
75	0x3dbaaf4f	0.09115469
76	0x3e3b2dca	0.18279186
77	0xbe1da1b9	-0.15393724
78	0x3d86c0b1	0.06579722
79	0x3e43ff96	0.19140467
80	0x3eb97aa4	0.3622638
81	0xbea55065	-0.322879
82	0xbe08dd46	-0.13365659
83	0xbdc0f143	-0.09421017
84	0xbd34123f	-0.043962713
85	0x3e1dd909	0.15414824
86	0xbd5a0c65	-0.053234477
87	0xbc917bdc	-0.017759256
88	0xbdf1949b	-0.11795922
89	0x3e0eb3c5	0.13935764
90	0x3e0e708e	0.13910124
91	0xbc7aaf07	-0.015300519
92	0x3e0ebacb	0.13938443
93	0xbd5b372a	-0.053519405
94	0xbe709b85	-0.23496826
95	0xbddcdd98	-0.10784453
96	0xbe4e80ec	-0.20166367
97	0xbd8d08e4	-0.068864614
98	0x3e01995d	0.1265616
99	0xbd4835fa	-0.0488796
100	0x3e0e659f	0.13905953
101	0x3cb72bfb	0.022359839
102	0x3e29b6ce	0.1657364
103	0xbdacd048	-0.08438164
104	0x3d4421e2	0.047883876
105	0xbb5bc3f3	-0.0033533543
106	0x3d9e11fb	0.07718273
107	0xbdbfea5f	-0.093708746
108	0x3e88e8d7	0.26740143
109	0xbd6266c1	-0.055273775
110	0x3e27788d	0.1635458
111	0x3e46a9e1	0.19400741
112	0xbdec32cb	-0.115331255
113	0xbcb0f8e3	-0.021603053
114	0xbce9b655	-0.028529326
115	0x3e80109c	0.25012672
116	0xbd9f9fbf	-0.07794141
117	0x3e49333e	0.19648454
118	0xbda20f91	-0.07913125
119	0xbdeed009	-0.11660773
120	0x3e5ead36	0.21745762
121	0xbe53226c	-0.206186
122	0x3df3f81b	0.11912557
123	0xbe5b490f	-0.21414588
124	0x3be49f85	0.006977024
125	0xbd7334fd	-0.059376705
126	0x3d608f5e	0.054824226
127	0xbdd30861	-0.103043325
128	0x3c4a86a2	0.0123612005
129	0xbe263b0b	-0.1623346
130	0x3e82009c	0.2539109
131	0x3e29837e	0.16554067
132	0xbe82d58e	-0.25553554
133	0x3dd3b4ec	0.103372425
134	0x3d1e4737	0.038642135
135	0xbe27a557	-0.16371666
136	0xbdd0df37	-0.10198825
137	0x3dafa98f	0.085772626
138	0xbe394fa5	-0.18096788
139	0xbe5add88	-0.2137357
140	0x3e5bd811	0.21469142
141	0xbe04f7f4	-0.12985212
142	0x3c35ac4e	0.011088444
143	0x3c3158e8	0.01082442
144	0x3d14c6d8	0.036322445
145	0xbe09df45	-0.13464077
146	0xbd676702	-0.05649472
147	0x3d1a8593	0.037725043
148	0xbdbb69eb	-0.091510616
149	0xbcbcdf49	-0.02305569
150	0xbe84aca3	-0.2591296
151	0xbe05580e	-0.13021871
152	0xbdb114e1	-0.086465605
153	0x3e23e316	0.16004595
154	0x3d0b2ff4	0.03398128
155	0xbe0ffff0	-0.14062476
156	0x3e4195c5	0.18904789
157	0xbca4863e	-0.020083543
158	0xbd85c4f6	-0.06531708
159	0xbe415db8	-0.18883407
160	0x3e1c015c	0.15234894
161	0x3e3581e2	0.17725328
162	0xbe2a3141	-0.16620351
163	0xbd7e782f	-0.062126335
164	0xbe1a8398	-0.15089262
165	0xbc876ff3	-0.016532874
166	0x3dbb6404	0.09149936
167	0xbe2c09ab	-0.16800563
168	0xbe1d6c86	-0.1537343
169	0x3d319f79	0.043364976
170	0xbe49ef6a	-0.19720235
171	0x3dc55bf8	0.09636682
172	0x3e185d27	0.14879285
173	0x3d7c056a	0.0615286
174	0xbd8dbf4e	-0.06921254
175	0x3e0c5f20	0.13708162
176	0xbc54a949	-0.012979814
177	0xbd4431a4	-0.047898903
178	0x3acdfedf	0.0015716216
179	0x3d79bb7f	0.060969826
180	0xbe20ac01	-0.15690614
181	0x3db597fc	0.08866879
182	0xbe4781ca	-0.19483104
183	0xbcc7116a	-0.024300296
184	0x3dc20663	0.094738744
185	0x3dab2c34	0.083580405
186	0xbdef28c5	-0.11677698
187	0x3de23b62	0.110464826
188	0xbd88e422	-0.06684138
189	0xbe4daee6	-0.2008625
190	0xbe22e360	-0.15907049
191	0xbe26ef5f	-0.1630225
192	0x3c7dbf18	0.015487455
193	0x3d2b726a	0.04185716
194	0x3c9d2661	0.01918334
195	0xbe5ad5c1	-0.21370603
196	0xbe36c6cc	-0.17849272
197	0x3e09e5ad	0.1346652
198	0xbe800d45	-0.25010124
199	0x3b6898d3	0.003549148
200	0xbe9cec81	-0.30649188
201	0x3d425ecb	0.047453683
202	0xbe2d3894	-0.16916114
203	0xbd23de7e	-0.040007107
204	0x3e81c44d	0.25345078
205	0xbe5982b5	-0.21241267
206	0x3e8647dc	0.262267
207	0x3e800e50	0.2501092
208	0xbdff9bc5	-0.124808826
209	0x3e381104	0.17975241
210	0xbd9d6fb3	-0.076873206
211	0xbc206232	-0.009789037
212	0xbe5776b8	-0.21041381
213	0xbdaa0e28	-0.08303481
214	0xbe84438a	-0.25832778
215	0xbe0a254e	-0.13490793
216	0x3d93936d	0.072058536
217	0x3d23938e	0.03993564
218	0xbe902a15	-0.28157106
219	0xbe0955d0	-0.13411641
220	0xbd575045	-0.052566785
221	0xbd87a686	-0.06623559
222	0xbd93ddb3	-0.0722002
223	0x3cab1ba1	0.020887198
224	0xbd770f7f	-0.060317513
225	0xbdd301c5	-0.10303072
226	0x3e3e62a5	0.18592317
227	0xbe074a97	-0.13212048
228	0xbe820790	-0.25396395
229	0x3daf7ca3	0.085686944
230	0x3d3b2414	0.045688704
231	0xbd280dff	-0.041028973
232	0xbdc36800	-0.09541321
233	0xbd924366	-0.071417615
234	0x3de869f2	0.113483325
235	0x3bef06ca	0.0072945105
236	0x3d3557d8	0.044273227
237	0x3de4f7bb	0.11180063
238	0x3cde1003	0.027107244
239	0x3b92c1a0	0.0044786483
240	0xbd100f20	-0.035170674
241	0xbd820d6a	-0.06350215
242	0xbe0e5f03	-0.13903432
243	0xbd1a17d4	-0.03762038
244	0xbd5cf48a	-0.053944148
245	0xbc724720	-0.014787465
246	0xbc9df8df	-0.01928371
247	0xbd098370	-0.033572614
248	0xbdb1465a	-0.086559966
249	0x3ac90a40	0.0015338138
250	0x3e1f7e3b	0.15575497
251	0x3d6ec317	0.05829152
252	0x3d9fffb0	0.078124404
253	0xbe18c383	-0.14918332
254	0xbddaccf0	-0.1068362
255	0xbe076613	-0.13222532

lstm.bias_ih_l0 f4 [128]
0	0x3d0ada70	0.033899724
1	0xbce80758	-0.028323814
2	0x3d92909f	0.071564905
3	0x3e460fa3	0.19341902
4	0x3e585302	0.21125415
5	0xbd43f719	-0.047843073
6	0x3ca4549b	0.020059874
7	0x3db6cb9d	0.08925555
8	0x3d18da3c	0.0373175
9	0xbd99461d	-0.07484076
10	0x3d8ed3ae	0.069739684
11	0x3e0692de	0.13141963
12	0x3e851d74	0.25999033
13	0xbd9702a8	-0.073735535
14	0xbce66201	-0.028122904
15	0x3d49f39b	0.049304586
16	0x3d88acc6	0.06673579
17	0x3e6d4d5b	0.2317404
18	0x3e69724e	0.2279751
19	0x3d3a6645	0.045507688
20	0xbd42a324	-0.047518864
21	0x3bca049e	0.006165101
22	0xbdabee76	-0.08395092
23	0x3c886270	0.016648501
24	0x3e7d6e9e	0.24749228
25	0x3e4ad908	0.19809353
26	0x3da074f4	0.07834807
27	0xbcccc216	-0.024994891
28	0x3cbf8733	0.023379898
29	0x3e4433e8	0.19160426
30	0xbda61a29	-0.081104584
31	0x3d1fc07d	0.03900193
32	0xbd7589d5	-0.0599459
33	0x3db61880	0.08891392
34	0x3e07bbf7	0.13255297
35	0xbdc11c0c	-0.09429178
36	0x3e56bfb4	0.20971566
37	0x3dd2c77a	0.102919534
38	0x3e1ecbcc	0.1550743
39	0x3e0f6083	0.1400166
40	0x3aa4fdea	0.0012587879
41	0x3dbbdae1	0.09172607
42	0xbdd759b5	-0.10515157
43	0xbdc1550c	-0.094400495
44	0xbde6e550	-0.11274207
45	0x3e19b543	0.15010552
46	0xbdaf826b	-0.08569797
47	0x3d057193	0.032579016
48	0x3e273b33	0.16331176
49	0xbd94ded8	-0.072690666
50	0x3d4c0426	0.049808644
51	0xbcad4e20	-0.021155417
52	0x3d2f09fe	0.04273414
53	0x3c5c52b1	0.01344745
54	0x3dd397a3	0.10331657
55	0x3d4a047d	0.049320687
56	0x3e67d722	0.2264066
57	0x3e12488e	0.1428549
58	0x3e2e4c78	0.17021358
59	0xba51590e	-0.00079859875
60	0xbd909002	-0.07058717
61	0x3e7439c0	0.23850155
62	0xbcc365d4	-0.023852266
63	0x3dd3a313	0.10333838
64	0x3dec4dce	0.115382776
65	0xbe0d29ca	-0.13785473
66	0xbe453783	-0.19259457
67	0x3c0bd8fb	0.008535619
68	0x3e03f982	0.12888148
69	0x3d549930	0.051903903
70	0xbddd5ff4	-0.10809317
71	0xbcc7ed0d	-0.024405027
72	0x3e103fec	0.14086884
73	0xbdb47e6f	-0.08813178
74	0xbe41d49e	-0.18928763
75	0x3e3b1594	0.1826995
76	0x3e04db19	0.12974204
77	0xbd801c41	-0.06255389
78	0x3d1e17d8	0.038596958
79	0x3e4c1f62	0.19933847
80	0x3e1ca14e	0.15295908
81	0x3dd40714	0.103529125
82	0xbe105230	-0.14093852
83	0x3e3c24f1	0.18373467
84	0x3e123412	0.14277676
85	0x3e38f7dd	0.18063302
86	0xbdb21ae8	-0.08696538
87	0x3d7f20ee	0.062287264
88	0x3a8ba7d0	0.001065487
89	0xbe3bebf5	-0.18351729
90	0xbd881cff	-0.066461556
91	0xbe246c28	-0.16056883
92	0x3e0dafda	0.13836613
93	0x3d972494	0.073800236
94	0xbdae6393	-0.08515086
95	0xbe267456	-0.16255316
96	0x3e5cb987	0.21555148
97	0xbd730258	-0.059328407
98	0x3e12a574	0.14320928
99	0xbceb4366	-0.028718662
100	0x3d11de40	0.035612345
101	0xbc3e20f0	-0.011604533
102	0x3cabfd9c	0.020994954
103	0xbdedab57	-0.11604946
104	0x3e2b461c	0.16725963
105	0xbdc8db43	-0.09807446
106	0x3d95c2ba	0.07312532
107	0xbd258def	-0.04041856
108	0x3e2967cb	0.165435
109	0x3e6bfa32	0.2304466
110	0x3d754313	0.05987842
111	0xbdd49510	-0.10379994
112	0x3d626b83	0.055278312
113	0xbc3bf681	-0.011472345
114	0x3db60d38	0.0888924
115	0xbbd1a1e4	-0.0063974727
116	0xbcb95d91	-0.022627624
117	0xbd919fae	-0.071105346
118	0x3d61844c	0.05505781
119	0xbdaea0b3	-0.08526745
120	0x3ea4acf1	0.32163194
121	0x3cb0f04b	0.021598956
122	0xbce68931	-0.02814159
123	0x3c86fb35	0.016477207
124	0x3de4336b	0.1114262
125	0x3e622100	0.22082901
126	0xbc7fa013	-0.0156021295
127	0xbd28b509	-0.041188274

lstm.bias_hh_l0 f4 [128]
0	0x3d1e307a	0.03862045
1	0xbc482ce0	-0.01221773
2	0x3ddbeed3	0.107389115
3	0xbc983402	-0.018579487
4	0x3e3fe5f6	0.18740067
5	0x3ddee3b0	0.10883272
6	0x3d66da4f	0.05636054
7	0xbcb24044	-0.02175916
8	0x3dffeb4f	0.124960534
9	0xbcd7de04	-0.026350982
10	0x3da0990d	0.07841692
11	0x3e1b32be	0.15156075
12	0x3db64841	0.089005
13	0x3e063c5f	0.13108967
14	0x3e2f049e	0.17091605
15	0xbd9ee64f	-0.07758772
16	0x3dca4f40	0.09878397
17	0x3e56da74	0.20981771
18	0x3e79dcc2	0.24400619
19	0xbd885440	-0.066566944
20	0x3de0d433	0.10977974
21	0xbd92f892	-0.07176317
22	0xbd9fb771	-0.077986605
23	0x3e4fda8e	0.20298216
24	0xbcfa51dd	-0.030556614
25	0x3c2eb4b5	0.010663201
26	0xbcf4340e	-0.029809978
27	0xbc48b48b	-0.012250076
28	0xbd8dda88	-0.06926447
29	0x3dc78a61	0.097431906
30	0x3e19334b	0.14960973
31	0x3e506302	0.20350268
32	0xbd7def9b	-0.061996084
33	0xbe0ed8bb	-0.13949864
34	0xbc494dc0	-0.012286603
35	0x3e444191	0.19165637
36	0x3e5d71aa	0.2162539
37	0xbdb0da80	-0.086354256
38	0x3e1ed32c	0.15510243
39	0xbe3e16dd	-0.18563409
40	0xbdfecf1c	-0.12441847
41	0x3e3ad9b7	0.18247114
42	0xbde4e87c	-0.111771554
43	0x3e5ef5a8	0.21773398
44	0xbd4a53b7	-0.049396243
45	0x3da11d65	0.07866935
46	0x3d674a60	0.056467414
47	0xbb9408ee	-0.004517666
48	0x3dcdf211	0.10055936
49	0x3e43ed56	0.19133505
50	0x3e143106	0.14471826
51	0xbdcd4f6d	-0.10024915
52	0x3c92c1e8	0.017914727
53	0x3cfbdc55	0.030744711
54	0xbb08fbc1	-0.002090201
55	0x3e4fc4c0	0.20289898
56	0x3d461d00	0.0483675
57	0x3dade4c7	0.084909014
58	0x3d3f27e4	0.046668902
59	0x3e309610	0.17244744
60	0x3e0e1cba	0.13878146
61	0x3dd0581d	0.10173056
62	0x3c88e8af	0.016712515
63	0x3e252c67	0.1613022
64	0xbd2d7004	-0.042343155
65	0xbe0e5fd1	-0.13903739
66	0x3d3d6af7	0.046244588
67	0x3d89717e	0.067111
68	0xbe244c5a	-0.16044751
69	0x3e3dba14	0.18528014
70	0xbd6183cb	-0.05505733
71	0x3d670e93	0.056410383
72	0xbabb34de	-0.0014282723
73	0xbdaaeab7	-0.083455496
74	0x3d2c15cf	0.042012986
75	0xbdc112ef	-0.094274394
76	0xbdfd46bc	-0.12367007
77	0x3d8bf7cf	0.06834375
78	0xbc99b789	-0.018764274
79	0xbe06a0b5	-0.13147242
80	0xbe09f7cb	-0.13473432
81	0xbdd1a2e0	-0.10236144
82	0xbd39777c	-0.045279965
83	0xbd1ee376	-0.038791142
84	0xbd5408ff	-0.05176639
85	0x3e24b117	0.1608318
86	0xbe011eb7	-0.12609373
87	0xbe1c96c0	-0.15291882
88	0x3e043619	0.12911262
89	0x3c9de32e	0.019273367
90	0xbaac8598	-0.0013162373
91	0xbd983873	-0.07432642
92	0x3dbf9f01	0.093564995
93	0xbdd41368	-0.10355264
94	0xbe221002	-0.15826419
95	0xbd92e37a	-0.07172294
96	0x3dfa8c97	0.12233847
97	0x3df87c36	0.12133066
98	0xbcb6203e	-0.022232171
99	0xbdaece07	-0.0853539
100	0x3d5f16ae	0.05446499
101	0x3db5cf23	0.08877399
102	0x3e29c000	0.16577148
103	0xbc48ce5f	-0.012256234
104	0xbd2da428	-0.04239288
105	0x3e0653e5	0.1311794
106	0xb986de19	-0.00025723947
107	0x3d3dd54b	0.04634599
108	0x3d41ca9c	0.047312364
109	0xbc950c5d	-0.018194372
110	0x3b9990ce	0.0046864515
111	0x3d472fda	0.04862962
112	0x3e24b4b6	0.16084561
113	0x3c468081	0.012115599
114	0xbd047795	-0.032340605
115	0xbdebba7a	-0.11510177
116	0x3dd87f5d	0.105711676
117	0x3e282f01	0.1642418
118	0xbc8c725e	-0.017144378
119	0x3e0cdfbe	0.13757226
120	0x3e957473	0.29190406
121	0xbd8fe7cf	-0.07026636
122	0xbc81289a	-0.01576643
123	0x3e35c424	0.17750603
124	0x3deccff5	0.11563102
125	0xbce5ba69	-0.028042989
126	0xbcc2c4dd	-0.023775512
127	0x3d441dcf	0.04787999

fc.weight f4 [1, 32]
0	0xbde71e8e	-0.11285125
1	0x3db9ffc7	0.09081989
2	0x3e03c70d	0.128689
3	0x3df41530	0.11918104
4	0xbe4d414f	-0.20044445
5	0xbdcd50d6	-0.10025184
6	0xbe3a7b98	-0.1821121
7	0xbdb4d013	-0.088287495
8	0x3cb9cd64	0.022680946
9	0xbdf8c325	-0.12146596
10	0x3e3ad825	0.18246515
11	0xbdbf03ca	-0.093268946
12	0xbddb15f1	-0.10697544
13	0x3ddc3253	0.10751786
14	0xbe21bb08	-0.15794003
15	0xbe44a089	-0.19201864
16	0x3df4fa82	0.11961843
17	0x3e06ddcb	0.13170545
18	0x3e54b5fb	0.20772545
19	0xbde09b6b	-0.109671436
20	0x3e1534b6	0.14570889
21	0x3d220643	0.039556753
22	0x3de823cc	0.11334953
23	0xbe015a28	-0.12632048
24	0xbe249e62	-0.16076043
25	0x3e13d0a8	0.14435065
26	0x3e2d3a98	0.16916883
27	0xbe288ce3	-0.16459994
28	0x3e64b451	0.2233441
29	0x3da899a8	0.082324326
30	0xbe185ef4	-0.14879972
31	0x3d1ef631	0.038809005
