fut_opt_lih_features_prepare/bm_fut_lih_vol_02.pth (torch, 26418 bytes, 6 tensors)

embedding.weight f4 [57, 8]
0	0xbf881ba0	-1.063343
1	0x3efc4eeb	0.4927896
2	0xbf159ed5	-0.58445483
3	0x3e232e3a	0.15935603
4	0xbf311d75	-0.6918557
5	0x3db5ced9	0.08877344
6	0x3ff05c19	1.8778106
7	0xbe332894	-0.17495948
8	0x3e903491	0.28165105
9	0xbe85c6b7	-0.2612817
10	0x3ea0fb34	0.31441653
11	0x3ea678ef	0.3251414
12	0x3de667f0	0.11250293
13	0x3f65c698	0.89756155
14	0x3e8d510f	0.27600905
15	0xc0152976	-2.3306556
16	0x3f636565	0.8882659
17	0xbe49d69b	-0.19710772
18	0x3e9b5bee	0.30343574
19	0x3dba396b	0.09092983
20	0xbea0bcdd	-0.3139409
21	0x3fc417b4	1.5319734
22	0x3ed4920a	0.4151767
23	0x3e19bee5	0.15014227
24	0xbf1a9ccb	-0.603955
25	0xbfa5c9ae	-1.2952173
26	0xbf2c4ca5	-0.6730445
27	0x4014d434	2.3254519
28	0xbf85d52e	-1.0455682
29	0xbf129ae1	-0.57267576
30	0x3fb45c86	1.4090736
31	0x3cf9156f	0.030405728
32	0x3c9b0e37	0.018927677
33	0xbe3421d3	-0.17591028
34	0x3f9a5cba	1.2059548
35	0x3ed21b47	0.41036436
36	0xbf344c6d	-0.70429116
37	0xbe44d62a	-0.19222322
38	0xbf657d46	-0.8964428
39	0x3f719d71	0.9438086
40	0xbf677a1d	-0.90420705
41	0x3de27056	0.11056583
42	0x3f03d4ce	0.5149659
43	0xbdd174d8	-0.10227364
44	0x3fc8da2e	1.5691583
45	0xbf295e57	-0.66159576
46	0x3e2b6e6a	0.16741338
47	0xbe27219f	-0.16321419
48	0x3e752c3e	0.23942658
49	0x3f658e4c	0.8967025
50	0xbf44e5a2	-0.7691289
51	0xbee01848	-0.43768525
52	0x3f348d52	0.7052814
53	0xbe69fd2a	-0.2285048
54	0x3e3460ab	0.17615001
55	0xbc80d46d	-0.015726293
56	0xbf48a7ce	-0.7838105
57	0x3e7d05f9	0.2470931
58	0x3d5e13f2	0.05421824
59	0xbfb43cc1	-1.4081041
60	0x3fb56750	1.4172153
61	0x3f86d85e	1.053478
62	0xbdd38401	-0.10327912
63	0xbfb807ab	-1.437734
64	0x3e32e290	0.17469239
65	0xbeb700aa	-0.35742694
66	0x3f139382	0.57646954
67	0xbfc3866c	-1.5275397
68	0xbe070034	-0.13183671
69	0xbe752e21	-0.23943378
70	0x3f0e07ac	0.55480456
71	0xbf9730f1	-1.1811811
72	0xbf976044	-1.1826253
73	0x3f11397a	0.5672833
74	0x3e9d110c	0.30677068
75	0x3fdbabc5	1.7161795
76	0x3e3a5d7c	0.18199724
77	0xbeee3476	-0.465244
78	0xbf42d884	-0.76111627
79	0xbdff0659	-0.124523826
80	0x3eecd5e1	0.46256927
81	0xbf15f89f	-0.5858249
82	0xbff145ad	-1.8849388
83	0x3f2e85e4	0.6817305
84	0x3d17faf9	0.03710458
85	0xbdb54e38	-0.0885281
86	0xbe8e8a55	-0.27839914
87	0x3ef44a2b	0.47712836
88	0xbdb075df	-0.08616232
89	0xbf009847	-0.50232357
90	0xbf16ba4e	-0.5887803
91	0xbe3b7d67	-0.18309556
92	0x3e272c88	0.16325581
93	0xbf5544ff	-0.83308405
94	0xbd8492cf	-0.06473314
95	0xbeb10c62	-0.3457976
96	0xbfed50fb	-1.8540338
97	0x3f90cefc	1.1313167
98	0x3d890a2a	0.06691392
99	0xbf939f0a	-1.153291
100	0xbf1f7042	-0.62280667
101	0x3e9bc19d	0.30421153
102	0xbf66fd97	-0.902307
103	0xc037a0cc	-2.8691893
104	0xbff92ec7	-1.94674
105	0xc011bb47	-2.2770555
106	0x3f8c0958	1.0940351
107	0xc0174db3	-2.3641174
108	0x3dd92ab0	0.10603845
109	0xbf33c9d2	-0.7022983
110	0xbf7b332a	-0.98124945
111	0x3f2407b1	0.64074236
112	0xbf1c5412	-0.6106578
113	0xbfa0a649	-1.2550746
114	0xc000c94a	-2.0122857
115	0xbf0364e3	-0.51325816
116	0xbe57b188	-0.21063817
117	0x3f941f4a	1.1572049
118	0x3e827c6e	0.25485557
119	0xbf9f2386	-1.2432716
120	0x3f9292e5	1.1451079
121	0xbfb9847a	-1.4493554
122	0xbd113ead	-0.035460163
123	0xbe30bcab	-0.17259471
124	0xbefcc20e	-0.49366802
125	0xbf533145	-0.82497054
126	0x3eedffdb	0.46484265
127	0xbf8ba960	-1.0911064
128	0xbf0a33c3	-0.5398523
129	0xbbdff360	-0.0068344325
130	0x3e8697ea	0.26287776
131	0x3f881bf6	1.0633533
132	0x3fc20105	1.5156561
133	0x3efa1075	0.4884068
134	0xbdebe1b8	-0.11517662
135	0x3f966c67	1.1751832
136	0x3ec95e1c	0.39329612
137	0x3eca3091	0.39490178
138	0x3ed3b44b	0.4134849
139	0xbc9bd138	-0.019020662
140	0xbf290e2d	-0.66037256
141	0x3faec73a	1.3654549
142	0xbfa244fe	-1.2677305
143	0xc037ae33	-2.8700073
144	0xbe053712	-0.13009289
145	0x3f0648aa	0.52454627
146	0xbf6c16ff	-0.9222259
147	0x3e020b19	0.12699546
148	0x3fddc7b0	1.7326565
149	0x3e3a8f7b	0.18218796
150	0x3f91077c	1.1330409
151	0x3e382f8c	0.17986888
152	0x3f3d260a	0.7388617
153	0xbea3c402	-0.3198548
154	0xc0013c5c	-2.019309
155	0x3e598fb7	0.21246229
156	0x3e914abf	0.2837734
157	0x3e8cca6b	0.27498183
158	0x3f8c0596	1.0939205
159	0x3e9cb99c	0.3061036
160	0xbf5ec52f	-0.8701963
161	0xbf121c04	-0.57074
162	0xc028e2a5	-2.6388333
163	0xbfa58c5d	-1.293346
164	0xbf70a9e4	-0.9400923
165	0x3f5b9f64	0.85790086
166	0x3f66d058	0.9016166
167	0xbf54210f	-0.82862943
168	0xbf5482d1	-0.8301211
169	0xbf446a1f	-0.7672443
170	0xbef6a763	-0.4817458
171	0x3d478e86	0.048719905
172	0xbe32e0cb	-0.17468564
173	0x3e426531	0.18983914
174	0x3cef4fb6	0.029212814
175	0xbebbd3b3	-0.3668495
176	0x3fcd28ae	1.602804
177	0x3f9793d8	1.1841993
178	0xbfb6fa8a	-1.4295208
179	0xbf17b0c9	-0.5925413
180	0x3d897023	0.067108415
181	0xbe4e4657	-0.2014402
182	0xbd1fa0cb	-0.038971703
183	0x3fd3a411	1.6534444
184	0x3eac9d1e	0.3371362
185	0xbdf0b820	-0.11753869
186	0x3f362f80	0.7116623
187	0xbf3453a9	-0.70440155
188	0x3f31ca73	0.6944954
189	0x3ec0fdf2	0.37693745
190	0xbfa47c99	-1.2850524
191	0xbd635a76	-0.055506192
192	0x3fd941d3	1.6973213
193	0x3f8013be	1.0006025
194	0xbf703d03	-0.93843096
195	0xbf255f90	-0.6459894
196	0x3fbd22b5	1.4776217
197	0x3ebd061f	0.36918733
198	0x3f0b63d6	0.5444921
199	0xbfe7d672	-1.8112319
200	0xbdcbedcb	-0.09957465
201	0xbf22c7b9	-0.63586
202	0x3fe9018d	1.8203598
203	0xbf860a3f	-1.0471877
204	0xbf18a300	-0.5962372
205	0x3fb44fe1	1.4086877
206	0x3f12822b	0.5722987
207	0x3ce424c7	0.027849568
208	0x4016767f	2.3509824
209	0x3fbcc8af	1.4748744
210	0x400f09b5	2.2349675
211	0xbecb53a6	-0.39712256
212	0x3fa056d0	1.2526493
213	0xbfa12814	-1.2590356
214	0xbfadb37b	-1.3570398
215	0xbefc4129	-0.49268463
216	0x3ea44a73	0.3208805
217	0x3f6f0aae	0.9337567
218	0x39925707	0.0002791213
219	0x3f3edc73	0.7455513
220	0xbf986f08	-1.1908884
221	0xbe89f7e5	-0.2694694
222	0xbf72612b	-0.94679517
223	0x3faab302	1.3335879
224	0x3ea706e3	0.32622442
225	0xbf86a70c	-1.0519729
226	0x3f069ad9	0.5258003
227	0x3f2fd313	0.6868145
228	0xbf34208f	-0.7036218
229	0xbf84e467	-1.0382203
230	0x3daffb83	0.08592894
231	0x3ea7181b	0.3263558
232	0xbf8ca502	-1.0987856
233	0x3f3d86a4	0.7403357
234	0x3ee79304	0.45229352
235	0x3f96e15e	1.1787527
236	0xbf55abe2	-0.834654
237	0xbf1b8fc9	-0.60766274
238	0xbee13b98	-0.4399078
239	0xbd9eebb3	-0.077598
240	0x3f393ea5	0.7236121
241	0x3eb86f15	0.3602225
242	0xbf934876	-1.1506488
243	0xbf53315d	-0.824972
244	0xbf48e0b7	-0.7846789
245	0x3f84c12e	1.0371454
246	0x3faf4b40	1.369484
247	0xbf043e12	-0.5165721
248	0xbfcd0c39	-1.6019355
249	0xbffc2636	-1.9699161
250	0x3f64d150	0.89381886
251	0x3eade5d9	0.33964422
252	0x3eaa6c00	0.33285522
253	0xbf4aeb21	-0.7926503
254	0x3effb20e	0.49940532
255	0xbea76066	-0.32690734

lstm.weight_ih_l0 f4 [128, 8]
0	0x3db530ff	0.08847236
1	0x3e2da1ac	0.16956204
2	0x3e43b0d5	0.19110425
3	0x3e16307e	0.14666936
4	0x3df84f2f	0.12124478
5	0x3e0231ae	0.12714264
6	0xbd06e648	-0.032934457
7	0x3cc565a0	0.02409631
8	0x3c95a7c6	0.018268477
9	0xbd0d16d0	-0.034445584
10	0xbdea90ca	-0.114533976
11	0xbd4108ed	-0.047127653
12	0xbdf9bb4a	-0.12193926
13	0xbc6282ca	-0.013825128
14	0x3d5842cc	0.052798077
15	0x3d6e4395	0.05816992
16	0x3bb5ab57	0.005544107
17	0xbdfcb4b2	-0.123391524
18	0xbd1491aa	-0.03627173
19	0x3cd5932e	0.026071157
20	0x3de6651d	0.112497546
21	0x3d01b7e2	0.031669505
22	0x3e5dc506	0.2165719
23	0x3e4c6fcc	0.19964522
24	0xbb955630	-0.0045573935
25	0x3d97e60d	0.074169256
26	0x3e5cc8d5	0.21560986
27	0x3e85a836	0.26104897
28	0x3d40b3f7	0.047046628
29	0x3e01f084	0.12689406
30	0xbd837e5a	-0.06420584
31	0x3dd7272b	0.105055176
32	0x3db9995d	0.09062455
33	0xbe5ec69a	-0.21755448
34	0xbe11a45e	-0.14222857
35	0x3e444a87	0.19169055
36	0x3dfcb873	0.123398684
37	0x3e35c6f1	0.17751671
38	0x3e2d8f46	0.16949186
39	0x3de8e405	0.11371616
40	0x3dd6c726	0.10487203
41	0x3d7e4b35	0.06208344
42	0x3c38ea38	0.011286311
43	0xbe0f0378	-0.13966167
44	0x3e6318df	0.22177456
45	0x3d95b269	0.0730942
46	0xbadb24cf	-0.0016719344
47	0x3d36d0ff	0.044632908
48	0xbe1d8e37	-0.15386282
49	0xbc1da062	-0.009620758
50	0xbdfad875	-0.12248317
51	0x3d6ee24a	0.058321275
52	0x3e1b480b	0.15164201
53	0x3e10f59a	0.1415619
54	0xbd9d8938	-0.07692188
55	0x3bbb8678	0.005722817
56	0xbdd29ed7	-0.102842025
57	0xbe134114	-0.14380294
58	0x3d37c52c	0.044865772
59	0x3e0e1b1e	0.13877532
60	0x3e5b11a9	0.21393456
61	0x3de8de3d	0.113705136
62	0x3e436286	0.19080552
63	0x3df6f7cf	0.120589845
64	0x3dcf8e51	0.101345666
65	0xbdd739d1	-0.105090745
66	0x3b64c261	0.0034905898
67	0x3dd93c37	0.10607188
68	0x3d434303	0.04767133
69	0x3e3e2508	0.18568814
70	0x3d4b73b8	0.049670905
71	0x3da392f0	0.079870105
72	0xbd174b83	-0.036937248
73	0xbe2a3370	-0.16621184
74	0x3e75421c	0.23951
75	0x3e7ad947	0.24496947
76	0x3e5f4218	0.21802557
77	0xbd714ff7	-0.05891415
78	0xbe38dc68	-0.18052828
79	0xbe5f0443	-0.2177897
80	0x3c8162d2	0.015794192
81	0x3de7e9e6	0.113239095
82	0xbe1664de	-0.14686915
83	0xbd04e40d	-0.03244405
84	0x3e2e3f78	0.17016399
85	0xbe3c6981	-0.18399622
86	0x3d9d5b40	0.0768342
87	0x3e66b2d6	0.22529158
88	0xbe58d914	-0.21176559
89	0x3e665f95	0.22497399
90	0x3d34ac08	0.044109374
91	0xbd966d25	-0.073450364
92	0xbd8e4a4c	-0.06947765
93	0x3db27e3f	0.08715486
94	0x3c5ac8a2	0.013353499
95	0xbd1f3e9f	-0.03887808
96	0xbd871089	-0.06594951
97	0xbda16630	-0.07880819
98	0x3e0d9031	0.13824536
99	0x3e31e889	0.17373861
100	0x3e8afdb1	0.27146676
101	0xbcd8869f	-0.02643138
102	0xbe0be6c5	-0.1366225
103	0xbea3c26c	-0.3198427
104	0x3dbd5ea9	0.092465706
105	0x3db1ff38	0.08691257
106	0x3cc27964	0.023739524
107	0xbdaac2a8	-0.08337909
108	0xbe12ce6d	-0.14336558
109	0x3e1f40ba	0.15552035
110	0xbe2c5cb5	-0.1683224
111	0x3d047ea9	0.032347355
112	0xbcf54955	-0.029942194
113	0xbd70e816	-0.058815084
114	0x3cbd7c6a	0.023130614
115	0xbe072f5e	-0.13201663
116	0x3dc0cbe4	0.09413889
117	0xbd741120	-0.059586644
118	0xbe22d535	-0.15901645
119	0x3da0e6f5	0.078565516
120	0x3df91aa6	0.12163286
121	0xbb9db678	-0.0048130117
122	0x3e2f2d26	0.17107067
123	0xbd3afc69	-0.045650873
124	0xbe690f67	-0.22759782
125	0x3d8e8298	0.069585025
126	0xbbdac31c	-0.006676091
127	0xbe72d98f	-0.23715805
128	0x3e663547	0.22481261
129	0xbd8c91cf	-0.06863748
130	0x3a90bfec	0.0011043525
131	0x3e1f8648	0.15578568
132	0xbe11392b	-0.14181964
133	0x3dbb6e06	0.09151845
134	0x3e17f0d8	0.14837968
135	0x3db9e570	0.09076965
136	0x3dd41268	0.10355073
137	0xbe862079	-0.2619665
138	0x3e51c05c	0.20483536
139	0xbdaa8381	-0.08325864
140	0xbdec65b7	-0.11542838
141	0xbda7c05f	-0.08190989
142	0xbc0de67f	-0.008660912
143	0xbcdc8e67	-0.026923371
144	0xbd51a8f3	-0.051186513
145	0x3d304b04	0.04304029
146	0x3e0089f1	0.1255262
147	0xbdd5d147	-0.10440307
148	0xbde33867	-0.11094742
149	0xbe037274	-0.12836629
150	0xbd0acff0	-0.03388971
151	0xbcaf20ae	-0.021377888
152	0xbe8440ab	-0.25830588
153	0xbde30916	-0.110857174
154	0x3dddbe98	0.108273685
155	0xbda239df	-0.07921194
156	0xbd1636e4	-0.03667344
157	0x3e15aec4	0.14617449
158	0xbd6e8a03	-0.058237087
159	0x3dcf572c	0.101240486
160	0x3e204e84	0.15654951
161	0xbbad2645	-0.005284103
162	0x3c9453ee	0.018106427
163	0xbd8c683e	-0.0685582
164	0x3d98b29d	0.07455943
165	0xbe0d6385	-0.13807495
166	0xbbaf216e	-0.0053445613
167	0x3e1e9b34	0.15488893
168	0xbca81101	-0.02051592
169	0xbd1684e5	-0.03674783
170	0x3e2dda03	0.16977696
171	0xbe578338	-0.2104615
172	0x3e8469b7	0.25861904
173	0x3d9b5d89	0.075862
174	0xbe7c946c	-0.24665993
175	0x3e430405	0.19044502
176	0xbc808f5a	-0.015693355
177	0xbdff6509	-0.12470443
178	0x3dbca08f	0.092103116
179	0x3d26b3d9	0.04069886
180	0x3d28d120	0.041215062
181	0xbe2b7eb0	-0.16747546
182	0x3e38c8c9	0.18045343
183	0xbd2598a0	-0.040428758
184	0xbdefa9e6	-0.117023274
185	0x3e094889	0.13406576
186	0x3e18fa56	0.14939246
187	0x3da73cc0	0.08165884
188	0x3dda66dd	0.10664151
189	0x3e31b866	0.17355499
190	0xbe67daed	-0.22642107
191	0x3d5dfd19	0.05419645
192	0x3d58db0a	0.052943267
193	0x3dd3fd62	0.10351063
194	0xbd434f7b	-0.04768322
195	0xbdb4766d	-0.088116504
196	0x3e6b9961	0.23007728
197	0xbe90b153	-0.28260288
198	0xbd35b35a	-0.044360496
199	0xbe14943f	-0.14509676
200	0x3e40cf2c	0.1882903
201	0xbe84258a	-0.2580989
202	0xbd977b86	-0.07396607
203	0x3e27be18	0.16381109
204	0x3e636c3a	0.22209254
205	0xbe73b717	-0.23800312
206	0x3d0da48e	0.03458076
207	0x3e2b03f4	0.16700727
208	0xbd2494f8	-0.04018113
209	0xbdf426ec	-0.11921486
210	0xbe08497f	-0.13309287
211	0xbe06f19d	-0.13178106
212	0x3eab919d	0.33509532
213	0x3e027c62	0.12742761
214	0x3d10a3bc	0.0353124
215	0x3de2cf76	0.11074726
216	0xbe34f0bc	-0.17669958
217	0xbe8c8c5b	-0.27450833
218	0xbda30f62	-0.079619184
219	0x3d10e452	0.035373993
220	0xbdc1a2bd	-0.09454868
221	0xbe85389e	-0.26019758
222	0x3e25023d	0.16114135
223	0x3e45a313	0.19300489
224	0x3e31980b	0.17343156
225	0x3da7bb51	0.08190025
226	0xbe14643a	-0.14491358
227	0xbcc20967	-0.023686124
228	0x3ddf710f	0.10910236
229	0xbe9af4e2	-0.30264956
230	0xbd4f012e	-0.050538234
231	0x3e0a2474	0.13490468
232	0xbe0158ef	-0.12631582
233	0xbe662030	-0.22473216
234	0x3d900851	0.07032836
235	0x3d25e9cc	0.04050617
236	0x3e225604	0.15853125
237	0x3d8a2bc4	0.06746629
238	0xbd3e00a3	-0.046387326
239	0xbe2d853e	-0.16945359
240	0x3d0fa6e0	0.035071254
241	0xbdee7c82	-0.11644842
242	0x3e12b2b7	0.14325987
243	0xbdc933e5	-0.09824351
244	0x3e55709e	0.20843741
245	0xbde3985f	-0.11113047
246	0xbbcdedb5	-0.0062844404
247	0xbd35afc1	-0.044357065
248	0x3de78514	0.113046795
249	0xbe89de89	-0.26927593
250	0x3d406fe8	0.046981722
251	0xbe2028c8	-0.15640557
252	0xba86a81d	-0.001027349
253	0x3d181659	0.037130687
254	0x3d9b25f4	0.07575598
255	0x3ccd4bcd	0.025060559

lstm.weight_hh_l0 f4 [128, 32]
0	0x3cbc4353	0.022981321
1	0xbe1edc80	-0.15513802
2	0xbe19e29d	-0.15027852
3	0xbd53dc85	-0.051723976
4	0xbe85e94d	-0.26154557
5	0x3c8f28a4	0.017475434
6	0x3bf91682	0.00760156
7	0xbd346d93	-0.04404981
8	0x3dfe8134	0.12426987
9	0xbad91f1b	-0.0016565056
10	0x3e93d292	0.2887159
11	0xbe5e48b8	-0.21707428
12	0xbe60a614	-0.21938354
13	0x3c9db122	0.019249503
14	0x3da2ac20	0.079429865
15	0x3e085a69	0.13315739
16	0xbd78069c	-0.06055318
17	0xbe09fe7c	-0.13475984
18	0xbd7f6253	-0.06234963
19	0xbc2f4eea	-0.010699967
20	0xbe81aa2d	-0.25325146
21	0xbe99a87f	-0.30011365
22	0xbc6185e6	-0.013764834
23	0xbe0f1ec7	-0.13976584
24	0x3e29de8f	0.16588806
25	0x3daac62c	0.083385795
26	0x3e06aa14	0.13150817
27	0x3d50f24a	0.051012315
28	0xbcd5defb	-0.026107302
29	0xbdc3ff60	-0.09570193
30	0xbe6921b6	-0.22766766
31	0xbd1bbef9	-0.038023923
32	0x3d8be00a	0.068298414
33	0xbdc3d66a	-0.095623806
34	0xbc9a91fd	-0.01886844
35	0x3cedccad	0.029028261
36	0xbe724b56	-0.23661551
37	0x3df87b99	0.121329494
38	0x3dd883b9	0.10571999
39	0x3b5afe09	0.0033415577
40	0xbe0faff8	-0.1403197
41	0x3da900fa	0.082521394
42	0xbd94d084	-0.07266334
43	0x3e6618db	0.22470419
44	0xbdbeee06	-0.09322743
45	0xbea337fb	-0.31878647
46	0x3e08f514	0.1337474
47	0x3e19475b	0.14968626
48	0x3d0a8818	0.033821195
49	0xbd414119	-0.047181223
50	0xbd85c8eb	-0.06532463
51	0xbda981a4	-0.0827668
52	0xbdba714d	-0.09103642
53	0x3d594e3d	0.05305313
54	0x3dbe1da5	0.09282998
55	0xbdb7c22f	-0.089725845
56	0xbe82f9e2	-0.2558127
57	0xbd0368a0	-0.0320822
58	0xbe761784	-0.24032408
59	0x3e1a2b48	0.15055573
60	0x3dde3d7c	0.10851571
61	0x3e1618e0	0.14657927
62	0xbe3f8db2	-0.18706396
63	0x3d54f81a	0.05199442
64	0xbe1bab87	-0.15202151
65	0xbe61d510	-0.22053933
66	0x3c3220dd	0.010872093
67	0x3e4d6517	0.20058094
68	0x3d8d2512	0.06891836
69	0xbd50ce4c	-0.05097799
70	0xbe17bcdb	-0.14818136
71	0x3e856812	0.26055962
72	0xbd215801	-0.039390568
73	0x3d54a341	0.051913504
74	0x3d587b4d	0.052851964
75	0x3d95cc27	0.073143296
76	0xbd48eb8a	-0.049052753
77	0x3d5aebfb	0.053447705
78	0x3e9fbed5	0.3120028
79	0xbbcec51f	-0.0063101198
80	0xbe93c074	-0.28857768
81	0x3da8a466	0.082344815
82	0xbda0eff7	-0.0785827
83	0x3dab6acf	0.083699815
84	0xbe20f03b	-0.1571664
85	0xbdea7b92	-0.114493504
86	0x3d444002	0.047912605
87	0x3e22e6c4	0.15908343
88	0x3d6a9d3c	0.057278857
89	0xbe47008f	-0.19433807
90	0x3cdfce2e	0.027319994
91	0x3dd36ea1	0.10323835
92	0x3dac0e6b	0.084011875
93	0x3e933b52	0.28756195
94	0xbdd1b932	-0.10240401
95	0x3e47d783	0.19515805
96	0x3e2a2691	0.16616274
97	0xbdba2397	-0.090888195
98	0xba463752	-0.0007561344
99	0x3cf338e2	0.02969021
100	0x3cd9f560	0.026606262
101	0x3dba6d51	0.09102882
102	0xbdb0c3dd	-0.08631108
103	0x3d2a8ab7	0.041636195
104	0xbdb20fe9	-0.08694441
105	0x3e236faf	0.15960573
106	0xbd3ca0ad	-0.04605167
107	0x3e278670	0.16359878
108	0xbc2c8c7f	-0.010531544
109	0xbe832a70	-0.25618315
110	0x3de49282	0.11160757
111	0xbe353539	-0.17696084
112	0x3dd599dc	0.10429737
113	0x3d131804	0.035911575
114	0x3c7dd0e1	0.015491695
115	0xbdfe57ea	-0.12419112
116	0xbccd3994	-0.02505187
117	0x3d61eb9f	0.055156346
118	0xbd460ff5	-0.04835506
119	0x3dfa4963	0.12221029
120	0xbde620b3	-0.11236706
121	0x3e0233c7	0.12715064
122	0xbe0c72b9	-0.13715638
123	0x3bda9e42	0.006671698
124	0xbe58de7f	-0.21178626
125	0x3e2f712a	0.17133012
126	0xbbc14947	-0.005898628
127	0x3e4c133e	0.19929215
128	0x3cf74fcf	0.030189423
129	0xbd957d43	-0.072992824
130	0xbd54b483	-0.051929962
131	0xbcb68a2b	-0.02228268
132	0x3c4eb4d3	0.012616354
133	0xbeb6fd75	-0.35740247
134	0xbe81b34d	-0.25332108
135	0x3d8a71cb	0.067599855
136	0xbe03cbe0	-0.12870741
137	0xbe84ffa7	-0.25976297
138	0xbdb6a825	-0.0891879
139	0xbe2fc4e1	-0.17164947
140	0x3e11bcf7	0.1423224
141	0xbd93be18	-0.07213992
142	0x3d339745	0.043845434
143	0xbd5e6720	-0.054297566
144	0xbe304f14	-0.17217666
145	0x3e538325	0.20655496
146	0x3e27eff7	0.16400133
147	0x3c65ff97	0.014037988
148	0x3e24d62d	0.16097327
149	0xbe65fac9	-0.22458948
150	0xbd71b752	-0.05901272
151	0x3e7094fe	0.23494336
152	0x3dbbd8ec	0.09172234
153	0xbb5641dc	-0.0032693064
154	0xbe5781bb	-0.21045582
155	0xbce00ab4	-0.027348854
156	0x3e2a6685	0.1664067
157	0x3c537bec	0.012907963
158	0x3d6a939f	0.05726969
159	0x3e67dcdb	0.22642843
160	0x3df1b6d9	0.118024535
161	0xbddbe097	-0.107361965
162	0xbe2152a1	-0.15754177
163	0x3d8e949f	0.06961941
164	0xbe94f25e	-0.2909116
165	0x3d022b11	0.031779353
166	0xbe05e767	-0.13076554
167	0x3d5138df	0.051079627
168	0xbc963ae4	-0.018338628
169	0x3e970406	0.29495257
170	0x3d56f890	0.05248314
171	0x3de07dee	0.10961519
172	0xbe34d4d0	-0.17659307
173	0xbe2540c0	-0.16137981
174	0xbbc30a1a	-0.005952132
175	0xbd8d6ce7	-0.06905537
176	0x3e1137e0	0.14181471
177	0xbd64add0	-0.055829823
178	0xbd7321b9	-0.059358332
179	0x3e617da7	0.22020589
180	0x3e1c4167	0.15259324
181	0xbcdd0594	-0.026980199
182	0xbe0d1ddd	-0.13780923
183	0x3d02bb04	0.031916633
184	0xbe59b296	-0.21259531
185	0x3e221f70	0.15832305
186	0xbd9baa7d	-0.076008774
187	0xbd235f5e	-0.03988587
188	0xbe0e41e4	-0.13892323
189	0x3e8723ac	0.26394403
190	0xbdeb0cc6	-0.11477046
191	0x3ccf5449	0.025308745
192	0xbb62b2d3	-0.003459145
193	0xbdc73088	-0.097260535
194	0xbd579ce9	-0.052639876
195	0xbe7573a5	-0.23969896
196	0x3db5e737	0.08881991
197	0x3e7baa4b	0.2457668
198	0x3dcbaac3	0.099446796
199	0x3e74cc1c	0.23905987
200	0xbd0dc5a2	-0.034612305
201	0x3e165945	0.14682491
202	0x3e590b2c	0.21195668
203	0x3d525384	0.051349178
204	0x3d5846ee	0.05280202
205	0xbe82fd41	-0.25583842
206	0xbc536b43	-0.012903991
207	0x3e890ec7	0.26769087
208	0x3daa5a8b	0.08318051
209	0xbdb28c78	-0.087181985
210	0x3df8cc3d	0.1214833
211	0xbd92429f	-0.07141613
212	0x3d7271b4	0.059190467
213	0x3e26486a	0.16238561
214	0x3ccc7329	0.024957256
215	0xbe40075a	-0.18752804
216	0xbe8d37c7	-0.27581617
217	0x3de59712	0.11210455
218	0xbdf48082	-0.119385734
219	0xbe7c02e3	-0.24610476
220	0xbdf0c65d	-0.11756585
221	0xbca04a22	-0.0195666
222	0xbc89eafd	-0.016835684
223	0xbd03d4ab	-0.032185238
224	0x3e15fbf0	0.14646888
225	0xbde38fc0	-0.111114025
226	0xbdf512e6	-0.11966495
227	0xbdb55d23	-0.08855655
228	0xbe6eec9d	-0.23332448
229	0xbd2e2ef5	-0.04252525
230	0x3df42bc1	0.11922408
231	0xbd8081b9	-0.06274743
232	0xbe599408	-0.21247876
233	0x3dd4388f	0.1036235
234	0x3e45ae5e	0.19304797
235	0x3e483bc6	0.19554052
236	0x3ce678d8	0.028133795
237	0xbe325ab2	-0.1741741
238	0xbd628aa6	-0.055308007
239	0xbd804543	-0.062632106
240	0xbe1df52c	-0.15425557
241	0xbe3189ed	-0.17337771
242	0x3dd5fbef	0.10448443
243	0x3e03d740	0.1287508
244	0x3dec9710	0.115522504
245	0xbe240fbc	-0.16021627
246	0xbce5009a	-0.027954388
247	0x3d822342	0.06354381
248	0xbe844534	-0.25834048
249	0xbe29a76c	-0.16567773
250	0xbe087408	-0.13325512
251	0x3dc9a6f3	0.09846296
252	0xbe4e87e9	-0.20169033
253	0x3dc09243	0.09402897
254	0x3d9a6205	0.07538227
255	0x3e6274d5	0.2211488

lstm.bias_ih_l0 f4 [128]
0	0x3cc1f127	0.02367456
1	0x3dbcf49f	0.09226345
2	0x3e07b7d0	0.13253713
3	0x3d5ccf9f	0.05390894
4	0xbc9d87c1	-0.019229772
5	0x3e098728	0.13430464
6	0xb79300c8	-1.752413e-05
7	0xbde6339f	-0.11240315
8	0x3da83319	0.08212871
9	0x3e290851	0.16507079
10	0xbe03831a	-0.1284298
11	0xbd284401	-0.04108048
12	0xbd9f7a95	-0.077870525
13	0x3e221585	0.15828522
14	0x3e587acc	0.21140593
15	0x3de45fe0	0.11151099
16	0x3dc01302	0.093786255
17	0x3e7d24d1	0.24721076
18	0xbc048072	-0.008087264
19	0xbd1d2bbb	-0.038371783
20	0xbda17833	-0.07884254
21	0x3d1efd6b	0.038815897
22	0x3dfda6fd	0.12385366
23	0x3e26958e	0.16267988
24	0x3db2bf3c	0.08727881
25	0x3b729eaa	0.003702084
26	0x3daa9c14	0.08330551
27	0x3e1da734	0.15395814
28	0xbcd56375	-0.026048401
29	0x3e3a5681	0.18197061
30	0xbcfc4a1a	-0.030797053
31	0x3ceb8e62	0.028754417
32	0x3d0093a0	0.031390786
33	0x3e3743a0	0.1789689
34	0x3db8e142	0.090273395
35	0x3d88c68b	0.06678494
36	0x3b5e49aa	0.003391842
37	0xbe00e4ae	-0.12587234
38	0x3d5fa353	0.054599117
39	0x3e495f40	0.19665241
40	0x3cea91cd	0.028633976
41	0xbcbf7248	-0.023369923
42	0x3e3e04b5	0.18556483
43	0x3e662a04	0.22476965
44	0xbd84d11e	-0.064851984
45	0xbc4bb100	-0.012432337
46	0xbc1e38d0	-0.0096571
47	0x3dd46ee0	0.1037271
48	0x3e51568f	0.20443176
49	0x3e35eb5e	0.17765567
50	0x3ceb04fc	0.0286889
51	0x3e0cfcc1	0.13768293
52	0x3dd06399	0.10175247
53	0xbddd536f	-0.10806929
54	0x3ca7af60	0.020469368
55	0x3de60722	0.11231829
56	0x3e1c1206	0.1524125
57	0x3e46920d	0.19391651
58	0xbd5c5c12	-0.053798743
59	0x3c79e89f	0.015253215
60	0x3d2d9784	0.042380825
61	0x3e28adf6	0.16472611
62	0xbdd0e00b	-0.10198983
63	0x3df0ece7	0.117639355
64	0xbdfb7161	-0.12277485
65	0xbda7250a	-0.081613615
66	0x3dc0c388	0.094122946
67	0xbdafd756	-0.08585994
68	0xbe15a73a	-0.14614573
69	0x3d8daf0b	0.069181524
70	0xbd8a129d	-0.067418315
71	0x3dc3669d	0.09541056
72	0xbe2b4ef2	-0.16729334
73	0xbc373b0b	-0.011183511
74	0x3c6acb21	0.014330656
75	0x3b7fb31e	0.0039016674
76	0xbc049e27	-0.008094347
77	0x3d9ac459	0.075569816
78	0xbdcb2580	-0.09919262
79	0xbc8dde6a	-0.01731797
80	0x3df90009	0.1215821
81	0x3c43a8e5	0.011942123
82	0xbdf70efc	-0.12063405
83	0xbd6a380f	-0.057182368
84	0xbcda24d3	-0.026628887
85	0xbcf3ffc0	-0.029785037
86	0x3c0908b0	0.008363888
87	0xbce9224f	-0.028458742
88	0xbdd3b3ff	-0.10337066
89	0x3de3244e	0.11090909
90	0xbe0fe437	-0.14051901
91	0x3cc0ec2c	0.023550116
92	0xbdb0d11d	-0.08633635
93	0xbca65cc7	-0.020307912
94	0xbd53fafa	-0.05175302
95	0x3d6aa465	0.057285685
96	0x3e7e4c39	0.24833764
97	0x3e2d7d07	0.16942225
98	0x3e13ad98	0.1442169
99	0xbdbeac21	-0.09310175
100	0x3d3c836c	0.04602377
101	0x3d1d7b44	0.038447633
102	0xbda3ae19	-0.07992191
103	0x3e58a596	0.21156916
104	0x3dde15c4	0.10843995
105	0x3e80ac2d	0.2513136
106	0xbcf9394e	-0.030422833
107	0x3e00614f	0.1253712
108	0x3d4a829a	0.049440958
109	0x3e2bef9e	0.16790625
110	0x3b425c81	0.0029657187
111	0x3d216a7c	0.039408192
112	0x3e0b79a5	0.13620622
113	0x3df30e58	0.1186797
114	0x3dfeb5e9	0.1243704
115	0x3d5f2ce2	0.054486163
116	0xbd146d85	-0.03623726
117	0xbcf23f40	-0.029571176
118	0xbd890a36	-0.06691401
119	0xbd801e45	-0.062557735
120	0x3da9d0ab	0.082917534
121	0x3dbb7105	0.09152416
122	0x3e321ab7	0.17393003
123	0xbd11c726	-0.035590313
124	0x3e8a4446	0.27005213
125	0xbd53c5eb	-0.05170242
126	0x3c5f27c1	0.013620318
127	0xbc966c42	-0.018362168

lstm.bias_hh_l0 f4 [128]
0	0xbd17eb6d	-0.037089754
1	0x3d5856cb	0.052817147
2	0x3e8834b2	0.26602703
3	0x3dcc6915	0.0998098
4	0x3dde28b0	0.10847604
5	0xbdcb9ed0	-0.099424005
6	0x3e271864	0.16317898
7	0x3e3cf57c	0.1845302
8	0xbddb4774	-0.10706988
9	0xbc3d332c	-0.011547845
10	0xbe0c7266	-0.13715515
11	0xbdb41339	-0.08792729
12	0x3de6b211	0.11264432
13	0xbd093154	-0.03349431
14	0xbd96d14f	-0.07364141
15	0x3d884bb2	0.06655063
16	0x3e4e866a	0.20168462
17	0xbce8ae73	-0.028403496
18	0x3e5be4f7	0.21474062
19	0xbdbe3f8f	-0.092894666
20	0x3df3a675	0.118969835
21	0x3e3c87f5	0.18411238
22	0xbd6eafba	-0.058273055
23	0x3e7c59f4	0.2464369
24	0x3e5a5c62	0.21324304
25	0xbe19a258	-0.15003335
26	0x3c3bda0d	0.011465562
27	0x3e46268e	0.19350645
28	0x3bd52871	0.006505065
29	0xbda0c10b	-0.0784932
30	0x3c035558	0.008015953
31	0x3dd2f137	0.10299914
32	0xbd877a26	-0.06615095
33	0x3e2775ce	0.16353533
34	0x3da7b721	0.08189226
35	0xbde1c0a0	-0.110230684
36	0x3dcf4cc7	0.10122066
37	0xbe46dac1	-0.19419385
38	0x3c9c4b99	0.019079017
39	0x3e0a32cf	0.13495944
40	0xbe069ba0	-0.13145304
41	0x3d1e9ede	0.038725726
42	0x3db1d8eb	0.08683952
43	0x3e31aa22	0.17350057
44	0xbe7b3a7a	-0.24534026
45	0x3c27eb9d	0.010249046
46	0x3dc932ee	0.09824167
47	0x3d39472f	0.0452339
48	0xbda244a3	-0.07923248
49	0x3e1c147a	0.15242186
50	0x3e33a411	0.17543055
51	0xbd4315e4	-0.0476283
52	0xbe0aa228	-0.1353842
53	0xbe12a6a1	-0.14321376
54	0x3cd9dabc	0.026593558
55	0xbdcce5fc	-0.100048035
56	0x3e60093d	0.21878524
57	0xbd522d79	-0.051312897
58	0x3e5d8759	0.21633662
59	0x3de9f97c	0.114245385
60	0x3d664a08	0.056222945
61	0x3e6d829c	0.23194355
62	0xbc10b304	-0.008831743
63	0xbd8d64dd	-0.06904004
64	0xbd1c8d74	-0.038220838
65	0xbdbac9bc	-0.09120509
66	0xbde57a1a	-0.1120493
67	0x3e023bf2	0.1271818
68	0x3c0deec0	0.0086628795
69	0xbe28c6b0	-0.16482043
70	0xbc85504d	-0.016273642
71	0x3e35cd6a	0.1775414
72	0xbe339f8e	-0.17541334
73	0x3de7da17	0.11320894
74	0x3da6e167	0.08148461
75	0xbdf67f49	-0.120359965
76	0xbe1374b9	-0.14399995
77	0xbddd851b	-0.108164035
78	0x3e448ef5	0.19195159
79	0x3dcb87f7	0.099380426
80	0xbdc3ff1d	-0.09570143
81	0xbdd394fe	-0.103311524
82	0x3d3980f9	0.045289014
83	0x3e3c6488	0.18397725
84	0x3cfe3832	0.031032655
85	0xbe2b0558	-0.16701257
86	0xbe0757e6	-0.13217124
87	0xbc3b313b	-0.011425312
88	0x3dacb923	0.084337495
89	0xbe3df618	-0.18550909
90	0xbe0e5121	-0.13898136
91	0xbe1362a4	-0.14393097
92	0x3e1a8a2e	0.15091774
93	0x3e0c3c9b	0.13694994
94	0xbe0114f1	-0.12605645
95	0x3e00d942	0.12582877
96	0x3e262f0d	0.16228886
97	0xbd7e587b	-0.0620961
98	0x3c354450	0.01106365
99	0xbd8ecc29	-0.06972534
100	0x3d1aa1e6	0.037752055
101	0x3c4e977c	0.012609359
102	0x3d931b48	0.07182938
103	0x3da2520a	0.07925804
104	0x3e0b2f61	0.13592292
105	0xbc6d1707	-0.014470822
106	0x3d49c372	0.049258657
107	0x3de267a4	0.11054924
108	0xbe14ba0e	-0.14524099
109	0x3e04f3c5	0.12983616
110	0xbd652af1	-0.055949155
111	0x3e24da68	0.1609894
112	0xbd445250	-0.04793006
113	0x3e10f661	0.14156486
114	0x3e455251	0.19269682
115	0xbd89a633	-0.06721153
116	0x3ddef0b8	0.10885757
117	0xbd00e2d9	-0.03146634
118	0x3e59e7d2	0.21279839
119	0x3e00dee2	0.12585023
120	0x3d9741d9	0.07385606
121	0x3e53e949	0.2069446
122	0xbb12650f	-0.0022338068
123	0xbcc418d7	-0.023937626
124	0xbca999b4	-0.020703174
125	0xbd68ba68	-0.056818396
126	0xbad0fc6c	-0.0015944368
127	0x3e2bb520	0.16768312

fc.weight f4 [1, 32]
0	0x3e109378	0.14118755
1	0xbe1c0b6a	-0.15238729
2	0x3dc74462	0.0972984
3	0x3db1b8c0	0.086778164
4	0x3e4c538c	0.19953746
5	0xbe009482	-0.12556651
6	0xbdf94fcf	-0.121734254
7	0x3c5b6df0	0.01339291
8	0xbe3b6649	-0.18300737
9	0xbe794ba3	-0.2434526
10	0x3e056f0e	0.13030645
11	0x3e1e818d	0.15479107
12	0x3e5b938e	0.21443006
13	0x3de9b3e3	0.11411264
14	0x3e152251	0.14563872
15	0xbe1c01a4	-0.15235001
16	0xbe617334	-0.22016603
17	0x3e6ad131	0.22931363
18	0x3e5432d4	0.20722514
19	0x3d888410	0.06665814
20	0xbe019652	-0.12654999
21	0xbd09e4be	-0.03366541
22	0xbe3b310f	-0.18280433
23	0x3e0bf09d	0.13666005
24	0xbe06afce	-0.13153002
25	0xbd9ee1b2	-0.07757892
26	0x3c66039f	0.014038949
27	0x3e238625	0.15969141
28	0xbe4e1441	-0.20124914
29	0x3e806124	0.25074112
30	0xbe13351b	-0.14375727
31	0x3e387f2c	0.18017262
