fut_opt_lih_features_prepare/bm_fut_lih_02.pth (torch, 25158 bytes, 6 tensors)

embedding.weight f4 [19, 8]
00000000: 65c2 a8bf 7aac 593f c69b 29bf 4269 3dbe
00000010: bb00 b1be 6a4f 893f 8010 1640 0eae ae3d
00000020: 2862 0d3f 8eda 8dbe f8d4 b13e 8dd4 803f
00000030: e5c2 c13e 5b53 853f 2814 803e e276 1ac0
00000040: ef69 713f 2e60 1e3f 4ab2 813d 4665 d33e
00000050: a3d4 fabe b43d e93f 786b 33be b6ef 8b3e
00000060: c0b3 02bf 99ab acbf 8f2f 78bf 5737 2e40
00000070: af33 cabf 34ff 49bf d02f 0540 dd4a 64be
00000080: 8601 6b3d 4025 d73e d04e 9f3f acd0 363f
00000090: 4cdc 92bf 4c81 ccbe 6e69 a0bf c7ad 203f
000000a0: 8b5b 31bf 9eaf bf3e a210 dc3e 3704 4dbe
000000b0: a09b b33f b199 f8be 8607 f23e 27ec e1be
000000c0: f229 47bf a200 f83f b8cd afbf bccb bf3e
000000d0: b560 a93e 725e 3bbf 004e 4cbf a257 22bf
000000e0: ffd7 22bf 6016 0b3f 580c 00be 3ffa e0bf
000000f0: d635 d43f 316a d43f 055c c63e 7baf ecbf
00000100: 5877 fe3e 1019 00bf a573 403f 43a5 eebf
00000110: ed89 94bd 3b98 4abe d89d 6a3f 7a6d 93bf
00000120: bd81 7dbf 0b90 d53d f337 0d3f 37e8 0540
00000130: 36f6 dc3e 0ab1 f03d 55a4 6abe 9996 49be
00000140: bf0a 253f 6b8b 5abf 0499 23c0 d57a 043f
00000150: b306 c1bd bac1 773d 0592 2bbf 7858 963e
00000160: e698 2b3c 5532 92bf ba61 1ebf 49c8 08bf
00000170: 4ff4 213f 8dbf 68bf 7517 d53e 2181 35be
00000180: be4e 0cc0 1e3f 9a3f 56b0 a1be 1167 46bf
00000190: 58cd 3abf febc 0c3e 3976 80bf 8d82 3bc0
000001a0: d77c 0bc0 0f53 20c0 7afd 2b3f 9a5e 35c0
000001b0: 32a0 973e 421f 55bf dda8 afbf 9f82 3b3f
000001c0: a7dc 21bf 5506 c5bf cfaa 0ac0 0bde d8be
000001d0: 16c6 96be 338f 9f3f 1111 213e 760d b7bf
000001e0: c97b 973f 55fb f9bf dee9 1abd 94b4 92be
000001f0: c0fe 84be 1ede 8bbf 3b6c 083f eb40 4bbf
00000200: 60b7 d8be c572 003d d7b4 013f 7ce4 c13f
00000210: 8fda e83f b08b 9c3e 589d 0dbe 5243 c73f
00000220: a807 5ebf b9f3 d4bf d69b ee3f 6d65 69bf
00000230: e8be 693d 1ce1 03bf 9e6c 9fbe acdb ab3e
00000240: 6217 ea3d e840 403f 3745 07bf 4d02 293f
00000250: 0ff5 fb3d 0423 5d3e 973a 653f 9f97 863e
-1.3184325 0.85028803 -0.66253316 -0.18497184 -0.3457087 1.072736 2.344757 0.08529292
0.552279 -0.27705806 0.34732795 1.0064865 0.37844005 1.0416063 0.25015378 -2.413506
0.94302267 0.6186551 0.06332834 0.41288203 -0.48990354 1.8221955 -0.17521465 0.27331322
-0.51055527 -1.3489867 -0.9694757 2.7221277 -1.5797023 -0.78905034 2.0810432 -0.22294183
0.0573745 0.42020607 1.2445927 0.7141216 -1.1473479 -0.39942396 -1.2532175 0.62765163
-0.6928031 0.37438673 0.4298144 -0.20021139 1.4031868 -0.48554757 0.47271365 -0.44125482
-0.7779838 1.9375193 -1.3734655 0.37460124 0.33081594 -0.7319099 -0.7980652 -0.6341497
-0.63610834 0.54331017 -0.12504709 -1.7576369 1.657893 1.6594907 0.3874208 -1.8491052
0.49700427 -0.5003824 0.7517646 -1.8644184 -0.0725287 -0.19784634 0.916471 -1.1517785
-0.9902609 0.10427865 0.55163497 2.0922983 0.43156594 0.117525175 -0.2291425 -0.19686355
0.6446952 -0.85368985 -2.5562143 0.51749927 -0.09425106 0.060487486 -0.67019683 0.2936437
0.010473466 -1.142161 -0.6186787 -0.5343061 0.6326341 -0.90917283 0.4161946 -0.1772504
-2.192306 1.2050512 -0.31579846 -0.77501017 -0.7296958 0.1374397 -1.0036079 -2.9298432
-2.1794946 -2.5050695 0.6718365 -2.833899 0.29614407 -0.8325082 -1.3723408 0.73246187
-0.63227314 -1.5392557 -2.1666753 -0.42356905 -0.29448003 1.2465576 0.15729167 -1.4300983
1.1834651 -1.9529825 -0.03782069 -0.28653395 -0.2597561 -1.092716 0.53290147 -0.7939593
-0.42327404 0.031359453 0.50666565 1.5147853 1.8191699 0.30575323 -0.13829553 1.556742
-0.8673043 -1.6636878 1.8641307 -0.9117039 0.057066828 -0.51515365 -0.31137556 0.33566034
0.11430241 0.7509904 -0.5283999 0.66019136 0.123026006 0.21595389 0.89542526 0.26287553

lstm.weight_ih_l0 f4 [128, 8]
00000000: 7f86 46be 7f8c c93d 47ef d13d 3514 5e3e
00000010: 8751 c7be 0024 ffbe 47c3 05bf bfc3 893e
00000020: f84f eb3e 51fb 88be 5066 a83d 4011 cb3e
00000030: bc98 7abe 5665 8abe eaff 0a3e 5837 4a3e
00000040: c303 7abe e010 893e 20da 30be f5d1 2f3d
00000050: b33e 80be bd86 f1bd cd24 663e 7cc8 223e
00000060: 4656 ad3e 9fb5 a6bd b135 ca3d 372c ef3c
00000070: 6529 833e 685e 983e 7ab7 f9bd 09fe 013e
00000080: 6687 8d3e a2ea 12be 01fe a8bd 6342 793e
00000090: a27a 9a3d 12a1 51bc 73ae b7bd 3a52 20be
000000a0: 19ff 303e 45a6 dd3d 027a d5bd 5760 7d3c
000000b0: a6b8 57bc 73f5 a13e 53f5 653e 7cf7 7cbe
000000c0: fe34 53be d4e4 c0be 6e56 7fbe 7d03 91be
000000d0: 50bd 603d a5fd ad3d 9ee2 ac3e 2a3f b7be
000000e0: 226c b63d 4e37 613e eb88 fc3c 993f 083d
000000f0: 543d f73d 1579 6f3e 12b9 093e 841e 2ebf
00000100: 785a 97bb 7848 41be 6f5a d13d 8182 b9bc
00000110: a6b7 81be 3301 fbbe 3fad d33e 0e3b 25be
00000120: d6ac 0ebd 2582 98bd 6145 013e da48 aabe
00000130: 5e09 9b3d 6ecc 833d 1c6a 88be 747e f4be
00000140: cc84 c73e c8ca f63c e954 febd d3f4 463e
00000150: 85a6 8abe fbca 9b3e 5e91 5dbd 9e5a f13d
00000160: 19a4 c9bb 115f 0b3b e8e1 8c3d d2da b13e
00000170: e5fc 6b3d e643 753d 5d62 ed3e 7d91 2f3e
00000180: c6f9 f53c 5133 443e 86eb a93e 0751 183e
00000190: 0649 a63e fbf5 eb3e d09e bbbe 5e09 fe3d
000001a0: ca31 4d3e b398 c33d 6f9b 2f3e 82ea b93e
000001b0: 3e32 b2be 1eab 9f3e 879c 723d fa33 ac3d
000001c0: 1e36 73be 733c b8be 6f70 0abe f4f5 abbd
000001d0: 1a1b 21be 4ab2 b5bd 6f87 73be 7b08 143d
000001e0: 9da5 91bd 883d 61be 18aa cfbb ff13 cdbe
000001f0: bf5a d93e d614 6c3e 835c 113e 6168 19be
00000200: feeb 973e eae6 cabe 06ea c83e bb51 bbbe
00000210: de74 103d 5d3d 10be f46e 713c 0398 e13d
00000220: 00c8 9e3d 9862 b1bd 9039 323d 47cc 123e
00000230: 6711 e1be c336 783e eebd e4bd 6449 21bd
00000240: 57e7 0bbd 45aa 99be 42da 943e 7192 123e
00000250: cc57 143e 2f14 4a3c b39c f2be fab6 943e
00000260: f3c1 43be 2fbe 44bd b9ca a4bc 5b60 fd3e
00000270: 4280 a3be 2c20 48be ae33 063f c10a f43d
00000280: 0f86 273d 0ce4 a3bd b036 173b 29c2 ce3d
00000290: 2dd7 87be 683c 093e 16eb b1be 4a5c 853d
000002a0: 342a 84be dc28 14be 7214 923e 6402 cdbd
000002b0: 251c c33e 38e1 c5be 58b5 10be d30a 5b3d
000002c0: 531b 4e3e 8eb7 0fbf 7305 643e 2983 a83d
000002d0: 16cc 3cbc 9674 eb3d a4d6 4e3e 5112 d93d
000002e0: e4fd b4be 85ba 8cbe c805 c8bd 824b 09be
000002f0: 773a 7c3e 34ef b93c c0bf 993d 95f1 16bf
00000300: b29d c3be 5550 9ebe 8892 d7bd 9508 d73e
00000310: 07e2 34bd 1b0c 7fbe af89 7fbd 8ae1 d9bd
00000320: 1350 34bf 8e7f 213e c563 a5be fea7 9d3e
00000330: 70a1 cd3d 668e b83d 71f3 4b3e 3a0d e6bd
00000340: 292e b03e 4e20 dcbd d9bb b2be 5766 893e
00000350: 6412 9dbe 8b04 2f3e 37bb 09bf 7784 1abe
00000360: 7cce 14bf d708 9e3d 8ab8 04bf a035 f3be
00000370: de9a e1be bcf5 b23d ba41 83be f249 3b3c
00000380: a20d b7bb 1f55 3fbe afd1 a73d f160 6abe
00000390: 1388 edbd 3526 63be 5ec5 24be 381e 0ebe
000003a0: e4d7 b7be ed2a 3fbf 10aa 343c 99aa b0be
000003b0: 1a12 2b3d ad0d 04be 5f29 f03d 42d1 ab3e
000003c0: f29a 993d fb6c c23e 6e3e 24bd 939c 7a3e
000003d0: 6363 443d 600b 01be 9c4a 233e b515 97be
000003e0: a581 58be 7fb7 08be bac7 81bd 2d69 983d
000003f0: d7c1 553e f06c 15be a14f 9cbe b828 833e
-0.19387244 0.09841251 0.10250717 0.21687396 -0.38929388 -0.49832153 -0.52251095 0.26907155
0.4595945 -0.2675424 0.082226396 0.39661598 -0.24472326 -0.27030438 0.13574186 0.19747674
-0.24415497 0.26770687 -0.17270708 0.04292484 -0.25047836 -0.117932774 0.22474976 0.15896791
0.33854884 -0.0814011 0.09873522 0.029195888 0.2561752 0.29759526 -0.121931985 0.12694563
0.27642363 -0.14347318 -0.082515724 0.24341731 0.075429216 -0.01279475 -0.089688204 -0.15656367
0.17284812 0.10822729 -0.10423662 0.015464864 -0.013166582 0.31632575 0.22456865 -0.24703783
-0.20625684 -0.37674582 -0.24935314 -0.28322974 0.054868042 0.084956445 0.33766645 -0.35790378
0.089073434 0.21993753 0.030827006 0.033263776 0.12072244 0.23386033 0.13449505 -0.68015313
-0.004618939 -0.18875301 0.10222327 -0.022645237 -0.25335425 -0.49024352 0.41343114 -0.16135809
-0.034832798 -0.07446698 0.12624122 -0.33258706 0.07570146 0.06435476 -0.26643455 -0.47752726
0.38968503 0.03012599 -0.12418539 0.1942933 -0.2708017 0.304283 -0.05409371 0.11784862
-0.006153595 0.002126638 0.06879026 0.3473726 0.057614226 0.059879206 0.46364108 0.17145343
0.030026328 0.191602 0.33187503 0.1487466 0.32477587 0.46086106 -0.36644602 0.124041304
0.20038524 0.095506094 0.17149137 0.36311728 -0.34803957 0.3118524 0.059231307 0.08408351
-0.23751113 -0.3598362 -0.13519453 -0.08396521 -0.15732995 -0.088718966 -0.23782133 0.0361409
-0.07111666 -0.21996129 -0.0063374154 -0.40054318 0.42452046 0.23054823 0.14195447 -0.14981224
0.29672235 -0.39629298 0.39241046 -0.36585793 0.035267703 -0.14085908 0.014735926 0.11015322
0.07752991 -0.086613834 0.043511927 0.14335738 -0.4395859 0.2423964 -0.11169039 -0.03937663
-0.03415617 -0.30012718 0.29072767 0.14313675 0.14486617 0.012333914 -0.47385177 0.2904585
-0.19116955 -0.048032936 -0.020116197 0.49487576 -0.3193379 -0.19543523 0.52422607 0.11916114
0.040899333 -0.08002481 0.0023073368 0.10095627 -0.26531354 0.1340195 -0.3474967 0.06511743
-0.25813448 -0.14468712 0.28531224 -0.100102216 0.3810741 -0.3864839 -0.14131677 0.05347712
0.20127611 -0.5613946 0.22267704 0.08228142 -0.011523267 0.114968464 0.20199066 0.10599197
-0.35349953 -0.27486053 -0.09766728 -0.1340771 0.24631678 0.022697069 0.075072765 -0.58962375
-0.3820625 -0.30920663 -0.105259955 0.41998735 -0.04416087 -0.24906962 -0.062387165 -0.10638721
-0.70434684 0.15771315 -0.3230268 0.3079223 0.100405574 0.09011535 0.19917084 -0.112329915
0.34410217 -0.10748349 -0.3490894 0.26835892 -0.30678093 0.17091577 -0.5380129 -0.15089594
-0.5812757 0.0771653 -0.51844084 -0.4750185 -0.44063467 0.08738276 -0.25636083 0.011431204
-0.005586342 -0.18684815 0.08194291 -0.22888543 -0.1159822 -0.22182544 -0.16090915 -0.13878715
-0.359069 -0.74674875 0.011026874 -0.34505156 0.04176531 -0.12895842 0.11726641 0.3355809
0.075002566 0.3797377 -0.0400986 0.24473791 0.047946345 -0.12601995 0.1594643 -0.2950875
-0.21143205 -0.13351248 -0.06336923 0.07441936 0.20874725 -0.14592338 -0.30529502 0.25617003

lstm.weight_hh_l0 f4 [128, 32]
00000000: ca41 843e b32c 983e f337 713d dad0 1d3e
00000010: c8b3 30be 5cb7 8ebe 4d0b aebe cb16 7bbe
00000020: 7e63 36be cd40 9f3e 430b 53bc 27cb 98bf
00000030: fef3 1bbf 2912 29bf 71ac 3a3f cee7 a03e
00000040: 30c8 c0be e89c 0cbf 6283 bc3d 7bd3 8ebe
00000050: 4b38 ef3c dc64 2b3f f593 25bf 6bec 5a3e
00000060: 52f9 313e 2631 07bf f301 56be 0fa5 3e3e
00000070: 7e8f f2bb ed66 c53e 6439 463e 8bc5 183f
00000080: 223e babd e1d0 033e 2197 61be 6b50 cb3d
00000090: 63b1 c13d 6a58 58be d8a2 72be d4b9 22be
000000a0: d70d 813e b711 033e 7f3f 753e c54d 22bf
000000b0: bc70 b7be 9f69 7ebe acf1 153e 2e8a d1be
000000c0: 25c8 853e 63e5 a83e 5b6c 00bd 2898 f43e
000000d0: 7142 98be 7108 a13e d300 0bbe 05a3 843d
000000e0: a18a 0c3f 22f9 00bf 5cec a83b 3e2e a13e
000000f0: 41b8 073f a6ba 04bf e494 c23e 77c7 2f3e
00000100: 5c31 d03b 5642 2f3e f406 08bf c4ce aa3d
00000110: 75e4 303e 5f99 d0be 6cb9 9f3e d2b2 eabe
00000120: e4c5 d9be 2d84 3fbe cbeb 993e 33a5 5abe
00000130: ad05 78be 9d96 d1be bcd2 95bd e66b 0ebe
00000140: 3cc2 f63c a206 a23d d7b4 94bd dd4b c0be
00000150: f018 58bd 3585 283f 9db8 b9be 1905 42be
00000160: 1827 6e3e 20eb a03e be26 63be 397c 993e
00000170: 96f2 dc3d c929 17be b4fa 12bc fcfc 343e
00000180: 7a43 1ebf cd89 5b3d ad4f df3d f1d8 19bf
00000190: c0e8 083f 346b 093e 3cfc f8bc 3d27 35bd
000001a0: 0369 cc3e b4bb bcbe afbf c83e fb43 073e
000001b0: 60c0 5f3d cfc2 5abe 11cf 83be 2872 183e
000001c0: fddb ea3e 5446 63bc 5201 3cbf f302 883e
000001d0: cc8b c7bb 5089 003f f71d c23e b454 a6be
000001e0: 8561 8a3e 6b33 d53e 865a b23e 872d 973e
000001f0: bdc1 08bf 0f64 adbe cf0c 2c3f cb32 adbb
00000200: 0df7 22bf 3755 59bd 7dfa 193e effc a7bd
00000210: f3a2 a03e a5c6 2a3e 365a 4e3e 5cff bb3e
00000220: a147 7e3e f963 f0be d47e 573f b67e 9cbe
00000230: 675d 8b3e 7350 b63d 494f 423e 3644 25be
00000240: 9234 d83e 0342 553e 105b 38bf b076 b5bd
00000250: 65ff ec3c 577a 9b3e 26a8 b7be 4b34 11be
00000260: aaff 183e 93e7 a2be 9839 073e 3e91 253e
00000270: 44d3 d5be b568 06bf 6e75 0f3f 6da6 273e
00000280: b69a 22be 1794 2f3e 652a f1be 6f9c 083f
00000290: 3a9c ccbd d3b7 2b3f 0cb2 2fbd 4e7e 983d
000002a0: 037d 37be d02b db3e d816 313e b462 95be
000002b0: ed47 84bd 2afa 4bbe f26d 3cbe 06de 17bf
000002c0: 40e2 7bbe 1e2f 1cbe 3975 c73c a9c6 963d
000002d0: 3222 91be a92d 05be 9166 34bf bf1c 0f3d
000002e0: b6a7 373e 2dee 8bbb c2df 2cbe ff90 63bd
000002f0: c9ab 133f a95b a1be afb4 cc3e 3f36 ff3d
00000300: 690a 983d cfb6 cabe c329 f5be 1632 fbbc
00000310: c31c 273e fe41 98be bb3d 22bf e692 04bf
00000320: 9e14 983d 6756 bcbd 6845 68be c442 37be
00000330: e442 00be 1f6c 893e da65 a4bd f7ef 3cbf
00000340: 104f 863e ca2b b23e e9dd b0be 2591 953e
00000350: 142a b0be 99f4 dcbe 8b89 063e 909d be3e
00000360: 12b5 9cbe 27e8 75be 6835 7c3e a9b4 00be
00000370: fc44 dc3e 6d6c 4fbf d13b 873e c7b5 53be
00000380: 8d32 823e 7262 cdbe e9de 433c 0fe7 e8bd
00000390: 6fb8 34be 63b6 683e a385 d83d 72a5 22bf
000003a0: 26b5 02bf 888f 313f 07ce afbc ba10 703f
000003b0: e2c4 323e dca4 7bbf 320b dabe ead9 81bf
000003c0: e91c 34bb 6c1f 4f3f 7f94 473e 81d9 08bf
000003d0: 3ed5 a7be 28ec 063f 2c45 c6be 5259 cbbe
000003e0: 7eb1 ca3d db13 a03d 2e15 41bf 8fc7 cc3e
000003f0: 36cd b33e 67e4 5fbf ed71 083e f3a2 85bf
0.25831443 0.29721603 0.058891248 0.15411702 -0.17256081 -0.27874267 -0.33992997 -0.24520414
-0.17811391 0.31104127 -0.012881103 -1.1936997 -0.6091918 -0.66043335 0.72919375 0.31426853
-0.3765273 -0.5492692 0.09204747 -0.27895722 0.029201647 0.66950774 -0.6467889 0.21379249
0.17380264 -0.5280937 -0.20899181 0.18617652 -0.0074023595 0.3855509 0.1935783 0.59676427
-0.09093882 0.1287265 -0.22030307 0.09927448 0.09457662 -0.21127477 -0.23694932 -0.158912
0.2520587 0.12799726 0.23950003 -0.63399917 -0.35828197 -0.24844979 0.14642972 -0.40925735
0.2612926 0.32987508 -0.031353336 0.47772336 -0.2973819 0.31451753 -0.13574533 0.06476406
0.5489903 -0.50380147 0.0051551294 0.31480592 0.53015524 -0.518473 0.3800422 0.17165934
0.0063535403 0.17115149 -0.5313561 0.08340219 0.1727465 -0.40742013 0.31196153 -0.45839554
-0.4253379 -0.18702765 0.30062708 -0.21352081 -0.24220915 -0.4093522 -0.07315585 -0.13908347
0.030121915 0.07911421 -0.07261055 -0.3755788 -0.052758157 0.6582826 -0.3627366 -0.18947257
0.232571 0.31429386 -0.22182748 0.29977587 0.10788457 -0.14762034 -0.008970905 0.17674631
-0.6182171 0.053598214 0.10903869 -0.6009665 0.5348015 0.13419801 -0.030393712 -0.044226874
0.39923868 -0.36861956 0.39208743 0.13209526 0.054626822 -0.21363376 -0.25743917 0.14887297
0.45870963 -0.013871748 -0.73439515 0.2656475 -0.006089663 0.5020952 0.37913486 -0.32486498
0.27027526 0.4164079 0.3483469 0.29526922 -0.5342062 -0.338654 0.67207044 -0.005285596
-0.6365822 -0.053059783 0.1503696 -0.0820254 0.3137432 0.1667734 0.201516 0.3671826
0.24832012 -0.46951273 0.841779 -0.30565423 0.27219698 0.08902063 0.18975557 -0.16139302
0.42227608 0.20825963 -0.7201395 -0.088605285 0.028930375 0.30366775 -0.35870475 -0.14180104
0.14941278 -0.31817302 0.13205564 0.16168687 -0.41762745 -0.5250352 0.5603856 0.1637208
-0.1587933 0.17146336 -0.47102657 0.533637 -0.09990735 0.6707737 -0.042894408 0.07445966
-0.17918782 0.42806864 0.1729387 -0.29176867 -0.06459031 -0.19919649 -0.18401316 -0.59323156
-0.24598026 -0.15252349 0.024347888 0.0736211 -0.283464 -0.13005699 -0.70469004 0.034939524
0.1793507 -0.004270336 -0.16882232 -0.0555582 0.57684 -0.31515244 0.399816 0.124615185
0.074238606 -0.39592597 -0.47883424 -0.030663531 0.16319565 -0.29737848 -0.63375443 -0.5178665
0.074258074 -0.091961674 -0.22682726 -0.17896563 -0.12525517 0.26840302 -0.08027239 -0.7380366
0.26232195 0.34799033 -0.34544304 0.292123 -0.34407103 -0.43155363 0.13138406 0.37229586
-0.30606896 -0.2401434 0.24629748 -0.12568916 0.4302138 -0.8102482 0.26412824 -0.20674811
0.25429192 -0.4011417 0.011955001 -0.11372196 -0.17648481 0.22725825 0.10572364 -0.635337
-0.5105766 0.69359636 -0.021460546 0.9377552 0.17457917 -0.9829843 -0.42586666 -1.0144627
-0.0027483052 0.8090732 0.1949024 -0.53456885 -0.32779878 0.52704096 -0.3872465 -0.39716583
0.09897135 0.07816287 -0.7542294 0.39996 0.351175 -0.8745789 0.13324709 -1.0440353

lstm.bias_ih_l0 f4 [128]
00000000: 95b3 833e 6d69 bb3e 3a11 383e c2b5 883e
00000010: ecc3 5e3e 78d7 8f3e 5c9a 063f d936 f23e
00000020: 03e4 6a3d b5e1 da3e 68ec 573e 5392 df3e
00000030: 8624 a43e e972 953e fe65 083f 213a ea3e
00000040: 9b62 7d3e 5fc2 a23e 186c cb3e 9736 223e
00000050: b3f0 aa3d 1a02 413f 50c9 df3e f078 f13e
00000060: c05f fd3e 4892 d23e 9020 843d b3df d23e
00000070: 8db0 a63e 6243 a43e f44e 0c3f 1053 703e
00000080: 02d7 813e 29ac 3a3e 89de 1d3e 1b2a 9f3e
00000090: e35b d53d 9c3c 393e 0599 183e ed8e 4c3e
000000a0: ac63 e8bd 716c 78bd 3cc5 963e b6b7 5dbc
000000b0: 8dbf e33d 7b0a 093d 1a3e cb3d 9836 1b3e
000000c0: eb79 d1bd ec63 993d a8f1 d13d 2bc9 483d
000000d0: e441 3a3e ff12 643b 62fd 5d3d 512c 403e
000000e0: 1a03 5c3e 52e0 a2bc f238 ec3d 8485 c33e
000000f0: 100c b23d 9dfb 813e b9e8 6d3e fb94 ca3e
00000100: c53a 653d 7581 e6bd fb56 6c3d 164a e7bd
00000110: c49f bcbd 9796 1f3c 7ad8 623c 6336 3fbd
00000120: 6f61 3abd b948 fe3d 49b3 673e d49f 47be
00000130: f15d aabc 6dc3 a6bd d768 2a3e 40df f4bd
00000140: f252 9b3d bdc4 9bbd aa14 a1be d4b8 503e
00000150: 24ea 5ebd 67ca ecbb 37e3 17be 344e 5fba
00000160: 8ad7 1dbe 78bd 18be 6053 30be bebc 99bd
00000170: d3e7 05be 0391 183d 994e 203e 3921 0d3e
00000180: 23d0 1a3e f9cd aa3e b691 623e 70e6 663e
00000190: 1250 ed3e 80e7 d13d a782 1b3f f4fe c13e
000001a0: a866 6f3e 4dd2 fb3e f1e2 f53e 6373 e23e
000001b0: 98a7 133e d094 8f3e 935d 113f 778f 043f
000001c0: 2f08 ce3e 351e 8b3e 079d 233e c945 fc3e
000001d0: a810 f53e 00bd c53e e1bf ad3e 3b5c ad3e
000001e0: fa9e 003f 3ad8 933e 53a9 603e 9cc3 183f
000001f0: d2e1 a83e fac5 3c3e 7f5e f43e 5591 cd3e
0.25722948 0.3660387 0.17975321 0.2670117 0.21754426 0.28094077 0.52579284 0.4730747
0.057346355 0.42750326 0.21086276 0.43666324 0.32059115 0.29189232 0.5328063 0.45747474
0.24744646 0.31788918 0.39730906 0.15841137 0.08346691 0.7539383 0.43708277 0.4716258
0.49487114 0.4112723 0.06451523 0.41186294 0.32556573 0.3208266 0.5480797 0.23469186
0.2535935 0.18229736 0.15416922 0.3108681 0.104179166 0.18089527 0.14902122 0.19976397
-0.11347136 -0.060650293 0.29447353 -0.01353257 0.1112052 0.03345726 0.09923954 0.15157545
-0.10228332 0.07489762 0.102511704 0.049019974 0.18189198 0.0034801362 0.054196723 0.18766905
0.21485558 -0.019882355 0.11534299 0.38187802 0.08693707 0.25387278 0.23233308 0.39566788
0.05596425 -0.11255161 0.05770014 -0.11293428 -0.092101604 0.009740493 0.013845557 -0.046682727
-0.045503076 0.124162145 0.22626986 -0.19494563 -0.020796748 -0.08142743 0.16641556 -0.11956644
0.0758418 -0.07605884 -0.31461078 0.20383006 -0.054422513 -0.0072262767 -0.1483277 -0.0008518428
-0.15414253 -0.14916027 -0.17219305 -0.07506703 -0.13076715 0.03724767 0.15654983 0.13782205
0.1511846 0.3336027 0.22125897 0.22548842 0.4635015 0.10249233 0.60746235 0.37889826
0.23379004 0.49183884 0.48024705 0.44228658 0.144194 0.28043222 0.5678341 0.5178141
0.4024062 0.27171484 0.1597787 0.49271992 0.4786427 0.38620758 0.33935454 0.3385943
0.5024258 0.28875905 0.21939592 0.59673476 0.32984787 0.18434897 0.47728345 0.40149942

lstm.bias_hh_l0 f4 [128]
00000000: ff66 ec3d 6104 993e 7cb5 653d f2f6 cd3e
00000010: 52a5 323e 4fe5 e7bb 405e 063f af97 0b3f
00000020: 1d13 dd3d 71cd 203f 3854 343e b9ac 863e
00000030: 7625 8f3e 156e b13e 94e8 393f 631d d83e
00000040: 0050 823e f6fb 503e 4af1 a43e 6d8b 0e3e
00000050: 519e 9a3e 785b 1d3f 5ced 163f e4e7 ea3e
00000060: fa52 e83e 3c0e e33e d128 693d 95c5 023f
00000070: 8e79 003f 606a f03e 7e09 e13e 9448 ce3e
00000080: b20c 9f3d 6141 06be a343 a73e 0a54 5e3e
00000090: 0891 4c3d 6d8a 6fbd 2d8e 043e 249f 01be
000000a0: ec8d d6bd 565c 363e d654 dc3d 2a0c 1f3e
000000b0: 10a5 9a3e 9ac1 883e 7e65 afbd d09d 423e
000000c0: 97bd e73d 580f e53c a88c 953e 78c4 cd3d
000000d0: bf5a bb3d db9c 89bc abef fdbc 0c1d 0a3d
000000e0: 7fcb ac3d e8d8 893e 0b10 e23c 846d 6d3e
000000f0: 6eeb 463e e8f0 3e3e 065c 533e 7383 cc3e
00000100: f24b a5bd 5bb4 e5bb 1275 473c bf04 edbc
00000110: fee1 b3bc b886 0f3d bb82 19be 7917 4dbd
00000120: 4319 fe3a 5c5c cebd 5bb6 213e d222 0ebd
00000130: 1013 20bd 6b12 a33d cf40 263e 7f38 cfbd
00000140: a693 b5bd 743f ff3d e202 9cbe 6414 183e
00000150: 3d23 6bbc 8c6b 33be dbdc 9dbc e816 bc3d
00000160: c5ca 0c3d 3d1f e83d 92a7 213e 0429 9a3d
00000170: 072c 98bd 6ee8 0f3e 571b 153e 75bc c43d
00000180: 7917 a23e 8722 883e c4c7 113e d428 523e
00000190: 1685 cc3e f9a0 da3e e6e4 ef3e 0441 e23e
000001a0: be23 6a3e df1f ef3e e724 913e 3a49 073f
000001b0: 34e0 073e 20a7 8e3e f7ae 1f3f c284 d33e
000001c0: 77ca 893e 6df7 233e 03e4 763e 030c 9e3e
000001d0: 001e a13e e290 e33e a2fb 2e3e c2de 223e
000001e0: 75ed 083f f820 b73e c801 c83e 5f51 c53e
000001f0: a822 5b3e b4de 5e3e 1d4d c93e f1e8 cc3e
0.115430824 0.29886153 0.05608128 0.40227467 0.17445877 -0.0070768963 0.52487564 0.54528326
0.10794661 0.6281348 0.17610252 0.26303652 0.27958268 0.34654298 0.7262051 0.4220992
0.2545166 0.20408615 0.3221534 0.13920374 0.3019891 0.61467695 0.5895593 0.45880044
0.45375806 0.44346797 0.05692369 0.51082736 0.5018548 0.46956158 0.43952554 0.40289748
0.07766093 -0.13110878 0.3266879 0.21711746 0.049943 -0.058481622 0.12944861 -0.12658364
-0.10476288 0.17808661 0.10758369 0.15531984 0.30204058 0.26710206 -0.0856428 0.19005513
0.11315458 0.027961418 0.29208875 0.10047239 0.09148168 -0.016798427 -0.030998072 0.033719108
0.08437251 0.269233 0.02759554 0.23186308 0.19425747 0.18646586 0.20640573 0.39944038
-0.08071126 -0.0070100254 0.012173908 -0.028932927 -0.021958347 0.035040587 -0.14991276 -0.050071213
0.0019386191 -0.1007621 0.1579222 -0.034701176 -0.03908068 0.07962497 0.1623566 -0.10118198
-0.08866052 0.124632746 -0.3047095 0.14851528 -0.014351663 -0.17521495 -0.019270351 0.091840565
0.034373064 0.11334083 0.15786579 0.07527354 -0.074302725 0.14053509 0.1456121 0.09606258
0.31658533 0.26588842 0.14236361 0.20523387 0.39945287 0.42700937 0.46854323 0.44190228
0.22865197 0.46704003 0.28348467 0.5284611 0.1326912 0.2786188 0.6237635 0.41312224
0.2691228 0.16012354 0.24110417 0.3086854 0.314682 0.44446474 0.17088178 0.15905288
0.5348733 0.3576734 0.3906386 0.38538644 0.21399939 0.21764642 0.39316645 0.4002147

fc.weight f4 [1, 32]
00000000: b893 ffbe 75d8 52bf 79cc 0abf e791 3d3f
00000010: bab7 84bf b702 513f cba9 bbbf c7d6 ef3f
00000020: 6637 56bf cbe8 223f 5173 693e 809f 1dbf
00000030: c763 40bf 33de 9c3f 7cf4 8cbf 6dca 2e3f
00000040: 98fa 10bf 5cbb 323f 2d23 eb3c 02e2 49bf
00000050: de46 253e 6af6 8b3f 967d dabf 9df6 7bbf
00000060: f0cf 2abf a609 8fbf 4fe8 34bf 18b2 ef3e
00000070: 2704 793f 5fa2 683f 43c5 f93e 6cee 8d3f
-0.49917388 -0.8236154 -0.5421825 0.74050754 -1.0368569 0.8164477 -1.4661192 1.873742
-0.8367828 0.63636464 0.22797896 -0.615715 -0.7515225 1.225531 -1.1012111 0.6827763
-0.56632376 0.6981714 0.028703297 -0.78860486 0.16140315 1.0934575 -1.7069576 -0.98423177
-0.6672354 -1.117482 -0.70666975 0.46815562 0.9727196 0.9087276 0.4878331 1.1088386
