fut_opt_lih_features_prepare/bm_fut_lih_02.pth (torch, 25158 bytes, 6 tensors)

embedding.weight f4 [19, 8]
0	0xbfdf0320	-1.7422829
1	0xbf6d131e	-0.92607296
2	0xbefdc279	-0.49562433
3	0xbfc869f9	-1.565734
4	0xbe3949e3	-0.18094592
5	0xbf2d98cc	-0.67811275
6	0xbf68266a	-0.90683615
7	0xbfd56e87	-1.6674355
8	0xbf51c3a4	-0.8193915
9	0x3e32392e	0.17404625
10	0xbf3032fb	-0.6882779
11	0xbdce201f	-0.1006472
12	0xbece6492	-0.40311104
13	0x3fcfb737	1.6227788
14	0x3e70bb5c	0.23508972
15	0x3ef390c4	0.47571385
16	0xbf4382ab	-0.7637126
17	0xbf989ec6	-1.1923454
18	0x3f3e7e54	0.7441151
19	0x3e358c06	0.17729196
20	0x3f589ba4	0.8461249
21	0x3e61aff1	0.22039773
22	0xbf3045fe	-0.688568
23	0x3f51e2b9	0.81986576
24	0x3fa8cb06	1.3186958
25	0x3d50202b	0.050811928
26	0xc01c2d6b	-2.440272
27	0xbfd49450	-1.6607761
28	0x3db8fc3e	0.090324864
29	0xbee41b95	-0.44552293
30	0xbf236317	-0.63823074
31	0xbe1f4bd4	-0.1555627
32	0x3fe3bcce	1.7791994
33	0xbdeaa9ad	-0.11458144
34	0x3e861f74	0.26195872
35	0xbf3b15c5	-0.7308009
36	0x3ea36d6e	0.31919426
37	0x3d4963d4	0.04916747
38	0x3dfbf28f	0.12302124
39	0xbf0fc5f4	-0.5616143
40	0xbe3b8f95	-0.18316491
41	0x3e5f8122	0.21826604
42	0xbdf34fa8	-0.118804276
43	0x3cd08e1e	0.025458392
44	0x4019fb2e	2.4059558
45	0xbf93c317	-1.1543912
46	0x3fca3255	1.579661
47	0xbf24d835	-0.64392406
48	0xbf4d561f	-0.80209535
49	0x3f2f5257	0.68485016
50	0xbd978692	-0.07398714
51	0xbee36758	-0.44414783
52	0x3f4c90f4	0.7990868
53	0x3ec8baec	0.3920511
54	0x3f89fb25	1.0779768
55	0x400ad0d9	2.168997
56	0x3e372b51	0.17887618
57	0x3f78c07b	0.971687
58	0xbe56d706	-0.20980462
59	0xbf315973	-0.69277114
60	0x3fd47bb7	1.6600255
61	0xbf4b1762	-0.79332554
62	0xc05b5f56	-3.4276938
63	0xbf41a776	-0.7564615
64	0xbd765167	-0.060136225
65	0xbf88b19f	-1.0679206
66	0xbf162819	-0.58654934
67	0xbf87c4c1	-1.060692
68	0xbe5f626b	-0.21814887
69	0x3c9a8bb5	0.018865446
70	0x3fde3e5d	1.7362782
71	0xbda5b94d	-0.08091984
72	0xbf16cf7c	-0.58910346
73	0xbd2df49e	-0.042469613
74	0xbf930d53	-1.1488441
75	0xbf675568	-0.90364695
76	0xbed9b4a9	-0.42520645
77	0xbf0f5dbd	-0.5600241
78	0x3ec12bc9	0.37728718
79	0xbf5fb8fb	-0.8739163
80	0xbf05d723	-0.522814
81	0x3e2fddc7	0.17174445
82	0xbf1fb11d	-0.6237963
83	0x3f28a55e	0.6587733
84	0xbfa96343	-1.3233417
85	0xbed5c801	-0.41754153
86	0x3e86c575	0.26322523
87	0xbe302132	-0.17200163
88	0x3e7abe91	0.24486758
89	0xbf0e5ce5	-0.55610496
90	0xbf85a0be	-1.043968
91	0x3f5b4a88	0.856606
92	0xbf9cebfc	-1.2259517
93	0xbf15b9d7	-0.58486694
94	0x3e9a6aa9	0.301595
95	0x40087551	2.1321604
96	0x3f27bf10	0.65525913
97	0x3f9f1d47	1.243081
98	0x3f574248	0.8408551
99	0xbf74004a	-0.9531294
100	0x3fb4575d	1.4089161
101	0xbf6de4f4	-0.9292748
102	0xbf68d7db	-0.9095437
103	0x3f9d728b	1.2300581
104	0x3fa5e8f1	1.2961713
105	0x3f14024f	0.5781602
106	0xbda52351	-0.08063377
107	0xbd70b00b	-0.058761638
108	0xc00f42ef	-2.2384603
109	0xbf28bc45	-0.65912277
110	0xbfb4b4ff	-1.4117736
111	0xbf9171e1	-1.1362878
112	0x3f5962a6	0.8491615
113	0xbef74e2c	-0.48301828
114	0x3fa89edd	1.3173481
115	0x3f456bf8	0.7711787
116	0x3e8be53a	0.27323323
117	0x3ec8691f	0.391427
118	0x3f3379bb	0.7010762
119	0xbeb4d50c	-0.35318792
120	0x4025c9d6	2.590444
121	0xbe36fc98	-0.17869794
122	0xbd2b7acf	-0.041865166
123	0x3fea7481	1.8316804
124	0xbff844fa	-1.939605
125	0x3fe492f4	1.7857347
126	0x3d244f72	0.040114827
127	0x3ec9855b	0.39359555
128	0x3f38dc4c	0.72211146
129	0xbfe8bb83	-1.8182224
130	0x3eafa793	0.34307536
131	0x3fa0de82	1.2567904
132	0xbecf4a30	-0.40486288
133	0xbfe8d1f0	-1.8189068
134	0x3f1edfe9	0.6206041
135	0xbf30cc3a	-0.69061625
136	0x3f473989	0.77822167
137	0xbeea2639	-0.45732287
138	0xbe3c9f7d	-0.18420215
139	0x3ea34e07	0.31895468
140	0xbcb0e88d	-0.021595264
141	0xbf2cb1f9	-0.67459065
142	0xbf6d9735	-0.9280885
143	0xbf2c08cc	-0.6720092
144	0x3f6f974e	0.9359025
145	0xbf69e700	-0.91368103
146	0xbeaf5558	-0.342448
147	0xbf3f1917	-0.7464766
148	0x3f5014b8	0.81281614
149	0xbf031fdc	-0.5122049
150	0x3fe064bc	1.7530742
151	0x3f29a9f8	0.66274977

lstm.weight_ih_l0 f4 [128, 8]
0	0xbd842d77	-0.06453984
1	0xbdfe4d71	-0.124171145
2	0xbe7368a6	-0.23770389
3	0xbdbad70b	-0.091230474
4	0x3d7f6930	0.062356174
5	0x3c1bd67d	0.009511587
6	0x3d919d82	0.0711012
7	0x3d97640a	0.07392128
8	0x3e0db70c	0.13839358
9	0x3d8b2cfd	0.0679569
10	0xbdc47cf1	-0.09594143
11	0x3e406e65	0.18792112
12	0xb62d0fa0	-2.5788104e-06
13	0xbc48809c	-0.012237694
14	0xbd930200	-0.07178116
15	0xbcbad3d2	-0.022806082
16	0x3d5e71e7	0.054307844
17	0x3e219f93	0.15783529
18	0xbe955a09	-0.29170254
19	0xbe69a5de	-0.2281718
20	0xbd60aeff	-0.05485439
21	0xbe8547e4	-0.2603141
22	0xbd07a4cc	-0.033116147
23	0xbd571402	-0.052509315
24	0xbdf1d5e4	-0.118083745
25	0x3d3bf1b8	0.045884818
26	0x3e0353ba	0.12824908
27	0xbea58e84	-0.32335293
28	0x3dd6487a	0.104630426
29	0x3e20d105	0.15704735
30	0x3e1bd40d	0.1521761
31	0xbd9535d6	-0.07285659
32	0x3dc60691	0.09669221
33	0xbe533bd2	-0.20628288
34	0x3c71bf34	0.014755059
35	0xbe3e85bd	-0.18605705
36	0x3e89a935	0.26886907
37	0xbe0e47af	-0.13894533
38	0xbd814882	-0.06312658
39	0xbd524347	-0.051333692
40	0x3e292d62	0.16521218
41	0x3d351968	0.044213682
42	0xbd973d2e	-0.07384716
43	0x3c552e7b	0.01301157
44	0xbdfdfa97	-0.12401312
45	0xbcbb457b	-0.02286028
46	0x3d1c3cc7	0.0381439
47	0x3e8060fc	0.25073993
48	0x3e73b7d6	0.23800597
49	0xbe5fd472	-0.21858385
50	0xbe78eaf3	-0.24308376
51	0x3d133e1a	0.035947897
52	0xbd597899	-0.053093527
53	0x3d52d476	0.05147215
54	0xbe52c90e	-0.20584509
55	0xbd79ed44	-0.06101729
56	0x3e4b5fbd	0.1986074
57	0xbe339bcb	-0.17539899
58	0xbe165ea5	-0.14684542
59	0x3d3146f0	0.043280542
60	0x3e6c470a	0.23073974
61	0x3dbde69b	0.092725
62	0xbc5c8ab8	-0.0134608075
63	0xbe50bcb7	-0.20384489
64	0x3e99b2e8	0.30019307
65	0xbd834623	-0.06409862
66	0xbe277b38	-0.16355598
67	0xbbd3a77a	-0.0064591737
68	0xbdf98828	-0.12184173
69	0x39f210c5	0.0004617033
70	0x3c0428be	0.008066354
71	0xbe838f03	-0.25695047
72	0xbe1387bb	-0.14407246
73	0xbdc0abe7	-0.09407788
74	0xbdb69d3b	-0.08916708
75	0xbd7bea6f	-0.06150287
76	0xbdad72f0	-0.08469188
77	0xbd89cdd1	-0.067287095
78	0xbe3d2f1f	-0.18475007
79	0xbe08b997	-0.13352047
80	0x3c3c18ae	0.0114804935
81	0x3e2f4f71	0.17120148
82	0x3d66e24f	0.05636817
83	0xbdd0dd81	-0.101984985
84	0x3e06b4ce	0.13154909
85	0x3d36c53d	0.044621695
86	0x3cb96538	0.022631273
87	0xbcf9b33f	-0.030480979
88	0x3e1c5543	0.152669
89	0x3e30f9fb	0.1728286
90	0xbcd81ba3	-0.026380366
91	0xbe51be85	-0.20482834
92	0x3e8dfff8	0.2773435
93	0x3de9fd39	0.114252515
94	0xbe08f086	-0.13373002
95	0x3e4e71d9	0.20160617
96	0x3e97ec67	0.29672548
97	0xbd053ba5	-0.032527585
98	0xbcac5d4e	-0.021040585
99	0xbe85e45b	-0.26150784
100	0x3e914ca2	0.2837878
101	0xbe54271e	-0.20718047
102	0xbcc9157f	-0.024546383
103	0xbcec1ab0	-0.02882132
104	0xbd1ed3fe	-0.03877639
105	0x3d71524f	0.058916386
106	0xbe6a5234	-0.2288292
107	0xbe193bf3	-0.14964275
108	0xbe2b94e8	-0.16756022
109	0xbd907ad4	-0.070546776
110	0xbdcb83d1	-0.09937251
111	0xbc263fbe	-0.010147033
112	0xbd3c5082	-0.045975216
113	0x3dd5aa1d	0.10432837
114	0x3e775bca	0.24156108
115	0x3da0b5d0	0.07847178
116	0xbd95f85f	-0.07322764
117	0xbb87e5a6	-0.0041472493
118	0xbe68e5f5	-0.22743972
119	0x3e2ed047	0.17071639
120	0xbdaf413b	-0.085573636
121	0x3cf004a4	0.029299088
122	0x3cbc8c23	0.023016041
123	0xbe469560	-0.1939292
124	0x3e09d00b	0.13458268
125	0x3d8410a5	0.06448487
126	0xbd0ae4f4	-0.033909753
127	0xbc6b30f5	-0.014354934
128	0xbdab2e8e	-0.08358489
129	0xbd3647d6	-0.0445021
130	0xbe9558b6	-0.29169244
131	0xbe89c0fb	-0.26905045
132	0xbc044eeb	-0.008075456
133	0xbd9eb1a9	-0.0774873
134	0xbc738eb1	-0.014865563
135	0xbdd7111e	-0.10501312
136	0x3e0980a2	0.13427976
137	0xbe0da966	-0.13834152
138	0xbe15a1f8	-0.14612567
139	0x3dccfc54	0.10009065
140	0x3df28d83	0.118433975
141	0x3e0979aa	0.13425317
142	0x3c512de7	0.012767292
143	0xbd3f72d9	-0.046740387
144	0xbe064275	-0.13111289
145	0xbd2544e1	-0.04034889
146	0x3dc59f08	0.096494734
147	0xbe589b5b	-0.21153013
148	0xbdc94017	-0.09826677
149	0x3e1194e3	0.14216952
150	0x3d9246e1	0.07142425
151	0x3d04d022	0.032425053
152	0x3d209ed8	0.039213985
153	0x3d6e51f5	0.05818363
154	0xbc81e0e7	-0.015854312
155	0xbe51907b	-0.20465271
156	0x3dfa09de	0.12208913
157	0xbdb447ba	-0.08802743
158	0xbe304c77	-0.17216669
159	0xbd1fb235	-0.03898831
160	0xbe33aefc	-0.1754722
161	0xbca2f37a	-0.01989149
162	0x3eac079e	0.3359956
163	0x3e258bf8	0.16166675
164	0x3e2b3906	0.16720971
165	0xbe12a1de	-0.1431956
166	0xbbb6a570	-0.005573921
167	0xbd5b1a7b	-0.05349205
168	0xbe4dcef3	-0.20098476
169	0xbdac538d	-0.084143735
170	0x3e1d8cd8	0.15385759
171	0x3cae4528	0.02127321
172	0xbd901e59	-0.07037038
173	0xbdb11c43	-0.086479686
174	0xbe04b93c	-0.12961286
175	0x3e46d1d4	0.1941598
176	0xbe1a21eb	-0.15052001
177	0xbd4d6608	-0.050146133
178	0x3c6e3f16	0.014541408
179	0xbe139f33	-0.14416198
180	0xbde4d76c	-0.11173901
181	0xbdf701ac	-0.12060866
182	0x3e0060a3	0.12536864
183	0xbcc5d571	-0.024149628
184	0x3d09298a	0.03348688
185	0xbd46598b	-0.04842524
186	0x3d68475f	0.05670869
187	0x3d3d6015	0.04623421
188	0x3e788437	0.24269186
189	0x3c162d4d	0.009166074
190	0x3d924cd2	0.071435586
191	0xbdca2305	-0.09869961
192	0xbd0d2010	-0.034454405
193	0xbe361c3e	-0.17784211
194	0xbcb8e246	-0.022568833
195	0xbe49e7e6	-0.19717368
196	0x3e18be77	0.14916407
197	0xbd20957b	-0.039205056
198	0xbe4d9812	-0.20077541
199	0xbe2585f5	-0.16164382
200	0x3d85baec	0.06529793
201	0xbde0088c	-0.1093913
202	0xbeae4eaa	-0.3404439
203	0x3d3d636e	0.0462374
204	0xbcdd6364	-0.027024932
205	0xbe39a25c	-0.18128341
206	0x3d33911f	0.04383957
207	0x3d56228d	0.052279044
208	0x3dc28db7	0.09499686
209	0x3e66acc3	0.22526841
210	0xbd3efad3	-0.046625923
211	0xbe19ba0f	-0.15012382
212	0x3e07b5e1	0.13252975
213	0xbeb81767	-0.35955355
214	0x3dcd2a1c	0.10017797
215	0x3d64abc8	0.055827886
216	0xbd76d353	-0.06026013
217	0x3e38057f	0.17970847
218	0xbda242a3	-0.07922866
219	0xbd2d1e8f	-0.04226547
220	0xbdc8dfe6	-0.0980833
221	0xbdad3b9f	-0.084586374
222	0xbda547f7	-0.08070367
223	0x3e2dcacc	0.16971892
224	0x3ca88451	0.020570906
225	0xbced8969	-0.028996186
226	0x3e81797a	0.25287992
227	0x3cc26e2f	0.02373418
228	0x3e01d56e	0.12679073
229	0x3d98b713	0.07456794
230	0x3d89a71b	0.06721326
231	0x3e0689e9	0.13138546
232	0xbdc5ad1a	-0.09652157
233	0x3db36275	0.087590136
234	0xbc834aa3	-0.0160268
235	0xbe72ec95	-0.23723061
236	0xbc9819cf	-0.018566994
237	0xbe388148	-0.18018067
238	0xbdf62830	-0.12019384
239	0xbe82acbe	-0.25522417
240	0x3e50db35	0.20396121
241	0xbd605f4d	-0.054778386
242	0x3d1da6d9	0.038489196
243	0x3e4f3413	0.20234708
244	0x3e3bfac7	0.18357383
245	0xbe8cec1d	-0.2752389
246	0x3dd5e687	0.1044436
247	0x3e3a48c5	0.18191822
248	0x3cad4c8d	0.021154666
249	0x3e419aa0	0.18906641
250	0xbe4d68f9	-0.20059575
251	0xbe4f3620	-0.20235491
252	0xbd213ca9	-0.03936449
253	0xbc61f4d3	-0.013791281
254	0xbd65e9f5	-0.056131322
255	0x3e3680f2	0.17822626

lstm.weight_hh_l0 f4 [128, 32]
0	0x3d082101	0.0332346
1	0xbe4e3df4	-0.2014082
2	0xbe2d9e4d	-0.16954918
3	0x3d975e20	0.07391
4	0x3cf00a3e	0.029301759
5	0xbcfd2688	-0.030902162
6	0xbd8f6a7d	-0.07002733
7	0xbe08ed98	-0.13371885
8	0xbd5a2dc3	-0.053266298
9	0x3e81c4de	0.2534551
10	0x3e8f2b26	0.27962607
11	0xbd2cc223	-0.04217733
12	0xbdc00280	-0.09375477
13	0xbea4a12c	-0.32154214
14	0xbd2d32a3	-0.04228462
15	0x3e34c463	0.1765304
16	0xbe848eaa	-0.25890094
17	0xbde014e6	-0.10941486
18	0x3dde1a7e	0.10844897
19	0xbcb968bd	-0.02263295
20	0xbdfa20d9	-0.122132964
21	0x3e2e9131	0.17047574
22	0x3e6466ee	0.2230489
23	0x3d8a9b96	0.06767957
24	0x3ea59855	0.32342783
25	0xbc4e6097	-0.012596271
26	0x3c05cba6	0.008166229
27	0xbe2636b7	-0.1623181
28	0xbd0724b1	-0.032993976
29	0xbd054a55	-0.03254159
30	0x3dac9a2f	0.08427846
31	0x3d5ef36a	0.054431356
32	0x3d80cf7e	0.06289576
33	0xbde049c2	-0.10951568
34	0x3dc7b431	0.09751166
35	0x3d82b3c4	0.06381944
36	0x3d3553e6	0.044269465
37	0xbe733ba5	-0.23753221
38	0x3eabe1d5	0.33570734
39	0x3e2879dc	0.16452736
40	0x3e145c99	0.14488448
41	0xbcec7473	-0.028864121
42	0x3e10489a	0.14090195
43	0xbd697158	-0.05699286
44	0xbdd4328a	-0.10361202
45	0xbe0209c5	-0.1269904
46	0xb8935638	-7.025566e-05
47	0x3c832f6e	0.016013827
48	0x3ccbb177	0.024864895
49	0xbe4efcb1	-0.20213582
50	0x3dba3d93	0.090937756
51	0xbe654c60	-0.22392416
52	0xbd9472f3	-0.07248487
53	0xbe04fb33	-0.1298645
54	0x3dbf68db	0.093461715
55	0x3d81e18a	0.06341846
56	0xbdd9b851	-0.10630859
57	0xbd121529	-0.03566471
58	0x3e0baf2a	0.13641039
59	0x3d31b506	0.043385528
60	0x3e1472c5	0.14496906
61	0xbdf6cb3b	-0.12050482
62	0x3e724488	0.23658955
63	0x3b56587c	0.003270655
64	0xbe60204c	-0.2188732
65	0xbe8c2c9f	-0.27377793
66	0x3e3c2b13	0.18375807
67	0x3deffea7	0.11718493
68	0x3c299cae	0.010352297
69	0x3d36e25c	0.044649467
70	0x3d9332fe	0.0718746
71	0xbe53a8fe	-0.20669934
72	0x3e4eb3d5	0.20185788
73	0x3c6e174f	0.014531924
74	0x3d3222be	0.043490164
75	0x3e512fb4	0.20428354
76	0xbea74318	-0.32668376
77	0xbdcf4f64	-0.101225644
78	0xbdd72f94	-0.10507122
79	0x3e44038a	0.19141975
80	0x3d6467df	0.05576312
81	0x3e95d9ae	0.2926764
82	0x3d527e0a	0.05138973
83	0xbdf5640c	-0.11981973
84	0xbe974ad7	-0.29549286
85	0xbe06bec7	-0.13158713
86	0x3df05f15	0.117368855
87	0xbebbca02	-0.36677557
88	0xbd7b1c89	-0.06130651
89	0x3e4e9c25	0.20176752
90	0x3ddb49be	0.107074246
91	0xbd6e842d	-0.05823152
92	0x3e4c0fba	0.19927874
93	0x3d17c973	0.03705735
94	0x3e909173	0.2823597
95	0xbd284874	-0.04108472
96	0xbaa0ed40	-0.0012277737
97	0x3c962054	0.018325962
98	0x3d5106bd	0.051031817
99	0x3e091e00	0.1339035
100	0xbd59cc33	-0.053173255
101	0x3d0cacf6	0.034344636
102	0xbe034c3c	-0.1282205
103	0xbe3a38ac	-0.18185681
104	0xbe5232e1	-0.20527221
105	0x3e1dbbdc	0.15403694
106	0x3e84d197	0.25941154
107	0xbec4d296	-0.38441914
108	0xbe3fb6ec	-0.18722123
109	0x3db0d86e	0.08635031
110	0x3e2925e0	0.16518354
111	0x3e17f000	0.14837646
112	0x3d272056	0.040802322
113	0x3ec13923	0.37738904
114	0xbe5c77c2	-0.21530059
115	0x3e8ca894	0.27472365
116	0x3e5ea234	0.21741563
117	0x3e90ba3c	0.28267086
118	0x3c1fce76	0.009753814
119	0xbcb9e614	-0.022692718
120	0x3e33acdd	0.17546411
121	0x3d77d5ad	0.06050651
122	0x3de52429	0.111885376
123	0xbd361f8c	-0.04446368
124	0xbd050178	-0.032472104
125	0x3e7f1576	0.2491053
126	0xbcefbe9e	-0.029265698
127	0x3b8ab8ca	0.0042334544
128	0xbdd8bcfa	-0.105829194
129	0xbda5f32f	-0.08103024
130	0xbe5041fe	-0.20337674
131	0x3e14cb79	0.14530744
132	0xbe7bdcdc	-0.2459597
133	0x3e986261	0.29762557
134	0xbe351349	-0.17683138
135	0xbf042076	-0.5161203
136	0xbc9d4124	-0.0191961
137	0xbc8c628a	-0.01713683
138	0x3deef6df	0.11668181
139	0xbebc8a68	-0.36824346
140	0xbeb287b4	-0.34869158
141	0x3de14c09	0.11000831
142	0x3dd9c679	0.10633559
143	0x3e926545	0.28592888
144	0x3cd453a9	0.025918799
145	0x3eaec04f	0.34131095
146	0xbe992134	-0.29908144
147	0x3e82b360	0.25527477
148	0x3d75fe30	0.060056865
149	0x3ea1a875	0.31573835
150	0xbd6861f8	-0.056734055
151	0x3cd7c77d	0.02634024
152	0x3d3cdadb	0.046107154
153	0xbdea3230	-0.11435354
154	0xbe280969	-0.1640984
155	0xbe1230f1	-0.14276482
156	0xbda033f6	-0.07822411
157	0x3e8b28b6	0.27179497
158	0x3e5c28ca	0.21499935
159	0x3d952bf3	0.07283773
160	0xbe3e6fab	-0.18597285
161	0xbe62adae	-0.22136566
162	0x3d849515	0.06473748
163	0x3b03cae4	0.0020109946
164	0xbe369f0d	-0.1783411
165	0x3e5820c9	0.21106257
166	0x3d5e3061	0.054245356
167	0xbe033608	-0.1281358
168	0xbb7109ce	-0.0036779526
169	0x3e50a820	0.20376635
170	0xbce9535f	-0.028482137
171	0x3d53dd6c	0.051724836
172	0x3dba837f	0.09107112
173	0xbdd26a44	-0.10274175
174	0x3da4fdd5	0.08056227
175	0x3e63fbf6	0.22264084
176	0x3d9a1bd4	0.07524839
177	0x3d9f4914	0.077776104
178	0xbd2bb8a9	-0.041924153
179	0xbd3c7fbe	-0.046020262
180	0xbe271632	-0.1631706
181	0x3deae1e6	0.11468868
182	0x3e8c75f4	0.2743374
183	0x3d913a09	0.070911475
184	0x3e252a33	0.16129379
185	0x3e2b1c9d	0.16710134
186	0xbc9cced0	-0.019141585
187	0x3be55027	0.0069980803
188	0x3e1341c0	0.1438055
189	0x3c09f85f	0.008421033
190	0x3cee68bd	0.029102677
191	0x3d9626cc	0.07331619
192	0xbd9d1085	-0.076691665
193	0xbe90d3e1	-0.2828665
194	0x3e033608	0.1281358
195	0x3e56e8b1	0.20987202
196	0x3e7a9e10	0.24474359
197	0xbe584704	-0.2112084
198	0x3e5d748f	0.21626495
199	0xbe1f3eb1	-0.15551259
200	0xbe068eba	-0.13140383
201	0x3eade052	0.33960205
202	0xbdd4fa83	-0.10399344
203	0x3d989856	0.07450931
204	0xbe9b2a23	-0.30305585
205	0xbea38b6c	-0.31942308
206	0xbe1e4490	-0.15455842
207	0x3dbf33e8	0.09336072
208	0xbde9d6d1	-0.11417926
209	0xbde3cff4	-0.11123648
210	0x3d3dbf5b	0.04632507
211	0xbe0214ee	-0.12703297
212	0xbd9be93e	-0.07612847
213	0xbcc3a879	-0.023884045
214	0x3e708f94	0.2349227
215	0xbe833223	-0.2562419
216	0xbdabd8d8	-0.08390969
217	0x3e8680e7	0.2627022
218	0x3d954a53	0.07289567
219	0x3e18f039	0.14935388
220	0x3d55c3d8	0.052188724
221	0xbe833876	-0.25629014
222	0xbd4bb527	-0.049733307
223	0xbe8f3f70	-0.27978086
224	0xbc0a8d2c	-0.00845651
225	0x3d18633d	0.037204016
226	0x3e061694	0.1309455
227	0xbe99b93f	-0.30024144
228	0x3e0e69ba	0.13907519
229	0xbe11be2c	-0.14232701
230	0x3dd45498	0.103676975
231	0xbe15cfe0	-0.1463008
232	0xbe233f0d	-0.1594202
233	0x3e8678f5	0.26264158
234	0x3e757d19	0.23973502
235	0xbdd0c620	-0.10194039
236	0xbd882f56	-0.066496536
237	0xbd00188a	-0.031273402
238	0x3dbf4035	0.093384184
239	0x3db7f70d	0.08982668
240	0xbc962913	-0.018330133
241	0x3e18ba6b	0.14914863
242	0x3db7968d	0.08964262
243	0xbdda471a	-0.10658093
244	0x3edc048c	0.4297222
245	0x3d9e9a40	0.077442646
246	0x3e014951	0.12625624
247	0xbddc7590	-0.10764611
248	0x3ee04c59	0.4380825
249	0x3c0201d1	0.007935003
250	0x3e134c83	0.14384656
251	0xbdce8d6e	-0.10085569
252	0xbd1f24a0	-0.038853288
253	0x3e4ac686	0.19802293
254	0xbd5d4dc2	-0.054029234
255	0x3d2437e5	0.040092368

lstm.bias_ih_l0 f4 [128]
0	0x3dbc0f1d	0.0918257
1	0x3e0dc52f	0.13844751
2	0x3e714f38	0.23565376
3	0x3d9f7713	0.077863835
4	0x3dfa0896	0.12208669
5	0x3d56231c	0.052279577
6	0x3e034842	0.12820533
7	0x3ddab643	0.10679295
8	0x3b8cfe56	0.00430278
9	0x3de4a0a7	0.111634545
10	0x3c64a103	0.013954404
11	0x3e21fd2b	0.15819232
12	0x3df2a3dc	0.1184766
13	0xbdb73ee1	-0.0894754
14	0x3e29a0ba	0.16565219
15	0x3e1d3416	0.153519
16	0x3df6eecf	0.12057268
17	0xbcbc46e9	-0.022983031
18	0x3e2aa3d7	0.16664062
19	0x3de20178	0.110354364
20	0xbbc56c7b	-0.006024895
21	0xbdf9dff6	-0.1220092
22	0x3d12ea92	0.035868235
23	0x3df5bf7a	0.11999412
24	0x3dd66b95	0.104697384
25	0x3e24b7eb	0.16085784
26	0x3bb20ccf	0.005433656
27	0xbdeda39d	-0.116034724
28	0x3e4ada2a	0.19809785
29	0x3e6eaa4a	0.23307148
30	0x3d25db85	0.040492553
31	0x3e60cf18	0.21954
32	0x3e573c19	0.21019019
33	0x3e04e347	0.12977324
34	0x3d9cd048	0.07656914
35	0x3c8502fa	0.01623677
36	0xbe1aabfb	-0.15104668
37	0x3d852541	0.06501246
38	0x3e8e1a77	0.27754566
39	0x3c851c6f	0.01624891
40	0xbdc50d46	-0.09621672
41	0x3dfb7a8b	0.122792326
42	0x3e05006e	0.12988445
43	0x3da4c4e4	0.080453664
44	0xbd5c83b3	-0.053836536
45	0x3e213209	0.15741743
46	0xbde7f6e6	-0.11326389
47	0x3e459752	0.19296005
48	0x3bf03623	0.0073306723
49	0xbd50c640	-0.050970316
50	0xbe2c8cc7	-0.16850577
51	0xbd33de4b	-0.043913167
52	0x3bd37dc1	0.0064542
53	0xbd3ceda8	-0.046125084
54	0x3de8854f	0.113535516
55	0xbda8181e	-0.08207725
56	0x3e206f1c	0.15667385
57	0x3e237b6c	0.1596505
58	0x3e452f66	0.19256362
59	0x3d6d3f36	0.05792161
60	0xbdf4c8ac	-0.119523376
61	0xbb134193	-0.0022469505
62	0x3bd33c46	0.006446394
63	0x3d282aa4	0.04105629
64	0xbe318eea	-0.17339674
65	0xbdb768c6	-0.08955531
66	0xbcf99cb4	-0.03047023
67	0xbba561d2	-0.0050470615
68	0xbd86539a	-0.065589145
69	0x3cbf54f9	0.023355948
70	0xbdafe205	-0.08588032
71	0xbddea00a	-0.10870369
72	0xbd07bf6c	-0.03314154
73	0x3e205dd7	0.15660797
74	0x3dc0f461	0.094216116
75	0xbe0c822c	-0.13721532
76	0xbe1fe796	-0.15615687
77	0xbd603c66	-0.0547451
78	0xbdcdd555	-0.100504555
79	0x3d8628e0	0.06550765
80	0xbd801238	-0.06253475
81	0x3cbe7be7	0.02325244
82	0xbcc8c147	-0.024506224
83	0xbdc452a2	-0.095860735
84	0xbb9826b0	-0.004643284
85	0x3e432f65	0.19061048
86	0x3e237f92	0.15966633
87	0xbe0dff73	-0.13866977
88	0x3d1dd7ac	0.03853576
89	0x3defed84	0.117152244
90	0x3cd2d020	0.025734007
91	0xbc285de5	-0.010276292
92	0x3e13436c	0.14381188
93	0xba8a9ade	-0.0010574718
94	0xbc8c6444	-0.017137654
95	0x3e21b6d8	0.15792406
96	0x3e4ec1f9	0.20191182
97	0xbdbab178	-0.09115881
98	0x3e6ea0ee	0.23303577
99	0x3e4e6720	0.20156527
100	0x3e8234a2	0.2543078
101	0x3cb5e1f8	0.022202477
102	0x3db6a781	0.089186676
103	0x3e6ac2e1	0.22925903
104	0x3e81eef3	0.25377616
105	0xbd63ba8c	-0.055597827
106	0x3e5a5d00	0.21324539
107	0x3e3d7cad	0.18504591
108	0x3e33b6ce	0.17550203
109	0xbd2e268a	-0.042517222
110	0xbc0eb22a	-0.00870947
111	0x3e667d88	0.22508824
112	0x3d98b9b8	0.07457298
113	0x3e941a86	0.28926486
114	0xbdbd2787	-0.09236055
115	0x3ba1ab55	0.0049337544
116	0xbb3133fb	-0.002703904
117	0x3d6b9cfe	0.057522766
118	0x3d68c7f8	0.05683133
119	0x3e135681	0.14388467
120	0xbceb4f2f	-0.028724281
121	0x3cbc44c3	0.022982007
122	0x3e0e0a34	0.1387108
123	0xbd7cc6cd	-0.06171303
124	0x3e16fc72	0.14744738
125	0x3e4c4938	0.19949806
126	0x3e3a0fc7	0.18170081
127	0x3e4f1761	0.20223762

lstm.bias_hh_l0 f4 [128]
0	0x3e7d24b5	0.24721034
1	0xbe08c72b	-0.13357227
2	0x3c8459ab	0.016156038
3	0x3e456fef	0.1928098
4	0xb9c6e6a6	-0.0003793735
5	0x3defbb87	0.1170569
6	0x3da64fd3	0.08120694
7	0x3dddb38b	0.10825261
8	0x3d81ee23	0.06344249
9	0x3cf86339	0.03032075
10	0x3df73c15	0.120720066
11	0x3e6bdc77	0.2303332
12	0x3dc1fce7	0.094720654
13	0xbb550c5e	-0.0032508592
14	0x3e1b35ee	0.15157291
15	0x3ca3981b	0.01996999
16	0x3da844cf	0.08216249
17	0x3e1f182d	0.15536566
18	0x3d88d615	0.06681458
19	0x3e243975	0.16037543
20	0x3d5fdef8	0.054656
21	0xbc9a77b8	-0.018855914
22	0x3d9e12ae	0.077184066
23	0x3da01c57	0.078179054
24	0x3ca91287	0.020638717
25	0x3d90ab4d	0.07063923
26	0x3d9d7c90	0.07689774
27	0x3d196d95	0.03745802
28	0xbd9f3b29	-0.07774956
29	0x3e2756ec	0.16341752
30	0x3e69662f	0.22792886
31	0x3d82d560	0.06388354
32	0xbd9847a0	-0.074355364
33	0x3e1765bc	0.14784902
34	0x3d8e2130	0.06939924
35	0x3e4b406e	0.19848797
36	0x3d82c4da	0.06385203
37	0x3d51b328	0.051196247
38	0x3ded205e	0.11578439
39	0xbd616928	-0.055031925
40	0x3e45831b	0.19288294
41	0xbe0d7330	-0.13813472
42	0x3da3c86c	0.07997212
43	0xbd42e04e	-0.047577195
44	0x3e3669fd	0.17813869
45	0x3dec8631	0.115490325
46	0x3e3bc3e1	0.1833644
47	0x3cc50d38	0.024054155
48	0x3db4ff78	0.08837789
49	0xbe0c9d0c	-0.13731784
50	0x3dc3f228	0.09567672
51	0xbe01dabe	-0.126811
52	0x3e183c18	0.14866674
53	0x3de0f204	0.10983661
54	0xbdc71415	-0.09720627
55	0x3e05d254	0.13068515
56	0xbda9b458	-0.08286351
57	0x3dad032e	0.08447872
58	0x3b64ae71	0.0034894014
59	0x3d421731	0.0473854
60	0x3d0a26fa	0.033728577
61	0x3e436d51	0.1908467
62	0x3e11c76d	0.14236231
63	0x3dc5f2c8	0.096654475
64	0xbd29285b	-0.04129825
65	0xbe3eb69f	-0.18624352
66	0xbda0b1e5	-0.07846431
67	0xbd85927b	-0.065220796
68	0x3d3d5e56	0.046232544
69	0xbcd9656e	-0.026537623
70	0x3d86de87	0.065854125
71	0xbda3cf00	-0.079984665
72	0xbda48110	-0.08032429
73	0x3d6cf493	0.05785043
74	0x3dada819	0.08479328
75	0x3de5c6b4	0.1121954
76	0x3e0f39f8	0.13986957
77	0xbe616a90	-0.22013307
78	0x3d3ff9ed	0.046869207
79	0x3e1573c1	0.14594938
80	0xbdb80612	-0.08985533
81	0x3dd67e86	0.10473351
82	0x3de4adc3	0.11165955
83	0x3da20fdd	0.07913182
84	0xbe20e8e3	-0.15713839
85	0x3de6529b	0.112462245
86	0x3e392c10	0.18083215
87	0xbd2d7dd4	-0.042356327
88	0x3d678478	0.056522816
89	0x3dc94dc1	0.098292835
90	0xbdef128f	-0.11673462
91	0xbe216b92	-0.15763691
92	0x3d7c2a0a	0.06156353
93	0xbc349969	-0.011022904
94	0xbd8bc498	-0.06824607
95	0xbe2e80fa	-0.17041388
96	0x3c9245ae	0.017855491
97	0x3d8cbc0a	0.06871803
98	0x3d8f8dd2	0.07009472
99	0xbdc87145	-0.097872294
100	0x3dc26edd	0.09493802
101	0x3dc67019	0.0968935
102	0xbc13d9eb	-0.009024124
103	0x3e63315b	0.22186796
104	0x3e98e2ec	0.29860628
105	0x3e5c13b0	0.21491885
106	0xbdbe598b	-0.09294423
107	0xbc4180ee	-0.011810524
108	0xbc7f61c9	-0.015587279
109	0x3e21646a	0.15760961
110	0xbd8e13f8	-0.069374025
111	0x3e7efbd8	0.24900758
112	0xbce43e89	-0.02786185
113	0x3e5fcae7	0.21854745
114	0x3e116b55	0.142011
115	0xbc9aaee4	-0.018882222
116	0x3dc36939	0.09541554
117	0x3d946d99	0.072474666
118	0x3d12b798	0.03581962
119	0xbc88e077	-0.016708596
120	0xbd88d0d2	-0.06680454
121	0x3dbadf79	0.09124655
122	0xbdb87319	-0.09006328
123	0xbd2b8cb5	-0.041882236
124	0x3d4b85bb	0.049688082
125	0x3e3c5c06	0.18394479
126	0x3e600dfb	0.21880333
127	0xbd253710	-0.040335715

fc.weight f4 [1, 32]
0	0xbe48f956	-0.19626364
1	0xbca83c33	-0.020536518
2	0x3d0d56d0	0.03450662
3	0x3d2378b1	0.039910022
4	0xbe595804	-0.21224982
5	0x3c4d62c1	0.012535752
6	0xbd8c01a7	-0.06836253
7	0xbe4d3a12	-0.20041683
8	0x3dcf2a7d	0.10115526
9	0xbe0f63b1	-0.14002873
10	0xbe387c01	-0.18016054
11	0x3dc2d70c	0.09513673
12	0xbe76ee05	-0.24114235
13	0x3e2f7dfa	0.171379
14	0xbdf35ef0	-0.11883342
15	0xbe4341fc	-0.1906814
16	0x3e5f97d2	0.21835259
17	0x3dd3d63d	0.10343597
18	0x3e36f7ac	0.17867917
19	0x3e5d1862	0.21591333
20	0x3e340fe2	0.17584184
21	0x3e038cd9	0.12846698
22	0x3dc98e8b	0.09841641
23	0xbe163799	-0.14669646
24	0xbdc82406	-0.09772496
25	0x3b7aac44	0.003824965
26	0x3ddf16bf	0.1089301
27	0x3e2f8a27	0.17142545
28	0x3d7a3160	0.061082244
29	0xbe7eaab6	-0.24869809
30	0xbcda61c5	-0.026657948
31	0xbba8c2ca	-0.005150174
