fut_opt_lih_features_prepare/bm_fut_lih_02.pth (torch, 25158 bytes, 6 tensors)

embedding.weight f4 [19, 8]
-1.4091822 -0.9976288 -0.53205687 -0.64683884 -1.3096216 -1.0439271 1.2968894 -1.1578898
-0.24590948 0.68452775 -0.4271787 -0.8151872 -0.19842306 -2.1203876 0.27419636 1.0240371
-0.6344513 -0.32663497 -0.12791385 -1.008042 -0.3746691 -0.8555962 0.5293018 -2.2228715
1.8118834 -0.33443716 -0.50650394 -0.79819953 1.142706 -0.16019726 -1.4745657 -1.6621263
0.70623904 -0.9781275 -0.833163 -1.0823921 -0.9073249 -0.5976204 0.14820658 1.6964836
-0.9846081 -0.33942205 1.3692544 -3.2935202 0.12205973 -1.9071307 -1.1850272 0.51788825
1.6862906 0.88666004 -1.4968655 0.6179122 -0.88130426 -0.5992619 0.17061885 0.54147774
-2.200394 1.3347317 1.1957523 -0.81595755 1.1457832 1.5664039 -0.91236603 -0.92947096
-1.1342783 -0.38470387 2.2155104 -1.0792708 -0.41619188 0.5546499 -0.9904799 1.0659075
2.2828596 -1.0616539 -1.143324 0.9765543 0.9638713 -2.4998207 -0.8601596 1.0198398
2.741237 0.49782056 0.19590655 1.8096807 0.42378536 0.88131595 1.3837627 -0.44725007
-0.12094446 0.6366931 -0.676673 0.063558154 -1.2559627 -0.26186398 -0.065498784 -0.17820889
0.6751265 1.9167526 0.12834945 -1.594189 -0.61959267 0.9357005 -0.22407217 -1.0492309
-0.19940698 0.83821714 -0.75895596 0.27729055 0.35456398 -1.6446288 0.030609693 0.05710108
0.6403663 1.8978094 0.065437414 -1.511796 0.057185803 -0.64393216 0.14014827 0.2945829
-0.92069185 -0.9237978 1.0787305 -0.9714899 1.5246407 0.06188753 -0.413555 -1.6814831
0.3966748 -0.39506346 1.5639287 0.67718977 -0.13427764 -1.1722196 -0.45838988 0.92342293
0.08112527 1.5566171 0.88541263 -0.011618699 2.7770057 0.70205456 -0.3388355 -0.23736857
0.40200183 -0.607732 -0.7482269 -0.8219788 1.8462868 1.0373672 -0.85101795 -0.010435216
00000000: 1560 b4bf 9a64 7fbf e134 08bf 3b97 25bf
00000010: aea1 a7bf 679f 85bf 7900 a63f bc35 94bf
00000020: b2cf 7bbe 363d 2f3f 2bb7 dabe 1cb0 50bf
00000030: 6a2f 4bbe 6eb4 07c0 7763 8c3e a613 833f
00000040: 676b 22bf b33c a7be d9fb 02be 8507 81bf
00000050: a1d4 bfbe 5a08 5bbf 5380 073f 8743 0ec0
00000060: cceb e73f 593b abbe 3eaa 01bf ce56 4cbf
00000070: 3144 923f c00a 24be 92be bcbf 8ec0 d4bf
00000080: 15cc 343f 9066 7abf 2c4a 55bf d38b 8abf
00000090: 7246 68bf a7fd 18bf 77c3 173e 6026 d93f
000000a0: 470f 7cbf bac8 adbe ba43 af3f 09c9 52c0
000000b0: 74fa f93d dc1c f4bf f9ae 97bf 5394 043f
000000c0: 5fd8 d73f 27fc 623f 4a99 bfbf 7e2f 1e3f
000000d0: 289d 61bf 3a69 19bf b5b6 2e3e 499e 0a3f
000000e0: 41d3 0cc0 7dd8 aa3f 690e 993f 98e2 50bf
000000f0: 06a9 923f ec7f c83f d290 69bf cff1 6dbf
00000100: 0830 91bf e8f7 c4be ecca 0d40 8c25 8abf
00000110: 1a17 d5be 89fd 0d3f 1790 7dbf a86f 883f
00000120: 5f1a 1240 46e4 87bf 7158 92bf 76ff 793f
00000130: 45c0 763f 10fd 1fc0 6b33 5cbf 1c8a 823f
00000140: 6d70 2f40 56e2 fe3e ba9b 483e 9ea3 e73f
00000150: 65fa d83e ec9d 613f 231f b13f f6fd e4be
00000160: bbb1 f7bd 52fe 223f 713a 2dbf c72a 823d
00000170: 63c3 a0bf 0913 86be 3a24 86bd 647c 36be
00000180: 17d5 2c3f 2658 f53f 0a6e 033e 630e ccbf
00000190: a09d 1ebf 118a 6f3f 2d73 65be 334d 86bf
000001a0: 5831 4cbe 6695 563f f04a 42bf 07f9 8d3e
000001b0: 6989 b53e 3283 d2bf 2ec1 fa3c d2e2 693d
000001c0: 0cef 233f 6beb f23f 0d04 863d 8882 c1bf
000001d0: a93b 6a3d bdd8 24bf 0783 0f3e 92d3 963e
000001e0: 76b2 6bbf 037e 6cbf d713 8a3f 90b3 78bf
000001f0: 6d27 c33f c77d 7d3d 7bbd d3be d73a d7bf
00000200: f618 cb3e c245 cabe d12e c83f 4f5c 2d3f
00000210: 1480 09be 4b0b 96bf 14b2 eabe 7265 6c3f
00000220: 0125 a63d 3b3f c73f 67aa 623f 5b5c 3ebc
00000230: 76ba 3140 d9b9 333f d97b adbe bf10 73be
00000240: 2fd3 cd3e 5394 1bbf cc8b 3fbf 346d 52bf
00000250: 2053 ec3f 73c8 843f 50dc 59bf 78f8 2abc

lstm.weight_ih_l0 f4 [128, 8]
-0.21551062 0.07982755 -0.009969808 -0.1944696 0.0977476 -0.1291018 -0.111348 0.020919207
0.20172074 0.25116554 0.22507371 -0.088309266 0.2412987 0.017072545 -0.29298353 0.16785778
-0.29769078 -0.08780807 0.2091119 -0.19332966 -0.25340357 -0.008634848 -0.093199335 0.3061967
0.41447693 -0.09240692 -0.2724818 0.03592451 0.12513259 -0.19848569 -0.07583803 -0.25167733
0.2206336 -0.17006582 0.053685095 0.22966662 0.030666413 -0.08013173 -0.031107863 -0.21293144
0.15979356 -0.24193399 0.26650104 0.09049654 0.109455496 -0.14930607 0.009947881 -0.20338729
0.18008049 0.28117082 0.1337394 -0.027574833 0.44102892 0.034765635 -0.33702928 0.06966416
-0.19258341 0.028664296 0.25049585 -0.1960931 0.026793879 0.098603755 -0.22529906 0.1318656
-0.106096104 -0.1081114 -0.1356312 0.08093174 -0.087329336 -0.3405481 0.32640082 -0.12492012
-0.094931416 -0.04045966 0.19114716 -0.23989654 -0.3963893 0.13507558 0.045878954 0.24021678
-0.15088625 -0.2917015 0.12417156 -0.39834568 -0.32968244 -0.12898068 0.16967613 0.14814565
0.2310541 0.20457222 0.22026516 -0.2530761 0.19242734 -0.08456759 -0.26079002 -0.26349315
0.06412414 0.15141232 -0.4836652 -0.37761843 -0.113767706 -0.13962477 -0.12269515 0.18164656
-0.023218647 -0.05432378 -0.015134941 -0.15836775 -0.08927422 -0.07025961 -0.25702524 0.010818536
0.14479195 -0.13561821 0.14529113 -0.34417337 0.07142861 -0.40325 -0.2898438 0.1508303
0.18926805 0.026286198 -0.027519608 -0.0044480725 -0.018634751 0.11800233 0.03032159 0.13908526
-0.040581286 0.22485463 0.060519636 -0.066317216 -0.06948214 -0.24562597 -0.2775087 0.03617035
0.20354596 -0.25465825 0.2551809 -0.34733096 0.0374242 0.11343657 -0.023860771 -0.15301967
0.22343966 -0.03216421 -0.09227678 -0.024026867 0.08914995 -0.10870716 0.043113925 -0.048130274
-0.26491645 -0.1084832 0.35194725 -0.35565978 0.019753968 0.1621327 0.014497241 -0.11691169
0.1262217 -0.13098828 0.056035783 -0.13675456 -0.28410935 -0.24806501 -0.054900818 0.09982168
0.054767746 0.0144774085 -0.14574945 0.019820044 0.030533787 -0.019596346 0.015953464 -0.033548087
0.180809 0.047498655 0.086845584 -0.041777465 0.09951306 0.08996885 -0.06004278 0.04557783
-0.024877496 0.024299674 -0.05852697 -0.15479337 -0.0051038987 0.15873078 -0.2039635 -0.068292424
-0.27872616 0.17619114 0.3776714 -0.3243459 0.17517482 -0.04955962 -0.5531861 0.15941924
0.04560582 -0.05252053 -0.037959494 -0.11972819 -0.039171394 -0.25840285 -0.099978775 -0.3110914
-0.14288379 0.29975083 0.27014944 -0.18966518 -0.1580082 0.10263765 0.44843748 0.33443835
0.15163375 -0.073981956 0.12578413 -0.24200466 -0.1257951 -0.0707528 -0.23367356 0.07016484
-0.02800823 -0.048612464 0.062458523 -0.18448736 0.17768717 -0.19752342 -0.31557077 -0.12916946
-0.013244982 -0.006952019 0.32400402 -0.33187458 -0.007916413 0.081797175 -0.13249733 0.14408174
0.37737074 0.23626342 0.22833835 -0.11968195 0.101812005 0.018375352 0.12099596 0.11522885
0.104778945 0.16698726 -0.037831668 0.17340638 0.005418401 -0.05025929 0.26656273 0.017893419
00000000: d1ae 5cbe a07c a33d 6858 23bc 0a23 47be
00000010: e52f c83d 4333 04be 6c0a e4bd c25e ab3c
00000020: e28f 4e3e c598 803e b979 663e 7ddb b4bd
00000030: 0217 773e b9db 8b3c f001 96be e9e2 2b3e
00000040: ed6a 98be b8d4 b3bd 6e21 563e 36f8 45be
00000050: 1dbe 81be 2d79 0dbc 4bdf bebd d0c5 9c3e
00000060: 5236 d43e d73f bdbd bc82 8bbe 9425 133d
00000070: c222 003e d53f 4bbe f850 9bbd dadb 80be
00000080: c6ed 613e bc25 2ebe e7e4 5b3d ba2d 6b3e
00000090: 2138 fb3c 1b1c a4bd ebd5 febc b30a 5abe
000000a0: eca0 233e 8bbd 77be d372 883e 4056 b93d
000000b0: 342a e03d b1e3 18be 70fc 223c c244 50be
000000c0: 0567 383e 9ff5 8f3e fbf2 083e 9ee4 e1bc
000000d0: 8bce e13e 6966 0e3d 1a8f acbe 15ac 8e3d
000000e0: 9634 45be 63d1 ea3c fe40 803e a1cc 48be
000000f0: d67e db3c c4f0 c93d ccb4 66be c707 073e
00000100: ea48 d9bd 8269 ddbd e8e2 0abe 8abf a53d
00000110: b9d9 b2bd 525c aebe 021e a73e 1fd6 ffbd
00000120: 676b c2bd 07b9 25bd 15bc 433e 70a7 75be
00000130: 8af3 cabe 4151 0a3e 92eb 3b3d 63fb 753e
00000140: ed81 1abe e659 95be a94d fe3d f7f3 cbbe
00000150: 23cc a8be 8313 04be 94bf 2d3e 7eb3 173e
00000160: 7299 6c3e 617b 513e 318d 613e 3193 81be
00000170: ac0b 453e c631 adbd 4586 85be 93e8 86be
00000180: 8453 833d d50b 1b3e f7a2 f7be 3457 c1be
00000190: 0bff e8bd ccf9 0ebe 9847 fbbd 8e01 3a3e
000001a0: 0835 bebc 9d82 5ebd 8bf8 77bc 282b 22be
000001b0: 67d5 b6bd 45e4 8fbd d098 83be 3b40 313c
000001c0: 5744 143e 80df 0abe 33c7 143e 7e37 b0be
000001d0: 2a49 923d c976 cebe 6866 94be 4273 1a3e
000001e0: 7ccf 413e 2756 d73c cd70 e1bc 23c1 91bb
000001f0: e8a7 98bc 35ab f13d fc64 f83c 5e6c 0e3e
00000200: 9038 26bd 4b40 663e 70e3 773d 52d1 87bd
00000210: a74c 8ebd 6085 7bbe 9f15 8ebe 5c27 143d
00000220: 5a6e 503e 9162 82be 12a7 823e 5dd5 b1be
00000230: 1e4a 193d 6f51 e83d aa77 c3bc 30b1 1cbe
00000240: 5ecd 643e 9ebe 03bd 9cfb bcbd fed3 c4bc
00000250: 4094 b63d dca1 debd 3a98 303d 4024 45bd
00000260: 21a3 87be 712c debd 6e32 b43e 0a19 b6be
00000270: 13d3 a13c 1d06 263e d685 6d3c 656f efbd
00000280: 4340 013e cb21 06be c785 653d 6309 0cbe
00000290: c876 91be c104 7ebe aedf 60bd 4f6f cc3d
000002a0: 2554 603d a732 6d3c 583f 15be a55d a23c
000002b0: fe21 fa3c 8488 a0bc d7b0 823c b869 09bd
000002c0: ff25 393e f38d 423d 19dc b13d d91e 2bbd
000002d0: 81cd cb3d 9741 b83d 6bef 75bd d2af 3a3d
000002e0: e4cb cbbc 1c10 c73c fab9 6fbd 2782 1ebe
000002f0: 9b3e a7bb 528a 223e cfdb 50be e6dc 8bbd
00000300: 32b5 8ebe 736b 343e 255e c13e aa10 a6be
00000310: 0761 333e 07ff 4abd 9b9d 0dbf cc3e 233e
00000320: 2bcd 3a3d c41f 57bd 6a7b 1bbd 0e34 f5bd
00000330: 2f72 20bd 614d 84be acc1 ccbd 5f47 9fbe
00000340: 2150 12be f178 993e 0751 8a3e 9737 42be
00000350: e7cc 21be b033 d23d 9999 e53e 813b ab3e
00000360: e145 1b3e da83 97bd 8ecd 003e 12d0 77be
00000370: 6ed0 00be d8e6 90bd 1f48 6fbe 95b2 8f3d
00000380: 8471 e5bc dd1d 47bd 82d4 7f3d 41ea 3cbe
00000390: a0f3 353e 9443 4abe 7e92 a1be 0045 04be
000003a0: 7b01 59bc c3cd e3bb dbe3 a53e 77eb a9be
000003b0: d8b3 01bc 4785 a73d 61ad 07be 2a8a 133e
000003c0: bd36 c13e 0aef 713e 87d1 693e cf1b f5bd
000003d0: d082 d03d e887 963c bbcc f73d 1afd eb3d
000003e0: 5896 d63d b5fe 2a3e 61f5 1abd 7191 313e
000003f0: d88c b13b afdc 4dbd e97a 883e 3895 923c

lstm.weight_hh_l0 f4 [128, 32]
-0.53412044 -0.06745656 -0.48936465 0.3609862 -0.32531473 0.17629711 0.16491556 -0.043726645
-0.37203667 0.003799561 0.28718394 -0.31218758 -0.00793843 -0.06956689 0.48888853 0.23355258
0.36914173 0.13841926 0.015189322 -0.20309046 0.25487486 0.38661498 -0.16329809 0.11309754
0.2439676 -0.32265922 0.22868352 -0.08809105 -0.26651916 -0.33524245 -0.08970782 -0.20820501
0.35494882 -0.17337674 -0.15021838 0.2201778 0.06570959 0.026258515 -0.13897371 -0.1824672
0.020876449 -0.2851514 0.33919427 -0.18707629 0.15064698 -0.10113247 0.11645703 0.013364177
0.25362125 0.095773146 -0.225545 -0.4369286 0.25596473 0.17672701 -0.1452432 -0.19446902
0.06496819 -0.115949064 0.43830976 0.1732141 -0.089624666 -0.14657494 0.13740051 -0.29576182
-0.22117232 0.4329117 -0.53900623 0.24758153 -0.58516794 -0.1436398 0.19656977 -0.6197465
-0.93511045 -0.2611613 -0.2434703 -0.14467122 0.2541783 -0.04808209 0.3821327 -0.019506859
0.08754917 0.30819625 -0.1452168 0.18291643 -0.08454751 0.3707736 -0.5721531 -0.0005053744
-0.008101571 -0.4999001 0.5531317 0.02034085 -0.59814733 -0.38910368 0.27508375 -0.01623587
0.097948134 -0.20288852 -0.01816408 0.03039315 -0.42799792 0.107933186 0.0583376 -0.15412754
-0.329076 -0.13039033 0.017949445 0.06878075 0.31791595 -0.12577897 -0.046155557 0.12772745
0.20932305 0.016277725 -0.34413475 -0.18784189 -0.11681811 0.04431933 -0.0138363475 0.031324722
0.14778414 -0.44352758 -0.1076097 -0.0594002 0.08197644 0.11350749 0.453494 0.088027604
-0.088022895 0.50475836 -0.34064913 0.026578147 -0.27882072 -0.19840275 -0.088476114 -0.035172515
-0.13119382 -0.10204265 -0.105134025 -0.28967962 0.21249655 -0.02960239 -0.031586815 -0.017001992
0.27511877 -0.095563486 0.14312896 -0.2719289 0.42799914 -0.034840968 -0.27431467 0.010034912
0.5158584 -0.3790049 0.18867514 0.016871579 -0.34475067 0.10422532 -0.2608693 -0.4324688
-0.28525734 0.3250382 -0.12279755 0.4032445 0.018830791 0.35068354 -0.040680017 0.16486558
0.118286714 -0.08676642 0.2507927 0.24098854 -0.1279147 -0.16490147 0.23273487 -0.30138865
0.3368418 0.06281878 -0.37373105 0.21127345 0.44746742 0.12103004 0.155343 0.11758204
0.19408926 -0.36748385 0.27556816 -0.08791836 -0.45110747 -0.08419079 -0.37181485 -0.07440863
-0.20494859 -0.20404816 0.032355763 0.14389263 0.14663044 0.15089208 0.110309035 -0.15062264
0.264403 -0.22666891 0.8123172 -0.677923 -0.2656858 0.027228009 0.08628764 0.052825462
0.11544552 -0.105461285 0.14923474 -0.09798958 0.644822 0.29678077 0.14468852 0.076022096
-0.06471956 -0.28476772 0.37586147 0.2544196 -0.5167233 -0.26457366 -0.042458225 -0.12592939
-0.12382777 -0.04121465 -0.14074661 0.068703026 -0.47609854 0.18302043 0.37966913 -0.16318734
-0.09794209 -0.18131046 0.25372344 -0.22679387 -0.30676693 -0.08473842 0.13711186 0.18208833
0.54429543 -0.19963205 0.04747119 -0.017509945 0.32807752 0.14993158 -0.41311905 0.11246103
0.13078794 -0.09741662 0.27914372 -0.22841005 -0.5705074 -0.20627761 0.030307855 -0.17318095
00000000: 1ebc 08bf aa26 8abd 018e fabe 2fd3 b83e
00000010: a78f a6be 3b87 343e a0df 283e b61a 33bd
00000020: 977b bebe 0e02 793b c609 933e 0dd7 9fbe
00000030: 3010 02bc 1679 8ebd 994f fa3e 6828 6f3e
00000040: 2500 bd3e c7bd 0d3e a2dc 783c f2f6 4fbe
00000050: f57e 823e 66f2 c53e 9d37 27be af9f e73d
00000060: a4d2 793e 9733 a5be 032c 6a3e 1569 b4bd
00000070: 3375 88be e6a4 abbe bcb8 b7bd b233 55be
00000080: dabb b53e ac89 31be d9d2 19be 4a76 613e
00000090: c092 863d 191c d73c 204f 0ebe afd8 3abe
000000a0: 1605 ab3c 5dff 91be dfaa ad3e ed90 3fbe
000000b0: 3443 1a3e 8a1e cfbd 0681 ee3d 6cf5 5a3c
000000c0: a5da 813e b624 c43d 45f5 66be 1bb5 dfbe
000000d0: cf0d 833e edf7 343e a2ba 14be e322 47be
000000e0: 0b0e 853d b476 edbd 236a e03e 095f 313e
000000f0: 238d b7bd be17 16be b8b2 0c3e 186e 97be
00000100: ff7a 62be 9aa6 dd3e 50fc 09bf 0386 7d3e
00000110: 91cd 15bf 5016 13be 9649 493e b5a7 1ebf
00000120: 6663 6fbf efb6 85be 4750 79be b124 14be
00000130: a823 823e baf1 44bd e6a6 c33e d9cc 9fbc
00000140: fb4c b33d e6cb 9d3e b6b3 14be 724e 3b3e
00000150: 3f27 adbd 0ad6 bd3e a078 12bf 1a7b 04ba
00000160: 74bc 04bc e8f2 ffbe 0a9a 0d3f dba1 a63c
00000170: 2f20 19bf 9938 c7be c7d7 8c3e 1601 85bc
00000180: 0899 c83d 02c2 4fbe d6cc 94bc 0efb f83c
00000190: 8b22 dbbe 130c dd3d 68f3 6e3d 9cd3 1dbe
000001a0: a67c a8be 0b85 05be b70a 933c ecdc 8c3d
000001b0: e1c5 a23e 34cc 00be 9c0d 3dbd fcca 023e
000001c0: c858 563e dd58 853c 6e32 b0be a059 40be
000001d0: 553e efbd 3088 353d d9b1 62bc 5a4e 003d
000001e0: ba54 173e 0c16 e3be 7962 dcbd a04d 73bd
000001f0: 44e3 a73d 9d76 e83d 5e30 e83e d147 b43d
00000200: 5945 b4bd d837 013f 9069 aebe 6aba d93c
00000210: 97c1 8ebe 172a 4bbe f732 b5bd 0e11 10bd
00000220: ac57 06be bdfb d0bd 8250 d7bd e350 94be
00000230: b298 593e b680 f2bc 2d61 01bd c347 8bbc
00000240: 5edc 8c3e cab6 c3bd 6690 123e 443a 8bbe
00000250: b422 db3e 67b5 0ebd f972 8cbe 7969 243c
00000260: 4c0f 043f ee0c c2be 0e34 413e 4436 8a3c
00000270: 2983 b0be 1674 d53d a990 85be 8d6c ddbe
00000280: 400d 92be 686b a63e 487d fbbd 1076 ce3e
00000290: 0843 9a3c cb8c b33e 17a0 26bd 86d2 283e
000002a0: 4e40 f23d 98b2 b1bd e767 803e b3c5 763e
000002b0: 12fc 02be eedb 28be 0d52 6e3e 9d4f 9abe
000002c0: 8776 ac3e 22a7 803d ad59 bfbe 1158 583e
000002d0: 731a e53e 99de f73d 3c12 1f3e dace f03d
000002e0: 56bf 463e d826 bcbe 4517 8d3e 8b0e b4bd
000002f0: 8ff7 e6be 396c acbd 845e bebe 8d63 98bd
00000300: 0bde 51be 00f2 50be 7a87 043d 9758 133e
00000310: 4a26 163e 7483 1a3e b4e9 e13d d23c 1abe
00000320: d45f 873e e51b 68be 05f4 4f3f 5d8c 2dbf
00000330: f807 88be 460d df3c 93b7 b03d 835f 583d
00000340: b36e ec3d 16fc d7bd fed0 183e c3ae c8bd
00000350: 0e13 253f a6f3 973e 3a29 143e 79b1 9b3d
00000360: b08b 84bd 13cd 91be ea70 c03e 4943 823e
00000370: fa47 04bf 3376 87be ade8 2dbd a2f3 00be
00000380: 6a99 fdbd b1d0 28bd e11f 10be 2cb4 8c3d
00000390: 30c3 f3be b569 3b3e fe63 c23e 951a 27be
000003a0: dd95 c8bd 73a9 39be 0ae8 813e a73c 68be
000003b0: 8e10 9dbe 568b adbd 0d67 0c3e 5d75 3a3e
000003c0: f256 0b3f 586c 4cbe 2771 423d 0471 8fbc
000003d0: c7f9 a73e aa87 193e 5784 d3be f851 e63d
000003e0: 46ed 053e 5d82 c7bd edeb 8e3e 53e4 69be
000003f0: c60c 12bf 703a 53be 2e48 f83c 5956 31be

lstm.bias_ih_l0 f4 [128]
0.2896101 0.52188605 0.11817763 0.07798815 -0.075644545 0.24407218 0.35493168 -0.06620061
0.26607326 0.37435502 0.18160151 0.32241166 -0.02537306 0.09305828 0.2640839 0.12862605
0.10432957 0.24809498 0.19688381 -0.026371915 0.29195204 0.08260679 0.046662174 0.009308535
0.2812517 0.17945029 0.19034132 0.17384535 0.18824336 0.2424846 0.41058955 0.2312746
-0.0703635 0.2442293 -0.10706186 0.04835307 0.07720508 0.31650937 0.0706611 0.15759237
0.26395154 0.14748926 0.14222786 0.21645735 0.08348433 0.090236664 0.038674098 0.0030099186
0.10639339 0.34929976 0.0023237558 0.10780795 0.1865466 0.23381907 0.24607208 0.25682274
-0.057132542 0.07597974 -0.02069816 -0.025529727 0.04270256 0.109651 -0.06689649 -0.10698351
-0.090823814 -0.050920863 0.051204003 -0.055275854 0.0499387 -0.08634199 0.050477866 0.13248327
-0.07559631 0.0007921903 -0.019855807 -0.03541479 0.05779347 -0.2018684 -0.037089348 -0.048885725
0.14459044 0.06395542 -0.12833446 -0.118028216 0.114106 0.07179062 -0.08237426 0.020461915
0.17156586 0.07937663 -0.04791119 -0.0762949 0.07629275 -0.11822319 0.061563794 -0.07115015
0.19488184 0.1969635 0.3884984 -4.3709588e-05 0.09043063 0.079887636 0.25322685 0.2249135
0.33421046 0.40880314 0.0071237464 0.44312066 0.20121624 0.08106604 0.09192979 0.23794164
0.016138235 0.32120153 0.0754817 -0.020172367 0.14392553 0.0910239 -0.11117517 0.059365127
0.2283139 0.038721383 0.39339006 0.15053977 0.42505944 0.2569534 0.18271416 -0.009169397
00000000: c647 943e 539a 053f 1d07 f23d 40b8 9f3d
00000010: 87eb 9abd 0fee 793e 9bb9 b53e 2f94 87bd
00000020: c13a 883e 76ab bf3e bff5 393e 2413 a53e
00000030: 2adb cfbc 5795 be3d 0136 873e 8cb6 033e
00000040: beaa d53d 9c0c 7e3e e99b 493e ea09 d8bc
00000050: bd7a 953e c02d a93d d620 3f3d d382 183c
00000060: 3900 903e d1c1 373e d6e8 423e 8404 323e
00000070: dec2 403e e24d 783e cb38 d23e 40d3 6c3e
00000080: bd1a 90bd 3f17 7a3e 4043 dbbd de0d 463d
00000090: b21d 9e3d 840d a23e c4b6 903d e55f 213e
000000a0: a824 873e 6d07 173e 2ea4 113e ffa6 5d3e
000000b0: d5f9 aa3d 00ce b83d bb68 1e3d 0e42 453b
000000c0: c7e4 d93d 6bd7 b23e 274a 183b 6aca dc3d
000000d0: 1206 3f3e 446e 6f3e 52fa 7b3e 457e 833e
000000e0: d003 6abd 449b 9b3d 308f a9bc b823 d1bc
000000f0: e1e8 2e3d b490 e03d 0701 89bd 2c1a dbbd
00000100: d601 babd 6592 50bd 4abb 513d ef68 62bd
00000110: 868c 4c3d 12d4 b0bd e1c1 4e3d b2a9 073e
00000120: 3dd2 9abd feaa 4f3a a5a8 a2bc 190f 11bd
00000130: d8b8 6c3d 97b6 4ebe 00eb 17bd 663c 48bd
00000140: 840f 143e 0ffb 823d 1c6a 03be c7b8 f1bd
00000150: 68b0 e93d f606 933d d6b3 a8bd bf9f a73c
00000160: f6ae 2f3e 3790 a23d 863e 44bd 8040 9cbd
00000170: 603f 9c3d 001f f2bd 512a 7c3d 2bb7 91bd
00000180: 1b8f 473e cdb0 493e 43e9 c63e d054 37b8
00000190: b233 b93d 219c a33d f3a6 813e b94f 663e
000001a0: a21d ab3e a54e d13e 516e e93b b6e0 e23e
000001b0: a10b 4e3e f405 a63d b045 bc3d f9a6 733e
000001c0: 5534 843c 8774 a43e 2696 9a3d 8540 a5bc
000001d0: 3761 133e bd6a ba3d cfaf e3bd d928 733d
000001e0: 1ecb 693e 509a 1e3d 6c6a c93e 1927 1a3e
000001f0: 64a1 d93e 658f 833e 6c19 3b3e 3d3b 16bc

lstm.bias_hh_l0 f4 [128]
0.47082126 0.44903442 0.3194837 0.18390019 0.023024613 0.18973501 0.28419438 0.17603306
0.44545415 0.24598473 -0.063513584 0.23774421 0.21869016 0.09796143 0.15826952 0.05471737
0.24670833 0.11059651 0.055476755 0.24279383 0.21285355 0.07675505 0.22251412 0.1635249
0.090952955 0.012332295 0.07258587 0.31814465 0.2841444 0.075931095 0.21220095 -0.08583776
0.12226402 -0.095212 0.1501159 -0.1346269 0.09291157 0.2776806 -0.08198869 0.32076174
0.29943728 0.10250847 -0.047570076 0.2043958 0.18788624 -0.01877991 0.07022203 0.30850142
0.04947187 0.041668303 0.08778621 -0.056789428 0.11758816 -0.053325303 0.20320907 0.11155278
0.041754313 0.025192522 0.15339342 0.03462303 -0.09021979 -0.093330845 0.1865742 0.12436868
-0.14309137 0.06528867 -0.19485113 -0.0061523407 0.03634952 0.11991415 0.16215092 0.121082485
0.13620354 0.060031675 -0.14814664 -0.013277534 0.12925796 0.022965642 -0.012617594 -0.011067232
-0.07607885 0.04014833 0.17687775 0.12236618 0.0094737755 0.1748818 0.14603002 -0.04984257
-0.049181808 0.02189085 0.1069441 0.015812503 -0.13483614 -0.13605087 -0.060894255 -0.04066258
0.2841901 0.47210297 0.19521311 0.23470749 0.060398787 0.17041034 0.12670025 0.15164064
0.33179677 0.1454175 0.34380364 0.24544793 -0.022907361 0.17988847 0.19171357 0.17043366
0.109714925 0.020990128 -0.044366702 -0.0542903 0.16237533 0.08428844 0.020758312 0.14779674
0.07705073 0.14437506 0.13907462 0.3230589 0.07952722 0.13998564 0.25373662 0.17949267
00000000: 7c0f f13e d7e7 e53e 5e93 a33e 5550 3c3e
00000010: 1d9e bc3c e549 423e ed81 913e 0342 343e
00000020: 9112 e43e 6ce3 7b3e 6913 82bd 3873 733e
00000030: 50f0 5f3e 01a0 c83d 6811 223e 521f 603d
00000040: 1ca1 7c3e 6c80 e23d 983b 633d f29e 783e
00000050: 48f6 593e c031 9d3d beda 633e 1273 273e
00000060: 8b45 ba3d 650d 4a3c e7a7 943d dbe3 a23e
00000070: 607b 913e c381 9b3d 354b 593e b5cb afbd
00000080: 8f65 fa3d 82fe c2bd fcb7 193e a2db 09be
00000090: 6c48 be3d 272c 8e3e b0e9 a7bd e23a a43e
000000a0: d84f 993e f6ef d13d d7d8 42bd 224d 513e
000000b0: 4065 403e 53d8 99bc 91d0 8f3d e6f3 9d3e
000000c0: 04a3 4a3d 62ac 2a3d 42c9 b33d 089c 68bd
000000d0: 10d2 f03d a26b 5abd 0a16 503e c975 e43d
000000e0: 9206 2b3d 8c60 ce3c 2a13 1d3e e1d0 0d3d
000000f0: 27c5 b8bd 3e24 bfbd 4f0d 3f3e 02b5 fe3d
00000100: 8b86 12be 11b6 853d 0e87 47be 9399 c9bb
00000110: 3ce3 143d 8d95 f53d e40a 263e 18fa f73d
00000120: f178 0b3e c6e3 753d c1b3 17be 048a 59bc
00000130: 335c 043e 7122 bc3c 06ba 4ebc 5653 35bc
00000140: 3acf 9bbd 9372 243d 711f 353e 1f9b fa3d
00000150: e537 1b3c 3714 333e e588 153e b927 4cbd
00000160: dd72 49bd 7154 b33c 8205 db3d 3989 813c
00000170: 7c12 0abe eb50 0bbe 416c 79bd ce8d 26bd
00000180: 5d81 913e 7bb7 f13e f2e5 473e 2957 703e
00000190: b864 773d 0c80 2e3e b6bd 013e af47 1b3e
000001a0: 44e1 a93e 53e8 143e 0807 b03e b456 7b3e
000001b0: 38a8 bbbc af34 383e 9050 443e 2986 2e3e
000001c0: 38b2 e03d 7df3 ab3c dcb9 35bd 815f 5ebd
000001d0: b845 263e 6b9f ac3d 560d aa3c 0758 173e
000001e0: c6cc 9d3d 0ed7 133e 9469 0e3e fa67 a53e
000001f0: 2bdf a23d 6558 0f3e c4e9 813e edcc 373e

fc.weight f4 [1, 32]
-0.12450529 0.2437479 0.50613904 -0.11826359 0.2584685 -0.1836381 0.5018852 0.24757305
0.27158353 -0.4653831 0.39354023 -0.26946503 -0.24620299 0.29142332 0.0873253 -0.1988059
-0.38903102 -0.17175165 0.22954202 0.44356537 0.13382578 -0.18372287 0.24528576 0.3622879
-0.2722017 0.44634283 0.2612742 0.37269253 -0.1094924 -0.15883145 -0.37017483 -0.058032196
00000000: a1fc febd 0d99 793e 5492 013f 2e34 f2bd
00000010: fc55 843e a00b 3cbe 8c7b 003f ca83 7d3e
00000020: ff0c 8b3e b246 eebe 1b7e c93e 52f7 89be
00000030: a31c 7cbe 7035 953e 9bd7 b23d c693 4bbe
00000040: 132f c7be aadf 2fbe 100d 6b3e 001b e33e
00000050: a009 093e d921 3cbe 312c 7b3e cd7d b93e
00000060: 055e 8bbe 0c87 e43e bbc5 853e 8ed1 be3e
00000070: 8d3d e0bd b6a4 22be 8e87 bdbe 2bb3 6dbd
