fut_opt_lih_features_prepare/bm_fut_lih_vol_02.pth (torch, 26418 bytes, 6 tensors)

embedding.weight f4 [57, 8]
00000000: d775 81bf 720a 703f bbf3 fd3d 03ad 3a3e
00000010: 9a31 b9be a9c5 ebbe 89c2 38c0 b1ba a7bc
00000020: 3fa4 acbf a094 f6be 3477 ab3e 1491 233f
00000030: 61dd 853d eb9f d2bc 8062 b5bf 8cfe 15c0
00000040: 7485 953f c9ba 32bf 2c7b d93e cf03 0d3e
00000050: 2205 e13f d861 eb3e b19c ed3f 44b6 ac3f
00000060: d2e7 cabe e08a 09bf 6b18 36bf 4384 2abf
00000070: 58f9 9ebc c276 533f bd8d 28bf c268 8dbf
00000080: 011d 42bf 2b92 cb3f e61f 2640 3614 323f
00000090: 61a5 e53d 23bc 0140 bf54 9f3e e3a3 223f
000000a0: 7e8a 96be f99e f3bf 927f 54bf e60d 0e3f
000000b0: a570 533f 4c7e 82bf e79d 1ac0 d496 cf3f
000000c0: 8b68 b7be 3324 4a40 b98a b93e 1c06 f73f
000000d0: 620c f13f 1974 213f 3ee8 f73d bef4 603f
000000e0: 5e1d 56bf 3fb1 60bf 2e6d 6c3e 2b78 e4bf
000000f0: e315 953f cdb2 97be 50f0 cabd 6b52 b5bf
00000100: b7fa 37be 73ae 9d3e 9989 be3e f1a8 393f
00000110: 6e2f 843e 682a 9fbe 94f7 1ebf 04e1 cd3e
00000120: 4a31 e33f fd14 f93f 0276 a13f 4d20 1dbf
00000130: ef4f 9dbf 5bbc a5bf 063f 183f 5668 c1bc
00000140: 493b 5d3f cdfd 4c40 5dc9 38bf 8648 7fbe
00000150: e138 353d e520 b03e 1260 0440 5870 04bf
00000160: 0e23 9d3f ada5 473f 9950 d7bf 3a54 18bf
00000170: 550b 8dbf 5893 8dbf df30 4fbf 52d8 c93f
00000180: 1b66 4abe 5bef bcbf 4b73 3e40 f709 6bbe
00000190: 6770 8fbf e4a5 f2bf 0622 22bf 26cf 81bf
000001a0: 2489 fdbe 3436 acbf 5089 373f 472a 613f
000001b0: a172 953e 4137 bc3f dd4c e3bf 3eb3 26be
000001c0: 5236 28bf a9e7 633c 6e58 aabf ab64 c1bf
000001d0: 56bb 453e 7c9c f7be 3b15 e3bf 4e77 813c
000001e0: 77dd a4be 72db 7e3f d590 19bf 44a2 e8be
000001f0: 2495 4dbf 918e 0c3f d2cf 5a3f 71fc a3bf
00000200: b133 6e3f 7f06 08c0 d6d3 9d3f 09da cdbf
00000210: b9c8 96bf 001a e0be 61a6 ca3f 0bbd 42bf
00000220: 229e 53bf 2ca6 803f 2a58 25bf bf66 0440
00000230: 9be8 d6be cde1 5ebf 8b68 f63d f260 69bf
00000240: daa0 1440 4728 89bf 575f 25bf bb72 51bf
00000250: d2ed ff3f 731e d03f cec7 b6bf 4ab1 cbbf
00000260: 6414 b23f 7cc6 8c3d 8e66 6a3f 3ae7 263f
00000270: 9378 4d3f 5ed3 87bf 6ae8 80be 0709 f6be
00000280: ddf3 89bf 62e2 c33e a333 913f 96aa bb3e
00000290: 7fe3 1cbe f2c5 9bbf cd93 a1bf 0e26 33c0
000002a0: 2a8e 603f 86c6 3cbe 81a9 79bd c103 94bf
000002b0: e630 8cbc d862 e33e de34 703f ff7d 03bf
000002c0: 0fbd 1ebf 3b51 9abf 33e7 36bf 3a96 12c0
000002d0: d211 5bbf 6e9f 183f fdc7 30bf 0573 e4be
000002e0: fc46 c93f d73d 833f ec26 8dbf 8f3d 8c3f
000002f0: 1709 abbf 91d9 883f 3e13 be3d 210b 1dbf
00000300: bc02 733f aae6 3a3e 303f 7ebf 7ff7 483f
00000310: 999a 38bd 1d6a babf 06be fe3f 18bd 26be
00000320: d27a 60c0 db27 aa3d f6c0 1abf 6902 a2bf
00000330: 9939 b13f 7a59 39bc 1628 ea3e 675f 91bd
00000340: ec59 663e 0679 9ebf 0477 ccbf 6252 a73f
00000350: 775d 133f 42e1 0f40 2e92 a73f da4d a2bf
00000360: 00eb a3bf b78d 0140 74a7 36be e199 8cbf
00000370: 9df4 dfbe 1be9 403c a727 5a3f a0c3 9b3f
00000380: fbf1 bdbf a9ec fe3e 5044 8abf 7f43 e3be
00000390: 1efe aabf c4db ca3f 30b5 24bf e0c3 803f
000003a0: 3caf 7bbf b747 97be b73c b9bf e784 1ebe
000003b0: 990f e2bd 19af 4f3f 7800 d13f f164 e3be
000003c0: c7a3 503f 50c8 c5bf 7994 723e d57c e2bf
000003d0: b026 9a3f 2b08 0fc0 b149 2c3f 8ad6 643f
000003e0: cb17 b53e 2e22 bebf cabf 563f 2437 203e
000003f0: cee8 6e3f 4d73 ba3f 7568 383f ef63 843f
-1.0114087 0.9376594 0.124000035 0.18230061 -0.36170655 -0.4604924 -2.8868735 -0.020474764
-1.3487624 -0.48160267 0.33489382 0.63893247 0.06536365 -0.02571102 -1.4170685 -2.3436613
1.1681352 -0.6981626 0.42476785 0.13770984 1.7579691 0.45973086 1.8563443 1.3493123
-0.3962999 -0.5372753 -0.7113101 -0.66608065 -0.019406006 0.82603085 -0.65841275 -1.1047595
-0.75825506 1.5903982 2.595697 0.6956209 0.11213184 2.027108 0.31119344 0.6353132
-0.29402536 -1.903289 -0.83007157 0.5548996 0.82593757 -1.0194793 -2.4158876 1.6217904
-0.35821947 3.1584594 0.3623865 1.929874 1.8831904 0.63067776 0.121048436 0.87873447
-0.8363856 -0.87770456 0.23088524 -1.7849172 1.1647304 -0.29628602 -0.09909117 -1.4165777
-0.17966734 0.30797157 0.37214354 0.7252341 0.25817436 -0.3108704 -0.62096524 0.40210736
1.7749417 1.945953 1.2614138 -0.6137741 -1.2290019 -1.2948107 0.59471166 -0.023609322
0.86418587 3.2029908 -0.72182256 -0.24930009 0.044243697 0.34400097 2.0683637 -0.5173392
1.2276323 0.77987176 -1.6821471 -0.5950352 -1.1019083 -1.1060591 -0.80933946 1.5769141
-0.19765513 -1.4760545 2.975787 -0.2295302 -1.1206177 -1.8956876 -0.63333166 -1.0141342
-0.49518692 -1.3454041 0.716939 0.87955135 0.29189017 1.4704362 -1.7757832 -0.16279313
-0.65707886 0.013910213 -1.3308237 -1.5108846 0.19309744 -0.48361576 -1.7740854 0.01580396
-0.32200214 0.99553597 -0.5998662 -0.454363 -0.80305696 0.5490504 0.8547336 -1.2811414
0.93047625 -2.1253965 1.2330272 -1.6082164 -1.1780006 -0.43769836 1.5832025 -0.76069707
-0.82663167 1.0050712 -0.6458765 2.0687711 -0.4197434 -0.87063295 0.12031659 -0.9116355
2.3223176 -1.0715417 -0.645986 -0.8181569 1.9994452 1.6259292 -1.4279726 -1.5913479
1.3912473 0.068737954 0.91562736 0.65196574 0.80262107 -1.0611379 -0.25177318 -0.48053762
-1.0777546 0.38258654 1.1343883 0.36653584 -0.15321158 -1.2169783 -1.262323 -2.7991977
0.87716925 -0.18435106 -0.060952667 -1.1563646 -0.01711316 0.4441135 0.9383067 -0.5136413
-0.6200723 -1.205604 -0.7144653 -2.290419 -0.85574067 0.5961827 -0.6905516 -0.44619003
1.5724788 1.0253247 -1.1027503 1.0956286 -1.3362149 1.0691396 0.09281014 -0.61345106
0.9492605 0.18252054 -0.99315166 0.7850265 -0.04506931 -1.4563633 1.990174 -0.16283071
-3.5074964 0.08308383 -0.60450685 -1.2656986 1.3845702 -0.011312837 0.45733708 -0.07098275
0.2249524 -1.2380683 -1.5973821 1.3072016 0.5756449 2.2481236 1.3091486 -1.2680008
-1.2806091 2.0242746 -0.17837316 -1.098446 -0.43741313 0.011774327 0.85216755 1.2169075
-1.4839472 0.49789932 -1.0802097 -0.44387433 -1.33588 1.5848317 -0.6433897 1.0059776
-0.9831426 -0.29546902 -1.4471654 -0.15480386 -0.11038131 0.8112655 1.6328268 -0.4441295
0.81499904 -1.5451756 0.2368945 -1.7694346 1.2043056 -2.2348735 0.67299944 0.8938986
0.35369715 -1.4854181 0.83886397 0.15646034 0.9332398 1.4566437 0.7203439 1.0342997

lstm.weight_ih_l0 f4 [128, 8]
00000000: 5abc 203e aec2 74be 7104 f13d dd04 51bd
00000010: 1250 de3e 1cf5 a03e 0711 f73c 991b a33d
00000020: 399d 67bf 2d72 1a3e 08de f8be 1a9d 873d
00000030: 65f1 fcbc a2b3 b53b 9801 d8be 7be8 ef3c
00000040: c4b3 3bbf 54df a33d 9933 21be 8e7b 033d
00000050: 5495 be3e 4017 9f3e c85a 1438 8e63 3fbe
00000060: ce68 f93d 1200 01bd 1669 c6be 27a0 b3be
00000070: f0a4 3a3d 5e37 cb3e 7230 8e3e 2a4f de3d
00000080: 3b76 b53d 0390 153d c9d3 1dbc ad6c 09be
00000090: 96e0 b53d 2b1f 1d3e fd5b b0be 5eee 2abf
000000a0: e7cf 52be 9b21 813e a299 7abe d94c 0a3e
000000b0: dc14 a23e 5a95 c4bb abd8 b5be 67aa 4f3e
000000c0: f888 88be fb8f 3abf ef7e 1fbd c1e2 263e
000000d0: c11f 0abe 3599 143f 13b7 f83d 16a7 673d
000000e0: 0ef3 8bbb 2a24 8fbe 0f5d 72be 0633 cb3e
000000f0: 74cf 83bd 8c5e b53e 24be 3f3e f222 573e
00000100: a558 9dbe cc6c a6bd ee57 d43e 29e3 9d3e
00000110: 69e0 27be cefc 953d 2c57 853c 7c0c 973d
00000120: 979f 4c3c 1301 113d 1a4e bcbd 8431 703c
00000130: f461 55bd 5b59 83bd 5b1c 263e d0a3 2d3e
00000140: 23b8 98bd fde5 68bd 2042 973e ff35 293e
00000150: 9c58 0fbe 4f2d 773d f07a 2ebe a32e 103e
00000160: dc90 b93e 3c54 b8be 4b7a b03e aaa5 463e
00000170: b100 9ebe 08ad 2f3f 9b93 ce3e b500 c3bd
00000180: b8d8 84bd 7c88 55bd d36a 8d3d 90e6 fd3b
00000190: 8dcd 803d 3d0a 313e 3e2f 3a3e 4a82 55be
000001a0: eda1 fcbc 4a99 00bf 3d14 e2bc 1146 043f
000001b0: a6f6 a13d b62c 36be d282 463e db2b 88be
000001c0: 6858 703e 0a2c 3bbf 8d68 953e e97c d6be
000001d0: a0ab f43e 3e98 e1bd ad2e 43bf 781d 9bbd
000001e0: b77e d1bd 3bdf 503e dd18 d83d a100 84be
000001f0: 26f4 7f3d c80b 753e 0c00 aa3d 193a 153e
00000200: 370d a8be 7f45 a53e 833b 14be 545a 3dbe
00000210: 5a5e f6be 7f4b 123c e3e1 063d ff76 2c3e
00000220: 2cf0 94be 6ce2 14be bb44 843e ee48 75be
00000230: 41c3 803e d24c 8cbd b552 8f3c 0a0c 073c
00000240: 81f2 fdbe c532 a1be a0ee 2cbe 8228 703e
00000250: 4cc8 81be 0143 963d 65a5 28bd a2c4 c23c
00000260: f199 65be c7c0 923e 0814 263d 30ec 04bf
00000270: 9036 483e 5c00 323c d8d6 e6bc db1c 7cbd
00000280: bf0f 343e d777 97bd a341 cc3e e69c 7e3e
00000290: 12ec 0e3f cf0b 80bd 98dc 38be 9ab0 8c3e
000002a0: 2c0d 86bd 0439 6c3d 3364 913d bddc c6be
000002b0: 95c1 3dbe 3e9d 6cbe 7ca1 b33d 455c b03d
000002c0: 455f 9cbe 0b86 4ebd ae4f 3c3e 2479 c0bd
000002d0: 2caa 633e c1b9 d83b 2105 30bc d9a5 313f
000002e0: fe67 103f 1bea a13c 2105 a43e c994 edbe
000002f0: 657a 1abc aca3 a7be 1700 a7bd a9e6 6e3d
00000300: d111 443d a98b 8c3e 68f2 363e ec6c e4bd
00000310: 55d0 febc b271 c7bd 7372 d8bc 8c12 463e
00000320: d8f0 e7bd 6153 21bd 7908 913e b155 8dbd
00000330: 542d 0fbd a0ca 3e3d 567f 333e b2c0 6cbe
00000340: fc23 f13e e5b2 8dbe a73d ca3e 1e1b 213e
00000350: aac7 fbbd 7940 7a3d e27d fb3d b11c a6bd
00000360: cbe9 5abe e92a a43d 4784 773d cf81 c3bc
00000370: 9799 733e 810e 6abd a181 a9bd d272 52be
00000380: 3c31 6d3d df70 173f 443e ad3e 1286 a4be
00000390: 9958 c1be 7d8e aebe 9195 ae3e 33d8 813d
000003a0: 3cf6 39be 213f e33e 51a1 c03e eeed d6be
000003b0: 4a4d b83d 87ba a23e aee6 60be bab1 9b3d
000003c0: bab2 f83e 6152 4fbd 563c ba3e c947 16be
000003d0: 11a7 04be 679d 83bd 5af0 ab3e 8b9f b2be
000003e0: 60e3 0ebf 39b9 bbbe fd4e 02bd f36e 893e
000003f0: fd72 54bd 399e 613d b73e 82be 8c2a 89be
0.1569685 -0.2390239 0.11768425 -0.05103003 0.43420464 0.31437004 0.030159486 0.07964248
-0.9047428 0.15082617 -0.48606896 0.066217616 -0.030876825 0.0055450955 -0.42188716 0.02928566
-0.73321176 0.08001581 -0.15742339 0.032100253 0.37223303 0.31072426 3.5370496e-05 -0.18690321
0.12178193 -0.031494208 -0.3875205 -0.35083124 0.045567453 0.3969068 0.27771336 0.10854943
0.08860441 0.036514293 -0.009633013 -0.13420363 0.08880727 0.15343921 -0.3444518 -0.6676997
-0.20587121 0.2522095 -0.24472669 0.13505878 0.3165654 -0.0059992494 -0.35516867 0.20279847
-0.26667 -0.72875947 -0.038939413 0.16297437 -0.13488676 0.58046275 0.12144294 0.05655583
-0.0042709177 -0.27957278 -0.23668312 0.39687365 -0.06436053 0.35423696 0.18724877 0.21009424
-0.30731693 -0.0812622 0.41473335 0.30837372 -0.163942 0.07323609 0.016276918 0.07375428
0.012489221 0.035401415 -0.09194584 0.014660243 -0.05209537 -0.064135276 0.16221754 0.16957021
-0.07456996 -0.05685996 0.29542637 0.16524504 -0.13998646 0.060345944 -0.17039084 0.1408029
0.3624333 -0.36001766 0.34468302 0.19399133 -0.30859903 0.686234 0.4034699 -0.09521619
-0.06486648 -0.052132115 0.06905141 0.0077484325 0.06289206 0.17289062 0.18182084 -0.20850483
-0.030838931 -0.502339 -0.027597541 0.5166941 0.079083726 -0.17790493 0.19385841 -0.2659596
0.23471224 -0.73114073 0.29181328 -0.41892174 0.4778719 -0.11015366 -0.76243097 -0.0757398
-0.10229247 0.20397656 0.10551617 -0.2578173 0.062488697 0.23930275 0.0830079 0.14572944
-0.32822582 0.32279584 -0.14475827 -0.18491489 -0.4811886 0.0089291325 0.032930266 0.16842268
-0.29089487 -0.14539498 0.25833687 -0.23953602 0.25148967 -0.0685059 0.017495492 0.008242616
-0.49599078 -0.31484047 -0.16887903 0.23452953 -0.25348127 0.07336999 -0.041173358 0.023775402
-0.22422005 0.28662702 0.040546447 -0.51922894 0.19552064 0.0108643435 -0.028178617 -0.061550956
0.17584132 -0.073959045 0.39893827 0.2486454 0.55828965 -0.06252252 -0.180529 0.27478486
-0.06545481 0.05767156 0.070991896 -0.38840285 -0.18530877 -0.23106858 0.08771035 0.08611349
-0.30541435 -0.050420802 0.1838977 -0.09398106 0.22232884 0.0066139405 -0.01074341 0.6939369
0.5640868 0.01976495 0.32035163 -0.46402577 -0.009428595 -0.3274206 -0.08154314 0.058325443
0.047868554 0.27450302 0.17865908 -0.11153588 -0.0311052 -0.097384825 -0.026421761 0.19343013
-0.11325234 -0.039386157 0.28326777 -0.0690111 -0.034955338 0.046579957 0.17529044 -0.23120382
0.47097766 -0.27675548 0.39500162 0.15733 -0.12293942 0.061096642 0.122798696 -0.08110941
-0.21378247 0.08015997 0.060428884 -0.023865608 0.23789059 -0.05714274 -0.08276678 -0.20551613
0.05790828 0.591566 0.33836567 -0.32133538 -0.37762907 -0.34093085 0.34098485 0.06340065
-0.18160337 0.443841 0.37623075 -0.419784 0.08999117 0.31782934 -0.21962997 0.07602258
0.48573858 -0.050615672 0.36374158 -0.14675821 -0.12954356 -0.064265065 0.3358181 -0.34887347
-0.55815697 -0.3666475 -0.03181361 0.2684246 -0.051867474 0.055082534 -0.25438473 -0.26790273

lstm.weight_hh_l0 f4 [128, 32]
00000000: 670f 8e3e 423f ad3e 89d2 20be feb2 0b3f
00000010: 66b8 04bf e481 12be 403a 143d 25fe 7c3e
00000020: 1dd9 24bf 4ba7 983e 467d e83e 02ef ddbb
00000030: 4fb8 963e c8fb 533e ee49 003e dbb3 203f
00000040: 24a2 8c3d 63af 073e 75fd eebe 9ecc 783e
00000050: d55f 133e d04c b83e 1a2b f3bd bbf0 de3d
00000060: 0a37 983e 4e01 633d d07a afbd b661 1c3e
00000070: 4fe1 1d3d 66fc 9fbe 0cb3 153e 7a0c 51be
00000080: 0ffe 223e a06c 5b3f d6de adbe 31fe bc3e
00000090: ecc3 14be 9af2 a3be 603e b1be 05ca a53e
000000a0: 10dd 52bd 25b1 90be 1126 b1be e2c8 82bf
000000b0: 4ac7 b5be cc87 873f 8bb3 8f3e 7a30 153e
000000c0: 3972 fabe 162d 4cbe 731b bbbc 5668 eb3e
000000d0: ea83 6c3e 293d 403f 2d57 12be f43c c13d
000000e0: eeab da3d 3cd1 ecbd c413 c73c 9fb4 873e
000000f0: 4cff 0b3f b0f8 e33e 2a41 f03c 6f78 38be
00000100: 805e b73d 6e98 eabe ca53 d7bd d4ca a83e
00000110: 2b3a 88be f24b 513e 54cb 593e 3bc4 603e
00000120: 0e0c 10be 16a7 e6bd b6a5 d53e e3b3 febd
00000130: 9f2e 26be 6112 f1bd 2394 923e 560b 4abd
00000140: fcf2 f63b a666 0d3e 4c5f 11be ab09 913d
00000150: 27af bbbd 20d6 d9bd 104f f43d c828 bfba
00000160: fdcf 87bd 1cc9 fc3d d526 c0bd 9fc9 b8be
00000170: 2adc 31be 55ae 34be cf7b 30be fc0a d43d
00000180: 9d92 023f 6269 123d e3dc 0fbf 6175 583f
00000190: bebb 853d f7f9 8abd 8924 c0be db5c 22be
000001a0: b3e1 d4be 4e7a 473e f605 0a3e fef9 383f
000001b0: eaac a4be fb3b 013f 1d31 a1bc ff2c 4dbe
000001c0: df08 06bf 568f 983e 96d6 d9be d0ae 193f
000001d0: ad94 01be 0f3d 083f f12d 263d 9ede fabd
000001e0: ebd6 c13e 12ac 9d3f 5abb f33d 41f9 be3e
000001f0: a93e ed3e e68d 80bd 2e1d 793f 5fab b8be
00000200: c80a 97bf 9cf2 c33e 55da 71bf 3977 c03e
00000210: 793a 31bf 081e 16bf 69d6 90bf 8b08 cd3e
00000220: d500 5bbf 7263 08bf 61ba 2c3e 5dbd acbe
00000230: f5c3 ebbe bd4d c33e 6ae3 883e 3cf4 d7bc
00000240: 1fef 67bf 44b3 873f 8723 15bf 4428 933e
00000250: ba4b 033f 9aed 853f 302d 503f 7d7c 8f3e
00000260: 312e ebbe cc6a 133f 0177 b3be f609 3c3e
00000270: 35c5 a9be bc36 7b3f dd06 64be 8e92 a1bd
00000280: 2893 fa3e fa30 c43e 11bc 10be c0b1 353f
00000290: 4f93 26bf 84ba 41be 0921 7dbf 4be8 163e
000002a0: 2a29 fdbe 67d8 3abd 3abf 4c3f 48b3 eebe
000002b0: 2e8c 033c e246 803e a076 233f 67da 2b3e
000002c0: 35e1 88be 7583 6e3c f70e d3be 9473 c73e
000002d0: e3b3 6abc d90f bd3e 0771 423e 1d77 d1be
000002e0: 3924 c8be 864d 0fbe d7c9 c3be 7d0a 1f3e
000002f0: 521c 0e3d f77f 3cbf 6a8a 9fbe 7192 fc3e
00000300: 3971 0d3f 4b71 1d3f aa9d 27bf 974d 2e3f
00000310: b5a6 ecbd c4fd 403e eb62 d5be 554e 1fbd
00000320: da53 943e 50c4 a43d e117 f8bd 1355 babd
00000330: 3bf9 9dbd 9782 8abe eea4 29be 2103 213f
00000340: 987d 823d 2330 9e3d 11eb ccbd 26b1 de3c
00000350: ed95 c7bd fdc1 39be 8bea 143e b18b 253f
00000360: c0f5 173e a7c5 613e df05 233f 6b56 75bd
00000370: 27d0 b63e 27ca 38bf 07c0 963e 94bb fd3e
00000380: 353f 523e f42a af3e e4fa f3be 2f22 c63e
00000390: 16d0 a4bd f193 2f3e fb45 e0be ff5e cf3e
000003a0: 83fe d73e 1398 243e 0dc7 dd3d f3bd 78be
000003b0: cd72 cbbe fedd f63e bece 1c3f a62b 1f3d
000003c0: f356 0dbd acbd 023e 3ba0 34be d559 3dbe
000003d0: 354e b53e f516 3b3e 9f40 073e cdce 43be
000003e0: c698 1fbe 449a 963a 2acb a13e 82cf 94be
000003f0: 8e30 c43e 08f2 d93e 19b9 9ebe 2b2b fe3d
0.27746126 0.33837324 -0.15705313 0.54569995 -0.5184387 -0.14307362 0.036188364 0.24706323
-0.6439379 0.29815134 0.45408076 -0.0067728767 0.2943749 0.20701516 0.12528202 0.6277444
0.06866863 0.13250498 -0.46677747 0.24296805 0.14392026 0.35996103 -0.11873455 0.108857594
0.2972949 0.055421166 -0.085683465 0.15271649 0.03854495 -0.31247252 0.14619082 -0.20414916
0.15917228 0.85712624 -0.33959073 0.36912683 -0.14527863 -0.32021028 -0.346179 0.3238069
-0.051480353 -0.2826015 -0.34599355 -1.0217555 -0.35503608 1.0588317 0.28066668 0.14569274
-0.4891527 -0.19939074 -0.022840237 0.4597804 0.23097196 0.75093323 -0.14291067 0.09435454
0.10677324 -0.11563346 0.024301417 0.2650499 0.5468643 0.4452567 0.029327948 -0.18014692
0.08953571 -0.4581942 -0.10514028 0.32967246 -0.2660688 0.20439127 0.2126897 0.21949856
-0.14067098 -0.11262338 0.4172799 -0.124366544 -0.16228722 -0.117710836 0.28628644 -0.049327217
0.00753629 0.13808689 -0.14196509 0.07081922 -0.09164267 -0.10636544 0.119291425 -0.0014584297
-0.066314675 0.12343046 -0.093824066 -0.36091325 -0.17369142 -0.17644627 -0.17234729 0.103536576
0.51004964 0.035745032 -0.5619642 0.84554106 0.065299496 -0.06785958 -0.37527874 -0.15855734
-0.41578445 0.1948025 0.13478836 0.7225646 -0.32163173 0.5048215 -0.01967674 -0.20036696
-0.52357286 0.29796857 -0.4254653 0.6003237 -0.12654372 0.5321817 0.040571157 -0.12249492
0.37859282 1.2318137 0.11900969 0.3729954 0.46336868 -0.06277065 0.9731015 -0.36068246
-1.1800165 0.38271034 -0.94473773 0.3759096 -0.6922985 -0.58639574 -1.1315433 0.4004558
-0.85548145 -0.5327674 0.16867973 -0.33738223 -0.4604794 0.38145247 0.26736003 -0.026361577
-0.90599245 1.0601583 -0.58257335 0.28741658 0.51287425 1.0463135 0.8131895 0.28024665
-0.4593368 0.57584834 -0.3505173 0.18363175 -0.3315827 0.98130393 -0.22268243 -0.07889281
0.48940396 0.38318616 -0.14134242 0.7097435 -0.65068525 -0.18918806 -0.9887853 0.1473705
-0.49445468 -0.045616534 0.7997929 -0.46621156 0.008029027 0.2505408 0.6385288 0.16782533
-0.2673432 0.014557709 -0.41222355 0.38955367 -0.014325115 0.36926153 0.18988429 -0.4091119
-0.39090136 -0.13994417 -0.3823993 0.15531345 0.034694977 -0.7363276 -0.3116029 0.49330476
0.5525089 0.61500996 -0.6547495 0.6808714 -0.11555234 0.18846804 -0.4167703 -0.038893063
0.28970224 0.08045256 -0.121139295 -0.09098258 -0.077135526 -0.27052757 -0.16566822 0.628954
0.06371611 0.07724025 -0.10005773 0.02718408 -0.09745393 -0.18140407 0.14542596 0.6466628
0.1483984 0.22048055 0.63680834 -0.059896868 0.35705683 -0.7218346 0.2944338 0.49557173
0.20531924 0.34212458 -0.47652352 0.38697955 -0.08047502 0.17146279 -0.4380339 0.40502164
0.42186365 0.16073637 0.108289815 -0.2429121 -0.39736024 0.48216242 0.61252964 0.038859986
-0.03450675 0.12767667 -0.17639248 -0.184913 0.3541123 0.18270476 0.13208245 -0.19121857
-0.15585622 0.0011490067 0.31600314 -0.29064566 0.38318294 0.42567468 -0.31000593 0.124105774

lstm.bias_ih_l0 f4 [128]
00000000: 0653 173f cea0 ae3e f585 313e d517 233f
00000010: 5b35 e03e 5c01 5b3e 20b5 153f b51b a63e
00000020: 0f31 2d3f 484a f83e 0678 573e 8900 213f
00000030: 0430 7e3e 87fa 563e 86e8 a63d ab36 b53e
00000040: b81e ea3e 01de e53e a29a ad3c c3ff 9e3e
00000050: ad43 923e 4722 013f f1cb 513e 08cd 943e
00000060: fb6b ae3e 2189 753d d5ec 403f 36d6 273f
00000070: 0f01 a93e 0de9 023d e264 873e 7e8c 5d3e
00000080: 23bb 69bd aa64 113d 0223 bd3e 0591 863d
00000090: 3090 d63d a5cd ed3e 1601 6c3e 394a f53d
000000a0: a636 343c f898 773e 3903 a03c 241a 5ebe
000000b0: 583f 253e ddb5 d63d 08d1 c83d c5b0 733e
000000c0: b775 603e fdfa 033e 19ec e6bc d79d 973e
000000d0: 9a4f 4d3d 5978 833e 77e9 8d3e 7761 9c3e
000000e0: d699 ab3e 1c28 533e bac9 9ebb e495 073f
000000f0: 720b 9e3c ba13 4c3e 6225 8c3b a3e6 e63e
00000100: 6a10 933d cca6 36bd 5c8c 79be 911a dd3d
00000110: c9f3 473b 6802 32be fdcc 93bd c46f f23d
00000120: cea9 313e a274 c53c 8578 dc3d 8214 94bd
00000130: 3e97 c63d 3e28 543e a07d 5abd ff1b e63d
00000140: a48e b3bd 76bd 05be c213 dbbd 5e09 87bc
00000150: fdff 1e3e b6b3 af3d 31a0 2c3e 3d2d 803d
00000160: 98c7 713d 4c1d c53d 5261 353e 22f5 de3d
00000170: a3a3 ab3d 50a0 e3bc 53e3 5d3d 1b31 17be
00000180: 29b3 b33e 1662 a33e c688 933e 35f8 d03e
00000190: b81c bf3e b627 553e 15cd e73e 8ac8 083f
000001a0: f8be 873e ad32 c33e 1845 d63e b439 193f
000001b0: b26d 033e 3159 013f 2ed3 013d fc51 a33e
000001c0: f362 9a3e ba4c 993e b4b4 053e e7c2 e73e
000001d0: 598f 9f3e 3b24 f13e 2617 e23e 32e4 d73e
000001e0: 61fa 0c3d d80a ac3e 011b 0a3f e4d1 123f
000001f0: b5f0 6d3e ece2 3d3e b8b3 8f3e 33e1 9e3d
0.5911106 0.3410706 0.17336257 0.6370824 0.43790707 0.21387237 0.584795 0.32443014
0.6765298 0.48494172 0.21041879 0.6289144 0.24823004 0.20994006 0.08149819 0.3539327
0.45726562 0.44895938 0.021191899 0.31054506 0.28567258 0.5044293 0.20487954 0.29062676
0.34066758 0.05994523 0.75361377 0.65561235 0.3300862 0.031960536 0.26444155 0.21635625
-0.057063233 0.03549639 0.3694077 0.06570629 0.1047672 0.46445957 0.23047289 0.119770475
0.010999357 0.24179447 0.019532787 -0.2168966 0.16137445 0.104839064 0.098054945 0.23797901
0.21919905 0.12888713 -0.028188752 0.2961261 0.050124742 0.25677755 0.27717182 0.3054311
0.33515805 0.2062077 -0.004845825 0.5296309 0.019292567 0.199294 0.0042769173 0.45097837
0.07180865 -0.044592664 -0.24369949 0.10796083 0.0030510298 -0.1738373 -0.07216833 0.11837724
0.17349932 0.024103466 0.10765175 -0.07230474 0.09696816 0.20718476 -0.05334246 0.112358086
-0.08767441 -0.13060555 -0.10697128 -0.016483959 0.1552734 0.08579199 0.16857983 0.062586285
0.059028238 0.096247286 0.17712906 0.10886599 0.083808206 -0.027786404 0.05417187 -0.14764826
0.35097626 0.3191077 0.28815287 0.40814367 0.37326598 0.2081593 0.45273653 0.53431
0.26512885 0.381246 0.4184959 0.59853673 0.12834814 0.5052672 0.031695537 0.31898487
0.30153617 0.2994135 0.13057214 0.45265886 0.31164053 0.47097954 0.44158286 0.42166287
0.034418467 0.33602023 0.53947455 0.5735152 0.23236354 0.18543595 0.28066802 0.07757797

lstm.bias_hh_l0 f4 [128]
00000000: a458 d03e 2492 e83e 3398 423e 12a6 513f
00000010: 0811 283f 3257 eb3e 5886 103f 4900 b03e
00000020: 6b0c 2e3f dcf4 8b3e 93ec fe3e 539a 3d3f
00000030: 980d d0bc d977 0b3d 72a4 be3d 57ff 1f3e
00000040: 18fb 293f 5f2e fe3e 7e05 783e dfd8 c13e
00000050: 2a47 0d3f ac92 863e 57a4 063f 74bc d13e
00000060: c3b7 f83d b5a6 a73e 952a f73e e880 5e3f
00000070: 55c1 103e ecc6 763e da9e 9b3e fa5e 783e
00000080: 4fdc 28bd 5aeb 813e 8acb 413e d0ff 383d
00000090: 74ae 5d3e e0c3 193e f6c4 673e 4c12 aa3e
000000a0: a128 b13d db4b 823e 0ff7 343e ce64 25be
000000b0: fd0b 0a3d 0ae2 683e 3604 af3d 3fda 8c3e
000000c0: 6582 86bc fc0c 8f3e 3fe1 e7bc c115 a93d
000000d0: 16cd 813e 240a 2f3d 3dfc a63d 3aa0 b93e
000000e0: e829 963e 87da 4dbd 82af adba b94d 893e
000000f0: 990d 4d3d 1ade 293e 9e7a 3e3e 53dc 6b3e
00000100: e57a 263e 50b6 2d3e 5c33 1cbe 8ee8 8f3e
00000110: b7cd 1b3e 0f42 8bbd 5154 b5bd 4eb1 f6bd
00000120: 5e66 abb9 a378 bd3d 89a3 9b3d 766d 9ebd
00000130: 653c 14be be1a 123e 0ca7 42bd ce73 003b
00000140: 9d4e 2fbe 4f9a dcbd d64e e1bd a0ca 253b
00000150: a542 15be 2e15 bb3d f11a c43d 208c afbd
00000160: 7729 723a e0d7 723d 09a6 3c3d 4c3c d2bd
00000170: 522a 073e a0c5 ef3d f03a 1c3e eb77 1fbe
00000180: 2fc3 d03e 944f fd3e 1806 c43e 625d 283f
00000190: f802 ee3e 8a8a 453e 0903 a73e b07e 9d3e
000001a0: 5c72 d43e c9ae c13e a0fa e33e 4eb3 123f
000001b0: 3c9e eb3d 46b5 a53e 08d7 0e3c eb7c 913e
000001c0: 8f37 c83e 7c75 b63e 5d60 a13e 7957 f63e
000001d0: 09ee f63e 2b5b eb3e 0c32 cd3e c064 f63e
000001e0: 71de 6a3d a4c4 dc3e 94f4 1a3f 92b0 af3e
000001f0: ab90 313e 3c9c 463e 3a17 873e 5747 d43d
0.40692627 0.45423996 0.19003372 0.8189403 0.6565099 0.45964962 0.5645499 0.34375218
0.679877 0.2733525 0.49789867 0.74063605 -0.025397107 0.034049843 0.09308709 0.15624748
0.66398764 0.49644753 0.24220845 0.37860772 0.5518671 0.26283777 0.5259451 0.4096409
0.12144425 0.32744375 0.48274675 0.86915445 0.1413625 0.2409932 0.30394632 0.2425498
-0.041225728 0.25374871 0.189253 0.045165837 0.2164858 0.15016127 0.22633728 0.33217084
0.086503275 0.25448498 0.1767237 -0.16151735 0.03370284 0.22742477 0.08545725 0.2751026
-0.016419599 0.27939594 -0.028305648 0.08256102 0.2535178 0.04273428 0.081535794 0.36255056
0.29328847 -0.050257232 -0.0013251158 0.2681711 0.050061796 0.16588631 0.18601462 0.23033266
0.16257818 0.16964078 -0.15253967 0.28107113 0.15215193 -0.06799709 -0.08853973 -0.12045537
-0.0003269193 0.09251525 0.07599551 -0.07735722 -0.14476164 0.14268014 -0.04752259 0.0019600275
-0.17119832 -0.107716195 -0.11001365 0.0025297776 -0.14576204 0.09134899 0.09575451 -0.085716486
0.0009237746 0.059287906 0.04605678 -0.10265407 0.13199738 0.11707616 0.15256858 -0.15573089
0.40773913 0.49474776 0.382859 0.6576749 0.4648664 0.1929113 0.32619503 0.30760717
0.414935 0.37828663 0.4452715 0.5730485 0.1150479 0.32364863 0.00871826 0.28415617
0.39104888 0.35636508 0.31518832 0.4811361 0.4822848 0.45967993 0.40077245 0.4812374
0.057341043 0.43118775 0.60529447 0.343144 0.17340343 0.19395536 0.26384908 0.103651695

fc.weight f4 [1, 32]
00000000: dbe9 813f 8962 84bf f76a 89bc 4b51 963f
00000010: 80f2 ff3f 6bd8 c23e e360 b93e e459 503f
00000020: 3f7f c1bf 5970 babe 1782 2c3f a925 bebf
00000030: 57ac 67be 6c1c c4bf dbb8 9bbf d401 2dbf
00000040: 675b 80bf f30b 743e 773d 143f 7ffb 9f3f
00000050: 287c bfbf 9d5f 3b3f f89a 303f 7656 4ebf
00000060: 0dfd 0abf 0bf1 f83e c39e 56bf 5f43 933f
00000070: 2c0b bfbe 5498 ebbe 6707 7fbf 0959 acbf
1.0149492 -1.034257 -0.016774638 1.1743559 1.999588 0.3805574 0.3620673 0.8138716
-1.5116957 -0.3641384 0.67386 -1.4855243 -0.22624336 -1.5321174 -1.2165788 -0.67580914
-1.0027894 0.23832683 0.5790629 1.2498626 -1.4959764 0.7319277 0.68986464 -0.8060068
-0.54292375 0.486214 -0.83836 1.1504935 -0.3731321 -0.46014655 -0.9962067 -1.3464671
