fut_opt_lih_features_prepare/bm_fut_lih_vol_02.pth (torch, 26418 bytes, 6 tensors)

embedding.weight f4 [57, 8]
0	0xbf4cee37	-0.80050987
1	0x3ef03b57	0.46920273
2	0x3f522875	0.8209298
3	0xbfbef953	-1.4919838
4	0xbdb98ddd	-0.090602614
5	0x3e8e05a9	0.27738693
6	0xbf34f2fd	-0.7068327
7	0xbf4f67f7	-0.8101801
8	0x3f5fccb7	0.87421745
9	0xbf1b00e8	-0.6054826
10	0xbf981d85	-1.1884009
11	0xbec951eb	-0.3932031
12	0x3f293950	0.66103077
13	0x3f8ef2cb	1.1167845
14	0x3e81c6a7	0.25346872
15	0x3f7aab41	0.9791756
16	0xbfe6dca2	-1.8036082
17	0xbf01c04e	-0.5068406
18	0x4004beb9	2.0741408
19	0xbee566a2	-0.44804865
20	0x3db47d38	0.08812946
21	0x3f6edc2b	0.933047
22	0x3f6f89e4	0.9356978
23	0xbf7cfd2b	-0.98823804
24	0xbdfd508f	-0.12368881
25	0x3c80275d	0.01564377
26	0xc002c2ab	-2.0431316
27	0xbf0e73e6	-0.55645597
28	0xc0016b10	-2.0221596
29	0x3f334f70	0.70043087
30	0xbfc05d14	-1.5028405
31	0xbf9461f4	-1.1592393
32	0xbe1b851e	-0.15187499
33	0xbe90301b	-0.28161702
34	0x3f007e93	0.50193137
35	0x4020532f	2.5050771
36	0x3f6d9556	0.92805994
37	0xbf2daac9	-0.6783872
38	0xbf248824	-0.64270234
39	0xbf479170	-0.77956295
40	0xbfb0e170	-1.3818798
41	0x3fa3c37a	1.279403
42	0x3fd0feba	1.6327736
43	0xbf962a9b	-1.1731752
44	0xbea40546	-0.32035273
45	0xbe68cffc	-0.2273559
46	0x3f23c4d1	0.63972193
47	0x3e74cd07	0.23906337
48	0xbdc7e520	-0.09760499
49	0xbf2d49ca	-0.6769072
50	0x3d752deb	0.059858244
51	0xbf19a801	-0.6002198
52	0xc0551ed2	-3.3300061
53	0xbf8f377f	-1.1188811
54	0x3cb7e1f7	0.022446616
55	0x3f022204	0.50833154
56	0x3fd010e0	1.625515
57	0x3dab9019	0.08377094
58	0xbeeaeb6b	-0.45882735
59	0xc009c8de	-2.152885
60	0x3f9dba4f	1.2322482
61	0xbee9fa54	-0.45698798
62	0xbeb2410a	-0.34815246
63	0x3f68b758	0.9090476
64	0x3d6c06a5	0.057623524
65	0x3e78aa8a	0.24283805
66	0xbebcb24c	-0.3685478
67	0x3f67aef2	0.9050132
68	0xbf91a8bf	-1.1379622
69	0xbfb3fac7	-1.4060906
70	0xbf18464e	-0.59482276
71	0xbf1d6995	-0.6148923
72	0xbf5e781f	-0.8690204
73	0x3fc4648d	1.5343186
74	0x3ee041d6	0.4380023
75	0x3c9799d6	0.018505972
76	0xbef64515	-0.4809958
77	0xbf2b8fe4	-0.67016435
78	0xbfb339d9	-1.4002029
79	0x3f7c719a	0.9861084
80	0xc00d4422	-2.2072835
81	0x3edcc4bd	0.4311885
82	0x3f29cc27	0.66327137
83	0x3ee19319	0.4405754
84	0xbd1e18e4	-0.038597956
85	0xbf728b09	-0.947434
86	0x3feee3df	1.8663291
87	0x3f87a38f	1.0596789
88	0xbe8e19c3	-0.2775403
89	0xbcb01ca3	-0.02149803
90	0x3f510f83	0.81664294
91	0x3f9779d2	1.1834052
92	0xbf25cc19	-0.64764553
93	0xbd0007c2	-0.0312574
94	0x3f080cd0	0.5314455
95	0x3fdc07b9	1.7189857
96	0xbf3890e0	-0.7209606
97	0x3f5047ba	0.81359446
98	0x3f83c359	1.029399
99	0xbf892b95	-1.0716425
100	0x3e81ff38	0.2539003
101	0x3e213cb9	0.1574582
102	0xbf2c3fd2	-0.6728488
103	0x3edaa60a	0.42704803
104	0x3e367cbd	0.17821021
105	0x3ff11f67	1.8837708
106	0xbf880dc9	-1.0629207
107	0x3ff753ae	1.9322412
108	0x3ec68929	0.3877652
109	0xbe30c1f4	-0.17261487
110	0x3ef90a6f	0.48640773
111	0xbfa6dbcb	-1.3035825
112	0xbf949ccf	-1.1610354
113	0xbe780a2b	-0.24222629
114	0x3f30d638	0.6907687
115	0x3e1a78e1	0.15085174
116	0xbf11917a	-0.56862605
117	0xbf180720	-0.5938587
118	0x3ed7bc11	0.4213567
119	0x3f2611fc	0.6487119
120	0xbf8066fc	-1.0031428
121	0x3f8f199a	1.1179688
122	0xbfae8cf4	-1.3636765
123	0x3ed5b0c1	0.41736415
124	0xbf1f6dfe	-0.6227721
125	0x3f46b3b2	0.77617943
126	0x3e824639	0.254442
127	0x3f854bc2	1.0413744
128	0x3ede1eca	0.43382865
129	0x3c4ac55c	0.012376156
130	0x3f31ac33	0.6940338
131	0xbf3b162e	-0.7308072
132	0xbeef9364	-0.46792138
133	0xbf53330b	-0.8249976
134	0xc000eccb	-2.0144527
135	0xbf74a8f2	-0.9557029
136	0x3fa07ef0	1.2538738
137	0xbfc1c5ed	-1.5138527
138	0xbe8142a4	-0.25246155
139	0x3f2d381b	0.67663735
140	0x3e2f09c0	0.17093563
141	0xbfd2a03f	-1.6455153
142	0xbf9b10b3	-1.2114471
143	0x3fa300b9	1.2734596
144	0x3edfd8d4	0.43720114
145	0x3e173f9d	0.1477036
146	0x3f6b13a9	0.91826874
147	0xbfb3e911	-1.4055501
148	0x400394cd	2.055957
149	0xbf0c26d0	-0.54746723
150	0x3f9cb3a4	1.2242322
151	0x3eae886a	0.3408845
152	0x3e725ac6	0.2366744
153	0xbecd0de9	-0.40049675
154	0xbf1920b9	-0.59815556
155	0xbd5b48dc	-0.05353628
156	0x3f490767	0.7852692
157	0xbf8f4567	-1.1193055
158	0xbf0e54f7	-0.55598396
159	0x3e899e5d	0.26878634
160	0x3f520e1f	0.820528
161	0xbf9b7f3a	-1.2148201
162	0xbd4df260	-0.050279975
163	0x3e73c53c	0.23805708
164	0x3fc30c89	1.52382
165	0xbeb0a227	-0.34498712
166	0x3de470dd	0.111543395
167	0xbf4885c4	-0.7832911
168	0xbf2971eb	-0.6618945
169	0xbf2500fa	-0.64454615
170	0xbf3ae1c5	-0.73000747
171	0x3e10e409	0.14149489
172	0xbf546c6e	-0.8297795
173	0xbe880a32	-0.26570278
174	0x3f81ea48	1.0149622
175	0x3e6fd5e1	0.23421432
176	0xbeef9b9a	-0.46798402
177	0xbf617fe3	-0.88085765
178	0x3f6117c0	0.87926865
179	0x3ea050e1	0.31311706
180	0x3f4f7042	0.81030667
181	0xbf2ff249	-0.6872907
182	0x3e5bf424	0.21479851
183	0x3fbe82bf	1.488365
184	0x3eca93b0	0.39565802
185	0x3f4b1ebe	0.79343784
186	0x3fc33676	1.5250995
187	0xbf282d65	-0.65694267
188	0xc0046b97	-2.0690668
189	0xbfafd8d9	-1.3738052
190	0xbf82f617	-1.0231351
191	0x3d922ef5	0.071378626
192	0xbea64b96	-0.32479542
193	0x3e8b3330	0.2718749
194	0xbf9e754c	-1.2379546
195	0x3f581fac	0.8442333
196	0x3fad0b7a	1.3519127
197	0xbf721d82	-0.94576275
198	0xbfc96c58	-1.5736189
199	0xbe347e28	-0.1762625
200	0xc03152be	-2.7706752
201	0xbde267a4	-0.11054924
202	0x3f6225d3	0.88338965
203	0x3f4a7799	0.7908874
204	0x3f3916f9	0.7230068
205	0x3f273093	0.65308493
206	0xbc8841ce	-0.01663294
207	0xbe831d0e	-0.25608104
208	0x3f28b72a	0.65904486
209	0xbf519e8d	-0.81882554
210	0xbf801d2c	-1.0008903
211	0xbf697710	-0.911973
212	0xbf15f90e	-0.5858315
213	0xc04bc6d9	-3.1840117
214	0x3e900eeb	0.28136382
215	0xbf7d5ae5	-0.9896682
216	0xbf8bd31a	-1.0923798
217	0xbfd0f529	-1.6324817
218	0xbf0dc7c2	-0.5538293
219	0x3f94d7e9	1.162839
220	0xbe9fcebc	-0.31212413
221	0xbf65c0db	-0.897474
222	0x3fda7f79	1.7070152
223	0x3e541272	0.20710161
224	0x3ed1eb85	0.41
225	0x3f36bc32	0.71380913
226	0x3fb2f5c6	1.3981254
227	0xbe46d901	-0.19418718
228	0xbcb81084	-0.022468813
229	0xbf01072f	-0.50401586
230	0x3ec0fac1	0.3769131
231	0xbefdfbdc	-0.49606216
232	0xbfb2ff75	-1.3984209
233	0xbdd22539	-0.10261006
234	0xbdc6d2be	-0.09708165
235	0xbf59cf4f	-0.8508195
236	0xbe73ff9d	-0.23827977
237	0x3e8d8350	0.27639246
238	0xbeb16973	-0.34650764
239	0x3fb4618f	1.4092273
240	0xbf30d7fb	-0.6907956
241	0x3f8fac04	1.122437
242	0xbf2eb088	-0.68238115
243	0xbf395d3b	-0.72407883
244	0xbf2cbd31	-0.67476183
245	0x4003cbd2	2.0593152
246	0x3f3687dc	0.71301055
247	0x3e63a52f	0.22230981
248	0x3ed1aa74	0.40950358
249	0xbeb6e9e3	-0.35725316
250	0xbed00ddf	-0.40635583
251	0x3d2e65ac	0.04257743
252	0x3f0f4b78	0.5597453
253	0xbf3e8e19	-0.74435574
254	0x3d2b1bc0	0.04177451
255	0xbf1523ed	-0.58257943

lstm.weight_ih_l0 f4 [128, 8]
0	0xbe0750b2	-0.13214377
1	0x3e230cd9	0.1592287
2	0xbd5dfc48	-0.054195672
3	0x3d7b91c7	0.06141832
4	0x3e637efd	0.22216411
5	0x3d9012c1	0.07034827
6	0xbd3aa490	-0.045567095
7	0x3d1a62b4	0.037691787
8	0x3dc8db8b	0.098074995
9	0xbe7c930c	-0.24665469
10	0x3e84c1e1	0.25929168
11	0xbe4a75fe	-0.19771573
12	0x3df21d3d	0.11821983
13	0x3dbf8e69	0.093533345
14	0x3e9d6961	0.3074446
15	0x3d7b6b32	0.061381526
16	0xbc110504	-0.0088512935
17	0xbe57b40a	-0.21064773
18	0xbd945ebb	-0.07244631
19	0xbe296926	-0.16544017
20	0x3ab72704	0.001397342
21	0xbc90c887	-0.017673744
22	0xbe9a14df	-0.30094048
23	0x3cfb4a80	0.030675173
24	0x3ef4a59e	0.47782606
25	0xbea9f84d	-0.3319725
26	0xbe32e445	-0.1746989
27	0xbe162e8b	-0.14666192
28	0xbe2e4271	-0.17017533
29	0xbd18aa13	-0.03727157
30	0x3de59990	0.1121093
31	0xbe7e2eff	-0.24822615
32	0x3d54092c	0.05176656
33	0xbcac1c9b	-0.021009734
34	0x3e6b83bc	0.22999471
35	0x3ba103ed	0.004913798
36	0xbdf5411f	-0.119753115
37	0xbe576de3	-0.21038012
38	0x3e726f84	0.23675352
39	0xbe09e739	-0.1346711
40	0x3e194345	0.14967068
41	0xbe26e9d5	-0.16300137
42	0x3e6b7d6d	0.22997065
43	0x3e862159	0.26197317
44	0xbda67aa6	-0.08128862
45	0xbda4db23	-0.080496095
46	0x3df36fdb	0.11886569
47	0x3c4f832c	0.012665551
48	0xbdcca04a	-0.0999151
49	0x3e1db21f	0.15399979
50	0x3e3ac10c	0.18237704
51	0xbd410051	-0.047119442
52	0xbe49f014	-0.19720489
53	0x3db1a5eb	0.086742245
54	0xbda5aba5	-0.08089379
55	0x3df9cc4a	0.12197168
56	0x3e0bcf8e	0.13653395
57	0x3e28fcf9	0.16502751
58	0x3d904662	0.070446745
59	0x3e14bc86	0.14525041
60	0x3cec3397	0.028833194
61	0xbe16a231	-0.14710309
62	0x3e524b4a	0.20536533
63	0x3e0fd02d	0.14044257
64	0x3d86515f	0.06558489
65	0xbe05a841	-0.13052465
66	0x3e0364f9	0.12831487
67	0x3d6f56e3	0.05843247
68	0x3bd1f4fd	0.0064073787
69	0xbe55d7b1	-0.20883061
70	0xbe2dcc44	-0.16972452
71	0x3e03a92a	0.128575
72	0x3da1e1bd	0.07904384
73	0xbe72c75b	-0.2370886
74	0x3e2ad920	0.16684389
75	0x3e91a241	0.28444102
76	0x3d9dd5e3	0.07706811
77	0xbe40374a	-0.18771091
78	0x3ee58025	0.4482433
79	0x3de93582	0.11387159
80	0xbe849c9e	-0.2590074
81	0x3d251429	0.04030243
82	0x3df693aa	0.120398834
83	0x3e851638	0.25993514
84	0x3d0f3884	0.034966007
85	0x3e692b2a	0.22770372
86	0x3ceebe99	0.029143618
87	0xbe027f2b	-0.12743823
88	0x3e021319	0.12702598
89	0x3dee4e88	0.116360724
90	0xbde24a9d	-0.110493876
91	0x3dd4decb	0.10394057
92	0x3e068b6c	0.13139123
93	0xbe01ec67	-0.12687837
94	0xbca642cb	-0.020295521
95	0x3e200c06	0.15629587
96	0xbe614189	-0.21997656
97	0x3dc721a8	0.09723216
98	0x3e036047	0.12829696
99	0xbe2e3f81	-0.17016412
100	0xbb8006fe	-0.0039070835
101	0x3e37b16a	0.17938772
102	0xbe39102b	-0.18072574
103	0xbdf447b1	-0.119277366
104	0xbd967d1b	-0.07348081
105	0x3e992f03	0.2991868
106	0xbe0227f3	-0.12710552
107	0x3dfb6550	0.12275183
108	0xbd453244	-0.04814364
109	0x3cb40155	0.021973291
110	0xbde73157	-0.11288708
111	0xbd014743	-0.0315621
112	0xbe31d3bd	-0.17365928
113	0xbdb252db	-0.0870721
114	0x3cc9ce4a	0.0246345
115	0xbda9fb78	-0.08299917
116	0x3ea85169	0.3287461
117	0xbd355dbe	-0.044278853
118	0x3dad2c25	0.084556855
119	0xbe362159	-0.17786159
120	0xbe508866	-0.20364532
121	0xbe686720	-0.22695589
122	0x3da31172	0.07962312
123	0x3d7349b8	0.059396476
124	0x3e8fc862	0.28082567
125	0xbea016be	-0.3126735
126	0xbc3f922f	-0.011692568
127	0xbc863b9f	-0.016385851
128	0xbeb2e002	-0.3493653
129	0x3e3e4fde	0.18585154
130	0xbce50c4a	-0.027959961
131	0x3d17e7b3	0.0370862
132	0xbd01ac8b	-0.03165869
133	0x3ddafd4c	0.10692844
134	0x3cedcc23	0.029028004
135	0xbddd2409	-0.10797889
136	0xbd83b096	-0.064301655
137	0x3e3a5d52	0.18199661
138	0x3e00e623	0.1258779
139	0xbe0942f0	-0.13404441
140	0x3e74d648	0.23909867
141	0x3df84d5d	0.12124131
142	0xbe2d5e29	-0.1693045
143	0xbe2a8197	-0.16650997
144	0x3e423308	0.1896478
145	0xbe01f3e3	-0.12690692
146	0xbdf1f44e	-0.118141755
147	0xbe803ed2	-0.25047928
148	0xbe684c17	-0.22685276
149	0x3d8ebcb4	0.06969586
150	0x3db74370	0.089484096
151	0xbe655be3	-0.22398333
152	0xbe034bad	-0.12821837
153	0x3e717214	0.23578674
154	0xbcb085b3	-0.021548128
155	0xbd892318	-0.06696147
156	0x3d9c09ad	0.07619033
157	0xbd4495b0	-0.047994316
158	0xbe442c45	-0.19157512
159	0x3e18fed2	0.14940956
160	0xbe34b04c	-0.17645377
161	0x3d96c464	0.07361677
162	0x3e4252d6	0.18976912
163	0x3e92b5b9	0.28654268
164	0x3d999aa7	0.07500201
165	0x3e60e6e0	0.21963072
166	0x3e089030	0.13336253
167	0xbe43896e	-0.19095394
168	0x3e34c4c5	0.17653187
169	0x3dc948ff	0.09828376
170	0xbb968c0a	-0.0045943307
171	0xbbd10d6f	-0.0063797752
172	0x3e87a3ad	0.26492062
173	0xbdd9dc0c	-0.10637674
174	0x3dcedaa3	0.101002954
175	0x3e47b652	0.19503143
176	0xbe6b49c8	-0.22977364
177	0x3e275029	0.16339172
178	0xbde560b0	-0.11200082
179	0xbeb1200c	-0.34594762
180	0xbd928afe	-0.07155417
181	0xbde15cb8	-0.11004013
182	0xbe29b1b9	-0.16571702
183	0x3e7dfc65	0.24803312
184	0xbdf290cd	-0.11844025
185	0xbe98238a	-0.29714614
186	0x3e2ac480	0.16676521
187	0xbe68f9ba	-0.22751513
188	0x3d7a62c3	0.061129343
189	0xbe1e5556	-0.1546224
190	0xbd7738d4	-0.06035693
191	0x3cf19516	0.029490035
192	0x3e8d16f1	0.27556565
193	0xbddc3246	-0.107517764
194	0xbe4b87bd	-0.19875999
195	0xbd47d7ed	-0.048789907
196	0xbe43c7cd	-0.19119187
197	0xbe35b3ca	-0.17744365
198	0x3de87d1a	0.11351986
199	0x3e3e3853	0.18576173
200	0x3d95bebe	0.07311772
201	0xbd50ab9a	-0.050944902
202	0x3d199e01	0.0375042
203	0xbd72b038	-0.059250087
204	0xbcc73046	-0.02431501
205	0xbdf8f0f3	-0.121553324
206	0x3e2aeab7	0.16691099
207	0x3db41543	0.08793118
208	0x3d8c8fef	0.06863391
209	0x3d48497d	0.04889821
210	0xbc978ec3	-0.018500691
211	0x3af55826	0.0018718287
212	0xba3dec00	-0.00072449446
213	0xbd9e1ef0	-0.077207446
214	0x3e4a3f14	0.19750625
215	0x3e786467	0.2425705
216	0xbec98183	-0.39356622
217	0x3d6fa76c	0.058509275
218	0x3e726c71	0.2367418
219	0x3e55c4ff	0.2087593
220	0x3ec0d9f4	0.37666285
221	0x3e5c4136	0.21509251
222	0x3e9410ed	0.28919163
223	0x3e077aa5	0.13230379
224	0x3e23c93a	0.1599473
225	0x3d4eaa5f	0.050455447
226	0x3d0b74ba	0.034046866
227	0x3e01c4c2	0.12672713
228	0x3d5b9043	0.053604376
229	0x3c5d03a7	0.01348964
230	0x3d481255	0.048845608
231	0xbe09a20f	-0.13440727
232	0xbc3836d0	-0.011243537
233	0xbd5381d3	-0.051637482
234	0x3dc5411a	0.09631558
235	0x3dee72a0	0.11642957
236	0xbe2113b8	-0.15730178
237	0xbe5ccdb3	-0.21562843
238	0x3c9f77ba	0.01946627
239	0xbde5696d	-0.11201749
240	0xbdb9c9c3	-0.09071686
241	0xbe440891	-0.19143893
242	0x3e0cca2a	0.13748994
243	0xbe26cfb2	-0.16290167
244	0x3db3d476	0.08780758
245	0x3ce8f4be	0.028437015
246	0xbd7d0120	-0.06176865
247	0x3e19ded7	0.15026413
248	0xbe662cbb	-0.22478001
249	0x3e0f7177	0.14008127
250	0x3e95cb91	0.2925687
251	0x3d779879	0.060448144
252	0x3eb525ca	0.35380393
253	0x3c827e0a	0.01592924
254	0x3e46dc1a	0.194199
255	0xbdd21aa9	-0.10258991

lstm.weight_hh_l0 f4 [128, 32]
0	0x3e2af2c2	0.16694167
1	0x3d1fe4ef	0.039036687
2	0x3dfecdef	0.124416225
3	0xbe07a3b7	-0.13246046
4	0xbde764eb	-0.112985454
5	0xbdb25b67	-0.0870884
6	0xbdb0173b	-0.08598181
7	0x3d96b017	0.07357805
8	0xbd625472	-0.055256315
9	0xbe173fdf	-0.14770459
10	0xbe5d906f	-0.21637128
11	0xbe1b5cf4	-0.15172178
12	0xbe60705a	-0.21917859
13	0xbd9a1017	-0.075226
14	0xbc847980	-0.016171217
15	0xbbf08526	-0.0073400913
16	0xbe639241	-0.2222376
17	0xbda43426	-0.08017759
18	0xbb9e19c1	-0.0048248474
19	0x3dca0bf7	0.09865563
20	0xbdf15bff	-0.11785125
21	0x3d0b279e	0.03397333
22	0x3bbdfd92	0.00579805
23	0x3e3533b8	0.1769551
24	0x3e088499	0.13331832
25	0xbdab81a5	-0.08374337
26	0xbe4fad0a	-0.20280853
27	0xbd8d66cb	-0.06904372
28	0x3c8ff35c	0.017572097
29	0x3dd4983d	0.103806
30	0x3e09b737	0.13448797
31	0x3dd6fab8	0.104970396
32	0x3c7ebe42	0.015548291
33	0x3cd98a15	0.0265551
34	0xbd14dee2	-0.03634537
35	0xbdc1a2f6	-0.094549105
36	0xbe851823	-0.25994977
37	0x3cc2d662	0.023783866
38	0x3d89fa21	0.067371614
39	0xbe8ce837	-0.27520916
40	0xbdf71388	-0.12064272
41	0x3d683d92	0.056699343
42	0xbe6fa4d4	-0.2340272
43	0xbdc40307	-0.0957089
44	0x3d877597	0.06614225
45	0xbd3d1e87	-0.04617169
46	0xbe5a0cdd	-0.2129397
47	0xbde1ffbd	-0.11035106
48	0xbe161d67	-0.14659654
49	0x3e0bfb19	0.13670005
50	0x3ba395d6	0.004992227
51	0xbd8170ae	-0.0632032
52	0x3e4e02be	0.20118234
53	0x3e9511d6	0.2911517
54	0x3eb55e3a	0.35423452
55	0x3e7bcc65	0.24589689
56	0x3e227a1c	0.15866894
57	0x3e5124ea	0.20424238
58	0xbe65f3bb	-0.22456257
59	0x3b5c6b24	0.0033633197
60	0x3d1abc14	0.03777702
61	0xbe31634d	-0.17323036
62	0xbdff717e	-0.12472819
63	0xbdacfa41	-0.0844617
64	0xbd49595d	-0.04915749
65	0x3e04a6e3	0.12954287
66	0x3d9a4c15	0.07534043
67	0x3e5a3e63	0.21312861
68	0xbd858f65	-0.06521491
69	0xbe1b4a9f	-0.15165184
70	0xbd91b747	-0.071150355
71	0xbde32491	-0.11090959
72	0x3df811e3	0.121127866
73	0x3bc8d79c	0.0061292183
74	0x3ba2dbd3	0.0049700527
75	0xbe2b02e3	-0.1670032
76	0xbcab190f	-0.020885972
77	0xbc0fba00	-0.008772373
78	0x3e6bc16c	0.23023003
79	0x3e852869	0.26007393
80	0xbe3aa0bd	-0.1822538
81	0x3e73b3fa	0.23799124
82	0xbce7b065	-0.028282354
83	0x3ca52dbc	0.02016341
84	0xbeb78736	-0.35845345
85	0x3ddf4ce9	0.10903341
86	0xbdf83308	-0.121191084
87	0x3dc9c270	0.09851539
88	0x3e10504a	0.14093128
89	0xbd82f15b	-0.06393691
90	0x3e63c03c	0.222413
91	0x3ae0182e	0.001709705
92	0xbe7a0382	-0.244154
93	0x3bafd280	0.0053656697
94	0x3d543067	0.051803973
95	0x3eaf424f	0.34230277
96	0x3e426bc2	0.18986419
97	0xbd2df48a	-0.04246954
98	0xbde843e4	-0.11341074
99	0x3da516e2	0.08061005
100	0xbe019c32	-0.1265724
101	0x3e5fd09e	0.21856925
102	0x3e3bac6e	0.18327495
103	0xbe5e10a4	-0.21686035
104	0x3e53e8ae	0.20694229
105	0x3e8b46e1	0.27202514
106	0xbe03c225	-0.12867029
107	0xbd2638d6	-0.040581547
108	0x3d2d229f	0.042269345
109	0x3d1eb471	0.0387463
110	0xbe127d4d	-0.14305611
111	0x3e75e7d9	0.24014224
112	0xbe871217	-0.2638099
113	0xbcd7e44c	-0.026353978
114	0x3d55d118	0.05220136
115	0xbdde550c	-0.10856065
116	0x3e31b4c9	0.1735412
117	0x3cdf6643	0.027270442
118	0x3eb0911f	0.3448572
119	0x3e24e3f3	0.1610258
120	0x3eb682b8	0.35646605
121	0x3ea3aaad	0.31966153
122	0xbe0b4515	-0.13600571
123	0x3ee7eeca	0.4529937
124	0x3e53a4f8	0.206684
125	0xbe166642	-0.14687446
126	0xbc7d0beb	-0.015444736
127	0xbe2509a6	-0.16116962
128	0x3a78e1a6	0.00094940735
129	0x3e4a46a8	0.19753516
130	0xbd8075fb	-0.06272503
131	0xbc52a70d	-0.012857211
132	0x3d110778	0.035407513
133	0xbe216997	-0.15762936
134	0xbd1c4507	-0.038151767
135	0xbde8a689	-0.11359889
136	0x3d089535	0.03334542
137	0x3ddde09f	0.10833859
138	0x3dadc295	0.08484379
139	0xbd146340	-0.036227465
140	0xbe2a3e0f	-0.16625236
141	0xbc3fbfb2	-0.011703419
142	0x3d3d4535	0.04620858
143	0x3d8b6500	0.068063736
144	0x3d52bb21	0.05144799
145	0xbe135431	-0.14387585
146	0x3e237e78	0.15966213
147	0x3d403332	0.046923824
148	0x3e03868b	0.12844293
149	0x3e116ca9	0.14201607
150	0xbdad3817	-0.08457964
151	0x3d79e382	0.061007984
152	0x3e317c34	0.17332536
153	0x3de933e0	0.113868475
154	0xbe19bb38	-0.15012825
155	0xbcd4168d	-0.02588966
156	0x3d2d265c	0.04227291
157	0xbdd933e9	-0.10605604
158	0xbdcd0afc	-0.10011861
159	0x3e24f2f6	0.16108307
160	0x3de4061c	0.11133978
161	0xbebb74f0	-0.36612654
162	0xbcbc24f5	-0.022966841
163	0xbeadbb6d	-0.33932057
164	0xbeb91342	-0.36147505
165	0xbe0cddaa	-0.13756433
166	0x3eb4e4d1	0.35330823
167	0xbea6c3e5	-0.3257133
168	0xbccdfa5e	-0.025143798
169	0x39cfb228	0.00039614853
170	0xbdd29202	-0.10281755
171	0x3cdd05f4	0.026980378
172	0x3e2ab364	0.16669995
173	0xbd48045d	-0.048832286
174	0xbe2ec9eb	-0.17069213
175	0xbd37133b	-0.044696074
176	0xbebeab60	-0.37240124
177	0x3c8b70be	0.017021533
178	0x3e1cc7e7	0.15310632
179	0x3db67c51	0.0891043
180	0x3e7bf280	0.24604225
181	0x3ec156bd	0.3776149
182	0x3e354417	0.17701755
183	0x3e88cdc0	0.26719475
184	0x3e149153	0.14508562
185	0x3e159cf5	0.14610656
186	0xbe9e1663	-0.30876455
187	0xbaa93126	-0.0012908324
188	0x3e44299d	0.19156499
189	0xbdd456c5	-0.103681125
190	0xbcacdee9	-0.021102386
191	0xbe9a37a7	-0.30120584
192	0xbddf57ee	-0.10905443
193	0xbdfdc02e	-0.12390171
194	0x3c8cf6b1	0.017207475
195	0xbe4b658c	-0.19862956
196	0x3ced0629	0.028933601
197	0xbd707db3	-0.058713626
198	0x3d548598	0.051885217
199	0xbe5e266f	-0.21694349
200	0x3d41cb1e	0.04731285
201	0xbe51ddb5	-0.20494731
202	0xbeaed331	-0.341455
203	0xbe9ad478	-0.30240226
204	0x3e5b340b	0.21406572
205	0xbe718ecc	-0.23589629
206	0xbe8b306a	-0.27185374
207	0xbe2c4dba	-0.16826525
208	0xbe921d2d	-0.28537884
209	0x3d9d0778	0.0766744
210	0xbe1d08fd	-0.1533546
211	0xbdbc5eaf	-0.09197747
212	0xbd3d860b	-0.04627041
213	0x3e141f91	0.14465167
214	0x3db46862	0.08808972
215	0x3e3b1dcd	0.18273087
216	0x3e40d673	0.18831806
217	0x3df9f479	0.122048326
218	0x3d34b4ca	0.044117726
219	0x3cea48fd	0.028599257
220	0xbd56b71e	-0.052420728
221	0x3e119427	0.14216672
222	0xbe05ddad	-0.13072844
223	0xbe90344f	-0.28164908
224	0x3e4b53b6	0.19856152
225	0x3d886e9c	0.06661722
226	0xbca0ef38	-0.019645318
227	0xbe3ec317	-0.18629108
228	0x3e24d021	0.1609502
229	0x3e65ca16	0.22440371
230	0x3cc1060a	0.02356245
231	0xbcf321b7	-0.029679162
232	0x3d510011	0.051025454
233	0xbd8afc15	-0.06786362
234	0xbc33df24	-0.010978494
235	0x3e364e07	0.17803203
236	0xbdb6dfcc	-0.089294046
237	0xbc675999	-0.014120483
238	0x3c6b2a9f	0.014353423
239	0x3dc14fd3	0.094390534
240	0x3da6b9fd	0.08140943
241	0x3db261e9	0.08710081
242	0xbda62023	-0.08111598
243	0xbde308d2	-0.11085667
244	0xbdc640cd	-0.096803285
245	0x3e0f6008	0.14001477
246	0x3d9e63ff	0.077339165
247	0xba120955	-0.00055708486
248	0x3e12f551	0.14351393
249	0xbda30b9e	-0.079612
250	0xbc9dfff5	-0.019287089
251	0xbc5f4c94	-0.0136290975
252	0x3e02837b	0.12745468
253	0x3e89aab9	0.26888064
254	0xbdaee6ef	-0.08540141
255	0xbdf745c0	-0.12073851

lstm.bias_ih_l0 f4 [128]
0	0xbd8c24db	-0.06842967
1	0x3e70e209	0.23523726
2	0x3e2b39b1	0.16721226
3	0x3e54b3fc	0.20771784
4	0x3d121123	0.035660874
5	0x3e134cb3	0.14384727
6	0xbd934e4a	-0.07192667
7	0x3df2da78	0.11858076
8	0x3e2681e3	0.16260485
9	0x3e11ecac	0.1425044
10	0x3e5ff272	0.2186983
11	0x3e14aefe	0.14519879
12	0x3e18c86f	0.1492021
13	0x3e957aba	0.29195195
14	0x3e353210	0.17694879
15	0x3e436470	0.19081283
16	0x3cf75f19	0.030196713
17	0x3e470070	0.1943376
18	0x3e4d9529	0.20076431
19	0xbd92ea1a	-0.071735576
20	0xbcdb1e1f	-0.026747761
21	0xbb271260	-0.002549313
22	0xbd9ef39f	-0.07761311
23	0x3d959432	0.07303657
24	0x3defffd1	0.11718715
25	0xbd8490bd	-0.06472919
26	0x3d9c6182	0.07635786
27	0x3e959ae3	0.29219732
28	0x3d86fba7	0.065909676
29	0x3e17e2fd	0.14832683
30	0x3e2d963f	0.16951846
31	0x3d1ec25e	0.03875958
32	0xbd40fec4	-0.047117963
33	0xbe1de995	-0.15421136
34	0x3e62173d	0.22079177
35	0x3e14a6a1	0.14516689
36	0xbe38b30c	-0.18037051
37	0xbdbb86db	-0.09156581
38	0x3e6ce7e9	0.23135342
39	0xbd627818	-0.05529031
40	0x3e390fe9	0.18072475
41	0x3e5fdc7b	0.2186145
42	0x3e6f3552	0.23360184
43	0x3cb2bc71	0.021818371
44	0xbe2e2b4e	-0.17008707
45	0xbcd8b842	-0.026455048
46	0x3d83a435	0.064278044
47	0x3e508ff3	0.20367412
48	0x3e856a02	0.2605744
49	0xbc4cd61b	-0.012502219
50	0x3d845089	0.06460673
51	0x3d3cae34	0.04606457
52	0x3e4b3f92	0.19848469
53	0xbe149ff8	-0.14514148
54	0x3e45a216	0.19300112
55	0xbd763ec4	-0.06011845
56	0x3e1b9a27	0.15195523
57	0x3cd7cc8a	0.026342649
58	0x3e602895	0.21890481
59	0x3d204537	0.03912851
60	0xbd41733b	-0.047229033
61	0xbde1945d	-0.11014626
62	0x3e1c4dda	0.15264073
63	0xbd3f04b4	-0.046635345
64	0x3e0924ae	0.13392898
65	0xbd4a8881	-0.049446587
66	0x3dbb1fd0	0.09136927
67	0x3ca49351	0.020089777
68	0x3de7c167	0.113161854
69	0xbccd39c7	-0.025051964
70	0x3da308a7	0.07960635
71	0x3aae30d1	0.0013289695
72	0x3d7aaab6	0.06119796
73	0x3dc81db6	0.09771292
74	0xbdc6a4ac	-0.096993774
75	0xbd9382b0	-0.07202661
76	0x3d9ce905	0.076616324
77	0x3dfa7328	0.122289956
78	0x3dfc92e9	0.123327084
79	0x3dcb2890	0.09919846
80	0xbe1755a2	-0.1477876
81	0xbe1dd405	-0.1541291
82	0x3d808b27	0.06276541
83	0xbd4fdc22	-0.050747044
84	0xbdd6127f	-0.104527466
85	0x3dff9aec	0.12480721
86	0x3dbc7daa	0.09203656
87	0x3d9e7316	0.07736795
88	0x3d820a35	0.06349603
89	0x3dde149c	0.10843775
90	0xbddaaa18	-0.10676974
91	0xbbccaa7e	-0.00624591
92	0x3da1ea6a	0.07906039
93	0x3de10030	0.10986364
94	0xbe2c09de	-0.16800639
95	0x3db10b70	0.0864476
96	0x3e214348	0.15748322
97	0xbc829d29	-0.01594408
98	0xbd0a34ed	-0.03374188
99	0xbaf7b2b9	-0.0018897868
100	0xbd40f52f	-0.047108825
101	0xbd45b273	-0.048265886
102	0x3e258f2d	0.16167898
103	0x3e1c9ec5	0.15294941
104	0x3e26f3be	0.16303918
105	0x3ddc5b43	0.10759594
106	0xbd417a6f	-0.047235902
107	0xbd2811f0	-0.04103273
108	0x3e11727f	0.14203833
109	0x3d30c36d	0.043155123
110	0x3eb2158a	0.34782058
111	0x3e9f85a5	0.3115665
112	0x3cd3c603	0.025851255
113	0x3e3f50e7	0.18683206
114	0x3d098ec9	0.033583436
115	0x3df8e1eb	0.121524654
116	0x3e07aec0	0.13250256
117	0x3cf32ae2	0.029683534
118	0x3d4f477a	0.050605275
119	0x3d960ac1	0.0732627
120	0x3d1b4034	0.037903026
121	0x3dcfdac6	0.101491496
122	0x3daa860f	0.08326351
123	0x3dbf1f65	0.0933216
124	0xbca59027	-0.020210339
125	0x3e0ea297	0.1392921
126	0x3d2c90fd	0.04213046
127	0x3eaa7b15	0.3329703

lstm.bias_hh_l0 f4 [128]
0	0x3d59c486	0.053165935
1	0x3e0b4730	0.13601375
2	0x3eac052d	0.335977
3	0x3d1d4a2b	0.03840081
4	0x3de8f091	0.113740094
5	0xbc2c6795	-0.010522743
6	0x3e166d2f	0.14690088
7	0xbdaf4e12	-0.085598126
8	0x3e4abe68	0.19799197
9	0x3e5ad03b	0.21368496
10	0x3bde99dd	0.0067932443
11	0x3d578456	0.05261644
12	0xbc925e0e	-0.017867114
13	0x3e9551e8	0.29164052
14	0x3ec2fdb2	0.3808418
15	0x3ea487f1	0.32134965
16	0x3e8fc6cc	0.28081357
17	0x3e4f3500	0.20235062
18	0x3d6e36b5	0.05815764
19	0xbcf7434d	-0.030183459
20	0x3b7e831d	0.0038835474
21	0x3d6d687a	0.057960965
22	0xbcc2b2b2	-0.02376685
23	0xbcd11cdf	-0.025526462
24	0xbc03b63b	-0.008039053
25	0x3cdfd7e2	0.02732462
26	0x3e2b40a4	0.16723877
27	0x3dd96c3a	0.10616346
28	0xbcb87edb	-0.022521427
29	0x3e65d4b6	0.22444424
30	0xbc25d24c	-0.010120939
31	0x3dd03d19	0.101679035
32	0x3e092d55	0.13396199
33	0x3dee1479	0.116249986
34	0x3d2b27e2	0.041786082
35	0x3d9883f8	0.07447046
36	0xbe009a40	-0.12558842
37	0xbc2a216b	-0.010383944
38	0x3dd7a963	0.10530355
39	0xbccf8ba5	-0.025335142
40	0xbd283c9b	-0.041073423
41	0x3ddb4101	0.10705758
42	0x3e08f785	0.13375671
43	0x3de4eb2b	0.11177667
44	0x3d863bc5	0.06554369
45	0x3e1f81c5	0.15576847
46	0x3da51340	0.08060312
47	0x3ba6034b	0.0050663105
48	0x3d6c4433	0.057682227
49	0x3e052d82	0.13005641
50	0x3dd2378c	0.10264501
51	0xbdccecac	-0.10006079
52	0xbd48c7f2	-0.049018808
53	0xbc9a85a7	-0.018862559
54	0x3e3b821e	0.18311355
55	0x3e61b2f8	0.22040927
56	0x3decde60	0.11565852
57	0x3e4e0a26	0.20121059
58	0x3e7f5f0a	0.24938598
59	0x3e7150f0	0.23566031
60	0x3e434968	0.19070971
61	0xbe07ddfc	-0.13268274
62	0x3d93dd50	0.072199464
63	0x3d913693	0.07090487
64	0x3e22f4a6	0.15913638
65	0x3e3ecf88	0.18633854
66	0xbdc0fd7c	-0.09423348
67	0xbc0cfbb6	-0.008604934
68	0xbe0ab5a1	-0.13545848
69	0xbdfd9f75	-0.1238393
70	0xbdb1fbf1	-0.08690632
71	0xbdf099f5	-0.11748115
72	0xbd05c02e	-0.03265398
73	0xbd83f85e	-0.06443857
74	0x3a338960	0.00068487786
75	0xbe43458a	-0.19069496
76	0xbe0d3956	-0.13791403
77	0xbcd7f38b	-0.026361248
78	0xbdf6b08a	-0.12045391
79	0xbd36e6e6	-0.044653796
80	0xbda6795a	-0.08128615
81	0x3dc34e5a	0.09536429
82	0x3d577429	0.052601013
83	0xbe29c509	-0.16579069
84	0x3d627472	0.055286832
85	0x3cf4fb4a	0.02990498
86	0xbd8edc0e	-0.06975566
87	0x3e20b30a	0.15693298
88	0xbd0fac5b	-0.03507648
89	0x3dd386d8	0.10328454
90	0x3e384327	0.17994367
91	0x3c8618fb	0.016369333
92	0xbe3134eb	-0.17305343
93	0x3e1d52bc	0.15363592
94	0xbc0fd161	-0.008777947
95	0x3e190971	0.14945008
96	0x3e245680	0.16048622
97	0x3e511a30	0.20420146
98	0x3e876919	0.2644737
99	0x3ea2b5ab	0.31779227
100	0x3e4f4d9f	0.20244454
101	0xbd63db0b	-0.055628818
102	0x3d2130b6	0.039353095
103	0x3d3e7d70	0.046506345
104	0x3e310b50	0.17289472
105	0x3d295860	0.041344047
106	0x3e980ab7	0.29695675
107	0x3e384bc9	0.1799766
108	0x3e6e21c7	0.23255073
109	0x3e4bd45f	0.19905232
110	0x3e4a5c5d	0.19761796
111	0x3d7a5197	0.061112966
112	0x3e228e45	0.15874584
113	0x3d829dc9	0.063777514
114	0x3e7abc87	0.2448598
115	0x3d95a1f7	0.07306283
116	0x3e1d2639	0.15346612
117	0xbb5ab775	-0.003337351
118	0x3e817a1b	0.25288472
119	0xbc945234	-0.018105604
120	0xbdaf038c	-0.085455984
121	0xbdb33726	-0.08750753
122	0x3e0c766c	0.1371705
123	0x3e7f3f78	0.24926555
124	0xbc50b353	-0.012738067
125	0x3b95978c	0.004565185
126	0x3e3f4b8d	0.18681164
127	0x3e6cee19	0.23137702

fc.weight f4 [1, 32]
0	0xbe2c3965	-0.1681877
1	0x3d63f536	0.055653773
2	0xbe767082	-0.24066356
3	0x3b99650a	0.0046812342
4	0x3e4022d0	0.1876328
5	0xbe7fa49e	-0.2496514
6	0x3e52c41f	0.20582627
7	0x3e25d401	0.16194154
8	0xbe83ace4	-0.25717843
9	0xbdcb5bb6	-0.09929602
10	0x3e2cba2e	0.16867897
11	0xbe854757	-0.2603099
12	0xbe248877	-0.16067682
13	0xbe2acd1c	-0.16679806
14	0x3e60d0f2	0.21954706
15	0xbbaf74ac	-0.0053544845
16	0xbe10afab	-0.14129512
17	0xbe774565	-0.24147566
18	0x3dde6d31	0.1086067
19	0x3e153a3c	0.14572996
20	0xbe5f70bb	-0.21820347
21	0xbe65e554	-0.22450763
22	0x3e8a735c	0.27041137
23	0x3dd7f609	0.10544974
24	0x3e5cdcc5	0.21568592
25	0x3cfc15c9	0.030772107
26	0xbe2e9389	-0.17048468
27	0xbe608191	-0.21924426
28	0xbe176032	-0.1478279
29	0x3e659e43	0.22423653
30	0xbe4a898b	-0.19779031
31	0x3e0ec40c	0.13941973
